checkpoints/mut/model_Mutagenicity.pt_l2_emb64_hid64_netot0.1.pt (torch, 81428 bytes, 9 tensors)

virtual_embedding f4 [64]
00000000: aa79 2d3f cc8e 233e 730b 7b3e 34ce 593f
00000010: d5bf 093f 8379 443f 7153 353e fe71 633f
00000020: eef6 473f e187 333f 6924 0d3f aef1 433f
00000030: 388e dc3e 9aef e1bd ea6f 3c3d e9df 333e
00000040: ce95 383e b299 933e efd3 103f 155c b13e
00000050: 0ba0 2f3e fd60 7c3e 95ed 633e 7223 443f
00000060: a9ff 173f bc2e 673f 5445 393f a67b 2f3f
00000070: 2151 2d3e 0a54 e43e 6997 3b3f cbc6 4b3f
00000080: bc5b a53e 6231 193f 419c a7bc fc9f 5e3f
00000090: 9192 2f3e 6828 da3d ed43 1a3f dd2b f93e
000000a0: 9b03 f53e b850 b03e 2c4d 823f e0fd 3a3e
000000b0: ea7a 273f d35a 3abe 16d4 4e3f fb78 493f
000000c0: c602 a93d 084d a03e ac21 483f 152d f43e
000000d0: 92d7 ca3e 4aa6 883f f196 8e3e 732e 133f
000000e0: 5ba1 983e ee48 3c3e c22d 863e 57f1 4e3f
000000f0: 9856 073f 06f7 5b3f 766c c93e 618a f83e
0.6776377 0.15972441 0.24516086 0.85080266 0.5380834 0.7674791 0.17707612 0.88845813
0.7811116 0.7012921 0.5513368 0.7654065 0.43077254 -0.110320285 0.046005167 0.17565884
0.18025896 0.28828198 0.56573385 0.34640566 0.17150895 0.24646373 0.22258599 0.76616585
0.5937448 0.90305686 0.7237141 0.6854805 0.1692548 0.44595367 0.7327791 0.7960021
0.3229655 0.5984098 -0.02046025 0.86962867 0.17145754 0.10652238 0.60259897 0.48666278
0.47854313 0.34436584 1.0179801 0.18260908 0.65421927 -0.18198709 0.8079237 0.78700227
0.08252482 0.3130877 0.7817638 0.47690645 0.39617592 1.0675747 0.27849534 0.5749275
0.29810604 0.18387195 0.26206785 0.80837005 0.52866507 0.859238 0.39340562 0.48543075

embed_transform.0.weight f4 [64, 142]
00000000: eb15 33bb 69fd e2bc 9bf0 453c f185 d5bc
00000010: 4d7f 323d 151d 6b3d 2db8 633d 5fde 6cbd
00000020: efda 813d 5265 4bbb b228 e23d 34fa 1c3e
00000030: 1f3d d5bb 3729 febd 7118 93bd 3073 55bd
00000040: 5d69 253d 3e44 923d f793 0dbd 4f37 43bd
00000050: a01d b8bd bed1 483d e8d5 a13d ddd7 3fbd
00000060: d32f debc 77ed 973c 12d9 d93c 4885 b5bc
00000070: a4fa 173d 2a2b 6a3d b791 4c3c 6ba2 5dbc
00000080: 2e88 a1bd ebab 8fbc eaed 97bd 8ef5 8cbd
00000090: 4636 5ebc d4b5 64bd 372f 563d e64f d7bb
000000a0: d90f 9bbc df96 013c c4a3 cdbc 0bb2 20bd
000000b0: f8af e2bc 9263 d2bc c67b 963d d51e 5c3d
000000c0: ae96 983c 04fc d23c 9dbf 1c3d 7db8 e0bc
000000d0: 94f3 0d3d eeec a7bb da84 23bd a05d 713d
000000e0: afdd 63bd 8de9 1dbc 2484 0ebc 2c33 5a3d
000000f0: f33b 333d cdbe f0bd 328e b63c a5b6 413d
00000100: 1625 afbc 06ee 97bb 26ac 423d cb60 14bd
00000110: 4dde 05bd 72f5 5c3d c74e 04bd bb15 1bbd
00000120: 3c5a 153d 255c 943d a643 303d 25c3 703d
00000130: 18df 0dbd a9c4 95bd fd89 ebbe 96a9 d13d
00000140: 56ce 0f3d ee4e 4ebe 153b a6be 6093 d2bd
00000150: 0468 07bc 3355 833c 9974 60bd 4b94 acbc
00000160: 9fc8 43be d375 8fbc 169b 3d3e b202 5e3e
00000170: e910 243e db33 e13b a053 03be 6e11 babe
00000180: 89fd 6a3d 3161 07be 9d68 0f3e 8411 1fbd
00000190: 254a 8e3e 46b3 b5be 2b4b 0e3d 14d6 bc3d
000001a0: bf03 f63d 5951 9e3e f25e 96bd 2b6d d03d
000001b0: 2d76 70bd 183d 423e 15f8 88bd c3b2 6f3e
000001c0: d268 0ebe 0811 db3d 527e 943e b7e8 f7bd
000001d0: edba e1bd 90eb a53c fc6d ca3d 0f5d 3e3d
000001e0: 9061 eabd fa8c 1fbe d971 523e 346e 2e3f
000001f0: da13 75bd a307 babd 698e 4a3c 2240 29bd
00000200: 8b5d b43d f5ff 82be f686 b7bd fbe6 073e
00000210: 70f6 ec3d ecf5 46bd 96ca 7c3d a924 b03d
00000220: 66fc f3bd 4b63 ddbd 3d34 533d 2098 903d
00000230: cb5c 543f f03d 103f a2fa 53bb 139e 20bd
00000240: 3c28 c53d d714 74bd 6222 373d 6285 21bc
00000250: aeb3 1b3d a388 a6bd 19e5 e63e 43af 423a
00000260: 98ca 393e efe6 b73d 0f67 a93d af31 1e3e
00000270: c1ad a7bc f345 0a3d b9df d1bc fc30 253d
00000280: 4dee 6ebc 1e98 863c 8e12 7dbc 5251 473d
00000290: 227b eebc b489 c9bc eb94 87bc a654 18bc
000002a0: 19e2 b3bd 48f0 203c bd3c 63bd 0eab 173d
000002b0: c894 583d 6842 2d3d a89e 54bc 7ce4 22bc
000002c0: 19c1 653c 95f2 40bc db18 21bd 5067 02bd
000002d0: 8bab d9bc 2de1 0dbc 1c2b 6a3d c3b6 683d
000002e0: 50c9 933d 96f8 ab3c e6db 533b c789 e6bb
000002f0: 3064 43bd 51db 42ba f5dd ccbb e9a1 d3bc
00000300: 7128 21bd f804 1bbd c6c1 00bd fa35 22bd
00000310: 7c87 a4bc 4b0c 4ebb 06be debb 5f96 363c
00000320: 0ee9 643d 5030 07bd 3644 473b ce80 c93c
00000330: 4d74 7cbd 5909 95bc aeab 78bd 443a 9d3a
00000340: 8c2c 5d3d 5b38 71bd c30c f6bc ee2f b6bd
00000350: 61f7 94bc 208b 57bd c2e9 dabc 741f 953d
00000360: 7dc7 273c 6bbf 433d fc4e d03c 7d12 0a3d
00000370: 56d2 c3be 95c9 fe3e 4cff 343e ca13 6f3d
00000380: 4592 dfbe d0ee df3d b3df 56be ddcb 293e
00000390: ce2b 40be 2191 d8bd 64bd 0c3e c0d5 013e
000003a0: 120c 5d3e c200 313e 989a 443e c7eb 753e
000003b0: e4c7 193e 9b91 80be a5a7 af3d d2c6 653c
000003c0: 1bc6 a23e d50d 6b3d fe9e 9fbe c5bc 0fbf
000003d0: 04e9 cc3d f32f 933e 81e1 70be 9205 1ebd
000003e0: f2a6 693c c7cc c13d a5ec 1bbe 97f4 443f
000003f0: 3162 40be 1aa5 8a3d 5252 d2bd 0b72 9c3d
-0.0027326297 -0.027708726 0.012081291 -0.026064845 0.043578435 0.05740078 0.055595566 -0.057829257
0.063405864 -0.0031035733 0.11042918 0.1532982 -0.0065075303 -0.12410205 -0.07182396 -0.052111804
0.040383685 0.071419224 -0.03456494 -0.04766017 -0.089900255 0.04902815 0.079021275 -0.046836723
-0.027122414 0.01854585 0.026592765 -0.02215828 0.037104264 0.05717007 0.012485913 -0.013527493
-0.07887302 -0.017538032 -0.074184254 -0.06882773 -0.0135627445 -0.055837467 0.05229112 -0.006570804
-0.018928455 0.007909506 -0.025102504 -0.039232295 -0.027671799 -0.025682244 0.07347827 0.05374034
0.018626537 0.025754936 0.038268674 -0.02743172 0.034656122 -0.0051246798 -0.03992162 0.05892718
-0.055631336 -0.009638202 -0.008698497 0.053271458 0.043758344 -0.11755142 0.0222846 0.047293324
-0.021379989 -0.004636529 0.047527455 -0.03622512 -0.032682706 0.053945012 -0.03230169 -0.03786252
0.036463007 0.07244138 0.043033265 0.058779854 -0.034636587 -0.073129006 -0.46003714 0.10237424
0.035108887 -0.20147297 -0.3246695 -0.10282016 -0.008264545 0.016031837 -0.054798696 -0.021066805
-0.191195 -0.017512238 0.18516192 0.21680716 0.16022076 0.0068726367 -0.12824869 -0.36341423
0.057370696 -0.1322067 0.1400475 -0.038835064 0.27790943 -0.35488337 0.034739655 0.0922052
0.12012433 0.30921438 -0.07342328 0.10177072 -0.05870645 0.18968618 -0.06687943 0.23408036
-0.13907173 0.10696608 0.29002625 -0.12104934 -0.110219814 0.020253927 0.09884259 0.046475466
-0.1144439 -0.15581122 0.20551242 0.68136907 -0.059833385 -0.09083488 0.012363055 -0.041320927
0.088069044 -0.25585905 -0.08961289 0.13271706 0.11570442 -0.048574373 0.06171664 0.08600742
-0.119133756 -0.10809954 0.05156349 0.070602655 0.8295409 0.5634451 -0.0032345434 -0.03921325
0.09626815 -0.059590187 0.044710524 -0.009858461 0.038013153 -0.0813153 0.45096663 0.0007426629
0.1814369 0.08979594 0.0827161 0.1544864 -0.020468595 0.033758115 -0.025619375 0.04032992
-0.0145831825 0.016429957 -0.015446318 0.048661537 -0.029111449 -0.024601795 -0.016550502 -0.0092975255
-0.08783359 0.0098229125 -0.055477846 0.037028365 0.052876264 0.042299658 -0.01297728 -0.00994217
0.014023089 -0.011776586 -0.039330345 -0.031836808 -0.026571056 -0.008659643 0.05717002 0.05681492
0.07216132 0.020992558 0.0032327115 -0.0070354673 -0.047702968 -0.00074331934 -0.0062520453 -0.02583404
-0.03934521 -0.037846535 -0.031434797 -0.039602257 -0.020084135 -0.0031440433 -0.006797555 0.01114425
0.05588632 -0.03300506 0.0030405647 0.024597552 -0.06163435 -0.018192934 -0.0607106 0.0011995514
0.05399756 -0.058891635 -0.030035382 -0.088958606 -0.018184366 -0.052622914 -0.026722793 0.0728139
0.010240433 0.047789972 0.025428288 0.033709038 -0.3824641 0.4976317 0.17675513 0.05836848
-0.43666282 0.10934222 -0.20983772 0.16581674 -0.1876671 -0.10574556 0.13744122 0.12679195
0.21586636 0.17285445 0.19199598 0.24015723 0.15017658 -0.25111088 0.085768975 0.014024453
0.31791767 0.057386238 -0.3117599 -0.56147414 0.10005382 0.2874752 -0.23523523 -0.03857953
0.014260994 0.09462886 -0.15226991 0.76935714 -0.18787457 0.06769772 -0.102696076 0.076389395

embed_transform.0.bias f4 [64]
00000000: d94b 0dbd 6e17 97bb 42d9 c5bb da41 da3c
00000010: 23f8 8e3c dbac 0dbd bcd7 073d 3c4b 7dbc
00000020: 8640 04bd 40ea 55bc 25ba 5c3d 09fe f3bc
00000030: 1c51 b4bb 2012 003d c400 943d 3301 2dbd
00000040: fd6e 9a3c f53f 56bd e15c ac39 e4b9 63bd
00000050: cc69 76bd 8cc8 18bd edc4 613c 21e3 4c3c
00000060: 3980 683d 3630 7abc f8eb 103d f267 fcbc
00000070: 7166 7a3d 7f81 6ebd 4532 19bd f507 973c
00000080: b207 13bd 60fd 9ebc 0d93 0fbc c3de 21ba
00000090: d5f5 173d 1f1f 3a3d a31e 3dbd d763 2abd
000000a0: e22d 05bd d42b 95bd be40 3abc a168 b13a
000000b0: 2821 f33c 1abb 4d3d 5b7f c0bc 651a 403d
000000c0: 7122 443d 070b a2bc 6e1d 2a3d 89da 24bc
000000d0: 6661 533d 3a33 5ebc d600 553d e401 1a3d
000000e0: a8b1 643c 5056 0abb 72b4 61bd 2d31 753c
000000f0: 5a34 2cbb c36d 103d 7741 08bd de4d 57bd
-0.034496162 -0.0046109473 -0.006037862 0.026642729 0.017452305 -0.034588676 0.033164725 -0.015459832
-0.032288097 -0.013056338 0.05388846 -0.02978422 -0.005502833 0.031267285 0.072267085 -0.04223747
0.018851751 -0.052307088 0.00032875597 -0.0555972 -0.06015949 -0.03730063 0.013779861 0.012505324
0.056762908 -0.015270283 0.035381287 -0.030811284 0.061132852 -0.058228966 -0.037401456 0.018436411
-0.03589601 -0.019407928 -0.008763087 -0.00061748567 0.037099678 0.045439836 -0.046171796 -0.04159912
-0.03251446 -0.0728375 -0.011367975 0.001353521 0.029678896 0.050227262 -0.023498228 0.04690017
0.04788441 -0.019780649 0.041531973 -0.0100618685 0.05160656 -0.013562018 0.05200275 0.03759946
0.013958372 -0.0021108575 -0.055103727 0.014965338 -0.002627632 0.035260927 -0.033265557 -0.052564494

conv.0.lin_rel.weight f4 [64, 14]
00000000: 9d3b b6be 8f59 c53e 60d1 c33e 1620 96bd
00000010: 9961 16bc e0b8 90bf e151 e93e e7e0 ffbe
00000020: a5bb 4ebe 9c7b b23d f168 213e df72 75be
00000030: 8433 99bb 295e 8738 abf5 00be 01cb 093e
00000040: cc68 153f e4de 10bf 5e85 8a3e 0f64 ec3e
00000050: 1fd0 e8bf a13c cb3e 3932 023f e5b7 2d3f
00000060: 0c39 7fbe 6eda 71be 3e87 613e 9b4e 31be
00000070: 1753 0a3e 62e9 f73d b122 78bd 7f97 b13d
00000080: 8236 0b3e 7ec3 5abe f492 cbb9 dad9 aabe
00000090: 2d57 0c3d 0029 dcbd c800 7abc bba8 37be
000000a0: 0f43 6dbd 094a d43d 629f de3d 6968 c33e
000000b0: 3dce 07bf 2bed 72be c14a 923e 654c 3a3e
000000c0: bb7c 163d f09b 26be 08d1 0f3e b894 2bbe
000000d0: 934d 7fbe 5944 423e 366e 213e ae57 36bd
000000e0: f8e2 4b3e 7997 193c 943c 73be ed2d bcbe
000000f0: e97d 1dbe 7ffc 253c ab5c 0fbf 53c0 bd3e
00000100: fc7d bcbe e92f babe f5b5 563e 2116 203e
00000110: 4f08 1abe 8d06 313c 5fae 313e ce44 5c3d
00000120: 7003 af3c f23c 253e 8ac3 283e 2e6b e13e
00000130: 253c 70bd 1554 c93d 62e4 60be 3a2d 5cbe
00000140: c87c 8dbd 7c0d fdbd 5da6 2dbc fbe0 a23d
00000150: 1b5c 76bf f191 2abe 26c0 f6bd ba00 1d3d
00000160: f4e0 cf3e e2ae 503d e4e1 efbd 7530 1cbe
00000170: a0fb 96be 3017 58be 059e 61be 4da0 453e
00000180: 1af2 22bd d19d 173b f905 78be fe24 d1be
00000190: 1409 acbe d3bc 923e e2df 7fbe a1b7 473e
000001a0: 8734 98be ca44 12bf 0c53 0f3f dee6 30be
000001b0: ed50 10be b0a4 0ebe d267 fd3d c7c6 eb3d
000001c0: f703 463c 8e91 a9be 0c3e 7fbe c28d cbbd
000001d0: 198e 02bf f17a 0ebe 3533 babd 347a 013d
000001e0: 41db b4bc c256 0f3f 8c69 14be 9b60 6cbe
000001f0: b425 a4bd aefe e33d 3c39 a7be 4f31 9a3e
00000200: c858 e83e cae0 873e f275 da3b f75c 9a3e
00000210: 8708 bc3e 67c6 7f3c 0635 093f f264 1c3e
00000220: 440a 963d 6ebe 773d 6beb b33d 3fb2 863d
00000230: 0ab4 abbd 9392 92bf 238e c93d 8bb8 1f3e
00000240: ca69 fc3e 279b f1bc bd97 5ebe c307 d0be
00000250: 387f e13d 367e b63c af9c ea3c e93b 3cbe
00000260: 599a 6e3e cd1f 3a3e ebc0 c6bd c461 023d
00000270: b4ae 1abc 1d27 d0bd d3dc 903d 1900 983e
00000280: 8d4f 23bd d148 bbbe 6885 143e ffaf 4bbe
00000290: 9827 743e 1c1a 07be 02a5 953d 1092 483d
000002a0: 35a6 46bd be33 e1bd 37ec 87be 9400 2b3d
000002b0: 95dc d0be 8183 a7bd 0f26 38be 6193 83be
000002c0: a9c1 4d3e 4c06 aebe 7c86 13bd 176a 603e
000002d0: abb2 c23d 15c2 063b 2679 783d 1e73 b4be
000002e0: 5c6a 8bbe 5934 6f3e 2903 5ebd 65cf 033f
000002f0: 9513 12bf ea0c e3be 3f64 9d3e 60df acbc
00000300: d6c9 2b3c 8fb2 9c3d f80a 7dbe 2731 623d
00000310: 79d8 12bd ac4f 7abe 2de2 dd3e 8257 713e
00000320: d9c3 873e 3616 11bf 121d c13e 1ea4 89bf
00000330: 4e13 0bbf 1633 323c 5ad2 92bd 2476 42be
00000340: 574d 703e f57b 573e 2cbe 48be 2e11 c0bd
00000350: ac9d 41be 6113 4bbe 7190 46bd 2119 46ba
00000360: c2cd 303e 7213 113e 91a7 cebe 460a 0f3d
00000370: ae4c 1b3d aff5 fcbd 43e5 073c 1dcc dbba
00000380: 6ae9 363e 2eff eebd 67d4 babc abf2 a2bb
00000390: c178 0fbe 5d61 ffbd ffab a93e bfa8 08bf
000003a0: 9650 09be b68b 3ebe 75ff 553e 0d18 0bbd
000003b0: ab03 50bd 1caa 313e 3b98 f23d 25d1 e33e
000003c0: d43b cfbe f668 2dbf cacb e53d ec2e f13d
000003d0: a0ec 3d3f 8829 f53d bec8 b33d d807 2abe
000003e0: e711 803e bf12 82bc 9c1a 0cbe d7b0 6f3d
000003f0: 17e5 203e 4e1a 283e 1049 2abd 5289 e03d
-0.35592356 0.3854489 0.38245678 -0.07330339 -0.0091785425 -1.1306419 0.4557028 -0.49976274
-0.20188768 0.08714983 0.15762688 -0.23969601 -0.0046753306 6.45484e-05 -0.12593715 0.13456346
0.5836303 -0.56590104 0.27054876 0.4617009 -1.8188514 0.39694694 0.50857884 0.67858726
-0.24924105 -0.2361848 0.22024247 -0.17315142 0.13508259 0.12105061 -0.06057996 0.08671474
0.13595012 -0.21363637 -0.00038828666 -0.33369333 0.034262825 -0.10750008 -0.015258975 -0.1793546
-0.05792528 0.103656836 0.108702436 0.38165596 -0.5304907 -0.23723285 0.28572658 0.18193205
0.036740046 -0.16270423 0.14044583 -0.1675595 -0.24931936 0.18971385 0.15764698 -0.04451721
0.199108 0.009374493 -0.23753577 -0.3675379 -0.15380062 0.010131001 -0.56000775 0.37060794
-0.36814868 -0.36364678 0.20967849 0.15633442 -0.15042232 0.0108047845 0.17351674 0.053776555
0.021363944 0.1613653 0.16480842 0.44027084 -0.05865111 0.098304905 -0.21962121 -0.21501628
-0.06908566 -0.123560876 -0.010598746 0.07953068 -0.9623429 -0.16657235 -0.12048368 0.03833077
0.40601313 0.05094803 -0.11713007 -0.1525286 -0.2948885 -0.21102595 -0.22032936 0.19299431
-0.039781667 0.0023134837 -0.24221028 -0.40848535 -0.33600676 0.28659686 -0.24987748 0.19503643
-0.29727575 -0.57136214 0.55986094 -0.17275569 -0.1409337 -0.13930011 0.12373318 0.11512523
0.012085906 -0.33118862 -0.24926013 -0.099391475 -0.50998074 -0.13914086 -0.09091798 0.031610683
-0.022077205 0.55991757 -0.14493388 -0.23083727 -0.08015004 0.11132561 -0.32660854 0.30115744
0.45380235 0.26538688 0.006666892 0.30149052 0.36725256 0.015611268 0.5359653 0.15272883
0.07326177 0.060484342 0.08785137 0.065769665 -0.08383949 -1.1450981 0.098415636 0.15597741
0.4929946 -0.029492928 -0.21737571 -0.40630922 0.11010593 0.022276979 0.028639166 -0.18382229
0.23301066 0.18176194 -0.09704765 0.031831518 -0.0094410665 -0.1016371 0.07073369 0.29687575
-0.039870787 -0.36578992 0.14504015 -0.19891356 0.23843229 -0.13193554 0.07306863 0.04896742
-0.04849835 -0.10996197 -0.26547405 0.0417486 -0.4079329 -0.08179379 -0.17983268 -0.2569838
0.20093407 -0.3398918 -0.036016926 0.2191547 0.095067345 0.002056246 0.06066241 -0.35244077
-0.27229583 0.23359813 -0.054202233 0.51488334 -0.5706113 -0.4434579 0.30740544 -0.021102607
0.010485133 0.07651245 -0.24711215 0.055222657 -0.035850976 -0.24444455 0.4333662 0.23568538
0.26516607 -0.56674516 0.3771749 -1.075321 -0.5432633 0.010876438 -0.071690276 -0.1899038
0.23467003 0.2104338 -0.19603795 -0.09378277 -0.18907803 -0.19831611 -0.048477594 -0.0007556845
0.1726599 0.14167574 -0.40362218 0.034921907 0.037914924 -0.12351548 0.008294406 -0.0016769205
0.17862478 -0.116697654 -0.02280636 -0.004972776 -0.14010908 -0.124697424 0.33139035 -0.53382486
-0.13409647 -0.18607983 0.2089823 -0.033958483 -0.050784748 0.17350048 0.11845442 0.44495502
-0.40475333 -0.6773828 0.1122051 0.11776528 0.74189186 0.11970812 0.08778523 -0.16604555
0.25013658 -0.01587808 -0.13682026 0.058518257 0.15712391 0.16416284 -0.041573584 0.10963692

conv.0.lin_rel.bias f4 [64]
00000000: e6ea 2ebe a03f 24bd f202 1fbe eafd 36be
00000010: d766 8bbe 5b3e 86be 6236 2cbe 954f 263e
00000020: 35e3 413e 8917 31be d0c4 4fbe d164 c03d
00000030: 61b8 1c3e e865 28bd a9c5 12be 2fa1 763e
00000040: 5f14 4bbd 7912 37be 106b 03be e46a 183e
00000050: 32b3 823e 06cb b5be 6068 5e3d 1d5b bcbd
00000060: 1f97 823c 186c e8bd cd29 10be f54d 193d
00000070: 1bf1 ee3d bbbe cc3d 465d 4b3e ffa7 9dbe
00000080: 6481 813e 7d22 b3be 49c7 283e 72fa b33d
00000090: 4e1c 5c3e a9ff f03d 724b b23d 2921 053e
000000a0: aff0 62be f6d4 ca3e 6db5 3bbe c121 b53d
000000b0: a1e8 afbe f565 90be 93b6 d43d 370c ddbe
000000c0: cf74 c9bb 2521 4d3e 435a 2a3e 8155 15be
000000d0: 47c5 8d3d 5139 993e 591b abbe a097 13be
000000e0: 1bd8 b8be c217 8fbe e21f e5bd 2d65 463e
000000f0: c386 163d c1c9 15be 3003 a6be 8636 83bb
-0.17081794 -0.04009974 -0.15528467 -0.17870298 -0.27226898 -0.26219448 -0.1681762 0.16241296
0.18934329 -0.17294134 -0.20289922 0.09394229 0.1530471 -0.04111281 -0.14333214 0.24084924
-0.049579974 -0.1787814 -0.1283381 0.14884526 0.2552734 -0.35506457 0.05429876 -0.09197066
0.0159412 -0.11348742 -0.14078446 0.03742786 0.11667081 0.099973164 0.198598 -0.30792233
0.2529403 -0.3498725 0.16482271 0.08788003 0.21495172 0.11767513 0.08705796 0.13000931
-0.22162126 0.396156 -0.18330927 0.08844329 -0.3435717 -0.28202787 0.10386386 -0.43173382
-0.006147958 0.20032175 0.16635995 -0.14583398 0.06922393 0.2992654 -0.33419302 -0.14413309
-0.36102375 -0.27947813 -0.11187722 0.19374533 0.036749613 -0.14627744 -0.32424307 -0.0040043024

conv.0.lin_root.weight f4 [64, 14]
00000000: 4065 f73d 25a5 ab3e 93ea f1bc b531 253e
00000010: 6b3c 0e3b 18c7 2f3e b8cd 74be 8532 333f
00000020: e630 9abe 09fc 5bbf 20c8 37be 8dc5 e23d
00000030: 1917 113e 1412 0b3e 9253 ac3e bb50 233d
00000040: d19f c6bc 7997 10be a524 e6bd 066c f3be
00000050: aa76 983d 632c 6abe 9d85 6ebe 4252 82bc
00000060: 146a d6bd 4824 8c3c 5efa 8abd 3959 543e
00000070: 7833 2cbd 4ac5 6abd 6ba3 b03d e4a9 f2bd
00000080: 11fa 01be 7fba 503e 4c07 02be 49d4 56be
00000090: 49fd c13e 8fdb b8be cc09 9d3c 7ada 12be
000000a0: d18b 263f 7bc0 933e ae4a adbe 90b9 aabe
000000b0: 8ecd 5b3d 5280 76be 1282 253e ebb6 f23e
000000c0: ccd5 3abe 1ddd 47bf 7ba9 3cbc b72c bebe
000000d0: 5b41 ee3c 29c1 9dbd d121 843d 5831 1d3e
000000e0: de67 613e f837 9dbe 7117 ecbd f6a6 293d
000000f0: ac85 763e 684d 16be 8df1 6ebe c740 4bbd
00000100: 3298 6f3e e81d 0c3d d37a 04be 8e85 853e
00000110: e996 063e 42a7 87bd 76ec 48be 3211 6c3e
00000120: 5b36 8bbd b134 38be 8cf5 b0bd da31 43be
00000130: dd3f b7bd d8f2 8f3e 98a7 f0be 984a c13c
00000140: 6403 563e 8871 043e 1cc2 56bd 7c39 cfbd
00000150: bb4e b6be c5ef ea3e 20e4 86be 5372 7f3e
00000160: 0665 2d3f 346c bf3d 28ff 2bbd 7cc6 29bf
00000170: df65 b13e a4d4 64be 8df0 173e 2e63 18be
00000180: 419a cabc 744b 21be d77c c23c 5307 073e
00000190: 1b89 263e 11bd 8b3d 43db a8bf 96ca 723d
000001a0: f290 eabe cf8e a33e fb25 043f 2a3c 173d
000001b0: 460c a1bd 882d d83c df52 6bbe 819b 4cbd
000001c0: 0282 1fbe 690e 853d d974 1b3d 7e8c 82be
000001d0: 6220 c93e 0732 bc3d 8e55 c43e b42a 1a3e
000001e0: ad8a 87be 8b81 6d3e edd4 80be d1df 443d
000001f0: 89a0 48be b0e4 a13d 555d 603e 6b7a 32bd
00000200: f005 bcbe 7e9b 60be 99ab ae3d 8394 ccbe
00000210: f42a 993d a874 ab3c 738b 973b 0f92 5ebf
00000220: 4fcb 2fbe 4f05 113e 3b6f eabd e746 723e
00000230: fac7 48be 904b b4be 78a0 853e 846f a5be
00000240: ad7f 9b3e 3564 83be 8904 67be f716 f33e
00000250: 4e06 1fbd f3a1 43bd 26ab 4abe d255 1d3e
00000260: 71d6 1f3e 8bd4 9fbd a384 403e 291a 72bc
00000270: fc17 8fbc 23ee 99bd f5a1 79be eba2 7bbe
00000280: ab1a 18be 183d d73d 3da4 e43d 4c11 883e
00000290: 150e 33be 67d2 37be 444a aa3e 2ec7 2a3e
000002a0: 23b2 133d 9345 bdbc 66d8 5cbe 1c09 34be
000002b0: b1cb e0bc 41cc ab3e 9d18 54be 9088 71bd
000002c0: 209a 2e3e f31d 06be 64a1 81be 5b12 23be
000002d0: b06f b53d 3888 6f3e 831c 19be 7d13 34bd
000002e0: 1505 033e 3907 20bd c426 093e 05ba 813e
000002f0: fe8a 943e 66d4 573c ecfd 88be 41a3 733f
00000300: e614 7e3c 6b6d 823e 864a 4abe bb7c ec3d
00000310: ff15 26bf f363 bdbe ed51 753e 0c9b 653e
00000320: 7fd0 433e c9b6 28be dab8 e4bd f7a1 b4be
00000330: 903b 3d3f 1e54 fb3e 7a7e ddbc 7301 bfbc
00000340: 3e9f 713d b6c3 dd3d c287 a93e fbff 49be
00000350: b660 9c3b e725 81bd 096d 883e fba4 e83d
00000360: 4882 af3d 04ec 103e 9751 a8be 1a09 83bd
00000370: 8969 35be 124b a13e 5c9e 7ebe c1ff 88bc
00000380: 391c 48be 4391 ddbc dc05 16be 8a42 b1be
00000390: cf83 d03b 3bc0 013e 61e0 e8bc 14ae c33e
000003a0: 5653 2ebf f048 21be 7954 b93d 0397 8b3e
000003b0: 685b c63c 23d4 b43c 9f04 3bbe b587 9cbd
000003c0: 3e45 e1be ac5c da3d 540f cfbd 8278 87ba
000003d0: c8eb f73c 9041 02bf e7a0 c63d 47b4 31bd
000003e0: d810 333e ffa8 13be ebd7 cf3d ed12 78be
000003f0: 7e90 babe c56f 06bd f64b 313e 7833 32bd
0.12079859 0.33524433 -0.029530799 0.16132243 0.0021703492 0.17165792 -0.239066 0.6999896
-0.30115432 -0.8593145 -0.17947435 0.11072836 0.14168967 0.13581115 0.3365751 0.039871912
-0.024246128 -0.14120282 -0.11237458 -0.47543353 0.074445084 -0.22868495 -0.23293157 -0.015908364
-0.104694515 0.017107144 -0.06786035 0.2073716 -0.042041272 -0.057317056 0.086249195 -0.1184881
-0.12693049 0.20383643 -0.12698096 -0.20979418 0.37888554 -0.3610501 0.01916971 -0.14341155
0.6505709 0.28857788 -0.3384604 -0.33344698 0.05366283 -0.24072388 0.16162899 0.4740518
-0.1824562 -0.7807177 -0.011515017 -0.3714349 0.029083898 -0.07702858 0.064517625 0.15350854
0.22012278 -0.30706763 -0.115279086 0.041418992 0.2407443 -0.14677966 -0.23334332 -0.049622323
0.23397902 0.03420821 -0.12937479 0.26078457 0.13143505 -0.06623699 -0.19621453 0.23053434
-0.06797477 -0.1798885 -0.08640584 -0.19061986 -0.08947728 0.28114963 -0.47002864 0.02359514
0.20899731 0.12933934 -0.05243121 -0.10118386 -0.35606942 0.45886055 -0.2634592 0.24945955
0.67732275 0.0934681 -0.041991383 -0.6631849 0.34648034 -0.22346741 0.14837857 -0.14881584
-0.024731757 -0.1575144 0.023741169 0.13186388 0.16263239 0.06823171 -1.3191913 0.059275232
-0.4581371 0.31944892 0.51620454 0.03692261 -0.07863669 0.026388898 -0.22980832 -0.049952988
-0.15576938 0.06496889 0.03795323 -0.25497812 0.3928252 0.091892295 0.38346523 0.15055352
-0.2647299 0.23193948 -0.2516245 0.04806501 -0.1959249 0.07904947 0.21910603 -0.043573778
-0.3672328 -0.21934316 0.085288234 -0.39957055 0.07478896 0.02092965 0.004624778 -0.8694162
-0.171674 0.14162181 -0.11446997 0.2365986 -0.19607535 -0.352139 0.2609899 -0.32311642
0.30370846 -0.2566239 -0.22560324 0.47478458 -0.038824372 -0.04776187 -0.1979185 0.15364769
0.15609147 -0.07804211 0.18800597 -0.014776745 -0.017467491 -0.07516124 -0.24378188 -0.24573867
-0.14853923 0.105096996 0.111641385 0.26575696 -0.1748584 -0.17951356 0.33259785 0.16677544
0.036058556 -0.023104465 -0.21566924 -0.175816 -0.027440878 0.3355427 -0.20712514 -0.058968127
0.17050982 -0.13097362 -0.25318444 -0.15924971 0.08859193 0.23391807 -0.14952283 -0.043963898
0.12794907 -0.039069388 0.13393694 0.25337234 0.29012293 0.013173198 -0.26756227 0.9517098
0.015507912 0.25474104 -0.19754991 0.11547228 -0.64877313 -0.36990318 0.23957033 0.22422427
0.19122504 -0.16475977 -0.1116807 -0.3527982 0.7391901 0.49087614 -0.027037848 -0.02331612
0.058989756 0.108283445 0.33111387 -0.19726555 0.004772271 -0.063060574 0.26645687 0.113595925
0.08569771 0.14152533 -0.32874748 -0.0639822 -0.1771604 0.31502587 -0.24865097 -0.016723515
-0.19542016 -0.027046805 -0.14650673 -0.34621078 0.006363369 0.12670986 -0.028427305 0.3821875
-0.6809591 -0.1575048 0.09049315 0.2726365 0.024213508 0.02207381 -0.18263482 -0.076430716
-0.4399814 0.10662207 -0.101103455 -0.0010335597 0.030263796 -0.5088129 0.096986584 -0.043384816
0.17486894 -0.14419936 0.10148605 -0.2422597 -0.36438364 -0.032821435 0.17314133 -0.043506116

conv.1.lin_rel.weight f4 [64, 64]
00000000: ee63 38be e076 8ebe 5a99 113d 40e4 1f3e
00000010: dcab 063d 2ad8 96bd e231 e23d 71df c33b
00000020: eadb e23d 884f 473e 1323 e3bd c86c 1c3d
00000030: 3fc3 aabd 3158 a5be 9eff c0be 11e9 29bf
00000040: 5e86 bc3d 4722 16bf 624c 89be 39e2 3cbe
00000050: d51b 3b3e ce9e 0abf 883c fdbc 7483 59bd
00000060: 7f21 373e 47be 643e a289 07bc 743a ddbc
00000070: 9ecd 033e b991 a63e 814b 543e bb72 ed3d
00000080: 27ef db3d 3240 673d ad7d d9be 229e bbbe
00000090: fd7e 38be 5ce7 1abe b943 36bd 0ebe 563e
000000a0: 98ac 3abe 09d2 b53e 326a 8fbc d911 a93d
000000b0: 38e2 1b3d 051a 6ebd bf2f 3abe 9681 96bd
000000c0: e33c f8be bdfa 6dbe 031d 23be a1ed 73bd
000000d0: a0a2 4f3e a6d8 90bd 5d56 ec3d 5c66 87bd
000000e0: 5ded aa3d 4441 9b3e 7b54 683e 0143 1f3f
000000f0: ac5b 33bd bef6 323b 24df 6e3b 4a14 0e3f
00000100: f15e 923e 18e2 83be 72b0 78be fad0 89bd
00000110: 76cf b0be 7e2b 103d 0e88 d53e b3a8 be3c
00000120: 825c 9dbe 847d 2ebd 6bf4 62bf bb42 47bc
00000130: c0a3 45bd e6bd 673e 103e be3c e6cb 0f3f
00000140: 6c8c 8dbc 0153 4d3e 0bf6 3ebe f541 28be
00000150: b488 f4bc adbc 7cbe f79f dabd 3214 3b3e
00000160: bb9b 8dbd 56c8 883e c855 37bc f5aa 003e
00000170: 6dc5 873e ca45 c03d 3d55 14be e610 fd3d
00000180: ec02 083e 0f16 f63c 8166 ae3d 80a8 b0bc
00000190: fa45 083e fa44 0c3e aa6b 91bd b8bd 1ebe
000001a0: 82d7 963b 5bb8 e93e 3d5f b73d 6dc5 5bbd
000001b0: 68a1 48bf 7266 403e 5a11 1dbe 80be 43be
000001c0: e528 f83d b41e 5dbe 9a7b 783e e38f 2cbe
000001d0: b66c 9fbd 6754 90be a783 fd3e a47c d13c
000001e0: 47e2 953d 4dd2 b3be e4d9 0ebe 4f9b 733e
000001f0: 96d3 66bb 9499 0abe 3d90 59bd d38d 423d
00000200: 795c 9e3e 44db b4be 9e9e d03c 237a acbe
00000210: ffba 313e 46de 69bc 26a3 f03e a895 febe
00000220: 8d12 cebe 5d86 313e 8560 a5be ac1c 173e
00000230: 8437 283d a0f0 9bbc 61b2 873f a568 5d3e
00000240: e1dd 14be e7df 8cbc 7321 993e ecda 91be
00000250: c0da 553c 379a 0bbd 24fe 63be ac15 8dbe
00000260: e2d7 2d3e 96b3 24bf 52b6 b7bd 7e38 5abd
00000270: 4c02 6fbe 9734 003e 7e10 40be 20ec 02be
00000280: 0819 583e 0c05 32be 2024 813d 5159 3abe
00000290: 4047 34be 1a92 22bf e30c 79be ca5d cd3d
000002a0: 6c3f 33bf 6be0 7bbd f7d3 f23d 0fad d43c
000002b0: bf3b f1bd 63d3 2a3e b41f 063d 650a b43e
000002c0: 04bb 0ebe c59c 253e 0864 a9bc 21f1 45be
000002d0: 5826 9abe 3c34 96be d3ca fdbe 57a9 023e
000002e0: e909 5c3c 99a8 8cc0 eb4b b2be 341e 6b3d
000002f0: 7bf6 31be df3a 32be 4a02 d23d e654 d63e
00000300: b45a 113e 57cf 863e 7f94 df3d dc9e 25bd
00000310: 9dc2 5f3e 4d16 563e 3a4f 253e 652e 043d
00000320: 0b1b ec3d 34c8 44bd 05b3 c3be da48 f8bc
00000330: 96eb 4a3d d461 8ebd 60a5 babc eed9 9c3e
00000340: 4fb7 5d3d df82 683e a125 32be a4ae 6cbe
00000350: ae20 5fbc 5585 833d 9c07 b7bd e550 1abc
00000360: a113 01bd 4dd8 c6be 0081 94be 4590 53bd
00000370: 23b7 053d 4334 443e d2c0 bdbe 644c 113b
00000380: 9cd0 92be 5731 01be 0b66 d5bd d6b7 903d
00000390: ed42 733d 3a7f 0bbf b121 0fbf ce29 113d
000003a0: 0777 82bd 8c40 e33e a275 3ebe 696f 693c
000003b0: f0bc 763d 083d f63c 1506 83bd bf15 96bd
000003c0: fffb 153e 73c5 b6bd 0dfd c8bd f143 b3be
000003d0: 2a2a c53a 1294 88be 63e4 0fbd 8e86 ef3d
000003e0: cb46 603e 8ad5 63bd b881 a5bc eebf 383e
000003f0: e33c 98bd 55cc 1f3c 9d64 03be c3b7 0ebe
-0.1800687 -0.2782507 0.035546638 0.15614414 0.03287874 -0.07365449 0.11044671 0.005977564
0.110771015 0.19463933 -0.11090674 0.03818968 -0.083380215 -0.32293847 -0.3769502 -0.66371256
0.09205316 -0.58646053 -0.26816088 -0.18445672 0.18272336 -0.54148567 -0.030912653 -0.05310388
0.17883871 0.2233821 -0.00827256 -0.027005412 0.12871405 0.32533053 0.20731927 0.11594149
0.10738974 0.056457706 -0.42478696 -0.36644083 -0.18017192 -0.15127319 -0.04449818 0.20970938
-0.18229902 0.35511807 -0.017506693 0.08255357 0.038057536 -0.058130283 -0.18182276 -0.07348935
-0.48483953 -0.2324018 -0.15929036 -0.059552792 0.2027688 -0.070725724 0.1153991 -0.066113204
0.08346055 0.3032323 0.22688477 0.62211615 -0.043788597 0.0027307714 0.003644892 0.5549971
0.2858806 -0.25758433 -0.24286059 -0.06729312 -0.3453328 0.035197727 0.41705364 0.023273801
-0.3073464 -0.04260017 -0.886542 -0.012161906 -0.048251867 0.22631034 0.023222953 0.561705
-0.017278872 0.20051195 -0.18648545 -0.1643141 -0.029850341 -0.24681349 -0.10675042 0.18269423
-0.06914469 0.26715344 -0.011189885 0.12565215 0.2651781 0.09388311 -0.14485641 0.12356739
0.13282365 0.030039815 0.08515645 -0.021564722 0.13307944 0.13698187 -0.071006134 -0.1550206
0.0046033273 0.45648465 0.08953712 -0.053655077 -0.78371286 0.1878908 -0.1533865 -0.19115639
0.12117175 -0.21593744 0.242659 -0.16851763 -0.07784407 -0.28189394 0.49514505 0.025572129
0.073185496 -0.35121384 -0.13950306 0.23789714 -0.003522133 -0.13535148 -0.053116072 0.047498535
0.30929926 -0.35323536 0.02546626 -0.33686933 0.1735649 -0.0142741855 0.46999472 -0.49723554
-0.40248528 0.17336412 -0.323002 0.14757031 0.04106857 -0.019035637 1.0601312 0.2162195
-0.14537765 -0.017196609 0.29908332 -0.28487337 0.013052642 -0.034082618 -0.22264916 -0.27555597
0.16976884 -0.64336526 -0.08970322 -0.05327653 -0.2334072 0.12520061 -0.18756291 -0.12785387
0.21103299 -0.17384738 0.063057184 -0.18198134 -0.17605305 -0.63504183 -0.24321322 0.100276545
-0.7001865 -0.06149332 0.11856835 0.025961427 -0.11778974 0.166822 0.03274508 0.3516418
-0.13938528 0.16173084 -0.020677581 -0.19330265 -0.3010738 -0.29336727 -0.49568805 0.1275991
0.013430097 -4.395581 -0.34823546 0.05740185 -0.17379181 -0.1740527 0.10254343 0.41861647
0.14194757 0.26330063 0.10916995 -0.040434703 0.21851583 0.20906945 0.16143504 0.032270808
0.115285955 -0.04804249 -0.3822252 -0.030308176 0.04954108 -0.06952253 -0.022783935 0.30635017
0.054129895 0.22706173 -0.17397167 -0.23113495 -0.013618631 0.064219154 -0.08936998 -0.009418701
-0.03151286 -0.388369 -0.2900467 -0.051651258 0.032645356 0.19160561 -0.37061173 0.0022170777
-0.2867478 -0.12616478 -0.10419854 0.07066314 0.059389997 -0.5449101 -0.55910784 0.03544026
-0.06370359 0.44385183 -0.18599561 0.014247754 0.06023878 0.030058399 -0.063976444 -0.073283665
0.1464691 -0.08924379 -0.098138906 -0.35012773 0.0015042473 -0.2667547 -0.035129916 0.11695586
0.21902005 -0.05562357 -0.020203456 0.18041965 -0.07433488 0.009753306 -0.1283135 -0.13937287

conv.1.lin_rel.bias f4 [64]
00000000: e371 22be 19da 97bd e4d2 b63d a641 273d
00000010: 6a2b c8bd 7f71 4dbd f19c d9bc 7536 2e3d
00000020: 2f31 c7bd 94a0 c53c 43b8 3a3d 0460 4b3d
00000030: 193d 143c 6212 f5bd 9d56 8bbd b61f 1fbe
00000040: 7597 b23d 99d4 05be 6dcc 023e 540d 8b3c
00000050: c9e2 4abc b6df 05be ad74 e33d 62ef 45be
00000060: fad5 d83d 9a97 663c 7455 07be 11aa ac3d
00000070: 8c45 70bd 7ce1 28be 0b3d fabd 238a 8abd
00000080: 0ec6 413d 3524 403d d786 c23d 32ec bd3d
00000090: d701 ea3d 69cb 84bc 9fdc 57bd e333 24be
000000a0: 78a3 9fbd 51ff 44bd 31c6 053e c6a6 eb3c
000000b0: a1ee 12be 054e 403e 3976 a9bd 82e5 4e3d
000000c0: 6e86 ef3d ec58 0dbe 7104 86bd 1b6b 63bc
000000d0: 4520 a7bd c202 5fbd 4b04 483d 888c 673d
000000e0: eabd d7bc b0b9 4ebe ad12 fdbb 86e2 073e
000000f0: 6284 aabd 62b4 183e 1bd5 f2bb bd34 883b
-0.15863757 -0.07414646 0.08926943 0.04083409 -0.097739056 -0.050157066 -0.026564093 0.042532403
-0.09726178 0.024124421 0.045585882 0.049652115 0.00904777 -0.11966397 -0.068036295 -0.1553944
0.087202944 -0.13069381 0.12773295 0.016974129 -0.012383171 -0.1307362 0.111062385 -0.19329599
0.10587688 0.014074231 -0.13216192 0.08430875 -0.058660075 -0.16492265 -0.12218674 -0.06764629
0.04730802 0.04690953 0.09498375 0.09273566 0.11426132 -0.016210275 -0.052700635 -0.16035418
-0.07794851 -0.04809505 0.13063885 0.028766047 -0.14348842 0.18779762 -0.08274502 0.050511844
0.11695562 -0.13803452 -0.06543816 -0.013880516 -0.08160452 -0.05444599 0.04883222 0.056530505
-0.026335675 -0.20188022 -0.0077231736 0.13270006 -0.08326031 0.1491256 -0.007410658 0.0041566775

conv.1.lin_root.weight f4 [64, 64]
00000000: d987 ffbe 1f6e 8f3c fefd 3abe 15d4 083b
00000010: bf5d ef3d 00e7 063e 73a5 2abf 7a5d 5d3f
00000020: fca3 893e 06af c4bb f7fc d0be 6fec b4be
00000030: a68b 82be 0228 84be c7b4 983e 4bcc 31be
00000040: b74e babd 539d 45bf bc80 c23d a9f8 1d3b
00000050: b43c e5be 342a 13bc 1e44 69bf 393a a33e
00000060: 4c10 b83d c6e7 be3d 8f7e 89be 1ca2 2b3d
00000070: fca6 443b baa9 c33e 3232 9a3d 453c c7bd
00000080: db68 f7bc 91f0 8a3d b130 bcbe ba18 34be
00000090: b2f6 17be eae6 29bf 353a 133d 07c7 02be
000000a0: 8c1d cdbe 6a8a 703e 1f77 0b3d 0906 e63d
000000b0: 683f 973e c879 91c0 3e78 9c3c b50b 393d
000000c0: c43c 8bbe 62a6 66bc a0db dfbd 18f3 5fbd
000000d0: 5eff d53e ae8e 753e 371f aa3e 4634 10be
000000e0: efbd 3a3d 6053 8d3e 6fb2 84bf e7e9 843f
000000f0: 4e79 a83e 8dc6 553e f11a 6bbd 444e 97be
00000100: ac25 313e 1fa9 47be 17e0 063e ac58 8f3e
00000110: ca92 543e 80ff ef3d bc7d bfbe 2c61 edbd
00000120: 5661 2f3e 08d5 28be f724 f03e b09e c0bd
00000130: 340f 4abd 3f1c 2b3e 2ee2 bebd dc36 2e3e
00000140: 962a 313e 6841 70bd 3722 8d3e f2c2 b33c
00000150: 79f8 52be 92ae 1c3e 5cd5 123f 97cc 993d
00000160: 2798 623d 6c91 d43e 33cf c63d f90b e43b
00000170: a837 003e 78ba 633c 00f9 85bd 6338 a3bd
00000180: ca41 68bd 2777 003e f49e a9bd ef8c fbbd
00000190: c584 62be 6826 013f de5e cbbc f5f0 d8bd
000001a0: 7d48 c93e aa66 ec3d 6845 943e 4d09 57bc
000001b0: 56d7 15bf c1d5 eb3c bcde 8cbd 3b6b e43e
000001c0: 6d74 4e3e b3f3 be3e 8bb8 2b3b a173 133d
000001d0: 7fc9 7dbe fad0 04be 13de 0a3f 4f8f abbd
000001e0: df61 dd3d 3f67 9dbf 67a3 debe bf2b 9ebf
000001f0: 4c04 b4bc 5574 3a3e 4536 323e b4da ca3c
00000200: e508 b3bd 56b0 0a3f db0d 44be df6d 043d
00000210: 78af 453e 2d42 a4be 351c 023f 61fe 333e
00000220: 4703 b4be 02e1 933e 0b2d ffbf 1d27 803e
00000230: 2bf8 b2be db6e 983d 6d4d 253e c325 0c3e
00000240: b103 79be a065 853e 6ac9 dfbc 2ff9 d73d
00000250: 1802 97bd 9654 ff3e 4509 dabe 577b 25bf
00000260: 296f 12be f350 993e a697 dd3d 18ee f73d
00000270: f36a 65be 0c41 90be 3be2 603e dbe2 0d3e
00000280: ce6a 473c 5752 ac3e 900b 0fbf 78b9 003e
00000290: f6aa 53be 1d2b 14bd fdcf 233e 4a43 223c
000002a0: 89c3 253e f6de a0bd b2f3 2a3e e133 53be
000002b0: 6a53 233d fec5 053f a797 21be 836a 273f
000002c0: 787e f0bc eae6 0ebf 51d5 873e a141 eb3b
000002d0: 725b c7be 420a fbbe edb6 193d 033e d53c
000002e0: 70f9 88bd 63b9 343f 13df 00bf d378 8e3e
000002f0: 2788 4dbe 04d7 013e 50a2 84be bc87 b5bf
00000300: 9c96 61bd e7b3 de3d d5be 6dbc 7ac6 d03e
00000310: e532 d2bc d59b b3bd e16f 183e 9c53 083d
00000320: 3b70 33bd cbe3 093f f420 4abe 1dda 103e
00000330: 45ae 403d 128b 323e 1bbc 163e 9a06 13be
00000340: 8acb fdbc 23b9 d3bb ab78 323d 09b7 f03c
00000350: 671b 0dbd 35ce 1dbf 0eee dd3e b627 48bd
00000360: ebb9 dcbd b189 d4bd 8752 e1bd 86d4 0f3e
00000370: 77b8 2dbe d5b9 9ebd 9963 3a3e e54c 14be
00000380: 562c 913d 26ae 8c3d f045 08bf 2e82 203d
00000390: 2e6b f3be f22c 593e ad71 f33d 2f09 7f3c
000003a0: 0fba 4b3d 37d4 adbe 58eb c2bd 3e98 0a3e
000003b0: 5a49 863d 8987 973d 0097 f83c bbe1 c2be
000003c0: 289b 0d3e 2b67 a1bd 96be 493e 0f29 99bd
000003d0: ef99 98be 29e8 313a 6f0b 54bd 3f7e 06be
000003e0: 2b25 f9bd d752 4e3e aaeb 203e a2e5 db3e
000003f0: 387a 16bd bd95 413d 454b 29be 993f 21be
-0.4990833 0.017508565 -0.18260953 0.0020878364 0.116878025 0.13174057 -0.66658705 0.8647076
0.26882923 -0.0060023097 -0.40817997 -0.35336635 -0.25497168 -0.25811774 0.29825422 -0.17363088
-0.09097045 -0.7719318 0.094972104 0.0024104512 -0.44772875 -0.00898223 -0.91119564 0.31880358
0.089874834 0.09321551 -0.2685437 0.041902646 0.0030006757 0.3821543 0.07529105 -0.097282924
-0.030201366 0.06784166 -0.367559 -0.17587557 -0.148402 -0.6636797 0.035944182 -0.12771235
-0.40061605 0.23490301 0.03404915 0.1123162 0.29540563 -4.546116 0.019100305 0.04517718
-0.27194798 -0.014077755 -0.10930562 -0.05467519 0.41796392 0.23980209 0.3322694 -0.1408244
0.04559129 0.27602673 -1.0366954 1.0383881 0.32905048 0.20876522 -0.05739874 -0.295519
0.17299527 -0.19498108 0.13171421 0.2799734 0.2075912 0.11718655 -0.37400615 -0.115908
0.17126974 -0.16487515 0.46903202 -0.09405267 -0.049330905 0.16709994 -0.09320484 0.17013115
0.17301401 -0.058656126 0.27565166 0.021943543 -0.20602597 0.15300968 0.5735681 0.075097255
0.055320885 0.41517198 0.09707489 0.006959435 0.12521231 0.013899438 -0.065416336 -0.07969739
-0.056703366 0.12545453 -0.08282271 -0.1228274 -0.2212096 0.5044923 -0.02482551 -0.10592834
0.39313117 0.11543019 0.28959203 -0.013124776 -0.585317 0.02878845 -0.06878421 0.4461306
0.201616 0.37295303 0.0026202525 0.035998944 -0.24783896 -0.12970343 0.5424511 -0.08376943
0.10809683 -1.2297133 -0.4348404 -1.23571 -0.021974705 0.1820844 0.17403515 0.024762489
-0.08741931 0.5417532 -0.1914591 0.032331344 0.19305217 -0.32081738 0.5082429 0.17577507
-0.3515875 0.28882605 -1.9935621 0.2502984 -0.34954962 0.07443019 0.16142817 0.1368628
-0.24317814 0.26054096 -0.027317721 0.10545575 -0.07373446 0.4986922 -0.42585197 -0.64641327
-0.14300217 0.29944572 0.1081994 0.1210596 -0.22404079 -0.28174627 0.219613 0.1385607
0.01217146 0.3365657 -0.5587702 0.1257075 -0.20670685 -0.03617393 0.1599731 0.009903738
0.16187872 -0.078550264 0.16694525 -0.20625259 0.03987447 0.5225524 -0.15780507 0.653969
-0.02935718 -0.55821097 0.26529935 0.0071794544 -0.38936955 -0.49031264 0.037527967 0.026030546
-0.066882014 0.7059538 -0.50340384 0.27826557 -0.20071469 0.12679678 -0.25905085 -1.4182048
-0.055075273 0.108741574 -0.01451083 0.40776426 -0.025659034 -0.08769957 0.14886428 0.03328286
-0.043808203 0.5386321 -0.19739133 0.14145704 0.047041196 0.17435864 0.14720194 -0.14357987
-0.030980844 -0.006461279 0.04357211 0.029384153 -0.03444996 -0.6164277 0.43345684 -0.048865996
-0.107776485 -0.10377825 -0.11002069 0.14045915 -0.16964899 -0.077502884 0.18202056 -0.14482458
0.070885345 0.06869154 -0.53231716 0.03918665 -0.4754271 0.21208552 0.11886916 0.015566154
0.049737986 -0.3395097 -0.095175445 0.13534638 0.065569595 0.07398898 0.03034544 -0.38062844
0.13828719 -0.07881006 0.19701609 -0.074785344 -0.29804942 0.0006786609 -0.051768716 -0.13134097
-0.12165292 0.20148788 0.15714899 0.42948633 -0.03673765 0.047261942 -0.1653262 -0.15746917
