checkpoints/mut/model_Mutagenicity.pt_l2_emb64_hid64_netdist.pt (torch, 81417 bytes, 9 tensors)

virtual_embedding f4 [64]
0	0x3f13fa3b	0.57803696
1	0x3dcdf918	0.100572765
2	0x3db68a58	0.08913106
3	0x3f526af1	0.8219443
4	0x3f1d3e2f	0.6142301
5	0x3f1935b1	0.5984755
6	0x3ed8f5e2	0.42375094
7	0x3f476d72	0.77901375
8	0x3e9f71de	0.3114156
9	0x3f26d772	0.65172493
10	0x3f2ab56d	0.66683084
11	0x3f20891d	0.6270922
12	0x3e224f90	0.15850663
13	0x3d173320	0.03691399
14	0x3e85f0f2	0.2616039
15	0x3d95dc50	0.07317412
16	0x3d889150	0.06668341
17	0x3ea79c34	0.3273636
18	0x3ee4e7f8	0.44708228
19	0x3f12e4cb	0.5738036
20	0x3e77cae4	0.2419849
21	0x3e3691a4	0.17828995
22	0x3ebc5b8e	0.367886
23	0x3f4aab7d	0.7916792
24	0x3f432174	0.7622292
25	0x3f7726e0	0.96543694
26	0x3f3b1cdb	0.73090905
27	0x3f5ba907	0.8580479
28	0x3f0211b7	0.5080828
29	0x3e447350	0.19184613
30	0x3f276191	0.6538325
31	0x3f6f604a	0.935063
32	0x3ea647b8	0.32476592
33	0x3ef8058c	0.48441732
34	0x3d616380	0.05502653
35	0x3f62c99c	0.8858888
36	0x3dc047f8	0.09388727
37	0x3e8dcd20	0.2769556
38	0x3f01303d	0.5046423
39	0x3e85ce88	0.26134133
40	0x3f0088c5	0.50208694
41	0x3e694760	0.22781134
42	0x3f7c0eac	0.9845989
43	0x3e56a4d8	0.2096132
44	0x3f14a3f0	0.5806265
45	0x3cb4f400	0.022089005
46	0x3f121e6e	0.5707768
47	0x3f54eecc	0.83176875
48	0x3e3f66dc	0.18691581
49	0x3ecd4b82	0.4009667
50	0x3ef645de	0.4810018
51	0x3ef6b218	0.4818275
52	0x3f18d599	0.59700924
53	0x3f675640	0.9036598
54	0x3eb4b28a	0.35292464
55	0x3f2a704c	0.665776
56	0x3db69cf0	0.08916652
57	0x3e504aa0	0.20340967
58	0x3e0efe44	0.13964182
59	0x3f1d8d9c	0.61544204
60	0x3f15e1f4	0.585479
61	0x3f7d191c	0.9886644
62	0x3f2d200b	0.6762702
63	0x3ee894ba	0.4542597

embed_transform.0.weight f4 [64, 142]
0	0xbbf8fa0c	-0.0075981673
1	0x3c5d2cc4	0.0134994425
2	0xbd58997c	-0.05288075
3	0xbd94642d	-0.072456695
4	0x3b49f99c	0.0030818945
5	0x3b8bfed0	0.0042723194
6	0x3d6d4868	0.05793038
7	0x3db54b6c	0.08852276
8	0xbd946d54	-0.07247415
9	0x3d2b168b	0.041769546
10	0xbdbd0af2	-0.09230603
11	0x3d12b7b5	0.035819728
12	0xbcde22f7	-0.027116282
13	0xbc93e428	-0.01805313
14	0xbcb9edf7	-0.022696478
15	0xbdb4d814	-0.08830276
16	0x3d0b3919	0.03399
17	0x3e255cf8	0.16148746
18	0xbd4fd537	-0.050740447
19	0xbd1e7c7b	-0.038692933
20	0xbbeeb9c8	-0.0072853304
21	0x3d919454	0.071083695
22	0xbc6a7702	-0.0143106
23	0x3deb3b50	0.11485922
24	0xbc703744	-0.014661614
25	0x3c120248	0.008911677
26	0x3d9d3d84	0.07677749
27	0xbd974b33	-0.0738739
28	0xbd7066b0	-0.05869168
29	0xbd4af662	-0.049551375
30	0xbcf8af4b	-0.030357024
31	0x3d6e905a	0.058243133
32	0xbd512999	-0.05106506
33	0xbd0c6bfd	-0.034282673
34	0xbd89f442	-0.067360416
35	0xbd95f0e8	-0.0732134
36	0x3b327baf	0.0027234366
37	0x3d8df29a	0.06931038
38	0x3d0f73f3	0.035022687
39	0x3d95ec1d	0.07320426
40	0xbbac6113	-0.0052605956
41	0xbd25677b	-0.04038189
42	0xbb359b36	-0.002771092
43	0xbd8a50b9	-0.06753678
44	0xbd66988b	-0.05629782
45	0xbd3fda83	-0.04683925
46	0x3d359959	0.044335697
47	0x3d685911	0.056725565
48	0xbd09f8ec	-0.033684656
49	0xbbb1aacd	-0.0054219724
50	0x3d4ef10f	0.05052286
51	0x3dcce2b1	0.100041755
52	0x3d25d49d	0.040485967
53	0x3c42d314	0.011891145
54	0x3c064c2a	0.00819687
55	0xbd8a5a5e	-0.067555174
56	0xbb19d0d8	-0.0023470428
57	0xbd97c2f9	-0.07410235
58	0xbd3d5019	-0.046218965
59	0xbd913f53	-0.07092156
60	0x3d064730	0.032782733
61	0x3d2e288a	0.04251913
62	0xbd5da8ba	-0.05411599
63	0x3cdc1b6e	0.026868548
64	0x3d17a914	0.03702648
65	0xbd2c3a56	-0.04204782
66	0xbd21c07f	-0.03949022
67	0x3d8c0f18	0.068388164
68	0x3dfbfd7b	0.12304207
69	0x3d9e7947	0.077379756
70	0xbd89375d	-0.06700013
71	0x3c4b499c	0.012407687
72	0xbce162f2	-0.027513001
73	0x3ced524c	0.028969906
74	0x3d95971f	0.07304215
75	0x3da09fbe	0.078429684
76	0x3c9e763b	0.019343486
77	0xbde98abf	-0.11403417
78	0xbcd1f2fc	-0.02562856
79	0xbd9e187e	-0.07719515
80	0xbe028030	-0.12744212
81	0xbc6e0458	-0.014527403
82	0x3e0baf00	0.13640976
83	0x3decdb66	0.115652844
84	0x3dc7d38c	0.09757146
85	0xbc92cfce	-0.017921355
86	0x3ce60498	0.028078362
87	0xbd58a794	-0.05289419
88	0xbd94af32	-0.07259978
89	0xbdbde5e4	-0.09272364
90	0xbc81b3e6	-0.015832853
91	0x3db12541	0.08649684
92	0xbc179b27	-0.0092533
93	0x3d564c1d	0.05231868
94	0xbdb52074	-0.088440806
95	0xbda777e8	-0.08177167
96	0x3bf61825	0.0075102025
97	0x3dcdf797	0.1005699
98	0xbdda7bd7	-0.10668152
99	0xbd2d58d1	-0.04232103
100	0x3e3321f3	0.1749342
101	0x3db955bf	0.09049558
102	0xbd0c8f72	-0.034316488
103	0x3d049cf9	0.032376263
104	0xbc92e979	-0.017933594
105	0xbe1bd6a9	-0.15218605
106	0xbd8bc53e	-0.0682473
107	0xbde9a64e	-0.11408673
108	0xbc9efa95	-0.019406596
109	0xbe371299	-0.17878188
110	0xbaea0e92	-0.0017857125
111	0x3de74854	0.11293092
112	0xbdaaf14e	-0.083468065
113	0x3d31858f	0.043340262
114	0x3d1e97f4	0.038719133
115	0xbcbd8073	-0.023132538
116	0x3dfb4ab0	0.12270105
117	0x3c65867a	0.0140091125
118	0x3da5b982	0.080920234
119	0x3cc50a94	0.024052896
120	0x3e4a412b	0.19751422
121	0x3c32f5b4	0.010922838
122	0xbe1d4bb1	-0.15360905
123	0x3deb3371	0.11484421
124	0x3e27c188	0.1638242
125	0xbd336f76	-0.04380747
126	0x3da535cb	0.08066901
127	0xbd98785e	-0.07444833
128	0xbe14eb06	-0.1454278
129	0x3d6c59b1	0.057702724
130	0xbb8a36d1	-0.0042179604
131	0x3c204a9a	0.009783411
132	0xbe2ae8d5	-0.16690381
133	0xbd5d6bff	-0.05405807
134	0x3c57f41f	0.013180762
135	0xbe5f7c53	-0.2182477
136	0x3dac1edd	0.08404324
137	0x3d130e86	0.035902523
138	0x3d923d20	0.07140565
139	0x3deb54e5	0.11490802
140	0xbe058215	-0.13037904
141	0x3e1fca17	0.15604435
142	0x3d88a86d	0.0667275
143	0x3d93595d	0.07194779
144	0xbe3030ab	-0.17206065
145	0xbc934a13	-0.017979657
146	0x3d5f4cdc	0.05451666
147	0xbd8d2e93	-0.06893649
148	0xbc9b727b	-0.018975487
149	0xbddd129a	-0.107945636
150	0x3c286b0b	0.010279427
151	0xbbe48f47	-0.006975088
152	0x3dba600d	0.091003515
153	0x3e5fc157	0.21851097
154	0x3c8a9feb	0.016921958
155	0xbdbb86dc	-0.09156582
156	0x3d8818ce	0.06645356
157	0xbd1a0b64	-0.03760852
158	0xbcada9dd	-0.021199161
159	0x3cdb408b	0.026764175
160	0xbbd6a2ca	-0.0065501677
161	0xbbb36b5d	-0.005475445
162	0xbdc89b46	-0.09795241
163	0xbce2d42a	-0.027689058
164	0xbd82309d	-0.063569285
165	0xbc515702	-0.012777092
166	0xbd0ee21f	-0.034883615
167	0x3d08e10b	0.033417743
168	0xbd97c815	-0.074112095
169	0x3c3cb1f3	0.011517036
170	0x3dcfbd7f	0.101435654
171	0xbd5c6c19	-0.053814027
172	0x3daa59dd	0.08317921
173	0x3d89bb9b	0.06725236
174	0xbd86eec5	-0.065885104
175	0x3cfde63c	0.030993573
176	0xbabab05a	-0.0014243231
177	0xbb1fcf2d	-0.002438496
178	0x3d48808e	0.048950724
179	0xbd8305ea	-0.063976124
180	0x3c89268d	0.016742015
181	0xbdbe25cc	-0.09284553
182	0x3d436bac	0.047710106
183	0x3d049570	0.032369077
184	0x3b9a6074	0.004711205
185	0x3d30a53e	0.043126337
186	0xbc094261	-0.008377642
187	0xbc8a908c	-0.016914628
188	0xbc84cbcd	-0.016210461
189	0x3d130854	0.035896614
190	0x3d82e0d8	0.06390542
191	0x3d8e78f0	0.06956661
192	0xbd5446c6	-0.051825307
193	0x3be16850	0.00687889
194	0xbd0dee79	-0.034651253
195	0xbd6737b2	-0.0564496
196	0xbd854250	-0.06506789
197	0x3d173912	0.03691966
198	0xbdcaf502	-0.09910013
199	0x3c64eba9	0.013972201
200	0x3c663163	0.014049861
201	0x3d15cabc	0.036570296
202	0xbd6dcee0	-0.05805862
203	0xbd1046fa	-0.03522394
204	0xbc115577	-0.008870474
205	0x3d67ca46	0.056589387
206	0xbad7ad50	-0.0016454849
207	0x3e291c9f	0.16514824
208	0x3d8bfe5c	0.068356246
209	0xbce8f8f0	-0.028439015
210	0xbc5125b3	-0.012765336
211	0xbc96a6f3	-0.018390154
212	0x3bcdc738	0.0062798522
213	0xbc1f06b2	-0.009706186
214	0xbd66c0c5	-0.056336183
215	0xbd79c99c	-0.060983285
216	0xbd71479a	-0.058906175
217	0xbd04c9b7	-0.032418933
218	0x3d8f1fbb	0.06988474
219	0xbd96278a	-0.0733176
220	0xbd19d2e9	-0.037554655
221	0x3dcfbca4	0.10143402
222	0x3df92a6d	0.12166295
223	0x3e46c38c	0.19410533
224	0xbe1c8839	-0.1528634
225	0xbd71e124	-0.0590526
226	0xbe13a930	-0.14420009
227	0xbc1aa52b	-0.009438793
228	0xbde63c3b	-0.11241957
229	0x3d7a49d7	0.061105575
230	0x3e06c714	0.1316188
231	0x3e93dc7c	0.28879154
232	0x3cddfb4d	0.027097369
233	0x3d9a49ba	0.075335935
234	0x3e37bfe2	0.17944291
235	0xbd17793f	-0.036980864
236	0x3d2a916b	0.041642588
237	0xbcb1e199	-0.021714019
238	0x3d682063	0.05667151
239	0x3d10d8f1	0.03536314
240	0x3e0b9167	0.13629685
241	0x3d69487e	0.0569539
242	0xbdb78492	-0.08960833
243	0xbdbb50ab	-0.091462456
244	0x3d6ab176	0.057298146
245	0xbdede825	-0.11616544
246	0x3c2d847f	0.010590672
247	0x3e66152b	0.22469012
248	0x3cb24f56	0.021766346
249	0x3d0ad374	0.033893064
250	0xbc7c792e	-0.015409751
251	0x3eb0e973	0.34553108
252	0x3dd88e5a	0.105740264
253	0xbdba5ee1	-0.09100128
254	0x3c3642ec	0.011124354
255	0xbb84de43	-0.004054816

embed_transform.0.bias f4 [64]
0	0xbda3147e	-0.07962893
1	0x3de2a142	0.11065914
2	0x3e8d0251	0.2754083
3	0xbd4b854c	-0.04968767
4	0x3d876ff2	0.06613149
5	0xbe42034d	-0.18946572
6	0x3e070e85	0.13189133
7	0xbe1cf14e	-0.15326425
8	0xbd8f6862	-0.07002331
9	0x3e3ddf89	0.18542303
10	0xbe004202	-0.1252518
11	0x3ce97f7f	0.028503178
12	0xbcbe6f8d	-0.023246551
13	0xbd5264f1	-0.051365796
14	0x3e132af1	0.1437185
15	0xbe3c8d61	-0.18413307
16	0x3d7a2a6d	0.061075617
17	0xbdb9a973	-0.09065523
18	0x3e9f2f84	0.3109094
19	0xbe85f7be	-0.26165575
20	0xbe8a249b	-0.26981053
21	0x3de313ff	0.11087798
22	0xbe06c070	-0.13159347
23	0xba221f20	-0.00061844476
24	0xbdd3c33d	-0.10339973
25	0xbdc6d904	-0.09709361
26	0x3e9cf6cf	0.3065705
27	0xbcabc6f3	-0.02096889
28	0x3e1eba5b	0.15500776
29	0xbdba7727	-0.09104758
30	0xbe0def57	-0.13860832
31	0x3e2f4e14	0.17119628
32	0x3e170282	0.1474705
33	0xbebed373	-0.37270698
34	0xbe9bc277	-0.30421802
35	0xbe49cbd7	-0.19706665
36	0x3e2e5c7c	0.17027467
37	0x3e22845b	0.15870802
38	0xbdec79ef	-0.115466945
39	0x3c5542d8	0.013016425
40	0xbe1c3d45	-0.15257747
41	0xbe61ebb0	-0.22062564
42	0x3e3c78fa	0.18405524
43	0xbdf36ce8	-0.118860066
44	0x3e3cfca8	0.18455756
45	0x3e4ba2d2	0.1988633
46	0xbdea4d4f	-0.11440527
47	0x3e78408d	0.24243374
48	0xbd904327	-0.07044058
49	0x3e0b5ca0	0.13609552
50	0x3eb553fb	0.35415635
51	0xbe6ecaf1	-0.23319604
52	0x3e275a3a	0.16343012
53	0xbdeaf5c1	-0.11472655
54	0x3d2c61aa	0.042085327
55	0x3e3de4a9	0.18544258
56	0x3e4c35c7	0.1994239
57	0xbe841cc0	-0.25803185
58	0xbcdf3e59	-0.02725141
59	0x3b638ae2	0.0034720232
60	0x3e222128	0.1583296
61	0x3e554022	0.20825246
62	0xbe39a698	-0.18129957
63	0xbb8dd037	-0.0043277997

conv.0.lin_rel.weight f4 [64, 14]
0	0xbdb0d45a	-0.08634253
1	0x3e0da533	0.1383255
2	0x3ec83e03	0.3910981
3	0x3d57b599	0.05266342
4	0x3e5893af	0.21150087
5	0x3e9a6a1a	0.30159074
6	0x3e9d8f44	0.30773365
7	0xbe54be74	-0.20775777
8	0xbd8e9216	-0.069614574
9	0x3e8db360	0.27675915
10	0x3e2168f1	0.15762688
11	0xbe7572df	-0.23969601
12	0xbb993384	-0.0046753306
13	0x38875e29	6.45484e-05
14	0xbcc11b7b	-0.023572674
15	0x3e694b0b	0.22782533
16	0x3ecfd384	0.4059106
17	0xbe8abd43	-0.2709752
18	0x3e727e6e	0.23681042
19	0x3e96e827	0.29473993
20	0xbb9e0a84	-0.004823031
21	0x3d37c2fb	0.044863682
22	0x3e97c061	0.2963896
23	0xbd7b6b9b	-0.061381917
24	0xbe7f390c	-0.24924105
25	0xbe71da6e	-0.2361848
26	0x3e61873e	0.22024247
27	0xbe314e9b	-0.17315142
28	0x3e3fe0c2	0.18738082
29	0xbd36799a	-0.044549562
30	0xbe3b2f36	-0.18279728
31	0x3e66bf45	0.22533901
32	0x3e4ca35f	0.19984196
33	0xbec306a4	-0.38091004
34	0x3dba4a65	0.09096221
35	0xbea8ea22	-0.3299113
36	0xbedb140e	-0.42788738
37	0xbe294633	-0.16530685
38	0xbc7a00c8	-0.015258975
39	0xbe37a8bb	-0.1793546
40	0xbd6d430f	-0.05792528
41	0x3dd44a09	0.103656836
42	0x3dc00e06	0.09377675
43	0x3e2aaa36	0.16666493
44	0xbe9bc8a1	-0.30426505
45	0xbe847c24	-0.25875962
46	0xbdc76075	-0.097351946
47	0x3eb0dc06	0.34542865
48	0xbc8afb70	-0.016965598
49	0xbe89415e	-0.26807684
50	0x3e116728	0.14199507
51	0xbe2b94b8	-0.1675595
52	0xbe7f4d93	-0.24931936
53	0x3e424459	0.18971385
54	0x3e216e36	0.15764698
55	0xbd3657ae	-0.04451721
56	0x3e244e9f	0.16045617
57	0xbd24fade	-0.040278308
58	0xbd1b4eab	-0.03791682
59	0xbebd6626	-0.36991996
60	0xbe1f6f60	-0.1556983
61	0x3c71089f	0.014711528
62	0x3e421c6f	0.18956159
63	0x3ea997cd	0.33123627
64	0x3e9f4a1e	0.31111234
65	0xbe69d1dd	-0.22833963
66	0x3e56b5f5	0.20967849
67	0x3e201621	0.15633442
68	0xbe1a084f	-0.15042232
69	0x3c31068d	0.0108047845
70	0x3e68e090	0.22741914
71	0xbe091eb8	-0.13390625
72	0xbeacd9e6	-0.33759993
73	0x3e3323f6	0.17494187
74	0x3dc40c4b	0.09572657
75	0x3da48c31	0.08034552
76	0xbe393cc6	-0.1808959
77	0x3c2483a5	0.010041152
78	0x3d2cfc7a	0.042232968
79	0xbd9c3de6	-0.07628994
80	0xbd8d7cc8	-0.06908566
81	0xbdfd0d7c	-0.123560876
82	0xbc2da65d	-0.010598746
83	0x3da2e0fb	0.07953068
84	0xbe9997ef	-0.2999873
85	0xbca77cfc	-0.02044534
86	0xbc56c48b	-0.013108383
87	0xbe1dec04	-0.15422064
88	0x3e9116db	0.2833775
89	0x3d1c3159	0.038133
90	0x3e898006	0.26855487
91	0x3e06d471	0.13166977
92	0xbdbd816d	-0.09253202
93	0x3e3b205a	0.1827406
94	0xbe619e05	-0.22032936
95	0x3e45a04d	0.19299431
96	0xbd22f21a	-0.039781667
97	0x3b179dd1	0.0023134837
98	0xbdf09202	-0.11746599
99	0xbe8a002f	-0.26953265
100	0xbea08099	-0.31348112
101	0x3e0bf312	0.13666943
102	0xbbe988f1	-0.0071269204
103	0x3e3e7396	0.1859878
104	0xbde725e1	-0.11286522
105	0xbf1184f3	-0.5684349
106	0xbe892d01	-0.26792148
107	0x3e8bf4a6	0.2733509
108	0xbe1050ed	-0.1409337
109	0xbe0ea4b0	-0.13930011
110	0x3dfd67d2	0.12373318
111	0x3debc6c7	0.11512523
112	0x3c169511	0.009190814
113	0xbf02a2df	-0.5102977
114	0xbe4d3f1d	-0.20043607
115	0xbcead848	-0.028667584
116	0xbede6f91	-0.43444493
117	0xbe092ab6	-0.13395199
118	0xbd98bc83	-0.07457831
119	0x3e14b9ab	0.14523952
120	0xbd3e2d31	-0.046429817
121	0x3e24b026	0.1608282
122	0xbe14698c	-0.14493388
123	0xbe6c609b	-0.23083727
124	0xbda425b4	-0.08015004
125	0x3de3feae	0.11132561
126	0xbe50d8b8	-0.20395172
127	0x3e0f2d68	0.13982165
128	0x3edee1c6	0.43531626
129	0x3e364b99	0.17802276
130	0x3d983e73	0.07433786
131	0xbf3005c8	-0.6875882
132	0x3e120068	0.14257967
133	0x3d7096fc	0.05873774
134	0x3e5fd4c6	0.2185851
135	0x3e2f2928	0.17105544
136	0x3d960a44	0.07326177
137	0x3d77be6e	0.060484342
138	0x3db3eb6b	0.08785137
139	0x3d86b23f	0.065769665
140	0xbb0dcb85	-0.00216362
141	0xbe0ff705	-0.14059074
142	0x3e245a7f	0.16050147
143	0x3ca49ac8	0.020093337
144	0x3e90b220	0.282609
145	0x3e7c5a5c	0.24643844
146	0xbe6189da	-0.22025242
147	0xbe920775	-0.28521314
148	0xbe5fc111	-0.21850993
149	0x3e5f4ad2	0.21805885
150	0x3cea9caf	0.028639166
151	0xbe3c3be9	-0.18382229
152	0x3e6e9a59	0.23301066
153	0x3e3a1fcd	0.18176194
154	0xbe02f41c	-0.12788433
155	0x3ddca0f6	0.10772888
156	0xbcc646f8	-0.024203762
157	0xbdbd9ae0	-0.09258056
158	0x3dd01974	0.10161105
159	0x3e8abbc3	0.27096376
160	0xbda0e015	-0.0785524
161	0xbd5c4f63	-0.053786647
162	0x3e046543	0.12929253
163	0x3ec16f03	0.37780008
164	0x3e742798	0.23843229
165	0xbe071a1c	-0.13193554
166	0x3d95a502	0.07306863
167	0x3d489210	0.04896742
168	0x3d2f3270	0.04277271
169	0xbc7e62d7	-0.015526495
170	0xbe87fbd4	-0.26559317
171	0x3d367191	0.0445419
172	0xbe9599d6	-0.2921893
173	0xbe429c16	-0.19004855
174	0xbed7cc4b	-0.4214805
175	0xbd4ca7ee	-0.049964838
176	0x3e0cddff	0.1375656
177	0xbda1c91b	-0.07899686
178	0xbd13867c	-0.036016926
179	0x3e606a17	0.2191547
180	0x3dc2b2ab	0.095067345
181	0x3b06c215	0.002056246
182	0x3b919138	0.0044423603
183	0xbe28ffa3	-0.16503768
184	0xbd8e4680	-0.069470406
185	0x3e2ce0c6	0.1688262
186	0x3e5a104e	0.21295282
187	0x3e8c8e6d	0.27452412
188	0x3e2e2f26	0.17010173
189	0xbd1ad3b9	-0.03779957
190	0xbcae4155	-0.021271387
191	0x3dd0edb4	0.10201588
192	0x3c2bc9d6	0.010485133
193	0x3d9cb28f	0.07651245
194	0xbe7d0af8	-0.24711215
195	0x3d623127	0.055222657
196	0x3d282928	0.041054875
197	0xbdf0b787	-0.11753755
198	0x3e09a40b	0.13441484
199	0x3e0226d9	0.12710132
200	0xbde7ef0f	-0.11324894
201	0xbe7ccd9c	-0.24687809
202	0x3ea73fdd	0.3266591
203	0xbe585f4f	-0.21130107
204	0xbe640e4d	-0.2227108
205	0x3c323316	0.010876438
206	0xbd92d25a	-0.071690276
207	0xbe427624	-0.1899038
208	0x3e704d57	0.23467003
209	0x3e577bf5	0.2104338
210	0xbe0fcf29	-0.14043869
211	0x3d06f879	0.032951806
212	0xbdd058bf	-0.10173177
213	0xbe0d8a00	-0.13822174
214	0xbdf3b33d	-0.11899421
215	0x3e78dc8a	0.24302879
216	0x3e33aa4a	0.17545429
217	0x3ea854b5	0.32877126
218	0xbe876d48	-0.26450562
219	0x3e0c870a	0.13723388
220	0x3d1b4cae	0.037914924
221	0xbdfcf5af	-0.12351548
222	0x3c07e543	0.008294406
223	0xbadbcc1d	-0.0016769205
224	0x3dd5e036	0.104431555
225	0xbd418ea2	-0.047255166
226	0xbdc5324e	-0.096287355
227	0x3dfa33ec	0.122169346
228	0xbe155bd7	-0.14585815
229	0x3ea5a1ea	0.32350093
230	0x3e7a71aa	0.24457422
231	0xbe2b40df	-0.16723965
232	0x3d7052ac	0.058672592
233	0x3d880e00	0.06643295
234	0x3e55ff75	0.2089823
235	0xbd0b180d	-0.033958483
236	0xbd5003ab	-0.050784748
237	0x3e31aa1c	0.17350048
238	0x3d886a99	0.06660957
239	0x3e932ca5	0.28745
240	0xbf263d91	-0.6493769
241	0xbecf07e2	-0.40435702
242	0xbe01fd15	-0.126942
243	0x3e693351	0.22773482
244	0x3ebe9acf	0.37227485
245	0x3c036115	0.008018752
246	0x3ea81914	0.32831633
247	0xbe2a07d8	-0.16604555
248	0x3e8011e7	0.25013658
249	0xbc8212bf	-0.01587808
250	0xbe0c1a9c	-0.13682026
251	0x3d6fb0d7	0.058518257
252	0x3e17884d	0.14798088
253	0x3e634b48	0.22196686
254	0x3c5c1b7d	0.013434288
255	0xbcce5871	-0.025188657

conv.0.lin_rel.bias f4 [64]
0	0xbe2c3ea3	-0.16820769
1	0xbdedda4b	-0.11613902
2	0xbd8cabf8	-0.06868738
3	0xbd4024e1	-0.04691017
4	0xbe4d3e60	-0.20043325
5	0xbe151593	-0.14559011
6	0xbe10d1e2	-0.14142564
7	0x3e6e1687	0.23250781
8	0x3e219ed9	0.15783252
9	0xbe47fb97	-0.19529568
10	0xbe0733fb	-0.13203423
11	0x3e310b95	0.17289574
12	0x3e1615a7	0.14656697
13	0x3c8c9277	0.017159684
14	0xbde1998f	-0.11015617
15	0x3e21744f	0.15767024
16	0x3c99026d	0.018677915
17	0xbdbfb803	-0.09361269
18	0xbcc265d5	-0.023730198
19	0x3e317b16	0.1733211
20	0x3e3c8490	0.18409944
21	0xbe5b397f	-0.21408652
22	0x3e186a14	0.14884216
23	0xbc224f31	-0.009906576
24	0x3d71de2c	0.05904977
25	0xbe06623b	-0.1312341
26	0xbe0ec68b	-0.13942926
27	0x3e132b5f	0.14372014
28	0x3e2a8324	0.16651589
29	0x3ded87ca	0.11598165
30	0x3e5156b5	0.20443232
31	0xbe65a684	-0.22426802
32	0x3e615747	0.2200595
33	0xbe995d66	-0.2995407
34	0x3dc2ec68	0.09517747
35	0x3e10db70	0.14146209
36	0x3e35015b	0.17676298
37	0x3dd3f308	0.10349089
38	0x3df721ab	0.120669685
39	0x3e030613	0.12795286
40	0xbe626e81	-0.22112466
41	0x3e7c1391	0.24616839
42	0xbddba840	-0.107254505
43	0x3d4fe685	0.05075695
44	0xbe8cd644	-0.27507222
45	0xbe6f0d85	-0.23345001
46	0x3e36c055	0.17846806
47	0xbea3e8d8	-0.32013583
48	0x3d14c573	0.036321115
49	0x3e4e435c	0.20142883
50	0x3e3b8ff7	0.18316637
51	0xbe10ee4d	-0.14153405
52	0xbab6307a	-0.0013899945
53	0x3e61d40d	0.22053547
54	0xbe742827	-0.23843442
55	0xbdbc1eb0	-0.09185541
56	0xbe852784	-0.2600671
57	0xbe562bdf	-0.20915173
58	0xbe0fbb7e	-0.14036366
59	0x3dc81337	0.0976929
60	0x3e130e71	0.14360978
61	0xbd17285a	-0.036903717
62	0xbe1f6119	-0.15564384
63	0x3d1c64ca	0.038182057

conv.0.lin_root.weight f4 [64, 14]
0	0x3e3f24a2	0.18666318
1	0x3ea1379e	0.31487745
2	0xbd4ddd9c	-0.05026017
3	0x3e3adba7	0.18247853
4	0xbd05437e	-0.03253507
5	0x3e2fc718	0.17165792
6	0xbe74cdb8	-0.239066
7	0x3e15b7d7	0.1462091
8	0xbd839513	-0.06424918
9	0xbe7ca2c0	-0.24671459
10	0xbe37c820	-0.17947435
11	0x3de2c58d	0.11072836
12	0x3e37d5b4	0.17952615
13	0x3e0b1214	0.13581115
14	0x3e536502	0.20644
15	0xbe31c300	-0.17359543
16	0xbf0401c7	-0.5156521
17	0xbdfa9f4d	-0.122374155
18	0xbdbbae12	-0.09164061
19	0x3e934e72	0.28770787
20	0x3d9876aa	0.074445084
21	0xbd7ddaff	-0.06197643
22	0xbe6eeed8	-0.23333299
23	0x3e7af00b	0.24505632
24	0xbdd66a14	-0.104694515
25	0x3c8c2448	0.017107144
26	0xbd8afa5e	-0.06786035
27	0x3e1a2729	0.15054001
28	0x3df26829	0.11836273
29	0xbe9d29b3	-0.30695876
30	0x3d92eec4	0.07174447
31	0xbe33630e	-0.17518255
32	0xbdef5bfd	-0.11687467
33	0x3e77b4f4	0.24190122
34	0x3e80696d	0.25080433
35	0x3d5d61ef	0.054048475
36	0x3e203a18	0.15647161
37	0xbda393e4	-0.07987192
38	0x3d155678	0.036459416
39	0xbe12da7a	-0.14341155
40	0x3e57b290	0.2106421
41	0x3df7d331	0.121008284
42	0xbe6cdfbe	-0.23132226
43	0xbe7242bb	-0.23658268
44	0xbdf9498a	-0.121722296
45	0xbe768052	-0.24072388
46	0x3e236d3b	0.15959637
47	0x3e86e3d5	0.26345697
48	0xbe3ad5cc	-0.1824562
49	0xbeef418b	-0.46729693
50	0x3dc2734d	0.09494648
51	0xbe541a0d	-0.20713063
52	0x3cee415b	0.029083898
53	0xbd9dc129	-0.07702858
54	0x3e7adc25	0.24498041
55	0x3ea18214	0.31544554
56	0x3e47c330	0.19508052
57	0xbe96c69e	-0.29448408
58	0xbe0c9985	-0.13730438
59	0x3e567df9	0.20946492
60	0x3ea44e39	0.3209093
61	0xbe164d68	-0.14677966
62	0xbe6ef18d	-0.23334332
63	0x3e4882bd	0.19581123
64	0x3e1ed320	0.15510225
65	0x3ddec5b3	0.10877552
66	0xbe047ad3	-0.12937479
67	0x3ea32738	0.3186586
68	0x3e0696e9	0.13143505
69	0xbd87a742	-0.06623699
70	0xbdf38cad	-0.11892066
71	0x3e7fc1b7	0.2497624
72	0x3e139060	0.14410543
73	0xbe3834b1	-0.1798885
74	0x3e22ffef	0.15917943
75	0xbe4331da	-0.19061986
76	0x3e7308ea	0.23733869
77	0x3e1a0ccf	0.15043949
78	0xbec0a910	-0.37628984
79	0x3ded6415	0.11591355
80	0x3e2cd6d9	0.16878833
81	0x3dfbca33	0.12294426
82	0xbd56c21c	-0.05243121
83	0xbdcf397c	-0.10118386
84	0xbdf007a4	-0.11720207
85	0x3e92dce0	0.2868414
86	0x3e1732b1	0.14765431
87	0x3e852204	0.26002514
88	0xbdf60805	-0.12013248
89	0x3dbf6c34	0.0934681
90	0xbd2bff28	-0.041991383
91	0xbd8bff70	-0.0683583
92	0x3e80f18c	0.25184286
93	0xbe64d4a4	-0.22346741
94	0x3e3875fe	0.1801376
95	0xbe18632e	-0.14881584
96	0xbcca9a41	-0.024731757
97	0xbe214b74	-0.1575144
98	0xbda10a2f	-0.078632705
99	0x3e2de34b	0.16981237
100	0x3eab008a	0.3339885
101	0x3e36e2b9	0.17859925
102	0xbe3b99aa	-0.18320337
103	0x3e864b99	0.2622955
104	0xbdf20b0f	-0.118185155
105	0x3e3fe255	0.18738683
106	0x3eb30844	0.34967244
107	0xbdf88f6b	-0.1213673
108	0x3e5e354a	0.21700016
109	0x3e81d59f	0.25358292
110	0x3b559442	0.003258959
111	0x3d1db760	0.03850496
112	0xbdeaa060	-0.1145637
113	0x3d5ace34	0.053419307
114	0xbd5dfbc6	-0.054195188
115	0xbe9cc35d	-0.306178
116	0x3ea274a2	0.3172961
117	0xbdb177a2	-0.08665396
118	0x3d841803	0.06449892
119	0xbda6ebef	-0.081504695
120	0xbe82d7e9	-0.2555535
121	0x3e1e8168	0.15479052
122	0xbe80d4ed	-0.2516245
123	0x3de9f009	0.11422736
124	0x3e1fc793	0.15603475
125	0x3d3d717f	0.046250816
126	0x3e271e04	0.16320044
127	0x3ddb2e6d	0.107022144
128	0x3bcafe74	0.006194884
129	0xbe114956	-0.14188132
130	0x3d5cceeb	0.05390827
131	0x3d821fcd	0.06353722
132	0x3b899aec	0.0041993763
133	0x3e204982	0.15653041
134	0xbe39c89b	-0.18142931
135	0xbe18d4e7	-0.14924966
136	0xbe2fcb4f	-0.171674
137	0x3e3ae6aa	0.18252054
138	0xbdea6f3b	-0.11446997
139	0x3e26c356	0.16285452
140	0x3d402d33	0.046918105
141	0xbe63f77f	-0.22262381
142	0x3e045c6d	0.12925883
143	0xbda99633	-0.08280601
144	0x3dee87b7	0.11646979
145	0xbe836435	-0.2566239
146	0xbe670489	-0.22560324
147	0x3e48ea03	0.19620518
148	0xbe2e9261	-0.17048027
149	0xbd43a1f3	-0.04776187
150	0xbe4aab26	-0.1979185
151	0x3ea962d7	0.3308322
152	0x3e05dfc4	0.13073641
153	0xbd9fd48b	-0.07804211
154	0x3e499d15	0.19688828
155	0xbe54353d	-0.20723434
156	0xbe942c9c	-0.28940284
157	0x3dc2817d	0.09497354
158	0xbdd7df4e	-0.10540639
159	0x3de755b0	0.112956405
160	0xbe23b624	-0.1598745
161	0xbec20af4	-0.37898982
162	0xbdec8d3d	-0.115503766
163	0x3d65fbbe	0.056148283
164	0x3c642502	0.013924839
165	0x3eb564b0	0.3542838
166	0x3e4eec42	0.20207313
167	0x3e83e80e	0.2576298
168	0xbd7df863	-0.06200446
169	0x3da702d4	0.08154836
170	0x3d48b3d9	0.04899964
171	0xbdd2d694	-0.10294834
172	0x3e48b09b	0.1959862
173	0x3e9ca051	0.30591062
174	0xbd27524b	-0.040849965
175	0xbcbe29c5	-0.023213277
176	0xbe0f627b	-0.14002411
177	0x3e4c5b35	0.19956668
178	0xbe81a164	-0.25318444
179	0x3e11a613	0.14223509
180	0x3e87c8bb	0.26520333
181	0x3dbe5969	0.092943974
182	0xbda3299a	-0.07966919
183	0x3d81dba7	0.063407235
184	0xbd331ac3	-0.043726694
185	0x3cc2d9b0	0.023785442
186	0x3e3483a9	0.1762835
187	0x3d69c3f4	0.05707164
188	0x3c909233	0.017647838
189	0x3e068acf	0.13138889
190	0xbf200ff0	-0.6252432
191	0x3d087391	0.033313338
192	0x3d65e125	0.056122918
193	0x3ddd4f94	0.10806194
194	0xbe4a4a86	-0.19754991
195	0x3e8bb9f7	0.27290317
196	0xbe747d48	-0.23875916
197	0xbe38bde8	-0.18041193
198	0x3e7c907d	0.24664493
199	0x3e55dd64	0.20885235
200	0x3e718906	0.23587427
201	0xbe28b6c9	-0.16475977
202	0x3ed5fb61	0.4179335
203	0xbdce65db	-0.10078021
204	0x3e152d02	0.1456795
205	0x3ec1971a	0.37810594
206	0xbcdd7e7a	-0.027037848
207	0xbcbf0173	-0.02331612
208	0x3d719f3e	0.058989756
209	0x3e8e5e1e	0.2780618
210	0x3e71b85c	0.23605484
211	0xbea4c374	-0.3218037
212	0xbc2c15d6	-0.010503253
213	0xbd40e32e	-0.047091655
214	0x3e11af3d	0.14227004
215	0x3dc6a788	0.09699923
216	0x3e0b77d3	0.13619928
217	0xbe227072	-0.15863207
218	0xbddef3c8	-0.10886341
219	0x3e3e5ec1	0.18590833
220	0xbe43b95e	-0.1911368
221	0x3ecb0420	0.39651585
222	0xbe736a10	-0.23770928
223	0xbd312338	-0.043246478
224	0xbde6dbef	-0.11272418
225	0x3e33c842	0.17556861
226	0xbe26dce6	-0.16295204
227	0xbe33bdb6	-0.17552838
228	0x3e255880	0.16147041
229	0x3d86cd50	0.06582129
230	0x3e62c1e0	0.2214427
231	0xbe234a87	-0.15946399
232	0x3e4b961b	0.1988148
233	0xbd0847b0	-0.03327149
234	0x3e92910b	0.28626284
235	0x3e8b337a	0.2718771
236	0x3e7b9eea	0.2457234
237	0x3e474441	0.1945963
238	0xbe196666	-0.14980468
239	0xbd4a7a81	-0.049433235
240	0xbeca8fdf	-0.3956289
241	0x3e181ec0	0.1485548
242	0x3cd86c4e	0.026418831
243	0x3c846227	0.016160084
244	0x3c86aabe	0.016438838
245	0x3d9764e3	0.073922895
246	0xbc8235f1	-0.015894862
247	0xbe2faedb	-0.17156546
248	0x3e8a84ae	0.27054352
249	0xbe13a8ff	-0.14419936
250	0x3e8983fc	0.2685851
251	0xbe7812ed	-0.2422597
252	0xbe8d73e3	-0.27627477
253	0xbda07d82	-0.07836439
254	0x3e4e47eb	0.20144622
255	0x3cd74bf3	0.026281333

conv.1.lin_rel.weight f4 [64, 64]
0	0xbdfe452c	-0.12415537
1	0xbde58b5d	-0.11208222
2	0x3d293903	0.041314136
3	0x3da74760	0.081679106
4	0xbcfb50c6	-0.030678164
5	0x3d3fdae1	0.0468396
6	0xbdadc3e8	-0.08484632
7	0x3d7d21d0	0.061799824
8	0x3ce8ad53	0.02840296
9	0xbdab5d4f	-0.083674066
10	0xbd5e16dc	-0.05422102
11	0x3d4740b7	0.0486457
12	0xbd8ce6a3	-0.06879928
13	0xbe02de4d	-0.12780114
14	0xbd6fe874	-0.058571294
15	0x3d40b600	0.04704857
16	0x3d31d75e	0.04341828
17	0x3bef6dc6	0.007306787
18	0xbe0bb60b	-0.13643663
19	0x3db99d85	0.090632476
20	0x3dcd1949	0.100145884
21	0xbdb33367	-0.087500386
22	0xbd84e335	-0.06488649
23	0xbcb7e4ce	-0.02244797
24	0xbd2be979	-0.041970704
25	0x3dbcfd20	0.09227967
26	0xbdebe44d	-0.11518154
27	0xbd0be30f	-0.034152087
28	0x3db3db78	0.08782095
29	0x3dc77b1e	0.097402796
30	0x3d8e2f74	0.06942645
31	0x3ddc67eb	0.10762008
32	0xbdb329cd	-0.08748207
33	0x3cb47875	0.022030095
34	0xbd11a2f9	-0.035555813
35	0xbd81ee4b	-0.06344279
36	0xbdd91637	-0.1059994
37	0xbdac5ca9	-0.08416111
38	0xbd46fc6c	-0.048580572
39	0x3d9b3fad	0.075805046
40	0x3dff77ae	0.12473999
41	0x3db5d5a4	0.08878639
42	0x3cea9374	0.028634764
43	0xbc057df6	-0.008147707
44	0xbdc6ac74	-0.097008616
45	0xbda9875c	-0.08277771
46	0xbdbd3a32	-0.092396155
47	0xbd02c86c	-0.03192942
48	0xbe0a95c1	-0.13533689
49	0xbdd4c478	-0.10389036
50	0xbd53b9f1	-0.051691
51	0xbdfd3a60	-0.1236465
52	0x3d2718eb	0.040795248
53	0xbd8dd107	-0.069246344
54	0x3daae141	0.08343745
55	0xbdbbbdf1	-0.09167088
56	0x3da58ac5	0.08083109
57	0x3d89fe5a	0.06737967
58	0x3d88d04f	0.06680357
59	0x3c8f6108	0.017502323
60	0xbdd21402	-0.102577224
61	0xbd344b7f	-0.04401731
62	0x3ca6b8e0	0.020351827
63	0xbd98cd50	-0.07461035
64	0x3e094365	0.13404615
65	0xbd6e8392	-0.058230944
66	0xbdf705ce	-0.12061654
67	0xbd8b7fc2	-0.06811477
68	0xbe615332	-0.22004393
69	0x3de5b999	0.112170406
70	0x3d8133f8	0.063087404
71	0xbcf54bbf	-0.029943345
72	0xbd28800e	-0.041137747
73	0x3db9c4fe	0.090707764
74	0x3e6becf6	0.23039612
75	0x3dddb07d	0.10824678
76	0xbe0371dd	-0.12836404
77	0x3d36de68	0.044645697
78	0x3de83701	0.11338616
79	0xbc12d322	-0.008961471
80	0xbda4b40b	-0.08042153
81	0xbcf83303	-0.030297762
82	0xbdc7310e	-0.09726153
83	0xbdca52c9	-0.09879071
84	0xbd9da823	-0.07698085
85	0xbd6b8815	-0.057502825
86	0xbdb2ff94	-0.08740154
87	0x3d4405d1	0.04785711
88	0x3c540de7	0.012942768
89	0xbe45562f	-0.19271158
90	0xbdef373e	-0.116804585
91	0x3dac0246	0.08398871
92	0x3db0a2d6	0.086248085
93	0x3ddea608	0.10871512
94	0xbdda6869	-0.10664446
95	0x3da0b721	0.07847429
96	0x3d91e0ea	0.07122977
97	0x38ff5c73	0.000121765675
98	0x3ce0af5f	0.027427373
99	0xbd3649dc	-0.04450403
100	0x3da8a4ba	0.08234544
101	0x3dd0991b	0.101854526
102	0xbb932af7	-0.004491206
103	0xbd162c5d	-0.036663402
104	0xbd334f02	-0.04377652
105	0x3d761ad0	0.060084164
106	0x3b659f22	0.0035037478
107	0x3b608ccf	0.0034263616
108	0xbe114e0e	-0.14189932
109	0x3e189727	0.1490141
110	0xbde3149a	-0.11087914
111	0x3dd89882	0.105759636
112	0x3d9cd3cd	0.07657585
113	0xbdf9ad73	-0.12191286
114	0x3dce95b9	0.10087151
115	0xbdd7b8eb	-0.10533317
116	0xbd35c0ed	-0.04437344
117	0x3b547e51	0.0032423923
118	0x3db89dd1	0.09014476
119	0x3db16383	0.086615585
120	0x3cdaab6f	0.026693074
121	0x3e17bcc3	0.148181
122	0x3b38644c	0.0028135953
123	0x3e18fb43	0.14939599
124	0x3c5a5117	0.013324997
125	0xbd09adcb	-0.033613008
126	0xbd1967c1	-0.037452463
127	0xbd9ac23e	-0.0755658
128	0x3de553c3	0.11197617
129	0xbd676011	-0.0564881
130	0xbba99732	-0.0051754946
131	0xbe424132	-0.18970183
132	0xbd19e70c	-0.03757386
133	0x3d7d8e10	0.06190306
134	0x3dee5634	0.11637536
135	0xbd9ae604	-0.07563403
136	0xbe49a629	-0.19692291
137	0x3d112190	0.0354324
138	0x3ce74512	0.028231177
139	0x3d8979d5	0.06712691
140	0x3db321ab	0.08746656
141	0xbb09ed2a	-0.0021045902
142	0xbe010ef9	-0.12603368
143	0xbe2ba7a6	-0.16763172
144	0xbddde540	-0.108347416
145	0x3d0b2e71	0.033979837
146	0x3dc784c2	0.097421184
147	0xbd9eb40b	-0.07749184
148	0xbd8e37af	-0.069442146
149	0xbe09d271	-0.13459183
150	0xbde778f5	-0.113023676
151	0xbde608ec	-0.112321705
152	0x3d6f98f2	0.05849547
153	0x3dd33b0a	0.10313995
154	0xbd028c04	-0.03187181
155	0x3d65f13e	0.05613827
156	0xbdfb19a7	-0.12260752
157	0xbc4a802d	-0.012359661
158	0xbde27b5c	-0.11058685
159	0xbda1afbe	-0.07894848
160	0x3e5f6653	0.21816377
161	0xbc782608	-0.015145786
162	0xbc880e6d	-0.016608441
163	0x3c61a929	0.013773241
164	0xbd6a5dfb	-0.057218533
165	0x3de62acc	0.112386316
166	0xbe272846	-0.16323957
167	0xbcfa7ee5	-0.030578086
168	0x3d8d5f4f	0.06902944
169	0x3e19538f	0.14973281
170	0xbdb7abd2	-0.08968319
171	0x3d026d80	0.03184271
172	0xbdab2ebe	-0.08358525
173	0xbdebf1e7	-0.115207486
174	0x3d2c5cc9	0.042080674
175	0xbbad3564	-0.0052859057
176	0xbd4df3ce	-0.05028134
177	0x3da90d4d	0.0825449
178	0x3dace662	0.084423795
179	0x3d1d1ddd	0.038358558
180	0xbc85cde0	-0.01633352
181	0xbd770c39	-0.06031439
182	0xbe96cbb4	-0.29452288
183	0x3ddb1beb	0.10698684
184	0x3da5d412	0.0809709
185	0xbcf2aba3	-0.029622858
186	0x3d59bee5	0.053160567
187	0xbdcbcb6d	-0.0995091
188	0xbdd072d6	-0.10178153
189	0xbd8cfc4c	-0.06884059
190	0x3dd7e40a	0.10541542
191	0x3d937871	0.07200707
192	0x3e9efa29	0.31050232
193	0x3de25995	0.11052243
194	0x3dc69d09	0.09697921
195	0x3cdda115	0.027054349
196	0x3c48d24e	0.012257172
197	0x3de41817	0.11137407
198	0xbe52a3b1	-0.20570256
199	0x3c94680a	0.018116016
200	0x3e93cc0f	0.28866622
201	0xbd8fa545	-0.070139445
202	0x3d936ef6	0.071988985
203	0xbcee6a37	-0.029103382
204	0xbdaf72f7	-0.0856685
205	0xbd465932	-0.048424907
206	0x3c8352a1	0.016030611
207	0x3d4bdcf0	0.04977125
208	0xbd53a194	-0.051667765
209	0x3d45bcc3	0.04827572
210	0xbdd1592c	-0.10222086
211	0xbc1c7f56	-0.009551844
212	0x3c3665c9	0.011132666
213	0x3d7b38db	0.06133352
214	0xbe01fd42	-0.12694266
215	0x3bf7104e	0.0075397855
216	0x3d383ecf	0.044981774
217	0xbdeeacbf	-0.116540425
218	0xbe2a129c	-0.16608661
219	0xbd950836	-0.07276957
220	0x3d7d5dc6	0.061857007
221	0xbd74e0ab	-0.059784573
222	0xbe6eaa76	-0.23307213
223	0xbddcfab4	-0.10790005
224	0x3dc107bc	0.09425303
225	0xbcd72101	-0.026260855
226	0xbcde900c	-0.027168296
227	0x3da1e14a	0.079042986
228	0x3daad604	0.083416015
229	0xbf0a4615	-0.54013187
230	0xbe42180f	-0.1895449
231	0xbc782b2a	-0.01514701
232	0x3e53cb7d	0.20683093
233	0x3e59d9cb	0.21274488
234	0xbea03250	-0.31288385
235	0x3ce585a6	0.02801783
236	0x3d045353	0.032306027
237	0xbd4b9482	-0.049702175
238	0xbd2ba57f	-0.041905876
239	0x3c5066af	0.012719794
240	0x3da135a1	0.07871557
241	0xbd5ed18f	-0.05439907
242	0x3d7c9669	0.06166688
243	0xbdae14bc	-0.085000485
244	0xbd903e68	-0.07043153
245	0xbdd60a28	-0.10451156
246	0x3e514af2	0.20438746
247	0x3da1c332	0.07898559
248	0x3da89537	0.082315855
249	0x3eb9adc9	0.362654
250	0xbe8240ed	-0.2544016
251	0xbee71e58	-0.45140338
252	0xbdd4d2d2	-0.10391773
253	0x3d8467df	0.06465124
254	0xbd20f2fe	-0.039294235
255	0xbe040a01	-0.12894441

conv.1.lin_rel.bias f4 [64]
0	0xbd96783c	-0.07347152
1	0x3ceedf4a	0.029159207
2	0x3c836779	0.01604055
3	0xbb653da0	-0.0034979358
4	0x3ce34ad9	0.027745651
5	0xbcd0d5ce	-0.025492575
6	0x3d375ce4	0.04476632
7	0x3d24a4f6	0.04019638
8	0xbbe8d23b	-0.0071051395
9	0xbc8912ae	-0.01673254
10	0xbd3a047d	-0.045414437
11	0x3d736c42	0.059429415
12	0x3d412a2f	0.04715937
13	0xbe22ad97	-0.15886532
14	0xbcbfb75c	-0.023402862
15	0xbd0d7d0e	-0.03454309
16	0x3d18042a	0.037113346
17	0xbd1a20f9	-0.0376291
18	0x3dd3c662	0.10340573
19	0xbd615d56	-0.055020653
20	0x3dd089c7	0.10182529
21	0xbdc17891	-0.09446824
22	0x3db3ea12	0.0878488
23	0x3d105737	0.035239425
24	0x3d57a95e	0.052651756
25	0x3d76dbb9	0.060268138
26	0xbe0caf23	-0.13738684
27	0x3d03ea46	0.032205842
28	0xbd99acd7	-0.0750367
29	0xbd586b58	-0.052836746
30	0xbdd58aea	-0.104268864
31	0x3d0a79e3	0.033807646
32	0xbd537d6b	-0.05163328
33	0xbcd31e9e	-0.025771435
34	0xbde8af06	-0.11361508
35	0x3deca025	0.11553983
36	0x3da85f55	0.08221308
37	0xbd8da604	-0.069164306
38	0xbce4f9eb	-0.027951201
39	0xbdc3a567	-0.09553032
40	0xbd2af12e	-0.041733913
41	0x3d779fc0	0.060455084
42	0x3da76cd9	0.08175058
43	0x3d165d7b	0.036710244
44	0xbd96956e	-0.0735272
45	0x3d665fd6	0.05624374
46	0x3ca6b76d	0.020351136
47	0xbce2a5e6	-0.027666997
48	0xb8b07803	-8.414688e-05
49	0xbdfc7cf9	-0.12328524
50	0xbc1cb479	-0.009564512
51	0xbd932675	-0.071850695
52	0xbd8908de	-0.066911444
53	0x3c8e7c32	0.017393205
54	0xbd1bad51	-0.038007084
55	0x3cf9809a	0.03045683
56	0x3cea1b62	0.02857751
57	0xbe1a8ef5	-0.15093596
58	0x3cade40c	0.021226905
59	0x3dc34b8d	0.095358945
60	0xbd86b0db	-0.06576701
61	0x3d832942	0.06404354
62	0xbe310e48	-0.17290604
63	0x3d0d7bbb	0.034541827

conv.1.lin_root.weight f4 [64, 64]
0	0xbd88da91	-0.06682313
1	0x3db57279	0.088597246
2	0xbdb1bdb2	-0.0867876
3	0x3cc28845	0.023746619
4	0x3dce334d	0.100683786
5	0x3d60ed1c	0.054913625
6	0xbd0eab54	-0.03483136
7	0x3d4978ce	0.049187474
8	0x3cc8d721	0.024516644
9	0xbc84dc55	-0.016218344
10	0xbd04f37c	-0.032458767
11	0xbd3a9642	-0.045553453
12	0xbdf8a019	-0.12139911
13	0xbdb23b84	-0.08702758
14	0xbc6f7479	-0.014615172
15	0x3d43bddb	0.047788482
16	0xbdd9b9cc	-0.10631141
17	0x3daf2157	0.08551281
18	0x3dc2eaaa	0.09517415
19	0xbdbc329a	-0.09189339
20	0x3d3c5cc8	0.04598692
21	0x3dabc762	0.08387639
22	0xbd73c5c1	-0.059514765
23	0x3d3ca504	0.04605581
24	0x3de7f0a8	0.113251984
25	0x3da19183	0.07889082
26	0xbdef9ddc	-0.11700031
27	0xbd1c61f2	-0.038179345
28	0xbd01f40d	-0.031726886
29	0x3d60baad	0.054865528
30	0x3d050f12	0.032485075
31	0xbdca2680	-0.098706245
32	0xbdf8452e	-0.1212257
33	0xbc344b04	-0.011004213
34	0xbc9ace5b	-0.018897226
35	0xbdb5e065	-0.088806905
36	0x3d2968ab	0.041359585
37	0xbcbe1757	-0.023204489
38	0xbd38d124	-0.045121327
39	0xbd91c504	-0.07117656
40	0xbdac4d79	-0.08413214
41	0x3d94226c	0.07233128
42	0x3ded87f7	0.11598199
43	0xbc8d9e47	-0.017287387
44	0xbd843b70	-0.06456649
45	0xbbec03ff	-0.007202625
46	0xbd3385c2	-0.043828733
47	0x3d4e6f97	0.05039939
48	0xbd0b4949	-0.034005437
49	0xbdc0a9fc	-0.09407422
50	0x3d818616	0.06324403
51	0xbd3d28b3	-0.046181392
52	0x3dbfdef4	0.09368697
53	0xbcb879d7	-0.022519035
54	0x3d950452	0.07276215
55	0xbcb00d5b	-0.021490743
56	0xbd0d8689	-0.03455213
57	0xbc37b7f0	-0.011213288
58	0xbd09da41	-0.03365541
59	0xbb917236	-0.004438664
60	0x3c493e5a	0.012282932
61	0x3d4fe3a0	0.05075419
62	0xbca76f4d	-0.020438815
63	0xbc1d4bd0	-0.009600595
64	0x3b798e90	0.0038079359
65	0x3da12a72	0.07869424
66	0x3e047749	0.12936129
67	0xbcd5a959	-0.026081728
68	0x3e062407	0.13099681
69	0x3d646e72	0.05576939
70	0x3da48932	0.080339804
71	0xbe066d4f	-0.13127635
72	0xbc5cf94e	-0.013487173
73	0xbc03fd35	-0.008055975
74	0xbd082137	-0.0332348
75	0x3d891410	0.0669328
76	0xbca5b0ac	-0.020225845
77	0x3d15d5eb	0.03658096
78	0xbdd9b9d6	-0.106311485
79	0xbdbe2e92	-0.09286226
80	0x3dd75f62	0.1051624
81	0xbd9b4f28	-0.07583457
82	0x3dc5cc1a	0.0965807
83	0xbdadc550	-0.084849
84	0xbdb417af	-0.0879358
85	0xbca32077	-0.019912941
86	0x3d64f1ed	0.05589478
87	0xbdd1ed70	-0.10250366
88	0xbd3f0d04	-0.046643272
89	0xbdc26f28	-0.094938576
90	0x3daabf9f	0.0833733
91	0xbdb59d3f	-0.08867883
92	0x3dc5ecb9	0.09664292
93	0xbd61acec	-0.05509655
94	0x3bc34330	0.005958937
95	0xbc747c07	-0.014922149
96	0x3d2b1b8a	0.04177431
97	0x3e043719	0.12911643
98	0x3df33722	0.1187575
99	0xbe06e036	-0.13171467
100	0xbdcdca9e	-0.10048412
101	0x3d427fdc	0.047485217
102	0xbde24861	-0.110489614
103	0xbcdc0f67	-0.026862813
104	0x3daf64e5	0.08564166
105	0x3c829d92	0.015944276
106	0x3d6d5897	0.057945814
107	0x3d299e0d	0.041410495
108	0xbd95365d	-0.072857596
109	0x3c41361c	0.011792686
110	0x3d7e0c90	0.0620237
111	0x3d4b11d1	0.049577538
112	0x3e08a585	0.1334439
113	0x3d493c06	0.04912951
114	0x3d31e8d5	0.043434937
115	0x3d97fdd0	0.07421458
116	0xbd1de16b	-0.038545053
117	0xbd7985b7	-0.060918536
118	0x3eb88de0	0.36045742
119	0x3ca40d0a	0.020025749
120	0x3d5a8c26	0.053356312
121	0xbe6cacbe	-0.23112771
122	0xbcbb75b5	-0.022883276
123	0x3dbc37c3	0.09190323
124	0x3ce64f22	0.028113905
125	0x3c2add99	0.01042881
126	0x3d46e5f2	0.048559137
127	0xbde968b8	-0.11396927
128	0xbd767920	-0.060174108
129	0x3d8d6130	0.06903303
130	0xbdb23ab0	-0.087026
131	0x3d57c749	0.052680288
132	0x3cd33f84	0.025787123
133	0x3d91f611	0.071270116
134	0xbde914c6	-0.11380915
135	0x3cfc2392	0.03077868
136	0xbce71021	-0.028205933
137	0xbce5909b	-0.028023055
138	0xbe4a3cd7	-0.19749771
139	0xbd3383c1	-0.043826822
140	0x3cb0ece5	0.021597335
141	0x3c3f48f1	0.011675105
142	0xbd7ed1f9	-0.062211964
143	0x3e3b5daa	0.18297449
144	0xbd291bbd	-0.04128622
145	0xbcc362fe	-0.023850914
146	0x3d2131fb	0.039354306
147	0xbdf749fd	-0.12074659
148	0xbdb6f497	-0.089333706
149	0x3e18ad4a	0.14909855
150	0x3dbbfbeb	0.09178909
151	0x3da37c8d	0.079827406
152	0xbd2d33f3	-0.04228587
153	0xbd9d0567	-0.07667046
154	0xbd2e9b90	-0.042628825
155	0x3c228096	0.009918353
156	0x3c8910fd	0.016731733
157	0x3c07dad1	0.008291916
158	0x3d9b1b45	0.075735606
159	0x3e131bfd	0.14366145
160	0xbd7ce5b5	-0.061742503
161	0x3dd34b67	0.10317116
162	0xbdfff3b1	-0.12497652
163	0x3bc682bb	0.0060580648
164	0x3d930c11	0.07180036
165	0xbe94cf98	-0.2906463
166	0x3d9fd564	0.07804373
167	0x3dc90c18	0.0981676
168	0x3dce0a11	0.10060514
169	0x3df315f4	0.118694216
170	0x3e7233e6	0.2365261
171	0x3cf594d2	0.02997819
172	0x3d855cbf	0.065118305
173	0xbd0b8936	-0.0340664
174	0x3d3519e0	0.04421413
175	0xbc0d8f7c	-0.008640166
176	0x3de0bbe7	0.109733395
177	0xbdcf1ea7	-0.10113268
178	0x3daf46c2	0.08558418
179	0x3da99b8f	0.082816236
180	0xbdc6bc69	-0.09703905
181	0x3bbd4d71	0.005777054
182	0x3ea2b386	0.3177759
183	0xbc618335	-0.013764192
184	0x3e8cec39	0.27523974
185	0xbd80b9e9	-0.062854595
186	0x3e506b74	0.2035349
187	0x3d46eab2	0.048563667
188	0xbd355a61	-0.044275645
189	0x3d8c1b8e	0.06841193
190	0x3da1c3a0	0.07898641
191	0x3df1791e	0.117906794
192	0x3dee22e2	0.11627747
193	0x3e03e1d0	0.1287911
194	0x3daacc5e	0.08339761
195	0xbe69a543	-0.22816949
196	0xbdabf2fe	-0.083959565
197	0xbd9bae48	-0.07601601
198	0x3c2ded92	0.010615723
199	0xb8b5931d	-8.6581545e-05
200	0xbe0b573b	-0.13607495
201	0x3e3255e1	0.17415573
202	0x3e2a254f	0.16615795
203	0x3de71777	0.112837724
204	0xbcd28550	-0.025698334
205	0x3e0e21b4	0.13880044
206	0xba40b664	-0.0007351397
207	0xbdd29128	-0.102815926
208	0xbe515cf6	-0.20445618
209	0xbd1cb1f6	-0.038255654
210	0xbc02952e	-0.0079701375
211	0x3d1fa806	0.0389786
212	0xbd964337	-0.07337039
213	0xbe0ee0c0	-0.13952923
214	0x3bc2ca48	0.005944524
215	0x3c48238d	0.012215507
216	0xbdbf2b8d	-0.093344785
217	0xbd948fe4	-0.072540075
218	0x3e00956a	0.12556997
219	0x3d04163f	0.032247778
220	0xbe0cd7d3	-0.13754205
221	0x3cedd4fc	0.029032223
222	0x3de2030b	0.11035737
223	0xbddbd3c8	-0.107337534
224	0x3e05bdfe	0.13060758
225	0x3e1d7cff	0.15379713
226	0xbc7bec20	-0.015376121
227	0xbd25f465	-0.040516276
228	0x3d80b0f4	0.06283751
229	0x3e0e71a2	0.13910535
230	0x3c18194b	0.009283374
231	0x3e029c59	0.12754954
232	0xbd9ffb1a	-0.07811566
233	0xbcc492b9	-0.023995744
234	0x3d6fade9	0.058515463
235	0x3e50de07	0.20397197
236	0xbc80d2f0	-0.015725583
237	0xbd087a4c	-0.033319756
238	0x3d8eee0b	0.06978997
239	0xbd91e6f0	-0.07124126
240	0x3e1797d1	0.14804007
241	0xbd1d63d1	-0.03842527
242	0x3e066283	0.13123517
243	0xbc14d359	-0.009083592
244	0x3a80713e	0.0009799374
245	0x3d948ef0	0.07253826
246	0x3e1c1006	0.15240487
247	0xbd34155e	-0.04396569
248	0xbcc8fa45	-0.0245334
249	0xbe4f4cab	-0.2024409
250	0x3ea520bf	0.32251546
251	0xbd462ad8	-0.048380703
252	0xbd03c472	-0.032169767
253	0xbdac0ae9	-0.084005184
254	0xbdb33012	-0.08749403
255	0xbd4f132f	-0.050555404
