checkpoints/mut/model_Mutagenicity.pt_l2_emb64_hid64_netot1.0.pt (torch, 81428 bytes, 9 tensors)

virtual_embedding f4 [64]
000000 61 de 28 3f 94 c5 0c 3e ad b6 33 3e 50 08 50 3f
       0.65964323 0.13747245 0.17550154 0.81262684
000010 e1 a3 18 3f df 17 09 3f 99 b5 f3 3e 13 d3 54 3f
       0.5962506 0.5355205 0.47599486 0.83134574
000020 3f b6 20 3e 37 fb 3a 3f d8 da 0e 3f ee 69 4f 3f
       0.15694521 0.73039573 0.5580268 0.8102101
000030 0b d4 02 bc 48 41 ce bd 53 1c e2 3d 36 95 2b 3e
       -0.007985125 -0.10071045 0.11040559 0.16756138
000040 32 72 34 3e 65 eb 95 3e a7 b2 14 3f 57 a3 d4 3e
       0.17621687 0.29281154 0.580851 0.41530868
000050 a6 11 7c 3e d0 b3 1a 3e 6f 50 e1 3d 29 1a 8b 3f
       0.24616107 0.15107656 0.110016696 1.0867358
000060 b9 94 23 3f 68 51 8d 3f d0 7e 4f 3f 8b 38 84 3f
       0.6389881 1.1040468 0.81052876 1.0329756
000070 e6 49 9e 3e c7 76 8e 3e 65 b6 4e 3f 67 b5 93 3f
       0.30915755 0.27824995 0.8074706 1.1539735
000080 26 31 a6 3e 81 73 77 3e 2a 59 bf bd 62 76 67 3f
       0.32459372 0.24165155 -0.093431786 0.9041501
000090 1e 35 22 bd 3a 31 1d 3e 38 a2 80 3e ea 81 9a 3e
       -0.039601438 0.1535081 0.25123763 0.30177242
0000a0 6f be ac 3e a6 71 a8 3e 3c c2 9a 3f c0 ab e5 3c
       0.3373904 0.32899207 1.2090526 0.028035998
0000b0 cc 5d 25 3f f9 ce 11 be ad 8a 2e 3f cb d2 73 3f
       0.6459625 -0.1423911 0.6818035 0.9524352
0000c0 bd 65 b4 3c eb 6a a9 3e 42 29 0c 3f 02 2f 0c 3f
       0.022021169 0.33089384 0.54750454 0.5475923
0000d0 c8 67 da 3e 08 c7 57 3f 22 5f 7c 3e f8 97 19 3f
       0.42657304 0.8428807 0.24645665 0.5999751
0000e0 f8 8a 51 3e 0f 65 53 3b 43 8b 8f ba f1 f0 34 3f
       0.20463169 0.003225628 -0.0010951537 0.7068015
0000f0 32 20 18 3f bb ea 92 3f 4a f9 00 3f bc c2 ff 3e
       0.59424126 1.1477884 0.50380385 0.49953258

embed_transform.0.weight f4 [64, 142]
000000 49 d6 af 3b 14 c8 d3 bc a5 7e 2a bd c0 ce a8 3d
       0.005366121 -0.02585224 -0.041624684 0.082425594
000010 bc 8b db ba 5f 4d 0b bb 4c 4e 8a 3d 1f a0 c3 bc
       -0.0016750018 -0.0021255834 0.06753215 -0.023880063
000020 6f 93 25 bc b1 35 d1 3b b8 b4 4b 3b aa 55 ed bd
       -0.010105952 0.0063845743 0.0031083059 -0.11588605
000030 90 93 6b 3e bf aa 7c 3d aa 1d ba bb 68 4e 4c bc
       0.2300551 0.061686274 -0.0056798058 -0.012469865
000040 13 54 1c 3d ee b2 4c 3d 0a 00 aa 3c ff dc df bb
       0.038166117 0.04997533 0.020751972 -0.0068317647
000050 70 ce 1f bd 16 65 97 3c a7 fd 00 bc e1 aa b8 bc
       -0.039015234 0.018480819 -0.007872975 -0.022542419
000060 a9 87 4c bd bb 16 48 3c 49 d9 d7 3c 98 33 be ba
       -0.049934063 0.012212451 0.026348727 -0.0014511226
000070 e8 1d be 3c 5a 0f 98 3c 3c 2b b1 bc 21 57 e4 bc
       0.02320762 0.018562008 -0.021627061 -0.027873578
000080 f2 e9 10 bd e8 e6 c0 b9 b1 28 a6 3c d2 1f 28 bc
       -0.035379358 -0.00036793132 0.020283075 -0.010261493
000090 05 c1 01 3c 74 dc d4 3b 61 d0 fc 3b 27 14 67 bd
       0.007919555 0.0064960066 0.0077152704 -0.056415703
0000a0 7d 09 fe 3b 9c 73 25 3d f1 e5 3c 3c 39 cb 25 3c
       0.007752596 0.040393457 0.011529432 0.010119253
0000b0 59 98 2a 3b d6 f3 5b 3b ed b9 0c 3c 59 d6 8a 3b
       0.0026030748 0.0033562086 0.00858925 0.004236978
0000c0 18 3b a9 bc f8 84 5f 3c d6 80 36 3c bf bb 96 3a
       -0.02065806 0.013642542 0.011139115 0.0011500044
0000d0 e3 07 c0 3c b0 15 f1 3b bd b0 c5 bc 19 85 4a 3d
       0.02344126 0.0073573217 -0.024132127 0.049443338
0000e0 61 2e de bc c9 b9 75 3c 06 be 03 3c cc a5 0c bd
       -0.027121725 0.014997908 0.008040911 -0.034337804
0000f0 61 09 71 3b 1d 5a ee ba e9 e7 9f 3c f5 e7 91 bc
       0.0036779272 -0.0018184815 0.019519763 -0.017810801
000100 24 58 b7 3a f2 4b c0 bc 2c 71 e0 3c 05 e1 c9 bc
       0.001398806 -0.023473714 0.027397715 -0.02464343
000110 7e 4b 8e bb d7 2f 07 3d f5 11 12 3c 48 d7 f0 b8
       -0.0043424955 0.033004608 0.008915414 -0.00011484191
000120 b7 39 94 3d 45 f7 74 3d db e2 15 3b 7a 26 9c 3c
       0.07237571 0.059806127 0.0022870812 0.019061316
000130 b8 c5 15 3c 63 13 6a 3c ee 31 a6 bd 27 27 60 3d
       0.009141378 0.014286849 -0.08114992 0.05472484
000140 b6 99 aa bd 33 7c 39 3d ef 04 59 3e eb 9a 0d bd
       -0.08330099 0.04528446 0.21193288 -0.03457157
000150 ba ab a0 bc 0d 33 87 bc e9 d6 4b bb d9 18 9f bd
       -0.019613136 -0.016503835 -0.0031103438 -0.07768411
000160 7c 0e b8 3e fe df 05 be 86 73 04 bd 35 8a 2c 3e
       0.3594855 -0.13073727 -0.032336734 0.16849597
000170 05 58 a3 3d 12 fd bd 3c 2b c9 ce 3c 27 4e 83 be
       0.07975773 0.023191962 0.025242409 -0.25645563
000180 5b a9 73 3d ff 95 ae 3d a9 01 0e 3d d8 cd 1e bd
       0.05948768 0.08524703 0.034669552 -0.038770527
000190 50 7c b0 bd 7a 2c 81 be 9c 5f a6 bd 99 6a 74 bd
       -0.08617461 -0.25229245 -0.08123705 -0.059671972
0001a0 26 ff ee bd ee 81 25 bd 86 d6 54 3c 8b 82 a3 3d
       -0.116697595 -0.040407114 0.0129905995 0.079838835
0001b0 fc 1e 22 3e 9b 6f bb 3d 74 46 e9 3b 4f a7 c1 bd
       0.15832132 0.091521464 0.0071189944 -0.0945574
0001c0 29 0c 4c 3d 40 75 e3 3d e0 e0 26 be 65 b7 a3 bd
       0.049816284 0.11106348 -0.1629672 -0.07993964
0001d0 b6 2c 95 bd 50 1c 2f 3d 7d a1 02 3e 1c 76 ac 3f
       -0.072839186 0.04275161 0.12756915 1.3473544
0001e0 51 7b ff 3d 9e 31 4f 3d 45 d1 91 3d 65 73 e0 3e
       0.124746926 0.050584428 0.07119993 0.4383804
0001f0 16 f1 64 3d ad f4 88 bd 9c ad 25 bd 8f 3c 51 3d
       0.05589398 -0.06687293 -0.04044877 0.051083144
000200 53 d3 fe 3d 85 32 ba bd 81 7e d6 bd ec ea b2 3c
       0.12442651 -0.09091667 -0.104733475 0.021840535
000210 4c 87 19 bd db c7 e7 3c ce d7 4b 3d a7 ae 20 bd
       -0.037482545 0.02829354 0.049766354 -0.03922906
000220 9a af 0d bd 20 ac ea bd eb 6a 89 3e f9 a4 a2 be
       -0.034591295 -0.114586115 0.26839384 -0.3176649
000230 5d 19 54 3d 80 d8 f7 3d 5b f0 27 bc 18 c4 7d bb
       0.051782 0.12101841 -0.010250176 -0.0038721617
000240 62 cf 96 bd f4 02 b7 bb 48 a9 57 3c b2 17 8e 3d
       -0.07363774 -0.005585069 0.013162918 0.06938113
000250 2a 62 19 bd 5b fc f1 bc 5c 15 31 be de c0 82 3d
       -0.037447132 -0.029539278 -0.17293304 0.06384443
000260 fc 5b 15 3e a2 95 d1 3d b7 62 8b bd ac 85 a0 3d
       0.1458587 0.10233618 -0.06805938 0.07837996
000270 4f fa b6 bd b1 f4 f6 bc 52 57 df 3c 67 4b 92 bb
       -0.08934461 -0.030145975 0.027263317 -0.004464555
000280 c3 90 80 3c 31 07 36 3d c1 c2 e5 bd 03 ff 87 3c
       0.015694028 0.044440452 -0.11218787 0.016601091
000290 d6 c8 0b bd f4 83 8a bd 00 c4 6d bc e5 d0 82 bc
       -0.03412708 -0.06763449 -0.014512062 -0.01596875
0002a0 e8 09 6b 3d ae ca 99 bc bf 78 02 bc 6b 66 d7 3c
       0.057382494 -0.018773403 -0.007963358 0.026293954
0002b0 f9 d9 0c 3d 48 02 6c bd 32 3d 62 3b ad a5 50 bc
       0.034387562 -0.057619363 0.0034521339 -0.012734813
0002c0 2b 8e 13 3b a1 50 fa 3a bf c6 6f bc 9e 4a 22 3d
       0.0022515159 0.0019097516 -0.014634787 0.03962194
0002d0 a6 e9 93 3c b3 e2 33 bc 35 8e 0c 3d 97 00 7d 3d
       0.018055748 -0.010979342 0.034315307 0.06176814
0002e0 87 18 88 3d 0f 18 82 3c 80 4f 46 3d 48 54 2e 3d
       0.06645303 0.015880613 0.04841566 0.042560846
0002f0 f2 27 b1 3b 22 e4 5b bb 76 47 9a bc dc ee d8 3c
       0.005406373 -0.0033552726 -0.018832903 0.026481085
000300 f2 00 e3 ba b8 d9 ab bc 44 e4 01 3d 4b c3 10 3d
       -0.0017319007 -0.02097784 0.03171183 0.035342496
000310 d1 bc 8f bd 90 42 50 3d 74 7b 60 3b 3f b0 3c bb
       -0.07018436 0.05084473 0.0034253271 -0.0028791574
000320 20 99 8b bc ea 32 2a bd 87 52 8e bd 22 99 c2 ba
       -0.01704079 -0.04155246 -0.069493346 -0.0014846663
000330 15 75 6e 3d b2 70 42 bd ab 0b ff bc 29 ed cf bc
       0.058217127 -0.047470756 -0.031133493 -0.025381641
000340 f5 8c 20 3d 31 11 15 bd ea 5f 13 3e 89 fc 70 3c
       0.039196927 -0.036393348 0.14392057 0.014708647
000350 10 09 25 3d e1 e2 85 bd b8 27 87 3d 28 fb 74 3e
       0.040291846 -0.06537414 0.065993726 0.23923934
000360 e2 6c d9 3b ac 4d a5 3c 65 74 5b 3d d7 b8 18 bd
       0.0066352943 0.020178638 0.0535778 -0.037285652
000370 05 2a a2 be 66 84 9a 3e 41 94 ce be 9a 09 7c 3e
       -0.31672683 0.30179137 -0.40347484 0.24613038
000380 d5 1b e8 3c b7 55 25 be 83 58 1e be 5c 35 34 3e
       0.028333584 -0.16145979 -0.15463452 0.1759848
000390 1a 93 32 be 82 c8 88 be 41 24 5d 3c 00 21 e4 be
       -0.17438927 -0.26715475 0.013497413 -0.44556427
0003a0 76 a8 69 be 87 c2 c7 3e 0a 91 ae 3e 72 b9 22 3e
       -0.22818169 0.390156 0.3409503 0.15891054
0003b0 45 52 bb 3e cb dc 84 bf 2b 5d 0b 3e 02 08 33 bd
       0.36586204 -1.0379881 0.1360976 -0.04370881
0003c0 38 a2 49 3e 5b 3a 90 3d 0c 04 d4 be b7 2d 77 bf
       0.19690788 0.070423804 -0.41409338 -0.9655413
0003d0 fc 24 11 3e dd ba 18 3d 5d a8 f0 3d 72 ba 32 be
       0.14174265 0.03728758 0.11750863 -0.17453936
0003e0 0f 83 ac 3d a8 d1 9e 3e b5 bc ff 3e 4a d2 94 3e
       0.08423435 0.3101933 0.4994866 0.29066688
0003f0 eb 51 e7 3d f8 5c 95 be 6a 4d 83 be c8 7f ef bc
       0.112949215 -0.29172492 -0.25645 -0.029235736

embed_transform.0.bias f4 [64]
000000 b6 89 ae bb e8 85 45 3c be e3 de 3c 78 33 1c 3d
       -0.005326475 0.0120558515 0.027208205 0.038135022
000010 11 ea 7c 3b 69 ea c2 bb 86 01 11 3d 13 f3 03 bc
       0.0038591663 -0.005948354 0.035401843 -0.008053559
000020 1c 7e 93 3b ed 91 69 3b d2 34 1f 3d 2a c1 0d 3c
       0.0045011174 0.0035639957 0.038868733 0.008652011
000030 5e 79 bb 3c 8a 09 09 3a cb ce 27 3d 46 1a 8f bc
       0.02288502 0.00052275567 0.040968698 -0.017468583
000040 41 5d 8d 3c 3a 6f cd 3a 9b d0 57 3d 87 d7 19 bd
       0.017256381 0.0015673407 0.052689176 -0.03755906
000050 6f 6d b6 bc 60 b4 7b bb 7e 9e 68 bb 1c bf 55 3d
       -0.022268979 -0.0038407072 -0.003549486 0.05218421
000060 48 c2 34 3d ac 4a a2 38 7e 3b 16 3d 74 04 94 3c
       0.044130594 7.738671e-05 0.03667783 0.01806853
000070 d8 32 0e 3d 94 a0 d0 bc f7 66 5f 3b bc 86 94 3c
       0.034716457 -0.025467195 0.0034088471 0.018130653
000080 74 eb 0c 3c 54 c2 f2 ba f3 1f 84 bb b9 84 c5 3b
       0.008601058 -0.0018521049 -0.004032129 0.0060277847
000090 a6 67 02 3d 99 b1 b5 3c 3e 62 76 bc 8e ce 81 bc
       0.031837128 0.022179412 -0.015038071 -0.015845563
0000a0 55 88 d7 3b 1f b8 ad bc 7a 3a 8e 3c d6 6b d7 bc
       0.0065775313 -0.02120596 0.017361868 -0.026296537
0000b0 10 b5 43 3d ad 2e da 3c 00 8d fe b9 95 e4 6d 3d
       0.047780097 0.026633585 -0.00048551708 0.05807932
0000c0 df 6d 6e 3c 87 e0 3e bc 91 24 8e 3d cd 53 9f 3b
       0.0145525625 -0.011650211 0.06940568 0.0048622848
0000d0 33 6e 78 3d 08 8f 2d bc fb 99 37 3d f5 ab 65 3d
       0.06065197 -0.010593183 0.04482458 0.056072194
0000e0 2a 22 d6 3c 7f 42 16 3c e3 96 5a bc 39 3e 30 3d
       0.026139338 0.009171127 -0.013341638 0.04302809
0000f0 bd 84 6f 3c 86 e6 2f 3d 09 bb 67 bc cb a5 60 bc
       0.01461905 0.042944454 -0.014143714 -0.013711403

conv.0.lin_rel.weight f4 [64, 14]
000000 ba ef d3 bd 4d e7 43 3e f0 3b 16 3f ff 61 57 3d
       -0.103484586 0.19131203 0.5868521 0.05258369
000010 9f dd 63 3e c1 82 ac bf 24 dd 64 3f b0 7e d0 bc
       0.2225251 -1.3477403 0.89399934 -0.025451034
000020 0e e8 a4 be 68 c3 01 be f1 68 21 3e df 72 75 be
       -0.32208294 -0.12672198 0.15762688 -0.23969601
000030 84 33 99 bb 29 5e 87 38 d0 46 f5 bd db 96 9d 3e
       -0.0046753306 6.45484e-05 -0.11976397 0.30779156
000040 d7 ea 46 3e 63 c9 62 bf 52 19 a4 ba 66 d8 d8 3e
       0.19425522 -0.8858854 -0.0012519753 0.423526
000050 33 35 a2 be 9b 0a a3 3e a4 fd 22 3f 9d 29 7a 3e
       -0.31681213 0.3184403 0.63668275 0.24429937
000060 0c 39 7f be 6e da 71 be 3e 87 61 3e 9b 4e 31 be
       -0.24924105 -0.2361848 0.22024247 -0.17315142
000070 e8 96 90 3d 23 ea bb b9 a3 97 50 bb b7 a8 b3 3d
       0.07060033 -0.00035841865 -0.0031828664 0.08772414
000080 4e 80 1f 3e de fc c6 3c 7f c4 58 3c cc d5 84 be
       0.15576288 0.024290498 0.013230442 -0.25944364
000090 98 80 47 3e c7 65 31 3d c8 00 7a bc bb a8 37 be
       0.19482648 0.043309953 -0.015258975 -0.1793546
0000a0 0f 43 6d bd 09 4a d4 3d a8 c6 62 3d b1 ca b8 3e
       -0.05792528 0.103656836 0.055365235 0.3609214
0000b0 20 fa 56 3d c9 3c ce 3d 63 19 b6 be fc 71 23 bf
       0.05248463 0.100701876 -0.35566244 -0.638458
0000c0 8b 35 0f 3f 6f 98 2a bf b7 ac 8d 3e b8 94 2b be
       0.55941075 -0.66638845 0.27670833 -0.1675595
0000d0 93 4d 7f be 59 44 42 3e 36 6e 21 3e ae 57 36 bd
       -0.24931936 0.18971385 0.15764698 -0.04451721
0000e0 ef 78 45 3e 66 32 23 be d9 b4 eb 3c b6 65 12 bf
       0.19284414 -0.15937194 0.028772758 -0.5718645
0000f0 7f 1a 87 bd 88 6e 16 be d4 3b f5 be 64 d9 8b 3e
       -0.065968506 -0.14690602 -0.47897208 0.27314293
000100 a4 de c6 be 99 68 a6 be f5 b5 56 3e 21 16 20 3e
       -0.38841736 -0.32501677 0.20967849 0.15633442
000110 4f 08 1a be 8d 06 31 3c 69 5e 2f 3e 0e 2e 82 3c
       -0.15042232 0.0108047845 0.17125858 0.015891101
000120 03 83 19 bc 1e 5c cd 3d 56 29 93 3e ea 23 8b 3e
       -0.0093696145 0.100273356 0.28742474 0.27175838
000130 3d 29 93 3e dc b6 39 be 32 0b 31 be ac 45 0b 3e
       0.287424 -0.18136162 -0.17289427 0.13600796
000140 c8 7c 8d bd 7c 0d fd bd 5d a6 2d bc fb e0 a2 3d
       -0.06908566 -0.123560876 -0.010598746 0.07953068
000150 09 b2 96 bf 25 36 c8 3d 02 8c 95 3e 68 ad 18 3d
       -1.1773082 0.09775952 0.2920838 0.037274748
000160 b2 02 9d 3e 5b ee 9f be 5d b5 2d be 86 9b 04 be
       0.3066612 -0.31236538 -0.16963716 -0.12949952
000170 5e c7 3e bb c5 9f d0 bd 05 9e 61 be 4d a0 45 3e
       -0.0029110531 -0.101867236 -0.22032936 0.19299431
000180 1a f2 22 bd d1 9d 17 3b bf f7 9d be 68 ff 33 3c
       -0.039781667 0.0023134837 -0.30853078 0.010986187
000190 e6 1c 04 3c 01 ce 58 3e 30 4e 81 be 87 71 bd 3e
       0.008063531 0.21172334 -0.25254965 0.37000677
0001a0 5f 2b 8c 3e 32 46 f2 be 8c ed 75 3e df 08 ab bd
       0.2737684 -0.4731918 0.24016398 -0.083513014
0001b0 ed 50 10 be b0 a4 0e be d2 67 fd 3d c7 c6 eb 3d
       -0.1409337 -0.13930011 0.12373318 0.11512523
0001c0 14 05 c8 bd 42 57 89 be a9 ac 34 3d 77 42 2d be
       -0.097665936 -0.26824385 0.044109974 -0.16919886
0001d0 61 02 f0 bc 29 32 8d bc 76 48 8d 3e 5f f4 8e 3e
       -0.02929801 -0.017235832 0.27594346 0.27920815
0001e0 bb 56 78 3e 68 c5 fb 3e 8c 69 14 be 9b 60 6c be
       0.24251835 0.49174047 -0.14493388 -0.23083727
0001f0 b4 25 a4 bd ae fe e3 3d a6 0e 84 be 5c a2 84 3e
       -0.08015004 0.11132561 -0.25792426 0.2590512
000200 d8 76 f4 3e 1e 25 72 3e c4 19 0e bd 41 93 ae be
       0.4774692 0.23646972 -0.03469254 -0.3409672
000210 d5 b8 8e 3e d2 3e 39 bb c9 cf 1d bf b2 c8 4d 3e
       0.2787539 -0.0028266204 -0.6164518 0.2009609
000220 44 0a 96 3d 6e be 77 3d 6b eb b3 3d 3f b2 86 3d
       0.07326177 0.060484342 0.08785137 0.065769665
000230 bf 22 ba 3b db ab 63 be bb 1a c5 3e 59 32 b3 3d
       0.0056804116 -0.22233526 0.38496956 0.087498374
000240 91 27 cb 3e 42 eb d0 3e eb f8 78 bf 60 86 56 be
       0.39678624 0.40804487 -0.9725482 -0.20949697
000250 92 be b3 be bf c0 82 3e af 9c ea 3c e9 3b 3c be
       -0.3510633 0.2553768 0.028639166 -0.18382229
000260 59 9a 6e 3e cd 1f 3a 3e 89 93 d5 bd ca af c7 3b
       0.23301066 0.18176194 -0.10428531 0.0060939537
000270 02 a9 1f 3d 55 c0 e9 bd f1 af 72 3c 92 d8 6f 3e
       0.038979538 -0.114136375 0.0148124555 0.23422459
000280 11 27 09 be 32 fa 83 bd 14 05 2a be f4 eb e5 bd
       -0.13393809 -0.06444205 -0.166035 -0.11226645
000290 98 27 74 3e 1c 1a 07 be 02 a5 95 3d 10 92 48 3d
       0.23843229 -0.13193554 0.07306863 0.04896742
0002a0 87 de 0f bd 88 05 66 bd b4 97 29 bd 0c 5a 01 bd
       -0.035124328 -0.05615762 -0.04140444 -0.031580016
0002b0 64 2d 8e be e0 72 80 be 25 1d 10 be 08 a7 37 3e
       -0.27769005 -0.25087643 -0.14073618 0.17934811
0002c0 da b7 5e bd 2e be da bd 7c 86 13 bd 17 6a 60 3e
       -0.054374553 -0.10680805 -0.036016926 0.2191547
0002d0 ab b2 c2 3d 15 c2 06 3b 9d d1 d7 3c 00 eb 21 be
       0.095067345 0.002056246 0.026345069 -0.15812302
0002e0 92 2a 3d 3d ba 5a 01 3e 18 3d 6d bc cb a9 6e 3e
       0.046183176 0.12632266 -0.014479898 0.23306958
0002f0 62 a7 37 3d b2 9f d6 bd e8 20 e7 3d 9a 31 a8 be
       0.044837363 -0.10479678 0.11285573 -0.32850343
000300 d6 c9 2b 3c 8f b2 9c 3d f8 0a 7d be 27 31 62 3d
       0.010485133 0.07651245 -0.24711215 0.055222657
000310 5c d7 de bc 4c c8 fa bd d0 6b 3e 3e 41 29 76 3e
       -0.0272023 -0.12245235 0.18595815 0.24039175
000320 10 c6 c6 3c 32 89 e3 be 23 06 27 3e f7 41 13 bf
       0.024264365 -0.4444061 0.16310935 -0.5752253
000330 a4 90 b2 be 5e c8 33 3f 5a d2 92 bd 24 76 42 be
       -0.34875977 0.7022761 -0.071690276 -0.1899038
000340 57 4d 70 3e f5 7b 57 3e 15 2b 45 be 86 90 d8 bc
       0.23467003 0.2104338 -0.19254716 -0.026436102
000350 aa d4 45 be e0 c6 c1 be e7 ce 90 bd 6d 5b b9 3d
       -0.19319406 -0.37847042 -0.070707135 0.09050641
000360 36 a9 49 be 17 bb ba 3e 23 46 23 be 01 d7 d2 3d
       -0.19693455 0.36470863 -0.15944724 0.10294915
000370 ae 4c 1b 3d af f5 fc bd 43 e5 07 3c 1d cc db ba
       0.037914924 -0.12351548 0.008294406 -0.0016769205
000380 0d 57 4b 3d 70 cd 62 3c 91 17 96 3d b8 66 80 3c
       0.049643565 0.013842925 0.07328714 0.01567398
000390 4c 36 ee 3d eb 0c de bd 88 48 94 3e 16 db c5 bd
       0.1163145 -0.10842308 0.28961587 -0.09660928
0003a0 d9 8d 29 3e 2d 80 da bd 75 ff 55 3e 0d 18 0b bd
       0.16558017 -0.10668979 0.2089823 -0.033958483
0003b0 ab 03 50 bd 1c aa 31 3e 87 32 99 3d 3e c7 02 3f
       -0.050784748 0.17350048 0.074803405 0.5108527
0003c0 92 14 ba be 23 65 6a bf cf d4 d1 be 9c fc a9 3d
       -0.3634382 -0.9156057 -0.40982673 0.083001345
0003d0 80 9a e0 3e 53 ca e0 3d ff 04 b5 3e d8 07 2a be
       0.43867874 0.1097609 0.35355374 -0.16604555
0003e0 e7 11 80 3e bf 12 82 bc 9c 1a 0c be d7 b0 6f 3d
       0.25013658 -0.01587808 -0.13682026 0.058518257
0003f0 75 b9 09 3e 1a 4e 74 3e a4 03 ab be aa c2 9c 3d
       0.13449652 0.23857918 -0.33401215 0.07654317

conv.0.lin_rel.bias f4 [64]
000000 40 e4 47 be fc 8a ba bd a3 6a 00 be db 24 06 be
       -0.19520664 -0.091085404 -0.12540679 -0.13099997
000010 01 24 89 be 50 f7 75 be c6 54 fe bd 21 9e 26 3e
       -0.2678528 -0.24020123 -0.12418513 0.16271259
000020 1d e1 38 3e 67 18 34 be f3 e8 25 be 5b 7a 0e 3e
       0.18054624 -0.17587434 -0.16202144 0.13913862
000030 05 5f a8 3d cc 14 c4 bc c9 d0 dc bd aa 26 5b 3e
       0.082212485 -0.023935698 -0.1078201 0.21401468
000040 57 80 60 bd 6f 98 11 be b3 d4 09 be d1 be 3d 3e
       -0.054809894 -0.14218305 -0.13460045 0.18529822
000050 44 3d 60 3e 4a 73 d5 be ba 25 08 3e 96 01 5d bd
       0.21898371 -0.4168952 0.13295642 -0.05395659
000060 bc 4f 20 3d 1e ca b2 bd a0 90 0a be d5 a5 55 3d
       0.03913854 -0.08729957 -0.13531733 0.052160103
000070 e2 8c ff 3d ec 90 80 3e d0 96 bb 3d a2 59 9a be
       0.12478043 0.25110567 0.091596246 -0.3014651
000080 d3 d5 8d 3e aa dd b9 be 8a be 87 3d d9 4e b6 3d
       0.27702197 -0.3630193 0.06628139 0.08901758
000090 30 7a 42 3e a9 98 d7 3d 5b 69 6c 3d c8 27 02 3e
       0.18991923 0.105271645 0.057717662 0.12710488
0000a0 ed 97 8f be b6 05 b5 3e 4d e4 d7 bd fe e3 8d 3d
       -0.28045598 0.3535592 -0.10541592 0.06928252
0000b0 54 e2 98 be 1d 72 6b be 25 43 03 3e 54 92 cd be
       -0.29860175 -0.2299275 0.12818582 -0.40150702
0000c0 87 16 7a 3c ac 4a 40 3e eb d0 29 3e 60 9d 83 be
       0.01526416 0.18778485 0.16583602 -0.25706005
0000d0 c9 f3 5b 3d 14 12 6f 3e 17 b8 e0 be e7 f3 1a be
       0.05369929 0.2334674 -0.4389045 -0.15132104
0000e0 d3 6c 9f be 97 23 93 be 14 95 2d bd 95 5c a4 3d
       -0.31137714 -0.2873809 -0.0423785 0.08025471
0000f0 60 81 1e 3d 75 98 3e be 63 38 88 be 8f 33 c5 3c
       0.0386976 -0.18612845 -0.2660552 0.024072437

conv.0.lin_root.weight f4 [64, 14]
000000 9d ce 15 3e e8 98 72 3e 67 44 bd 3d 36 89 88 3e
       0.14629598 0.23691142 0.09241562 0.26667184
000010 53 43 da be 18 c7 2f 3e b8 cd 74 be 01 fa ca 3e
       -0.4262949 0.17165792 -0.239066 0.39643863
000020 b1 a1 d0 be 90 69 7a 3e 20 c8 37 be 8d c5 e2 3d
       -0.4074836 0.24454331 -0.17947435 0.11072836
000030 e4 55 37 3e 14 12 0b 3e d5 25 86 3e 84 a9 2b 3e
       0.17903858 0.13581115 0.2620074 0.16763884
000040 13 bb 7e bf 18 28 97 bd 4c ce de be f2 6b 45 3e
       -0.995042 -0.07380694 -0.43516767 0.19279459
000050 aa 76 98 3d eb 3c 1b 3a 68 90 da be 39 5b 7d 3f
       0.074445084 0.0005921858 -0.42688298 0.9896732
000060 14 6a d6 bd 48 24 8c 3c 5e fa 8a bd af d7 69 3e
       -0.104694515 0.017107144 -0.06786035 0.22836183
000070 49 d3 cb bc 03 64 23 be c3 87 10 bd 5e 0f d3 bd
       -0.024881022 -0.1595612 -0.035285722 -0.103056654
000080 d5 5b c1 bc 25 d2 de 3c 51 b1 83 3d af a7 27 bc
       -0.02360336 0.027199814 0.06430305 -0.01023285
000090 01 29 be 3d d5 82 d6 bd 3a f5 37 3c 7a da 12 be
       0.092851646 -0.10474173 0.0112279 -0.14341155
0000a0 5c 52 d3 3e c8 6c ce 3d 43 70 2c bf 17 cc 81 be
       0.41273773 0.10079342 -0.673588 -0.2535102
0000b0 4e ce f8 3d 6f 47 df be 73 47 10 3e 4d d9 95 3e
       0.121487245 -0.43609187 0.14089756 0.2926735
0000c0 cc d5 3a be 88 f4 8c be 30 28 91 3e 87 19 8d bf
       -0.1824562 -0.27530313 0.28350973 -1.1023415
0000d0 5b 41 ee 3c 29 c1 9d bd ff 03 b1 3d 23 ef 9a 3e
       0.029083898 -0.07702858 0.0864334 0.30260572
0000e0 95 fa 18 3e 32 23 87 be 71 17 ec bd d8 a6 8c 3d
       0.1493934 -0.2639404 -0.115279086 0.068677604
0000f0 a3 eb 5f 3e 68 4d 16 be 8d f1 6e be 34 a2 e1 3e
       0.21867232 -0.14677966 -0.23334332 0.44069064
000100 21 31 06 bf 70 6d 17 3d d3 7a 04 be 1c 7f d1 3e
       -0.52418715 0.036969602 -0.12937479 0.4091729
000110 e9 96 06 3e 42 a7 87 bd 9a 17 42 be c5 a8 62 3e
       0.13143505 -0.06623699 -0.18954316 0.22134693
000120 ad 4b e4 3d b1 34 38 be fc a8 15 3d da 31 43 be
       0.111472465 -0.1798885 0.03653811 -0.19061986
000130 8e 35 9c bd 3d a9 f3 3c f3 93 29 bf 2c 80 6d bd
       -0.07627402 0.029743785 -0.6624138 -0.057983562
000140 ec a7 32 3e 06 15 10 3e 1c c2 56 bd 7c 39 cf bd
       0.1744687 0.1407052 -0.05243121 -0.10118386
000150 05 8f e8 be 59 ba 92 3e bc f4 99 be 18 ed d2 3e
       -0.45421615 0.28657797 -0.3006953 0.41196513
000160 b4 3d 54 3f fb 0c a3 bc 28 ff 2b bd 14 a8 31 bf
       0.8290665 -0.01990365 -0.041991383 -0.6939709
000170 bf fc 8c 3e e0 54 9d be 73 ed db 3d 2e 63 18 be
       0.2753658 -0.30728817 0.10738649 -0.14881584
000180 41 9a ca bc 74 4b 21 be a8 5c e1 bd b5 a8 d3 3d
       -0.024731757 -0.1575144 -0.11004001 0.10334913
000190 52 bc 31 3e 5b 34 30 3e 09 90 9b be 59 b4 8c 3e
       0.17356995 0.17207472 -0.30383328 0.27481344
0001a0 df ff 87 3d 11 b2 db be 4f df a9 3e cd ab 9d bd
       0.066406004 -0.4290929 0.33178183 -0.07698784
0001b0 ab a0 51 3d 9f 09 ea 3d 0d c3 5f be 53 38 18 3c
       0.051178616 0.11427616 -0.2185175 0.0092907725
0001c0 56 53 d7 be f0 a6 62 be 8b 37 83 3d f0 1b c8 bd
       -0.42055768 -0.22133994 0.06407078 -0.09770954
0001d0 bf b8 dc 3e bf e8 cd bd 28 bb b8 3e d9 8a 80 bb
       0.431097 -0.100541584 0.3608029 -0.003922802
0001e0 e3 1c 52 be 8f 85 5b bd ed d4 80 be f5 bf cf 3e
       -0.20518832 -0.05359417 -0.2516245 0.4057614
0001f0 36 66 8d bc 5f 3d c0 3d dd ad 54 3e c2 41 9f bd
       -0.017260652 0.093867056 0.20769449 -0.07776214
000200 d6 29 41 be 30 30 a1 be fd be a6 be 22 09 eb 3d
       -0.18863615 -0.31482077 -0.32567587 0.11476351
000210 0b cb 07 3f da 02 8f 3e b6 44 c4 be 4c 9e c3 3e
       0.53044194 0.27931863 -0.38333672 0.38206708
000220 4f cb 2f be 74 0f d4 3e 3b 6f ea bd 1f 10 16 3e
       -0.171674 0.4141804 -0.11446997 0.14654587
000230 e4 7f 0a bd 07 a9 80 3d 40 70 1c 3e e4 ff b5 bd
       -0.033813372 0.062822394 0.15277195 -0.08886698
000240 e9 42 0d 3e 35 64 83 be 89 04 67 be f9 28 b4 3d
       0.13795055 -0.2566239 -0.22560324 0.087968774
000250 6b e3 89 be f3 a1 43 bd 26 ab 4a be ed 87 ce 3e
       -0.2693132 -0.04776187 -0.1979185 0.40338078
000260 59 86 6c 3e 8b d4 9f bd 70 06 25 3e ee d0 71 be
       0.23098125 -0.07804211 0.16115737 -0.23614857
000270 2b 16 63 bd 36 d3 b0 3d f7 c4 4d 3c a6 2c 00 3e
       -0.055441063 0.08634035 0.012559167 0.12517032
000280 3a d6 30 be 42 dd d4 be 25 16 aa 3e 52 22 c8 3e
       -0.17269221 -0.41575056 0.3322002 0.39088684
000290 17 d8 24 be 47 89 dd bc 2f a6 b7 3e 7f 17 fd 3e
       -0.16098057 -0.027042998 0.35868976 0.4943199
0002a0 de 7b 49 3b f4 8e b1 bd 80 ea 87 be c5 72 8e be
       0.0030743997 -0.08669844 -0.26546097 -0.27821937
0002b0 0b eb 1f bd 7f b7 9e 3e 96 25 17 be d2 a8 67 be
       -0.039042514 0.3099937 -0.14760432 -0.22622994
0002c0 be 71 ac 3d 21 eb 10 be 64 a1 81 be b8 07 c0 3b
       0.08420132 -0.14152195 -0.25318444 0.005860295
0002d0 bc 0f 9c 3e e9 3f 07 3e e1 4e 4d bd 0f fe a6 bd
       0.30480754 0.13207974 -0.050124053 -0.081539266
0002e0 9d 62 48 be d5 e0 55 bc 48 01 88 be c3 cd 76 3d
       -0.19568868 -0.013054092 -0.26563478 0.060254823
0002f0 e9 50 cb bb ec 9b fe 3d 85 da 09 3f fb b7 41 bd
       -0.0062047136 0.124320835 0.5384906 -0.047294598
000300 31 16 d9 bc a7 79 80 3e 86 4a 4a be e3 dc 03 3e
       -0.02649984 0.25092813 -0.19754991 0.1287723
000310 ca 3b 84 be 5a 9f 5f bf ef a7 e6 3e 57 6a 76 3e
       -0.25826865 -0.87352526 0.45049998 0.24064003
000320 44 05 34 3e c9 b6 28 be 14 9a ed 3e ee 77 04 be
       0.17580134 -0.16475977 0.46406615 -0.12936375
000330 f3 07 8c be 6a db ce 3d 7a 7e dd bc 73 01 bf bc
       -0.27349815 0.10100444 -0.027037848 -0.02331612
000340 3e 9f 71 3d bb b7 c0 3e 97 5e ba 3e d7 e7 b4 be
       0.058989756 0.37640175 0.3640029 -0.3533313
000350 53 17 0d 3d 94 3a cc ba e9 fb 8f 3e ee 86 c1 3d
       0.03444607 -0.0015581422 0.2812188 0.09449564
000360 dd 17 8a 3c 81 fc 98 be 11 e7 fb 3d c5 53 30 be
       0.016857082 -0.29880145 0.12299932 -0.17219456
000370 8c 2d 64 be f9 9b 0c 3f 10 6a 73 be 8a 2e a5 3d
       -0.22283 0.54925495 -0.23770928 0.08065517
000380 e0 88 27 be 0b df 2d bd 28 1a 2e be 10 f9 8e bd
       -0.16360807 -0.04244904 -0.17002165 -0.06981099
000390 ce 77 5f bd 87 b9 fc 3d dd 1b db 3d cb f2 c2 bc
       -0.054557614 0.12340074 0.10698674 -0.023797413
0003a0 3f 39 71 be 9d 56 41 be 49 00 ff 3e a1 c3 c5 3e
       -0.23556994 -0.18880697 0.49804905 0.38625816
0003b0 e9 25 e2 3d 08 d9 72 3e e0 4c c6 bd 84 13 b3 be
       0.11042387 0.23715603 -0.096826315 -0.34975827
0003c0 59 2f 8d bf 26 49 a9 3d 01 39 b5 3a 84 aa 4c 3d
       -1.1030074 0.08265905 0.0013826193 0.049967304
0003d0 34 aa 17 3c d4 ef 8f 3d be 94 98 bc dc 74 eb 39
       0.009256888 0.070281655 -0.018625613 0.0004490976
0003e0 5f 60 f7 3d ff a8 13 be 6c 45 e7 3e ed 12 78 be
       0.12078928 -0.14419936 0.45170152 -0.2422597
0003f0 18 6f a8 be 3a 49 5e bc 1a bd 46 3d 0d 7e ea bd
       -0.32897258 -0.013567263 0.048520185 -0.114498235

conv.1.lin_rel.weight f4 [64, 64]
000000 b2 3f 05 3e 0b e9 ab bc 84 f8 94 3d 73 87 bc 3c
       0.13012579 -0.020985147 0.07273963 0.023013806
000010 13 39 31 3d c6 62 a4 3d 87 12 37 bf 63 14 fc 3c
       0.04326732 0.08026652 -0.71512645 0.03077144
000020 9b 8b 08 3e 99 b5 29 3e fa 07 b4 3e f5 e9 98 3b
       0.13334505 0.1657318 0.35162336 0.0046665617
000030 c5 82 92 bc 42 1b 8e bd 82 2a aa bd f6 d3 65 bf
       -0.017884621 -0.06938793 -0.08308889 -0.8977655
000040 1d bf 88 3d 78 a1 f3 be 7b bd 86 be 4f ca 4e bd
       0.06677077 -0.47584128 -0.26316437 -0.050485905
000050 48 36 d6 be 4f e5 46 bf aa 29 a5 bd c1 0f 0d bc
       -0.41838288 -0.7769365 -0.080645874 -0.008609713
000060 c8 91 10 3d ff e2 bf bd 83 3e 93 bd 35 56 d4 3c
       0.035295278 -0.09369468 -0.071896575 0.025920013
000070 c5 c2 76 3d 8b 0f ca 3e 03 9b 4b 3e de 53 06 3e
       0.06024434 0.39464983 0.19883351 0.1311793
000080 41 d1 82 be 28 19 e4 3b 0b bb 9c bc 33 06 25 be
       -0.25550273 0.0069610067 -0.019132158 -0.16115646
000090 e5 68 ff bd d5 e5 0b be b9 91 30 3d 3f 89 77 3e
       -0.12471179 -0.13661893 0.043107722 0.24173449
0000a0 5c f6 a2 3d 08 29 85 be 8f 2e 58 3e 64 a9 09 3e
       0.079571456 -0.26007867 0.2111151 0.13443524
0000b0 02 7d db 3d 42 b4 b2 3e 4d ef b5 3e 05 8e 4b be
       0.10717203 0.3490315 0.35534135 -0.19878395
0000c0 63 e8 57 be 11 a3 ad be 7e 02 98 bd e4 f5 ed be
       -0.21084742 -0.33913472 -0.0742235 -0.46476662
0000d0 91 cc fa 3d 43 fe 9e be 71 7a 1b 3e 94 80 a6 bd
       0.12246049 -0.3105336 0.15183426 -0.08129993
0000e0 c6 da 3a 3e 94 3c e7 3d c4 ed e3 bb 2e 71 2a 3f
       0.18247518 0.11290851 -0.006955834 0.6657895
0000f0 b8 bb 92 bd 68 81 96 bd 94 e6 d1 3a 18 be f8 be
       -0.07164711 -0.07348901 0.0016014152 -0.4858253
000100 b2 8f e7 be 3a 06 e1 3d b2 86 10 bd 58 6a 51 3e
       -0.45226818 0.10987516 -0.035284705 0.20450723
000110 2d 4b 8e be 89 3c f4 3d 9d 27 09 be 40 b3 1b bd
       -0.2779173 0.11925609 -0.13394018 -0.038012743
000120 da 57 ca be 40 fc d2 bc 50 d8 4b 3e 5c c0 24 3e
       -0.3952015 -0.025755048 0.19906735 0.16089004
000130 9a 6b 82 bd 59 17 f2 3d 46 12 87 3d f4 6f 98 3e
       -0.063681796 0.118208595 0.06595282 0.29772913
000140 5f 17 ef bc fa fb 38 3e 8a aa 85 bd 4c eb 7f bd
       -0.029185949 0.18064871 -0.06526668 -0.062480256
000150 ee 20 8f bd 37 96 16 3e b0 72 f2 be fd 42 d2 3d
       -0.06988703 0.1470574 -0.47353125 0.10266683
000160 b1 53 ce bd b2 7c 4d 3e 31 9d 77 be ad ae 81 3d
       -0.100745566 0.20067099 -0.24181058 0.06332145
000170 74 82 8c bd c7 f9 e0 3d 83 a8 9c be a6 bd 74 bc
       -0.068608195 0.10985141 -0.30597314 -0.014937794
000180 c0 bb aa 3c 5e d9 65 bd 09 1a 23 3c ee f3 08 bd
       0.02084148 -0.0561155 0.009954938 -0.033435754
000190 5b 55 16 3e ac e4 bf 3d c2 a7 17 be 34 0d d1 bc
       0.14680998 0.093697876 -0.14810088 -0.025518991
0001a0 bc 7b db bd a6 aa fc 3e e6 89 35 be a7 f6 a3 3d
       -0.1071696 0.49348944 -0.17728385 0.080060296
0001b0 9e 9a ad be b0 ab e6 bc b5 29 4c 3c a7 92 da 3e
       -0.33907026 -0.028158039 0.012461116 0.42690012
0001c0 c1 a5 0d 3e 55 d1 91 be 2c df 07 3e 44 ce 19 be
       0.13832761 -0.2848002 0.13268727 -0.1502009
0001d0 11 db f0 bd 63 7a 9b bb 85 c3 1f 3f 2b 5d 15 3e
       -0.117605336 -0.0047448142 0.62407714 0.14586322
0001e0 91 8e 22 3e 22 f6 a5 be 63 7d e3 3d 04 1f a6 be
       0.15874697 -0.32414347 0.111079 -0.32445538
0001f0 32 17 81 bc 67 b5 4b bd 38 7d 38 39 3c 9c 9e bd
       -0.01575813 -0.049733546 0.00017594255 -0.07744643
000200 d7 04 49 3e 8b dd 50 3e 98 79 80 bd be f4 80 bf
       0.19630753 0.20397012 -0.06273192 -1.0074689
000210 ff f3 95 3e cf f0 46 bd 2f 11 24 3f 81 59 36 bf
       0.29287717 -0.048569497 0.6408872 -0.7123032
000220 88 e2 96 be 62 a6 ae 3d 0f 21 8a be b0 28 9f 3d
       -0.29469705 0.08527829 -0.26978347 0.077714324
000230 bf 89 69 3c 1b af f3 bd 6b 59 07 be 55 c0 81 3e
       0.014254033 -0.11898633 -0.13217704 0.2534205
000240 5a cb 22 be 1d b7 7e be 73 74 8a 3d 0b 53 64 be
       -0.15897885 -0.2487454 0.06760492 -0.22297303
000250 4c f8 3b 3e f9 c0 e3 3e 62 84 02 bf 93 1b fb bd
       0.18356436 0.44483164 -0.5098325 -0.12261119
000260 23 d0 21 bd 5d b6 29 bf 8f e1 34 3d 88 89 66 3e
       -0.039505135 -0.6629389 0.044160422 0.22513402
000270 fe fd ee bd ce 8b cf bd a1 d1 50 3d fb ff a3 bd
       -0.11669539 -0.101340875 0.050981168 -0.08007809
000280 a2 bc 6b bf 82 d1 a4 3e 37 9c c4 bc 62 a9 bd be
       -0.92084706 0.32191092 -0.02400027 -0.3704329
000290 5b 0d 32 3e 3a 4e 25 3e 6e 8b 14 3e 0e 01 4a be
       0.17387907 0.16143122 0.14506313 -0.19726965
0002a0 18 e8 02 3e 87 49 77 be 7d 6b 95 3d 5f 99 01 3e
       0.12783849 -0.24149142 0.072958924 0.12656163
0002b0 04 8b fc be a2 a4 0e be 83 84 e0 3d a6 34 1d 3c
       -0.4932481 -0.1392999 0.109627746 0.009595072
0002c0 b7 89 64 be 15 c2 2a 3e c8 43 1a 3e f5 06 22 bd
       -0.22318159 0.16675599 0.15064919 -0.039557416
0002d0 31 df e5 3d b2 bd 67 3d ba b1 77 bf 18 8c c6 3d
       0.11224211 0.056577392 -0.96755564 0.096946895
0002e0 ee 1d 49 bd ed 7d 65 be b6 1f 41 3f 5b 05 11 bf
       -0.04910081 -0.22411318 0.7543901 -0.56648797
0002f0 89 59 f3 bd 72 ea 2a be b2 e2 dd 3c 46 00 a9 bd
       -0.11882312 -0.16690996 0.027085636 -0.08252005
000300 7d 51 16 3f 42 66 be be ea 1f 9a 3d 43 8e 6a be
       0.5871809 -0.37187392 0.075256184 -0.22905831
000310 5a e3 93 bd ea 00 0e 3e 1c 39 ea be be 4c 07 be
       -0.07221098 0.13867536 -0.45746696 -0.13212869
000320 95 7b e5 3e 01 3b 40 bd 84 4f db bb d1 b1 7f bd
       0.44820848 -0.04693127 -0.0066928286 -0.06242544
000330 90 0a 29 be 5d b6 01 be d0 65 b5 bd 5b 2e 94 be
       -0.16507936 -0.12667222 -0.0885731 -0.28941616
000340 24 4d 84 3d 17 14 71 be ef e0 a6 bd 96 22 b1 be
       0.06460026 -0.2354282 -0.081483714 -0.345967
000350 59 e0 be 3d fb a3 40 be 9b f0 77 be d9 57 00 bd
       0.09320135 -0.18812554 -0.24212877 -0.031333778
000360 e4 a6 eb 3d e2 5f b1 be 02 a0 6c bd c5 5b 6d 3d
       0.11506441 -0.34643465 -0.057769783 0.057948846
000370 9f 61 90 3d 12 31 d2 be 6f 97 7d 3d 43 ae 97 bd
       0.0704987 -0.41053063 0.061911996 -0.07406285
000380 ac 61 ba bc dd 8c ef 3d 8b 76 15 3d 59 19 d6 3b
       -0.022751652 0.116967894 0.036490005 0.0065337834
000390 d5 22 36 3d 4e dd cd be 2f 99 d3 be 40 be b9 3c
       0.044466812 -0.40207905 -0.41327807 0.022673726
0003a0 e2 c1 6d 3d 87 05 36 be ac 0e 86 be 4e f6 3e 3d
       0.05804623 -0.17775546 -0.2618307 0.046621613
0003b0 89 49 8c be a1 87 df bd 82 91 17 bb 14 72 6d 3d
       -0.27399853 -0.10914541 -0.00231275 0.05797012
0003c0 f9 44 34 be 38 c9 40 bd a0 ec 6f be 3d 71 54 be
       -0.17604436 -0.047066897 -0.23430109 -0.20746322
0003d0 c1 43 92 be 35 78 c7 3d 57 72 2a be a0 f0 15 3e
       -0.28567317 0.097397245 -0.1664518 0.14642572
0003e0 9e ce 1c 3d 0b a8 4c 3e af 2a c1 be dd e9 8b 3f
       0.038282983 0.19985978 -0.37727877 1.0930744
0003f0 b3 7f b5 bd ca 78 e0 3d ba b6 1c be 97 66 08 bb
       -0.08862247 0.10960539 -0.1530408 -0.0020813101

conv.1.lin_rel.bias f4 [64]
000000 75 f8 6d bd a2 aa db 3a 58 2d c8 bb cd b8 a2 3c
       -0.058098275 0.0016759227 -0.006108921 0.01986351
000010 55 00 fe 3d 11 2b f4 ba f4 b6 dd 3d 99 36 ce 3d
       0.12402407 -0.0018628557 0.10825911 0.100690074
000020 8d e4 0e 3c f8 31 fb bc 14 73 ad bc 8a e3 a0 3d
       0.008721483 -0.030663475 -0.021173038 0.078559
000030 fc 7d 58 3e e2 20 b3 be 28 4f ae bd 6d 30 0e 3c
       0.21141809 -0.34986025 -0.085111916 0.008678538
000040 b9 91 01 3e a3 67 40 be d6 3c e5 3d 93 e9 35 3d
       0.12653245 -0.18789534 0.11193244 0.044412207
000050 37 a9 02 3d e1 d8 ee bd b9 e0 03 3e 73 53 0c 3b
       0.031899657 -0.1166246 0.12878694 0.0021412044
000060 b9 c4 1a 3e 95 dd 60 3d 15 b1 65 be 12 09 90 3c
       0.15114106 0.054898817 -0.22430833 0.01758245
000070 01 ab ba bd dd 8b c6 bd 5c 7f 0a be 80 b6 02 3e
       -0.09114648 -0.096946456 -0.13525146 0.1276493
000080 ce fb a1 bd 77 92 ff bc 0b 86 0b bd 7d d6 2a 3e
       -0.07909356 -0.03119777 -0.03406338 0.16683383
000090 4d 89 2e 3d a9 d8 82 bc 83 92 c0 bc b2 45 e7 bc
       0.04261141 -0.015972452 -0.023507362 -0.028231476
0000a0 5f 5d 58 bd f8 ac 89 bd 32 5c 47 3e 00 72 06 3c
       -0.05282342 -0.06722444 0.19468763 0.008205891
0000b0 cb cf 08 bd d1 34 61 3e 52 34 3f bd d5 7d d5 3d
       -0.03340129 0.21992804 -0.046680756 0.10424391
0000c0 f5 9d 3b bd 43 95 e5 bd 45 95 77 bc 2e 5b f1 bd
       -0.045804936 -0.1121011 -0.015111272 -0.11784969
0000d0 ed 49 af bb a1 cc c9 bd b3 5b 30 3d dc 9c 08 3e
       -0.005349389 -0.09853483 0.0430562 0.13341087
0000e0 dd 66 33 3d 6d 83 d8 bd 9a 57 12 3d 61 68 88 3d
       0.04379927 -0.105719425 0.035728075 0.06660534
0000f0 ba 67 2f bd bd cc c7 3d 6b fc 4a bd 80 ae e9 bb
       -0.04282353 0.097558476 -0.04955713 -0.0071313977

conv.1.lin_root.weight f4 [64, 64]
000000 f1 39 8a be 3e 3e da 3d 93 a2 07 be 21 89 27 3f
       -0.2699733 0.10656403 -0.13245611 0.6544362
000010 4b df 77 3d 7e 83 b1 3d 2d b0 93 be 5c 63 71 3d
       0.060515683 0.08667658 -0.2884535 0.058932647
000020 0d aa f7 3e 90 a3 0d bf 97 8d 05 be 80 1d d6 bc
       0.48371926 -0.553277 -0.13042293 -0.026137114
000030 44 d5 32 be e6 01 4e be 52 14 fa bd eb 1f 9b 3e
       -0.17464167 -0.20117912 -0.12210907 0.3029779
000040 98 da 02 be d1 8c d2 bd 89 99 3a 3d cf 4d a9 3d
       -0.127787 -0.10280765 0.04555658 0.08266794
000050 c0 97 a2 be 68 62 d2 bd ef 7d 25 be 8c 7c c7 3c
       -0.317564 -0.10272676 -0.16161321 0.02435138
000060 cc 3a 21 3e 7c eb 27 3e 40 8f 00 be fe e1 bb 3d
       0.15745085 0.16398424 -0.12554646 0.09173964
000070 ac 17 aa bc 23 16 03 bf 77 70 48 3e eb 2e dd bd
       -0.02076324 -0.5120565 0.19574152 -0.107999645
000080 86 f8 af be c3 3b 9e bd 59 57 2a be 9d 52 25 be
       -0.34369296 -0.077262424 -0.16634883 -0.16144796
000090 4b 60 7a 3e 8d f7 8a be 5c 98 cd bd 75 6d 8b bd
       0.24450795 -0.2714199 -0.10038826 -0.06807987
0000a0 95 7e 05 bf de ad 04 3f ea 17 85 3d 48 71 0a 3d
       -0.52146274 0.518278 0.06498702 0.03379944
0000b0 1e 65 6b 3d 61 1f f9 be 45 4a 99 3d a5 15 fe bd
       0.05746948 -0.48656753 0.07484869 -0.12406472
0000c0 d4 09 7b be 1f d8 dd be eb f1 62 3d 88 56 67 bb
       -0.24515468 -0.4332895 0.055406492 -0.003529938
0000d0 87 38 3d be 82 6a a5 3d eb 2b 7d 3e 45 f1 cd ba
       -0.18478595 0.080769554 0.24723785 -0.0015712163
0000e0 51 1a 16 bd 27 e8 c7 bd c3 fd 00 bf b2 37 62 bf
       -0.03664619 -0.097610764 -0.5038721 -0.88366234
0000f0 59 e2 ed bc 43 16 b3 3d e1 9a 62 bd 5e d0 fc be
       -0.029038595 0.087444805 -0.055323485 -0.49377722
000100 ea 28 51 3e 3e 32 95 3e d0 52 48 3e 22 58 6b be
       0.20425764 0.29139894 0.1956284 -0.22982839
000110 6b b7 93 bc c3 5c b5 3d 4f 2b c8 3d 44 ac d6 bd
       -0.018031796 0.088555835 0.097738855 -0.10482076
000120 fe 83 06 be 5e db e5 bd e5 16 65 3c 7b 00 07 3c
       -0.13136289 -0.112234816 0.013982509 0.008239861
000130 ad 70 e6 3c 26 95 ac 3d 5a 86 cd 3c a7 10 57 be
       0.0281299 0.08426885 0.025088478 -0.21002446
000140 6d 7e 50 3d 18 e1 fa bd 9b f5 de 3c 1d 89 dc bd
       0.05090182 -0.122499645 0.027216723 -0.1076834
000150 98 1f c9 bd 45 28 32 3d 3b b8 8f 3e a1 67 7d be
       -0.09820479 0.043495435 0.28070244 -0.24746563
000160 db 25 58 bd 7c 61 a6 bd ba db 4c 3e 2a 64 aa bc
       -0.052770477 -0.081240624 0.20005694 -0.020799715
000170 4f 42 e2 3d 9c a6 c4 bd 1c 9f 32 3d f0 9d d0 3d
       0.110478036 -0.09602091 0.04360877 0.10186374
000180 b6 9b 40 3d dd 44 45 3e 97 4b a0 3d 40 e6 70 39
       0.047023498 0.1926455 0.078269176 0.00022973958
000190 92 26 8c be d1 84 0f be de ea 07 be 6c c4 b7 bd
       -0.27373177 -0.14015509 -0.13273188 -0.089730114
0001a0 36 d5 8a 3e c3 5c f0 3d 3a a5 13 be 95 6d cf 3b
       0.27115792 0.11736443 -0.14418498 0.006330202
0001b0 3c ab 8e be 5a d7 33 bd e1 cb 69 3d e6 89 91 3c
       -0.27865016 -0.043906547 0.0570792 0.01776595
0001c0 ac 16 2b 3e 7a 1c 3c 3e 93 13 e9 3d 24 2a bf 3c
       0.16707867 0.18370238 0.113806866 0.023335524
0001d0 e4 69 48 be 1c cf e8 3c e5 9c 22 be 71 d6 9a 3c
       -0.19571644 0.02841907 -0.15880163 0.018901082
0001e0 66 5f 06 3e 39 24 79 bf a2 27 91 be ed 9a c1 be
       0.13122329 -0.97320896 -0.2835055 -0.37813511
0001f0 f9 b0 f4 3b 93 12 62 be 28 1a 1f 3e 2b 5b 7e bf
       0.007467386 -0.22077398 0.15537322 -0.9935786
000200 5d a3 bf 3e f2 d4 74 bf 9a ca 59 be fb 76 16 be
       0.37429324 -0.9563743 -0.21268693 -0.14693825
000210 b8 0b d6 3d ab 94 9a bd 08 f8 84 be 1c eb 10 3e
       0.10451454 -0.075478874 -0.25970483 0.14152187
000220 84 c6 40 3a a1 3d f2 bd d0 6c 44 be e5 2e 8e bc
       0.00073538 -0.11828161 -0.19182134 -0.017356345
000230 59 9b c8 bc 5e d6 04 bd 27 7c 0c 3e 22 c8 a7 be
       -0.024488138 -0.032431 0.13719235 -0.32769877
000240 f9 ab bc bd 39 c8 a6 3d 81 5f ab bb 2b c8 a7 bd
       -0.09212489 0.08143658 -0.005229891 -0.08192476
000250 a0 a7 49 bf 28 39 92 bf 3a 7d a3 3e c1 42 c3 bd
       -0.787714 -1.1423693 0.31931478 -0.09534217
000260 52 3f 1c be 48 46 0b 3d 8e ce b8 bd ac b8 da 3d
       -0.1525853 0.034002572 -0.09023772 0.106797546
000270 b5 2e 95 bd 55 d5 e3 3e 75 18 06 3e a8 99 31 3e
       -0.07284299 0.44498697 0.13095267 0.17343771
000280 4c d3 26 3d be e8 d6 3d 3b 44 bc 3d 48 5b ac 3d
       0.040728852 0.10493611 0.091927014 0.08415848
000290 b6 9c ad 3c b9 fb 82 be e0 eb 17 3e 76 ca e4 3d
       0.02119289 -0.25582674 0.14836073 0.11171429
0002a0 13 65 7a bf dc 2d f9 bd 34 da 79 3e 48 37 97 be
       -0.97810477 -0.1216695 0.24399644 -0.29534364
0002b0 1c 88 19 3e 15 f8 76 bf 17 05 a2 be 36 d6 11 bf
       0.14993328 -0.96472293 -0.31644508 -0.56967485
0002c0 f3 64 43 3d 02 b6 cb be 27 09 8b 3d f6 e5 52 bf
       0.047703695 -0.39787298 0.06788855 -0.8238214
0002d0 60 40 f4 3d 6d e9 7d be c7 b3 b0 3f 4f e9 02 be
       0.11926341 -0.24796076 1.3804864 -0.12784313
0002e0 0d 4f c6 3d 9b 4c 2b bf 10 73 d8 bf 21 ea f7 3e
       0.096830465 -0.66913766 -1.6910114 0.48420814
0002f0 58 7e cc bc 92 5a d6 3c 05 82 9f 3d c7 2b 2b be
       -0.02496259 0.026166234 0.07788471 -0.16715918
000300 c1 a8 22 3e 75 ae 72 be 30 f8 c5 3d c1 e1 c1 be
       0.15884687 -0.23699363 0.09666479 -0.3786755
000310 12 b6 a1 3d 6e ff f5 3d 47 8d 28 3e 5d b5 27 3d
       0.07896055 0.1201161 0.16460143 0.040944446
000320 01 dc bd 3c 97 41 8a 3e cc b5 e2 3e a0 90 22 3e
       0.023176195 0.27003166 0.44279325 0.15875483
000330 0b d2 ed 3d 57 c2 05 3e e1 98 50 bc 6d 26 91 bc
       0.11612328 0.13062416 -0.012731762 -0.017718518
000340 5e d3 de bd 09 c8 98 be 73 bd 85 3d 03 ea 02 3c
       -0.10880159 -0.29840115 0.06530275 0.007990363
000350 b1 86 87 be 15 59 40 3d 24 25 34 bd b2 2b af 3c
       -0.2646995 0.046959955 -0.043980733 0.02138314
000360 7a 04 dd bc 5a 39 2d 3c 59 99 43 3e a2 74 10 3d
       -0.026979674 0.010572756 0.19101466 0.03526748
000370 04 08 d8 bc 16 f0 d5 3c c5 68 1d 3d 11 fe 4c bd
       -0.02637101 0.026115458 0.038429994 -0.050046984
000380 ab 68 2b 3e e1 a2 4b 3e 97 39 92 3d 66 1c 3f bd
       0.16739146 0.19886352 0.07139891 -0.046657942
000390 da 88 54 3e 74 c2 8a 3e a5 a6 25 3d bc be a5 3e
       0.2075533 0.2710148 0.040442128 0.3237208
0003a0 a5 2f 1d be 60 17 93 be 84 ba 2b 3e 21 e8 0f 3e
       -0.15350206 -0.2872877 0.16770369 0.14053394
0003b0 47 27 01 3e df 44 4e be ee 78 39 be 2e 12 25 be
       0.1261264 -0.2014346 -0.18112537 -0.16120216
0003c0 65 66 d0 3d d2 a9 f4 bd 82 45 da 3d 6b 73 4e 3d
       0.1017578 -0.11946453 0.10657789 0.05040304
0003d0 03 e9 72 3e 36 ff fb 3d 21 60 15 3b 37 55 0b 3c
       0.237217 0.12304537 0.0022792893 0.0085042035
0003e0 ab a9 de 3d 83 90 21 3e 99 c4 46 be 01 b9 20 3d
       0.10872205 0.15777783 -0.19410934 0.039238933
0003f0 a1 50 0f bd 5c 08 af bd 91 15 2d 3d f0 7e fc 3d
       -0.034989003 -0.08546516 0.042256895 0.12328899
