checkpoints/mut/model_Mutagenicity.pt_l2_emb64_hid64_netot0.0.pt (torch, 81439 bytes, 9 tensors)

virtual_embedding f4 [64]
000000 ce f0 32 3f 2c 4f 1f 3e ce 46 81 3e 95 b2 4f 3f
       0.6989869 0.15557545 0.25249332 0.8113187
000010 3d 0d 13 3f 6c e7 0a 3f d8 e1 2d 3e bf 9d 52 3f
       0.57442075 0.5425937 0.16980684 0.8227195
000020 24 10 37 3f af 8f 3f 3f 4e a8 2d 3f 91 08 54 3f
       0.71509004 0.7482862 0.6783494 0.8282557
000030 6d 39 ce 3e b7 e0 f4 bd a8 f4 3b 3d 84 5c 06 3e
       0.40278187 -0.119569235 0.04588762 0.1312123
000040 43 8a 23 3e 5d 4b a8 3e 4c d2 0f 3f f6 69 fb 3e
       0.15970711 0.32869998 0.5618026 0.4910428
000050 ca d0 42 3e 0b 26 69 3e 92 34 3c 3e b4 f7 72 3f
       0.19024959 0.22768418 0.18379429 0.94909215
000060 6b 63 2d 3f fc 13 5c 3f 6a cc 46 3f 0d bb 44 3f
       0.67729825 0.85967994 0.7765566 0.76847917
000070 90 11 9a 3e 98 29 a8 3e 09 bb 21 3f e5 71 75 3f
       0.30091524 0.32844234 0.6317602 0.95876914
000080 39 14 ce 3e f9 52 16 3f 5e 3e b6 bd ec 30 8c 3f
       0.40249804 0.58720356 -0.08898614 1.095243
000090 f3 4c 41 3e a2 ed 02 3e 3f 26 fd 3e 06 8b 16 3f
       0.1887701 0.12785962 0.49443242 0.5880588
0000a0 be 91 0c 3f 04 23 ba 3e df 75 83 3f 97 0d 69 3d
       0.54909885 0.3635484 1.0270346 0.056897726
0000b0 c2 ab 0b 3f be 87 56 be ff 78 4a 3f ff e8 37 3f
       0.54558957 -0.20950219 0.79090875 0.718399
0000c0 73 18 df 3c fc 24 87 3e 99 7a 54 3f 95 ba db 3e
       0.027233338 0.26395404 0.8299957 0.42915788
0000d0 31 95 c4 3e 49 f1 51 3f 13 d5 30 3e d9 06 0b 3f
       0.38395074 0.82008797 0.17268781 0.54307324
0000e0 2e 33 e2 3d 1f 44 42 3e 89 8b 88 3e 42 d4 0c 3f
       0.11044918 0.18971299 0.26668957 0.5501138
0000f0 0c 64 0b 3f cf 9f 54 3f f2 6a 02 3f a8 ab d6 3e
       0.54449534 0.8305635 0.50944436 0.41927838

embed_transform.0.weight f4 [64, 142]
000000 9f ec c2 bc 59 f8 77 bd a5 89 46 bc b8 29 8a 38
       -0.02379447 -0.060539577 -0.012117778 6.5881235e-05
000010 b9 d3 c5 bc 8b 47 f8 bd 94 59 62 3d ef 65 18 bd
       -0.024148809 -0.12123021 0.05526121 -0.037206586
000020 08 51 80 3e 50 94 e6 be 7f 26 62 3d 85 37 cd bc
       0.25061822 -0.45035028 0.055212494 -0.025050888
000030 c9 3a 8d 3e e8 ba d0 3c c9 67 eb bd 61 85 81 3d
       0.27583912 0.025479749 -0.11494405 0.06324268
000040 7c 33 84 3d 66 e0 f8 3d 09 ed 28 bd e7 c4 87 bd
       0.06455132 0.121521756 -0.04124168 -0.06629353
000050 64 c0 ed bd c3 09 d6 3d e1 39 d3 3c f8 75 01 3d
       -0.11608961 0.10451081 0.025784435 0.031606644
000060 ac 1e 2a 3c 03 fc 91 3d b4 95 9f 3a e1 65 1b bd
       0.010383289 0.071281455 0.0012175352 -0.037938956
000070 ca 57 de bd 54 c3 6d bd 4a 1e ee bb d9 fb 90 3c
       -0.10856588 -0.058047608 -0.0072667943 0.017698215
000080 1d 90 14 bd 1b 17 e4 bc 61 73 45 bc 97 09 85 3c
       -0.03627025 -0.027843049 -0.012051434 0.016239924
000090 71 5a 2e bd 47 d0 5c 3c 22 26 fd 3c 04 a3 d2 bb
       -0.04256672 0.013477392 0.030901972 -0.0064281244
0000a0 be b0 15 3d 3c 37 59 bd 68 03 5f bd ac 94 d8 bc
       0.036545508 -0.05303119 -0.054446608 -0.02643808
0000b0 79 4d 14 bd 57 45 48 bd a0 b9 8a bc 6b ca 3e bd
       -0.036206696 -0.048894253 -0.016934216 -0.04657976
0000c0 e9 db 56 3c c6 1e 7a 3d d9 5f eb 3d 94 2d 96 bd
       0.013113954 0.061064504 0.11492891 -0.07332912
0000d0 52 f1 e7 3c 20 99 ce bb 6f d2 10 3e 84 c5 3a 3d
       0.028313313 -0.006304875 0.14142774 0.04559852
0000e0 10 8c c7 bc 7c 1a 47 bd a8 4c 98 3d 5d 19 94 bc
       -0.02435878 -0.04860924 0.07436496 -0.0180785
0000f0 ee ad 37 3d 8e 04 27 be 78 a1 3d 3c e7 78 df bd
       0.044843607 -0.16310331 0.011574142 -0.10911732
000100 ba 34 33 3d bb 20 b7 bc 50 d5 36 3c b9 49 e9 3b
       0.043751456 -0.022354474 0.011159256 0.007119384
000110 c5 fe 06 3d 75 49 25 3e 78 22 04 3d a5 ae df bc
       0.03295781 0.16141303 0.032259434 -0.027304957
000120 03 b6 2a bd 60 cb 07 3d 6e ff a7 3d c3 39 8f 3d
       -0.041677486 0.033152938 0.08203016 0.06993439
000130 04 10 5e 3c 44 0f 1e be 5b 88 01 bf 9d a3 e4 3d
       0.013553623 -0.15435511 -0.50598687 0.11164019
000140 a2 5c b1 be ef 61 52 3e b5 99 0e bf 89 14 d7 bd
       -0.34640986 0.20545171 -0.5570329 -0.10501964
000150 12 4e d2 bc 78 ca 57 be 80 c8 99 3d ab 18 54 be
       -0.025671992 -0.2107333 0.075089455 -0.20712535
000160 39 d4 ee 3d 94 47 d7 3d ab 9d af 3e 70 59 9f 3e
       0.11661572 0.10511699 0.3429998 0.31122923
000170 3f 31 5e 3e b6 51 0b 3c d3 ad 5a 3d 90 6f 37 bd
       0.21698473 0.008503368 0.053388428 -0.04478413
000180 9b 3f 48 3e a9 0b 21 3e d4 d3 01 3e 6b 63 86 bd
       0.19555514 0.15727104 0.12678462 -0.06561931
000190 c1 0c 99 3e 2d ba ad 3e 59 5c 16 3d 02 46 27 3e
       0.29892543 0.33931103 0.036709163 0.163353
0001a0 04 a4 1a be 24 7e b9 3e fa 14 a0 bd 0f 72 17 3e
       -0.1510163 0.3622905 -0.07816501 0.14789604
0001b0 7e 27 83 bd b0 4a ec 3e 32 91 3a be 52 77 49 3e
       -0.06404017 0.46150732 -0.1821945 0.19674423
0001c0 cb 02 26 be 0b ed 5d 3e a5 27 8e 3e 15 bd 1f bd
       -0.16212003 0.21672456 0.2776462 -0.038998682
0001d0 08 95 49 be 7a 63 15 be 19 c8 fa 3d 76 0d 2d 3e
       -0.19685757 -0.14588729 0.12245197 0.16899666
0001e0 72 70 55 3e bf ee 9a be c7 4b c1 3e bf 75 61 3e
       0.20843676 -0.30260274 0.37753126 0.22017573
0001f0 81 23 b1 bd 8a 4e 29 bb fc 41 85 bd d2 aa 49 bd
       -0.0864935 -0.0025834166 -0.06506726 -0.049235173
000200 0b 3c 69 3e b4 47 39 bd ce da 39 be 11 47 66 3e
       0.22776811 -0.045234397 -0.18149874 0.22488047
000210 f5 04 85 3e 90 29 14 3e 3b 61 0b 3e f9 6e 2d 3e
       0.25980344 0.1446898 0.13611309 0.16936864
000220 65 39 2e be 1b 16 a1 be 68 d3 83 3d 0c b0 d0 3d
       -0.17014082 -0.31462178 0.06436807 0.10189828
000230 4b 79 46 3f 69 3b ce 3e ce a2 8f 3b d7 e8 71 bc
       0.7752883 0.402797 0.0043834215 -0.014764986
000240 a5 67 6d bd 42 8c c9 bc 16 cf b7 bc 28 52 0f be
       -0.05796017 -0.024603013 -0.022437613 -0.13996184
000250 34 64 18 3e 7e 91 d4 bd 5e 9e 34 3e 1d a3 89 3d
       0.14881974 -0.10379313 0.17638537 0.067205645
000260 4c 04 e1 3c 05 cc 76 3e 40 e2 f6 bd 71 42 8f 3e
       0.02746787 0.24101265 -0.120548725 0.27980378
000270 5d 95 f4 bc 7e 59 4d bb 50 41 2f bd fc 32 fd 3c
       -0.029856378 -0.003133386 -0.042786896 0.0309081
000280 1c da 6a 3d e1 46 d3 ba f5 28 20 bd 9a 03 e2 bc
       0.05733691 -0.0016119146 -0.03910156 -0.027589608
000290 43 19 56 bc 76 2c 38 bd 62 ef 94 3d 9c 58 ce bd
       -0.013067546 -0.044964276 0.07272221 -0.10075495
0002a0 c9 cb 0b be 60 f5 95 bc 31 be df 3c 70 aa 04 3e
       -0.13651957 -0.01830548 0.02731237 0.12955642
0002b0 ea 3e 82 bc 1e e6 d5 3c 2e b4 ed bc 84 32 0f 3b
       -0.01589914 0.026110705 -0.02901658 0.0021850178
0002c0 ef d6 87 3c cf f4 de bd 97 cc 01 3d e5 e0 c3 bb
       0.01658198 -0.10886537 0.031689253 -0.0059777373
0002d0 23 db 0d 3d d4 37 4e bd 2f ff a2 bd 45 4a 3c 3e
       0.034632813 -0.05034621 -0.07958829 0.18387707
0002e0 69 b0 bd 3d d6 d3 32 3d d2 d9 0b 3d 48 a8 48 bd
       0.09262163 0.043659054 0.034143277 -0.04898861
0002f0 92 32 fc 3c 45 7a d2 3d e3 46 20 3d d7 a7 92 bd
       0.030785833 0.10277227 0.039130103 -0.07160919
000300 08 ec 2d be 23 26 d1 bc 3d 71 97 3c f5 bc a8 bc
       -0.1698457 -0.02553088 0.018486613 -0.020597914
000310 af 39 83 3a 75 78 e8 bd e4 9b 85 bd 00 f8 ea 3d
       0.0010011698 -0.113511 -0.065238744 0.114730835
000320 2b 66 20 3d 29 bf 67 3b 93 d5 22 bd 61 87 9d 3d
       0.039159935 0.0035361743 -0.03975446 0.07691837
000330 cc 05 ed 3c 3e 3a bc 3d a1 58 8f bd 81 8a 08 3d
       0.028933428 0.09190796 -0.069993265 0.033335213
000340 be 61 75 3d 6f 57 e0 bc f5 11 75 bc 9e 18 e5 bd
       0.059907667 -0.027385442 -0.014957895 -0.11186336
000350 df 15 93 bc f1 1d 16 3d 0c dc d0 3d d1 72 1d be
       -0.017954765 0.036649648 0.101982206 -0.1537583
000360 8c 1d 04 be ce 0a 2d bc aa 04 d1 bd 42 cd 43 bd
       -0.12901896 -0.010561658 -0.10205968 -0.04780317
000370 f2 d6 c3 be e1 4f 09 3f 1e f1 f7 bb e7 fe 90 3e
       -0.38249928 0.5363751 -0.007566585 0.28319475
000380 17 54 29 bf 8c 1c 85 3e b1 bb 7a be 63 49 41 3e
       -0.66143936 0.25998342 -0.24485661 0.18875651
000390 03 4e cf be db 22 68 be ed 96 23 3e 10 47 ef bd
       -0.40489206 -0.22669546 0.15975542 -0.11683476
0003a0 44 41 2d 3e 62 a0 c7 3e 23 aa 7b 3e 6c 90 16 3e
       0.16919428 0.3898955 0.24576621 0.1470353
0003b0 7f cf b3 3e 18 7f 0f bd 62 65 7b 3d 67 a2 3d be
       0.35119244 -0.035033315 0.061375983 -0.18518983
0003c0 0c 2b 5a 3e e6 93 6e 3d b8 3c c8 3e 12 5f d4 3e
       0.21305484 0.058246516 0.39108825 0.41478783
0003d0 26 a5 43 3e 4c 75 d6 3e a9 cd 50 be bd d9 7d be
       0.19105968 0.41886365 -0.20390953 -0.24790092
0003e0 31 d8 88 3c de a6 25 3e 57 13 58 be 80 95 38 3f
       0.01670465 0.16176936 -0.21101128 0.7210312
0003f0 8a 0d 84 be ce 53 86 3d 5e 77 81 be 8d e9 2c 3e
       -0.2579158 0.06558953 -0.25286382 0.16885968

embed_transform.0.bias f4 [64]
000000 5f d3 50 bd bb da fa ba b9 e7 c8 bc bd 05 01 3c
       -0.05098283 -0.0019138673 -0.024524556 0.007874903
000010 4a 74 2d bb ee 76 20 bd 89 ed b7 3c 56 30 06 bd
       -0.0026467019 -0.03917592 0.022452133 -0.03276094
000020 a8 5c 49 bd ae 62 ef bc 97 fa 02 3d 01 d7 27 bd
       -0.04916063 -0.029221859 0.031977262 -0.040976528
000030 a0 40 39 3c 23 39 ca 3c 80 c9 9a 3d aa 31 9a bd
       0.011306912 0.024685448 0.07557964 -0.07529004
000040 e6 ff 95 3c 9e 07 8c bd c9 62 16 bc 9c f1 ad bd
       0.018310498 -0.0683739 -0.009178826 -0.08493349
000050 a1 0e 29 bd 75 0b 7f bd 20 26 c6 3c 0a e9 c1 bb
       -0.041273717 -0.062266786 0.024188101 -0.005917673
000060 b1 cb 28 3d c6 3d 4d bd cc f4 bd 3b 4d 23 2f bd
       0.04120988 -0.05010774 0.0057970043 -0.042758275
000070 1a 66 55 3d d5 fd 91 bd 47 95 38 bd 5e 3d b1 bc
       0.052099325 -0.07128493 -0.045064237 -0.021635707
000080 8d bb 0c bd ca c9 01 bd d8 62 e3 3b e4 84 f6 bb
       -0.03435855 -0.03168658 0.0069392733 -0.007523166
000090 99 7c c5 3c 74 4a 11 3d f8 c5 3f bd bf a9 72 bd
       0.024107264 0.035471395 -0.046819657 -0.059243914
0000a0 2e 7a 70 bd 7b a3 76 bd 85 f8 fa bc f5 25 7a bc
       -0.05871027 -0.0602145 -0.030636081 -0.015267839
0000b0 b2 bd b2 3b 69 9f 9c 3d 59 44 0a bd d8 ef b8 3c
       0.0054547423 0.076475926 -0.033756588 0.022575304
0000c0 d5 d1 07 3d 69 86 5e bd fc 0c be 3c 43 9e 93 bc
       0.033159096 -0.054327402 0.02319955 -0.018019801
0000d0 b6 dd 23 3d 08 9d 0b bd a5 49 78 3d 4a 6c e8 3c
       0.040006362 -0.034085304 0.060617108 0.028371949
0000e0 9a 23 cb b9 a1 c6 a3 bc c4 59 52 bd 5e a1 76 bc
       -0.00038745702 -0.019992175 -0.05135514 -0.015053121
0000f0 02 f5 17 bd 5e 1f 42 3b 54 38 fd bc 77 f0 8a bd
       -0.037098892 0.0029620747 -0.030910648 -0.06784146

conv.0.lin_rel.weight f4 [64, 14]
000000 37 69 37 be d3 43 f0 3e 6b 93 ef 3e 6e 30 ed bc
       -0.1791123 0.46926746 0.46792158 -0.028953757
000010 19 63 da 3d 8c 17 85 be 5f c8 b2 3e fe 50 0d bf
       0.10663433 -0.25994527 0.34918496 -0.5520171
000020 15 64 be be a9 0e 01 3f f1 68 21 3e df 72 75 be
       -0.37185732 0.50412995 0.15762688 -0.23969601
000030 84 33 99 bb 29 5e 87 38 d5 0e e2 bd f5 1d ff 3d
       -0.0046753306 6.45484e-05 -0.11037985 0.12456886
000040 69 0f b8 3e c0 1b 9b be ba 40 86 3e 60 92 11 3f
       0.35949257 -0.3029461 0.26221257 0.56863976
000050 8f 14 33 bf de 00 26 3e ce fb 10 3e e8 09 f8 3e
       -0.69953245 0.16211268 0.14158556 0.48445058
000060 0c 39 7f be 6e da 71 be 3e 87 61 3e 9b 4e 31 be
       -0.24924105 -0.2361848 0.22024247 -0.17315142
000070 f5 d2 a2 3d a1 af 79 3d b3 f3 49 bf 33 e3 98 3d
       0.07950393 0.06095851 -0.7888748 0.0746521
000080 e4 74 91 3d 0b 7c c0 3d 6f 02 c5 3c f4 41 48 bf
       0.07102373 0.09398659 0.024049012 -0.78225636
000090 c1 3b 88 bd 2d 67 74 bd c8 00 7a bc bb a8 37 be
       -0.06652022 -0.05966871 -0.015258975 -0.1793546
0000a0 0f 43 6d bd 09 4a d4 3d da 75 69 bc 9b 2c f8 3e
       -0.05792528 0.103656836 -0.014249289 0.4847153
0000b0 f0 78 06 bf 89 7d d6 be 19 c2 bf 3e c1 45 a1 3e
       -0.52528286 -0.4189265 0.37452772 0.3149853
0000c0 44 05 12 3d 9d 8b 9d bd 5d ca 77 3e b8 94 2b be
       0.035649553 -0.07692645 0.24198289 -0.1675595
0000d0 93 4d 7f be 59 44 42 3e 36 6e 21 3e ae 57 36 bd
       -0.24931936 0.18971385 0.15764698 -0.04451721
0000e0 7f ca 80 3e 9c c5 3b bc 52 84 92 be e4 75 09 bf
       0.25154492 -0.011460688 -0.28616577 -0.5369551
0000f0 db ce 9b bd d3 4c 46 3e 4a 5b d9 bd 5c 33 4f 3e
       -0.07607814 0.19365244 -0.10613115 0.20234436
000100 07 59 eb be 1e f6 b3 be f5 b5 56 3e 21 16 20 3e
       -0.4596636 -0.3514871 0.20967849 0.15633442
000110 4f 08 1a be 8d 06 31 3c f8 71 4c 3e 9b 9a ab 3c
       -0.15042232 0.0108047845 0.1996535 0.020947745
000120 fc 85 a8 be a1 24 2d 3e 83 8e 17 3e 76 b7 80 3e
       -0.32914722 0.16908504 0.14800458 0.2513997
000130 df 47 4c 3d 75 d7 80 3e 1a 5d 89 be 14 ee 8a 3e
       0.04987323 0.2516438 -0.26828843 0.27134764
000140 c8 7c 8d bd 7c 0d fd bd 5d a6 2d bc fb e0 a2 3d
       -0.06908566 -0.123560876 -0.010598746 0.07953068
000150 df aa 92 bf bf f8 4f be 46 48 8e be 7a 72 82 3c
       -1.1458396 -0.20309733 -0.27789515 0.015923727
000160 e8 74 cf 3e 9c 86 5a 3d 31 ca 28 bd 78 5d fd be
       0.4051888 0.05335103 -0.04120845 -0.49485373
000170 fe b5 32 be cc ba d4 be 05 9e 61 be 4d a0 45 3e
       -0.17452237 -0.41548765 -0.22032936 0.19299431
000180 1a f2 22 bd d1 9d 17 3b e1 33 57 be 1f 0e b5 be
       -0.039781667 0.0023134837 -0.21015884 -0.35362336
000190 a9 99 a2 be 62 be 18 3e 6f 59 9f be 19 bc c6 3e
       -0.31757858 0.14916375 -0.3112292 0.38815382
0001a0 73 4c 86 be db 1e 17 bf 97 41 39 3e 71 2c 3d be
       -0.262302 -0.59031457 0.18091427 -0.18473984
0001b0 ed 50 10 be b0 a4 0e be d2 67 fd 3d c7 c6 eb 3d
       -0.1409337 -0.13930011 0.12373318 0.11512523
0001c0 03 7d 1c bd 55 9b 44 bf 35 85 2a bf 36 7d b0 bd
       -0.038205158 -0.7679952 -0.6660951 -0.08617632
0001d0 f6 ad 89 bf 66 8e ca be 7e 69 d4 bc ff 56 a6 3e
       -1.0756214 -0.39561766 -0.025929209 0.32488248
0001e0 aa c8 e4 bd e8 83 bc 3e 8c 69 14 be 9b 60 6c be
       -0.11171086 0.36819386 -0.14493388 -0.23083727
0001f0 b4 25 a4 bd ae fe e3 3d 97 b8 72 be b9 c3 dd 3d
       -0.08015004 0.11132561 -0.23703228 0.10828347
000200 60 6c e8 3e 1e 3c ad 3e aa 44 dc 3d cc be 77 3e
       0.45395184 0.33834928 0.10755284 0.24193877
000210 f7 65 35 3d de 15 a7 3e e7 87 67 3e e6 8f 13 3f
       0.044286694 0.3263387 0.22610436 0.57641447
000220 44 0a 96 3d 6e be 77 3d 6b eb b3 3d 3f b2 86 3d
       0.07326177 0.060484342 0.08785137 0.065769665
000230 2d 13 7a be cf 66 8e be a2 2f 04 3f 10 f6 da bc
       -0.24421377 -0.27812812 0.5163518 -0.02672866
000240 c2 b6 a9 3e 8a f5 07 3f ca 34 a8 3e 6b d4 fe be
       0.33147246 0.5310904 0.32852775 -0.49771437
000250 c8 82 3d be 66 3c 73 3f af 9c ea 3c e9 3b 3c be
       -0.1850692 0.95014036 0.028639166 -0.18382229
000260 59 9a 6e 3e cd 1f 3a 3e 21 f3 35 be c0 e6 75 3c
       0.23301066 0.18176194 -0.17768528 0.015008628
000270 d6 e0 b6 be 67 40 37 be a4 9a b0 3c 76 14 a8 3d
       -0.3571841 -0.17895661 0.021558113 0.082070276
000280 0d 0c 6e be 65 48 8a be d5 7f 85 be 44 64 5c be
       -0.23246785 -0.27008358 -0.2607409 -0.21522623
000290 98 27 74 3e 1c 1a 07 be 02 a5 95 3d 10 92 48 3d
       0.23843229 -0.13193554 0.07306863 0.04896742
0002a0 02 e7 f6 bd 8c 3c 62 3d 2d 78 40 be 9c e8 ee bc
       -0.1205578 0.055233523 -0.18795843 -0.029163651
0002b0 9e b3 fd be 14 54 97 be 86 33 23 be af 88 b6 3d
       -0.495511 -0.29556334 -0.15937623 0.08912789
0002c0 40 ea 34 3f 66 3d a4 be 7c 86 13 bd 17 6a 60 3e
       0.7066994 -0.32078093 -0.036016926 0.2191547
0002d0 ab b2 c2 3d 15 c2 06 3b b5 a7 55 bb a9 28 d8 be
       0.095067345 0.002056246 -0.0032601182 -0.4221852
0002e0 d1 ba 00 bd 7c c1 05 3e d1 4a 72 bd 85 f5 8d be
       -0.031428162 0.1306209 -0.05915338 -0.2772638
0002f0 83 16 87 bd d2 03 d5 be 7d 59 cd bd 8d fc bd 3c
       -0.06596091 -0.41604477 -0.10026834 0.023191715
000300 d6 c9 2b 3c 8f b2 9c 3d f8 0a 7d be 27 31 62 3d
       0.010485133 0.07651245 -0.24711215 0.055222657
000310 7b 76 53 bd 43 d0 c2 be cb fe 11 3f 33 0c ba 3e
       -0.051626664 -0.38049516 0.5702941 0.36337432
000320 a8 e8 50 3c 9c cd 7c be 58 84 0f be 3f 06 56 bf
       0.012750782 -0.24687809 -0.14015329 -0.8360328
000330 d5 09 1f 3f e9 8a d1 be 5a d2 92 bd 24 76 42 be
       0.6212438 -0.40926293 -0.071690276 -0.1899038
000340 57 4d 70 3e f5 7b 57 3e 7b 4f 5f be a3 4a 87 bd
       0.23467003 0.2104338 -0.21807663 -0.06606033
000350 2b f1 5d be b7 1e 94 be 59 da 6c bd f5 57 30 3e
       -0.2167403 -0.28929684 -0.05782542 0.17221053
000360 00 4e e4 bd 16 93 8a 3e 4d 87 9a be c3 34 85 3e
       -0.1114769 0.27065343 -0.3018135 0.26016816
000370 ae 4c 1b 3d af f5 fc bd 43 e5 07 3c 1d cc db ba
       0.037914924 -0.12351548 0.008294406 -0.0016769205
000380 04 dc a5 3d fd 9a ea bd 74 d8 96 3d 02 87 2a 3e
       0.08098605 -0.11455343 0.07365504 0.16653064
000390 d7 6b 93 be 33 57 bc 3e 62 44 44 3e 9c f7 d6 bb
       -0.28793213 0.36785278 0.19166711 -0.006560279
0003a0 8f ae 9e be bb b9 19 be 75 ff 55 3e 0d 18 0b bd
       -0.30992553 -0.15012257 0.2089823 -0.033958483
0003b0 ab 03 50 bd 1c aa 31 3e dd f5 e2 3d 85 e3 09 3f
       -0.050784748 0.17350048 0.11082051 0.5386279
0003c0 9c a7 9b be 6c cd 70 bf 5b c0 97 be 93 ac e4 3d
       -0.30401313 -0.9406345 -0.29638943 0.111657284
0003d0 bc b1 12 3f 90 9d 7b 3e 5f 0d 2d 3e d8 07 2a be
       0.5730245 0.24571824 0.16899632 -0.16604555
0003e0 e7 11 80 3e bf 12 82 bc 9c 1a 0c be d7 b0 6f 3d
       0.25013658 -0.01587808 -0.13682026 0.058518257
0003f0 34 b8 04 3e ac d9 77 3e 6a 59 a6 3d 14 3d 30 3d
       0.12960893 0.24204129 0.08122523 0.043027

conv.0.lin_rel.bias f4 [64]
000000 4e 2a 6b be 7d 9e 8e bd 82 cc 12 be cf b7 30 be
       -0.22965357 -0.06963823 -0.14335826 -0.17257617
000010 1f dd a7 be 42 5d b1 be ad ac 36 be fb dc 33 3e
       -0.3278589 -0.34641463 -0.17839308 0.17564766
000020 d5 e4 72 3e a1 6b 3f be a2 3b 96 bd 1b 9e 45 3e
       0.23720105 -0.18693401 -0.07335593 0.19298594
000030 60 2d 09 3e 60 38 8a 3c 3d 99 e1 bd 81 ca 8a 3e
       0.13396215 0.016872585 -0.11015556 0.27107623
000040 48 71 7e bd 5a 93 4f be ac 4a ad bd a1 f6 fe 3d
       -0.062119752 -0.20271054 -0.08461508 0.124493845
000050 58 47 5f 3e bf b0 ae be 19 4a aa 3d d3 32 50 bd
       0.21804559 -0.34119222 0.08314914 -0.05082972
000060 60 2a c1 3c ff 36 06 be 13 c2 5a be 28 52 58 3d
       0.023579776 -0.13106917 -0.21363096 0.052812725
000070 3d 80 1c 3e f2 48 4a 3d 21 1f 2d 3e 57 1f ab be
       0.15283294 0.049385972 0.16906406 -0.33422348
000080 cd 64 85 3e e7 8d cd be d9 2c 40 3e 1e 32 20 3e
       0.26053467 -0.40147325 0.18767108 0.15644118
000090 e2 61 88 3e 03 69 24 3e 76 5d f9 3c 64 7d 0d 3e
       0.2663718 0.16055684 0.030440073 0.13817364
0000a0 67 a7 79 be 18 4f bb 3e ae 46 35 be a9 0b f8 3c
       -0.24380265 0.3658378 -0.17702743 0.030278997
0000b0 9e 18 b0 be eb e1 94 be 12 b4 0f 3e 37 47 e3 be
       -0.3439378 -0.29078612 0.14033535 -0.4439027
0000c0 e0 d4 17 3c 4c c4 5f 3e 2b ba 21 3e 32 26 4f be
       0.009267062 0.21852225 0.15793674 -0.20229414
0000d0 28 b0 5c 3d 5f 16 8b 3e e6 11 b1 be 2f 34 50 be
       0.053878933 0.27165505 -0.34583968 -0.20332406
0000e0 b5 c4 bb be b7 5b 54 be 9e 11 29 be 7f 39 62 3e
       -0.36673513 -0.20738111 -0.16510627 0.22092246
0000f0 cf ab 5b 3d e9 8d 7a be b9 01 d0 be d2 76 67 bd
       0.053630646 -0.24468197 -0.40626314 -0.0565098

conv.0.lin_root.weight f4 [64, 14]
000000 fb d2 c1 3d 98 66 c9 3e 66 93 8a 3e 7b 29 91 3e
       0.094640695 0.39336085 0.2706558 0.2835196
000010 8f fa 65 be 18 c7 2f 3e b8 cd 74 be eb de 11 3f
       -0.22458862 0.17165792 -0.239066 0.5698077
000020 29 14 b8 be 1d 47 bc be 20 c8 37 be 8d c5 e2 3d
       -0.3595288 -0.36773005 -0.17947435 0.11072836
000030 63 50 46 3e 14 12 0b 3e bd cc 8e 3e 83 40 dc bd
       0.19366603 0.13581115 0.27890578 -0.10754492
000040 89 f5 07 bf 58 81 8d be 86 1b c1 bd 6a 9f 16 3e
       -0.5310903 -0.27637744 -0.09429078 0.14709249
000050 aa 76 98 3d 27 40 55 3d 06 02 ea be b6 62 ce 3e
       0.074445084 0.052063134 -0.4570467 0.40309685
000060 14 6a d6 bd 48 24 8c 3c 5e fa 8a bd 13 27 89 3e
       -0.104694515 0.017107144 -0.06786035 0.26787624
000070 b5 44 23 bd 36 69 3b be 11 e3 41 3e 26 ad 08 be
       -0.039860446 -0.18301854 0.18934275 -0.13347301
000080 0e c0 4b bd 24 91 57 3d 42 37 1d be 63 f1 c7 bc
       -0.049743704 0.05262865 -0.1535311 -0.024407094
000090 ea da 35 3f 98 f7 54 be 56 47 ff 3c 7a da 12 be
       0.7103716 -0.20797575 0.031161945 -0.14341155
0000a0 4a 74 c6 3e 0b 4c d5 3d f4 79 a4 be 49 54 ef be
       0.38760597 0.10414895 -0.32124293 -0.46743992
0000b0 32 9a 88 bb d8 e1 aa be a8 b4 37 3e 6c 97 28 3f
       -0.004168772 -0.3337543 0.17940009 0.6585605
0000c0 cc d5 3a be c8 36 7c bf ff 5c ef be c8 31 3c bf
       -0.1824562 -0.9852109 -0.46750638 -0.7351346
0000d0 5b 41 ee 3c 29 c1 9d bd f9 90 68 3d 38 59 12 3e
       0.029083898 -0.07702858 0.05677888 0.14291847
0000e0 96 79 bc 3d 32 23 87 be 71 17 ec bd a1 3f b2 3d
       0.09202878 -0.2639404 -0.115279086 0.087035425
0000f0 dc 60 8a 3e 68 4d 16 be 8d f1 6e be b2 fb b4 3d
       0.27027023 -0.14677966 -0.23334332 0.088370696
000100 4f d9 34 bf 9c de 27 3d d3 7a 04 be b4 f9 6e 3e
       -0.70644087 0.04098378 -0.12937479 0.23337442
000110 e9 96 06 3e 42 a7 87 bd 48 e0 86 be 43 6d 14 3e
       0.13143505 -0.06623699 -0.26342988 0.14494805
000120 88 d9 1a bd b1 34 38 be 40 9d 66 bd da 31 43 be
       -0.03780511 -0.1798885 -0.05630231 -0.19061986
000130 5d fc 6f bd fc 44 7b bd d9 5c 03 bf 3b d8 01 3c
       -0.05859028 -0.061345086 -0.5131355 0.0079250885
000140 d1 db 89 3e b3 ea 08 3e 1c c2 56 bd 7c 39 cf bd
       0.2692552 0.1337078 -0.05243121 -0.10118386
000150 86 96 98 be 9e b1 18 3f 7d e2 c0 bb 09 94 10 3e
       -0.2980234 0.5964602 -0.0058863745 0.14118971
000160 c0 8e 5e 3f 87 c2 7c 3d 28 ff 2b bd b6 f9 28 bf
       0.8693657 0.061708953 -0.041991383 -0.6600603
000170 aa e2 b4 3e a4 d4 64 be 47 78 17 3e 2e 63 18 be
       0.3532918 -0.22346741 0.14791976 -0.14881584
000180 41 9a ca bc 74 4b 21 be a5 31 01 3d 65 db 58 3e
       -0.024731757 -0.1575144 0.031541485 0.21177442
000190 ed 5c c0 bd 4a e9 bb 3d 92 fa 2e bf 05 04 7f 3e
       -0.09392724 0.09175356 -0.6835109 0.24903877
0001a0 cc bd ac be 65 8e 0f 3e da 6e 7b 3f 5f 66 e4 3e
       -0.33738554 0.14019163 0.9821602 0.44609353
0001b0 d8 48 d3 bd d8 bf 0a 3d c8 aa 65 be b5 5a f8 bd
       -0.10316628 0.033874363 -0.22428429 -0.12126676
0001c0 45 29 23 be 15 7c e3 3c 16 92 0f 3c a3 e8 0f bf
       -0.15933712 0.027769128 0.008762857 -0.5621435
0001d0 f9 17 0c 3f 3f a2 81 3e 15 e8 fa bc 54 af 0d be
       0.5472408 0.25319096 -0.030628243 -0.13836414
0001e0 e9 d7 82 be c5 39 91 bd ed d4 80 be 7b 50 1f 3d
       -0.2555535 -0.07091097 -0.2516245 0.03889511
0001f0 d7 56 46 3d 22 e5 03 bc 38 7c 44 3e 08 b9 31 bd
       0.04842266 -0.008050235 0.1918801 -0.04338935
000200 03 73 31 be 01 f6 93 be a7 c2 62 bd 29 fc d3 3e
       -0.1732903 -0.28898624 -0.055361416 0.4140332
000210 1f 18 d3 3e 45 af e7 3e 2d f4 d7 3d 33 d7 92 be
       0.4122934 0.45250908 0.1054462 -0.2867981
000220 4f cb 2f be 2e 1b 1e 3e 3b 6f ea bd 40 39 31 3e
       -0.171674 0.15440056 -0.11446997 0.17306995
000230 a9 40 94 3b 85 ff 85 be d2 3a 9c 3d a0 a4 92 be
       0.0045243097 -0.26171508 0.076284066 -0.28641224
000240 e4 d5 08 3f 35 64 83 be 89 04 67 be b8 ba 31 3c
       0.5345137 -0.2566239 -0.22560324 0.01084774
000250 4b 2a 61 bd f3 a1 43 bd 26 ab 4a be 96 a2 38 3e
       -0.054971974 -0.04776187 -0.1979185 0.18030772
000260 a3 d4 99 3e 8b d4 9f bd 2e 93 a2 3e 1d 7d bb be
       0.3004504 -0.07804211 0.31752914 -0.3661889
000270 6a 66 ec bd 3d 5d e6 3b 6e 51 11 bf cf 19 6a bd
       -0.115429714 0.007030158 -0.56764877 -0.05715352
000280 38 1e 17 be 09 56 37 3d 17 72 8e 3e 57 d5 a7 3c
       -0.14757621 0.044759784 0.2782142 0.02048747
000290 14 4e 08 be 72 c0 a2 bd 27 50 8d 3e d0 aa 72 3e
       -0.13311034 -0.07946862 0.27600214 0.23697972
0002a0 20 1f ae be e0 d6 57 be 19 52 59 bf 6c a8 64 be
       -0.34008121 -0.21078062 -0.84890896 -0.22329873
0002b0 05 a8 37 3e ab 29 b7 3e 49 f8 45 be 5d 4c 03 be
       0.17935188 0.35773978 -0.19332995 -0.12822099
0002c0 e5 94 0a 3e 3d b5 af be 64 a1 81 be c4 10 74 3e
       0.13533361 -0.3431796 -0.25318444 0.2383452
0002d0 59 d9 0e 3e 91 74 0f 3e 56 55 98 bc 8a 2a 9c bc
       0.13950099 0.1400931 -0.018595379 -0.019063253
0002e0 1f bc bd bd 0a 3e 24 bd f1 42 ca 3d 39 c5 d2 3e
       -0.09264397 -0.040098228 0.09876049 0.41166094
0002f0 31 5a c7 3d 59 08 30 be 85 ac d4 be 05 ac 28 3e
       0.097339995 -0.17190684 -0.41537872 0.1647187
000300 59 5d 20 3e c6 1f 1a bd 86 4a 4a be 5c 92 09 3e
       0.1566061 -0.037627958 -0.19754991 0.13434738
000310 e5 8a cf bf ce 1c 2e 3e 4e 62 00 3f bb 7d 4a 3e
       -1.6214262 0.17003176 0.5015 0.19774525
000320 d8 88 41 3e 00 91 06 bf 14 ab 8e be 45 89 09 bf
       0.18899858 -0.52565 -0.27864897 -0.5372508
000330 45 08 3b be a3 d4 07 3e 7a 7e dd bc 73 01 bf bc
       -0.18264873 0.13264708 -0.027037848 -0.02331612
000340 3e 9f 71 3d 9b 68 a6 3d 39 c6 c2 3e c0 99 a6 be
       0.058989756 0.08125421 0.38041857 -0.32539177
000350 80 b0 a6 bd 9e b8 ea bd d3 f3 8d 3e 8b 97 89 bd
       -0.081391335 -0.11460994 0.27725086 -0.06718358
000360 23 82 a3 3b 7d 4d 4b 3c 0d be 79 bd 34 20 ad bd
       0.0049898787 0.012408611 -0.060972262 -0.08453408
000370 7e 75 43 be b1 81 9f bd d2 1f 8e be bb 3d d1 bd
       -0.19087788 -0.077884085 -0.27758652 -0.10216852
000380 a6 30 1e be c8 18 01 bd a7 33 9d 3c 47 c0 52 bd
       -0.15448245 -0.031517774 0.019189669 -0.0514529
000390 69 b8 27 be 5d 78 ae 3e a3 a2 34 bd f2 31 ab bd
       -0.1637894 0.34076205 -0.044100415 -0.08359136
0003a0 00 5b e3 be dd ca ec bc 7f ca a7 3e a2 45 9b 3e
       -0.44405365 -0.028905327 0.3277168 0.30326563
0003b0 6f 3e d0 3c cb c5 8f 3e cd f6 17 be 04 35 09 3d
       0.025420396 0.28080592 -0.14840241 0.033497825
0003c0 3f 34 47 bf aa 2f d4 3c 88 b7 c6 3c 99 d9 be 3d
       -0.77814096 0.025901634 0.024257436 0.09318847
0003d0 9d 4b 35 3d 72 db a8 be 22 3b 8c bc ac 6f be 3d
       0.044261564 -0.32979923 -0.01711804 0.092986435
0003e0 17 95 8c 3e ff a8 13 be 77 d3 07 3e ed 12 78 be
       0.27457497 -0.14419936 0.13264261 -0.2422597
0003f0 c6 fd ad be df 16 53 bd d7 f3 64 3e 24 07 95 3b
       -0.33982676 -0.051535483 0.22358643 0.0045479704

conv.1.lin_rel.weight f4 [64, 64]
000000 a3 93 67 bd 3e e2 80 bd 16 40 15 3d 92 1b 66 be
       -0.05653728 -0.06293152 0.03643807 -0.22471455
000010 d5 83 b4 3d 80 92 93 bd 75 87 8b be 02 56 a3 3c
       0.088142075 -0.07205677 -0.27251783 0.019938473
000020 e5 49 dc 3c 1c e9 87 3d d7 a6 39 be f1 fb 25 be
       0.026890704 0.06636259 -0.1813005 -0.1620939
000030 e5 9c 05 be 97 3d 24 be 40 59 ff bd 12 de 2a bf
       -0.13048132 -0.1603912 -0.12468195 -0.667451
000040 86 98 a9 bc 8f e5 01 be c4 9c f4 bd 0b a1 30 bf
       -0.020702612 -0.12685226 -0.11943963 -0.6899573
000050 bf e9 9b bd 28 c1 fb be 71 ac a4 3d 4a 4e 0e be
       -0.07612943 -0.49170804 0.08040703 -0.13897052
000060 a6 11 08 3d 46 97 16 3f 15 a7 eb bb a9 a9 be bd
       0.033219956 0.58824575 -0.0071915486 -0.09309704
000070 41 09 30 3e ce 53 ad 3e 5a 60 4b 3e 54 bd 0b 3e
       0.1719103 0.33853 0.19860974 0.13646442
000080 34 eb 1b be 4e 19 18 be f3 4e a0 be 0b 89 e9 be
       -0.15226442 -0.14853403 -0.31310233 -0.45612368
000090 3b 3d 98 be da 42 9d 3e 35 e0 10 3d e5 44 77 3e
       -0.29734215 0.30715066 0.03537007 0.24147375
0000a0 3a 97 80 3e e0 bc 05 3f 31 cf a7 3d 86 5d a9 3c
       0.25115377 0.52241325 0.081938155 0.020674478
0000b0 a2 82 19 3e 52 a0 88 be d2 2d bb be 87 d5 2a be
       0.14991239 -0.26684815 -0.36558396 -0.16683017
0000c0 1f 08 21 be ea e9 cc be 9e 9d 43 be df 41 dd bc
       -0.15725754 -0.40022212 -0.19103095 -0.027008949
0000d0 4b 6d 89 3d c7 24 43 bd a5 d0 0a 3e b2 10 6f ba
       0.06710299 -0.047642495 0.13556154 -0.0009119614
0000e0 96 96 f1 3d 32 97 0b 3f 16 32 7e 3e f0 c8 ae 3e
       0.117963 0.5452758 0.24823794 0.34137678
0000f0 2b fb 89 3c 59 28 9e bc 9a ff f8 bd e8 df 9e 3e
       0.016843399 -0.019306349 -0.12158127 0.31030202
000100 bd 26 ab 3e eb fa 37 be 03 6f b8 be 4c f4 c3 3e
       0.33427992 -0.17966811 -0.36022195 0.3827232
000110 5f 31 5d be 23 f1 9c bd 64 59 d8 bf 5b 83 a7 3d
       -0.21600865 -0.07663181 -1.690228 0.08179351
000120 27 cf 21 3d fa 57 18 3d ef 9d 3d bd 74 6b 50 3e
       0.039504196 0.037193276 -0.046293195 0.2035349
000130 23 6d 91 be f3 f3 37 bd 90 ad 83 be 40 2a 83 3e
       -0.28403577 -0.044910382 -0.25718355 0.25618172
000140 28 82 88 bc e7 57 23 3d a1 82 53 be 10 41 72 be
       -0.016663626 0.039878752 -0.206553 -0.23657632
000150 49 83 a6 bd 54 10 b5 be 30 95 74 bd b4 b1 15 3e
       -0.081305094 -0.3536402 -0.05971259 0.1461857
000160 8b 95 da 3d a3 cf 76 3e c6 f8 36 be 9a 8e 00 3e
       0.10673054 0.24102645 -0.17868337 0.12554398
000170 83 70 51 3e bd b5 2b be d5 d0 8b bd 2c 51 61 bd
       0.20453076 -0.16768546 -0.06826941 -0.055009052
000180 9f 3e 90 3e 07 29 a7 bb 8f 3b 91 3d a5 68 ea bd
       0.28172776 -0.0051013264 0.07091438 -0.114457406
000190 cd 68 38 3e 0a e7 78 3d 26 3b c8 bc 9f 77 45 bd
       0.18008728 0.06076721 -0.024442267 -0.048209783
0001a0 bb 1f 6e 3c cb 96 8c bd a2 92 b5 3e 2a e0 24 be
       0.014533932 -0.06864699 0.35463434 -0.16101137
0001b0 eb 4d 07 bf 9a df a3 3e e6 6c 05 be d7 22 27 3d
       -0.5285327 0.32006532 -0.13029823 0.04080471
0001c0 d4 47 3a 3e c4 99 7d bd 35 04 01 3e 03 a3 89 be
       0.18191463 -0.06191422 0.12599261 -0.2688218
0001d0 b6 62 13 3d b2 b5 74 bd 98 1e e5 3e 30 9c 0d be
       0.03598281 -0.05974359 0.44749904 -0.13829112
0001e0 9d 58 16 3e ff 79 bb 3e 63 94 f7 3d 12 c0 9d 3e
       0.14682241 0.36616513 0.120888494 0.308106
0001f0 72 e5 de bc a0 b9 7c be 47 c0 76 3d f0 27 4a bf
       -0.027209017 -0.24680185 0.060241964 -0.7896719
000200 5a f8 13 bf 8f 50 d9 bd 2d 4f 89 bc d8 ec 52 bb
       -0.5780083 -0.106110685 -0.016761387 -0.0032184627
000210 2c 28 5c 3e a6 7b 8e 3d c2 37 50 3d ad e5 00 bf
       0.214997 0.06957178 0.050834425 -0.5035046
000220 63 d6 0c 3e f2 28 74 3d 83 fe 2f 3e ea 19 f5 3c
       0.13753657 0.05960936 0.17186932 0.029919583
000230 9d 06 b0 be f5 47 36 be cb e4 f8 bd b4 ab 64 3d
       -0.34380046 -0.17800887 -0.12153014 0.05582781
000240 47 80 fa be ff 7d 88 3e 19 a2 1a 3d ad 2f fd be
       -0.48925993 0.26658627 0.037752245 -0.49450436
000250 ca cf 1c 3d 2d d9 8e bd 84 1e 9e bd 1c b3 3d be
       0.0382841 -0.06975017 -0.07720664 -0.18525356
000260 66 a3 38 3e 68 36 a4 3f af 6b 48 be 9a e0 0d bf
       0.18031082 1.2829103 -0.19572328 -0.5542084
000270 ef 67 5c bf 0c b6 66 3d e4 b8 c3 be 20 dd 12 be
       -0.8609609 0.056325957 -0.38226998 -0.14342165
000280 b0 c4 71 3e 29 5e e7 3d ab cf 81 be b7 3a 09 be
       0.23610187 0.112972565 -0.2535375 -0.13401304
000290 1d 10 a4 be a0 a7 3e be a6 ad 82 bb 64 c6 85 3c
       -0.32043543 -0.18618631 -0.0039879857 0.016329952
0002a0 57 03 35 be c9 33 3e be f0 09 e8 3d 9f 8f 2a be
       -0.17677055 -0.18574442 0.113300204 -0.1665635
0002b0 92 19 11 be ba cf 84 3e df 6e a2 3d 82 53 e0 3e
       -0.1416991 0.25939733 0.07931303 0.4381371
0002c0 01 c8 3c bf 20 fd 1e 3e 54 cb 24 be 67 f1 a5 bd
       -0.7374268 0.15526247 -0.16093189 -0.081026845
0002d0 97 3a ec 3d e3 7b 65 be c5 84 ee 3d 6c 38 d5 3d
       0.115346126 -0.2241054 0.116464175 0.10411152
0002e0 06 dc 19 be 05 32 2f bf 64 01 af 3e 4e 35 bb bf
       -0.15025339 -0.684357 0.34180748 -1.4625642
0002f0 07 fa 0d bd 07 77 4d 3e fb da c3 3c 60 1e f0 be
       -0.034662273 0.20064937 0.023908129 -0.46898174
000300 0e 20 53 3e 3b 5a 9a bc 40 54 f2 3d 5c a8 25 3e
       0.20617697 -0.018841853 0.11832476 0.16177505
000310 27 16 56 3e ba e7 f2 3d df 2c dd bd c1 c1 20 3e
       0.20906888 0.118606046 -0.10799574 0.15698911
000320 cf d1 b9 3d aa 7f 44 3d 5c 32 d6 be ae 73 c9 be
       0.09073221 0.047973312 -0.41835296 -0.3934607
000330 d1 19 8e 3d f6 f0 be bc 75 0e ac bb 05 77 e9 be
       0.06938518 -0.023308259 -0.005250747 -0.45598617
000340 46 2b db bd 56 08 ba be 23 f5 06 3d 89 ba ac bd
       -0.10701613 -0.36334485 0.032948624 -0.08434016
000350 66 07 95 3b da 6f 10 3e 05 56 7c 3d 1f 2f 07 be
       0.004548001 0.14105168 0.061605472 -0.13201569
000360 e8 cb c7 3d da cd 30 bf b6 b8 16 be e2 e9 fd bd
       0.09755689 -0.69064105 -0.14718899 -0.12398125
000370 84 7c 0a 3d 0a 9c 52 bc 8e ff 07 be 8a 9f 1e bd
       0.033810154 -0.012854585 -0.1328108 -0.038726367
000380 a2 95 c8 bd ca 5d cc be d1 40 86 bd d1 6c 9b 3c
       -0.09794165 -0.39915305 -0.065553315 0.018972786
000390 ca a1 16 3e 94 97 38 bd 78 5d 88 bc cc f4 9e bc
       0.14710155 -0.04506643 -0.016646132 -0.019403838
0003a0 95 c4 a8 3e 69 6b 10 3e 14 3b 5d bd 8f d8 59 be
       0.3296248 0.14103474 -0.05401142 -0.21274017
0003b0 d4 da 48 3e cc 3f 04 3f 16 f9 2f be ab 49 76 3e
       0.19614726 0.51659846 -0.17184862 0.2405154
0003c0 e5 22 95 bd 95 4b e4 bb 06 f7 a0 be c8 27 c6 bc
       -0.07282046 -0.006967018 -0.31438464 -0.024188891
0003d0 4e d2 8c bd 80 5a df bd a7 98 af 3e 1d 90 14 3d
       -0.0687605 -0.109059334 0.34296152 0.03627025
0003e0 e0 46 1c 3e db 4d 73 3e c0 bb 97 bf 6a 4e 41 3f
       0.15261412 0.23760168 -1.1854172 0.75510275
0003f0 b9 ae 1a bd 6e eb 29 3e 5d bc bd be 1b f9 1f 3f
       -0.037764285 0.16593716 -0.37057772 0.6248948

conv.1.lin_rel.bias f4 [64]
000000 75 4f 18 be fb 5e c9 bd ff 28 18 3e 41 ea 57 3c
       -0.1487406 -0.09832569 0.14859389 0.013178409
000010 31 0a 07 be 0f a4 c2 3d ed 63 a2 3d dc 22 1e 3e
       -0.13187481 0.09503948 0.079292156 0.15442985
000020 b9 7b 05 3d 96 3b f5 bb 17 48 11 bc d4 59 b1 3d
       0.032588694 -0.00748391 -0.008867285 0.086597115
000030 49 f8 3f 3e 28 21 aa be cb 3f 84 bd 94 07 89 3d
       0.18747057 -0.3322842 -0.0645748 0.066908985
000040 df 6b 87 3d 6c 55 da bd 2a 07 36 3e 17 0d 99 3d
       0.06612372 -0.10660824 0.1777617 0.074732
000050 d5 11 26 bc 2e 1f fb bd 59 6d a8 3d 69 7c ae bd
       -0.010136087 -0.122618064 0.082239814 -0.08519823
000060 e0 5c db 3d 3c ef 98 ba 43 94 f6 bd d1 37 9f 3d
       0.10711074 -0.0011667977 -0.120399974 0.07774318
000070 42 f8 d8 bc 20 f2 10 be b6 1d 0c be 21 60 fe bd
       -0.026485566 -0.14154863 -0.13683209 -0.12420679
000080 90 c5 bb 3c 9c 54 ba bb 54 ac 44 bd d5 2f df 3d
       0.022921354 -0.0056863558 -0.048015907 0.10897795
000090 b1 f2 d7 3d e4 7c b6 bd 72 c5 ee bc ae 24 11 be
       0.105443366 -0.0891054 -0.029146884 -0.14174148
0000a0 74 5a e6 bd 97 d4 13 be d6 42 28 3e 71 be d9 3c
       -0.11247721 -0.14436565 0.16431746 0.026580067
0000b0 95 8c 56 be 66 61 13 3e 92 3f ad bd e9 0b ca 3d
       -0.20952065 0.14392623 -0.08459391 0.09865553
0000c0 9c 06 76 3d 8a 7b 02 be 68 47 ea bd 30 0a db bd
       0.060064897 -0.12742439 -0.11439401 -0.106953025
0000d0 8a da f1 bd 0e d8 f0 bb c3 9f 83 3b 55 de 2f 3d
       -0.11809261 -0.0073499745 0.004016848 0.04293664
0000e0 d5 c4 88 bc e1 6b 39 be 21 f3 00 3a df 46 b0 3d
       -0.01669542 -0.18107559 0.00049190415 0.086072676
0000f0 e3 88 0f be ee 79 ff 3d 14 5d 2a 3a bc 94 48 bb
       -0.14017062 0.12474428 0.0006498855 -0.003060623

conv.1.lin_root.weight f4 [64, 64]
000000 1a 1c 8f bf 03 42 26 be b4 5e 4a be d6 65 d3 3d
       -1.1180451 -0.16236119 -0.19762689 0.10322158
000010 84 92 3d 3e 98 dc b4 bc 75 2d c7 3c ac 60 34 3d
       0.18512923 -0.022077844 0.024313668 0.044037506
000020 d1 db a8 3e c2 2a dc 3e 94 13 63 be 77 1e fd be
       0.32980207 0.43001372 -0.22175437 -0.49437305
000030 f9 eb f9 bd 1e 7e ff bd ea d9 98 3c 4a 7f 56 be
       -0.12203211 -0.12475227 0.018658597 -0.20946994
000040 e6 6b 18 be 53 7d 01 bf 54 77 0f 3e 8b f9 2f bf
       -0.1488491 -0.50581855 0.14010364 -0.6874015
000050 b1 31 19 bf 69 32 36 bf 7d 81 8e bf 1e ab 8c 3e
       -0.5984145 -0.7117067 -1.1133267 0.27474302
000060 53 33 49 3e 2a c1 c1 bc 17 4a ba be 6d 59 7f 3e
       0.19648485 -0.023651678 -0.3638465 0.24936457
000070 5c aa 8d bc 3c e6 07 3f 90 c2 ca bd 3c 09 1c be
       -0.017293148 0.53085685 -0.09900391 -0.15237898
000080 4e e8 33 be fb f2 15 be 67 73 08 3d c5 3d ac be
       -0.17569086 -0.14643471 0.03331318 -0.33640876
000090 06 a8 7a 3e 5f 1e 8b be 20 74 b1 3d 56 c3 0a be
       0.24478158 -0.2717161 0.08664727 -0.13551077
0000a0 ef 4c b9 be c9 34 83 3e ba e4 20 3e 14 a6 12 be
       -0.36191508 0.2562621 0.15712252 -0.14321166
0000b0 c9 db a2 3e 7e 2e f1 bf af 6e 19 3d a9 fe 4d 3d
       0.31808308 -1.8842313 0.03745907 0.05029169
0000c0 89 af 9c bd 3a ee ec be 09 d3 05 bf 0b 85 f6 bd
       -0.07650668 -0.46275502 -0.5227514 -0.12037095
0000d0 3c 04 29 3e 23 14 c4 bd ac 6a 62 3e d1 fd b1 bd
       0.16505522 -0.09574153 0.22111005 -0.0869099
0000e0 88 2b 38 bd cb 39 75 3e 1e a6 c0 bf 7d 21 32 be
       -0.04496339 0.23947828 -1.5050695 -0.17395587
0000f0 04 49 2d 3e 0b c4 59 3d 78 67 04 3d 54 bf a5 bc
       0.16922385 0.053165477 0.032325238 -0.020232834
000100 4e e8 73 be 8e f8 64 3d 16 d5 29 3e c2 21 ae be
       -0.23819086 0.055901103 0.16585192 -0.3401013
000110 6f a8 50 3e a3 c5 8c 3e 1e e2 8b be f6 f2 2e bd
       0.20376752 0.27494535 -0.2732095 -0.042712174
000120 1a 9c 7d 3e 37 20 1b 3e e4 6d e3 3e 71 25 75 3e
       0.2476658 0.15149008 0.44419777 0.23940064
000130 75 74 c4 3a 8e bf 2d 3e 11 fa e9 3c bc 8d 2b bd
       0.001498832 0.16967604 0.028561624 -0.041883215
000140 75 57 38 3e 04 93 38 3e 4b 82 8c 3e f4 34 14 bd
       0.18002112 0.18024832 0.27443156 -0.036183313
000150 e7 9f 00 3b 6d 70 a4 bb 5a 47 43 3e 7a 29 df bd
       0.001962656 -0.005018285 0.19070187 -0.10896583
000160 6f 8f 0c be 44 ae 6f bd 08 23 39 3e 7e 51 f6 3c
       -0.1372659 -0.058515802 0.1807977 0.030068155
000170 bc 63 2d 3e f0 70 75 bc 23 cd 92 bd 11 62 c1 3c
       0.16932577 -0.01498054 -0.07168033 0.023606332
000180 b6 26 4c bd 16 24 83 be 91 86 90 3d 63 0e f2 3d
       -0.049841605 -0.2561347 0.070569165 0.1181915
000190 48 bd 5a be 20 29 47 3e 26 d3 6d be 3f 3f bc be
       -0.21361268 0.19449282 -0.23225078 -0.36767003
0001a0 d1 81 88 3e 86 92 c0 3e 08 50 12 be 7d 48 57 be
       0.26661542 0.3761179 -0.14288342 -0.21023746
0001b0 10 3c 9d be d3 25 3c 3e 10 60 8d 3b ad af ef 3e
       -0.30709887 0.18373804 0.00431443 0.46813717
0001c0 48 b3 1c 3e 05 75 37 3d 8f 57 c4 3c e4 82 48 be
       0.15302765 0.044789333 0.023967532 -0.19581181
0001d0 a2 de a5 bd 76 fe bf be e2 c6 a3 3e 89 34 16 3d
       -0.080991045 -0.37498826 0.31987673 0.036671195
0001e0 c5 e3 9e bb 9e 9c fa 3e 2a 33 a9 bf a8 46 00 be
       -0.0048489296 0.48947614 -1.3218739 -0.12526953
0001f0 e5 92 c8 bc 75 9b 68 3e ca fc 67 3d 88 46 34 3c
       -0.024484107 0.22715552 0.056637563 0.011003144
000200 18 a0 cd be 9e 87 a2 3d f3 90 bc bd 81 3b 1b 3e
       -0.40161204 0.07936023 -0.09207334 0.15159418
000210 b6 f2 c3 3d fa 10 9d be ab b5 ea bf 4b ae 7b 3e
       0.09567778 -0.30677015 -1.8336691 0.24578206
000220 61 64 75 be 62 e1 0c 3f ab d4 f9 bd 96 0d e3 3d
       -0.23964073 0.55031407 -0.12198766 0.11086576
000230 fb 9e d2 3d b1 01 16 be 9b dc 8f 3d 45 cc 4c be
       0.10284229 -0.14649083 0.07024499 -0.19999798
000240 db d9 ae be 80 cd 57 3e 54 9e b9 3d 0d 49 1d be
       -0.34150586 0.21074486 0.09063402 -0.15359898
000250 27 54 00 bf e0 4c 61 3f 79 31 c0 bf ab 4b e1 3d
       -0.50128406 0.88007927 -1.5015098 0.11000761
000260 3d 51 9f be 49 9f 5d be 20 42 01 be 10 ae 40 3e
       -0.31116667 -0.21642794 -0.12622881 0.188164
000270 7f e8 96 be 69 a7 3e bf 77 3e 78 3e 10 b8 3f be
       -0.29474255 -0.744742 0.24242578 -0.18722558
000280 46 32 be 3d cf 54 13 3e 0e 80 8a be 61 41 92 3e
       0.09286933 0.1438782 -0.27050823 0.28565505
000290 cc 7d b4 bd ff 8b e4 be 45 ae 6f 3e 36 af 18 3d
       -0.08813056 -0.4463806 0.23406322 0.03727647
0002a0 95 25 7f 3d 9e 78 ba 3c f4 ee 40 3e 99 b8 87 3e
       0.0622917 0.022762593 0.18841153 0.26508024
0002b0 a4 a6 a2 3d f8 33 a5 3d 7f 18 8e bd 09 33 bd 3c
       0.079419404 0.08066553 -0.06938266 0.023095625
0002c0 0d 2a a7 3e 65 f3 af be 07 9d ac 3e 2c f2 cb 3d
       0.3264927 -0.34365383 0.33713552 0.099583
0002d0 d0 52 cc 3d 9f 8e 59 3d 89 13 85 be 3c c7 82 bd
       0.09976733 0.05311453 -0.25991467 -0.06385657
0002e0 e2 06 08 be 86 fa 0a 3e 84 6d 9d be ba 91 50 3e
       -0.13283876 0.1357213 -0.30747616 0.2036809
0002f0 09 fa c0 bd 34 62 f1 3d d7 ff 5f bd fa 85 a4 bf
       -0.094226904 0.11786309 -0.054687347 -1.2853386
000300 df 7d 17 3e d0 73 71 be 63 a7 74 bd 3b dc 8b 3e
       0.1479411 -0.23579335 -0.059729945 0.2731646
000310 b1 a9 28 3d 0b 9f 32 be b4 39 32 be 15 b1 f7 3c
       0.041177455 -0.17443483 -0.17404824 0.030235806
000320 61 f9 8f 3e 6f 09 2a 3c 3f 4c 86 3e 85 69 f6 3d
       0.28119949 0.010378226 0.26230046 0.12031845
000330 32 ed 59 3e cc 7d 60 3d b2 b6 ba 3d 89 19 60 3e
       0.21281889 0.05480747 0.091168776 0.21884741
000340 cb 07 0b bf 4d c5 9b be 18 eb ad 3b c2 69 5f 3e
       -0.54308766 -0.30423966 0.0053075664 0.21817687
000350 1b de 38 3b 2e b7 01 be 3c bb 68 3e fe ed c1 3c
       0.0028208557 -0.12667534 0.22727674 0.023673054
000360 65 2d d7 3d 70 05 71 be 4b 48 80 bd 7b cb a1 3c
       0.10506705 -0.2353723 -0.06263789 0.019750347
000370 24 b0 fd bd 5d c7 a6 be eb 4f 66 3e 3d 49 ac be
       -0.12387112 -0.32573977 0.22491424 -0.33649626
000380 cb 85 c4 3d e3 31 74 3e db 2a 23 be 6d aa 09 bd
       0.095958315 0.23847155 -0.15934317 -0.033609796
000390 c3 eb b6 be c1 25 5c be 08 1f 8b 3d 53 0d 00 3d
       -0.35726747 -0.21498777 0.06793028 0.031262707
0003a0 b1 34 3c 3e c5 ad 65 bf 6c 69 e6 bd 44 bd 9f bd
       0.18379475 -0.89718276 -0.112505764 -0.077997714
0003b0 e9 94 c7 bd ce 2b 5e bf e7 c7 cd 3d 90 dd 78 3e
       -0.09745199 -0.8678559 0.10047894 0.2430327
0003c0 36 c6 b2 3d 61 50 e0 bd df 64 4b 3e 06 7f 3c be
       0.08729212 -0.10952831 0.19862698 -0.1840783
0003d0 b7 d4 00 3e 65 31 1e be e9 4f 80 3e 2f fc f2 be
       0.12581144 -0.1544853 0.25060967 -0.47458026
0003e0 63 d6 8b bd 80 a5 99 3d 68 af 5e 3e 85 ef bb 3c
       -0.068280004 0.0750227 0.217466 0.02294136
0003f0 be 32 89 be 96 79 97 3d 10 c8 c1 bd 08 49 f2 be
       -0.26796526 0.073962376 -0.09461987 -0.47321343
