checkpoints/aids/model_AIDS.pt_l2_emb64_hid64_netdist.pt (torch, 99761 bytes, 9 tensors)

virtual_embedding f4 [64]
0.28094554 0.7032855 0.5483989 0.11542082 0.44420028 0.69538605 0.19219577 0.92435986
0.21941924 0.7725355 0.55650973 0.20953459 0.87697405 0.38610357 0.42238063 0.35629243
0.004196048 0.79539275 0.27347368 0.7996909 0.7378021 0.77096665 0.678442 0.6609533
0.07839793 0.4719292 0.2930786 0.8781048 0.69338787 0.5124552 0.04717511 0.040421367
0.081558526 0.8497906 0.81287384 0.057017207 0.069595575 0.9163092 0.70164615 0.18492097
0.44221234 0.80826104 0.764183 0.48029226 0.29202884 0.33178794 0.35065788 0.18967849
0.16976237 0.85398006 0.58297306 0.6640932 0.13664418 0.5926991 0.9454222 0.7738567
0.47812873 0.26982224 0.9815183 0.2865088 0.3581915 0.5239298 0.35819912 0.48029357
00000000: 18d8 8f3e 850a 343f df63 0c3f c061 ec3d
00000010: 386e e33e d204 323f f8ce 443e d9a2 6c3f
00000020: 70af 603e e3c4 453f 6c77 0e3f 3c90 563e
00000030: 5f81 603f 5eaf c53e 4642 d83e f66b b63e
00000040: 007f 893b dc9e 4b3f be04 8c3e 8bb8 4c3f
00000050: 99e0 3c3f 125e 453f 60ae 2d3f 3c34 293f
00000060: 188f a03d b4a0 f13e 660e 963e 7acb 603f
00000070: de81 313f 4430 033f b03a 413d e090 253d
00000080: 2808 a73d e08b 593f 8018 503f e08a 693d
00000090: 2088 8e3d 3d93 6a3f 159f 333f ec5b 3d3e
000000a0: a869 e23e 32ea 4e3f 7fa1 433f dee8 f53e
000000b0: ce84 953e 1ce0 a93e 6e89 b33e 143b 423e
000000c0: 30d6 2d3e 709e 5a3f b93d 153f 0302 2a3f
000000d0: 74ec 0b3e 21bb 173f 3007 723f 791b 463f
000000e0: 4acd f43e 2426 8a3e c944 7b3f 48b1 923e
000000f0: e064 b73e 4320 063f e065 b73e 0ae9 f53e

embed_transform.0.weight f4 [64, 166]
-0.0021393832 0.011898395 -0.0522077 -0.04010993 -0.077940546 -0.049952924 -0.008385325 0.04898545
-0.0035303244 0.013898881 0.06237302 0.010226793 -0.07079462 -0.079714336 -0.061853994 0.007239388
-0.026124347 0.03757785 0.005811319 -0.016139185 -0.0699977 0.020422505 0.037553012 0.005200917
0.007237442 0.008212767 0.089045666 -0.045995418 -0.02022141 0.043666515 -0.030254344 0.040250495
-0.03368963 -0.019662257 -0.034942497 -0.019267146 -0.045307048 0.066717744 0.015217705 0.022040742
0.0032882756 -0.07472192 -0.005433586 -0.08493298 -0.04556198 -0.047802743 0.05544913 0.053865165
-0.033662517 -0.013736053 0.038230512 0.072179236 0.021137504 0.014821331 0.025429351 -0.061058316
0.09224071 -0.07877237 -0.053519458 -0.034634326 -0.009327635 0.07683477 -0.06595693 0.035797
0.043216944 -0.0007250038 -0.00942572 0.017418686 0.04445182 0.083729126 -0.023881972 -0.047480747
0.016191155 0.065781415 0.04871054 0.100555934 -0.0100617865 -0.07253821 0.0023101927 -0.05287617
-0.01382588 0.060916193 0.036918297 -0.07804591 0.020911083 0.06104104 -0.0028472776 -0.053030502
0.04070977 -0.108619444 -0.0031313982 0.026575211 0.06634955 0.01877261 -0.056549728 -0.05371804
0.03012916 0.023511726 -0.05741915 -0.065250374 0.06582332 0.029992508 -0.057975393 -0.015212708
-0.029850408 -0.014174855 -0.09883837 -0.033479553 0.018759465 -0.01884245 0.12633274 0.031117268
-0.08552137 -0.09340538 0.15591174 -0.122172765 -0.041871503 -0.0013655436 0.005818249 0.024905754
-1.6679192e-05 0.0004717021 0.015169025 0.035574034 -0.19628294 -0.07692061 -0.0035654602 -0.027085073
-0.008141244 0.09402228 0.10348443 -0.06994891 -0.054809213 -0.0060266526 0.05446766 -0.03448105
-0.06173006 -0.0006926518 0.094219096 -0.08076548 0.08281339 0.049991746 0.08707681 -0.019232972
-0.10973012 0.0383232 0.110237084 -0.0037964883 -0.10904422 -0.026843147 -0.06786526 -0.051160093
-0.012901686 0.034697924 0.07999767 -0.07830564 0.011059261 -0.06493291 -0.028019603 -0.024556449
-0.028642593 -0.022711791 -0.05635054 -0.074443765 -0.013129847 -0.0098198885 -0.025007784 0.013335263
-0.028082302 -0.017969834 -0.001882073 -0.020968074 -0.02101096 0.032348163 -0.046014387 -0.040240947
-0.085393555 -0.004584243 0.0672806 -0.020345159 0.0057125804 -0.020307746 0.04701796 0.0155374585
-0.017066525 -0.022689972 -0.031548887 -0.025829684 -0.07403627 0.030632034 0.058413964 0.053106148
-0.06699901 -0.04192744 -0.06972085 -0.05650883 -0.04522672 0.0050793383 -0.088955335 -0.018661652
-0.009624311 0.051051207 -0.058670774 -0.053283684 0.00542651 0.07411646 -0.018257316 -0.012796766
0.047328547 -0.0071329717 0.017588181 -0.0012018704 0.064515024 -0.026862556 0.006493544 0.011698421
-0.06490139 -0.018128308 0.068561345 -0.061962184 -0.000112089336 0.0888009 -0.043111768 0.0034726926
-0.097161934 0.05013488 -0.016310249 0.0042237006 -0.04118963 0.018103942 0.021023795 0.062540315
0.018600632 0.033177074 0.044643257 -0.026252145 0.056311097 -0.011368776 -0.003945591 0.02596938
0.029070986 0.10069519 -0.038118448 0.0089695975 0.0634271 -0.070611306 0.057417087 -0.038009033
-0.002919502 -0.008666389 -0.043535672 0.0045386394 0.060045145 -0.021715553 -0.05329176 0.004444433
00000000: e534 0cbb 7cf1 423c bed7 55bd 4f4a 24bd
00000010: 4b9f 9fbd 709b 4cbd 9a62 09bc f8a4 483d
00000020: 045d 67bb 22b8 633c da7a 7f3d 478e 273c
00000030: c5fc 90bd 4541 a3bd 9d5a 7dbd 6338 ed3b
00000040: ba02 d6bc 3beb 193d e16c be3b 5336 84bc
00000050: f45a 8fbd 194d a73c 30d1 193d 746c aa3b
00000060: 1028 ed3b d78e 063c 935d b63d b165 3cbd
00000070: 5fa7 a5bc a9db 323d f5d7 f7bc b4dd 243d
00000080: 23fe 09bd be12 a1bc dd1f 0fbd 22d6 9dbc
00000090: e293 39bd 50a3 883d ae53 793c c98e b43c
000000a0: 1c80 573b ce07 99bd 390c b2bb 58f1 adbd
000000b0: 339f 3abd cfcc 43bd a01e 633d b8a1 5c3d
000000c0: b5e1 09bd 2f0d 61bc 9997 1c3d b5d2 933d
000000d0: 8f28 ad3c 2bd5 723c 3751 d03c 4918 7abd
000000e0: b3e8 bc3d 6953 a1bd 3837 5bbd b9dc 0dbd
000000f0: f0d2 18bc 8c5b 9d3d 6d14 87bd e09f 123d
00000100: 4004 313d 2e0e 3eba 566e 1abc a2b1 8e3c
00000110: 1d13 363d 2d7a ab3d 20a4 c3bc 2c7b 42bd
00000120: 50a3 843c 68b8 863d b484 473d 45f0 cd3d
00000130: 31da 24bc ea8e 94bd 9a66 173b af94 58bd
00000140: f285 62bc 4283 793d a437 173d 89d6 9fbd
00000150: b84d ab3c 2b06 7a3d 6499 3abb 8336 59bd
00000160: 4abf 263d df73 debd 2538 4dbb 42b4 d93c
00000170: 46e2 873d 04c9 993c b0a0 67bd 7307 5cbd
00000180: 6ed1 f63c aa9b c03c 5830 6bbd fda1 85bd
00000190: 60ce 863d d9b2 f53c 9b77 6dbd b93e 79bc
000001a0: d888 f4bc a73d 68bc c56b cabd db21 09bd
000001b0: 73ad 993c 7b5b 9abc 5f5d 013e a4e9 fe3c
000001c0: d425 afbd 524b bfbd 54a7 1f3e b735 fabd
000001d0: 7481 2bbd 0afc b2ba 03a7 be3b 2707 cc3c
000001e0: 4bea 8bb7 c94e f739 8187 783c 14b6 113d
000001f0: 65fe 48be 8e88 9dbd 7faa 69bb 84e1 ddbc
00000200: da62 05bc c18e c03d a5ef d33d 6041 8fbd
00000210: a07f 60bd 3a7b c5bb 7b19 5f3d 003c 0dbd
00000220: a9d8 7cbd 1393 35ba f1f5 c03d 5f68 a5bd
00000230: 119a a93d 25c4 4c3d 5455 b23d 778e 9dbc
00000240: 2fba e0bd caf8 1c3d fbc3 e13d 81ce 78bb
00000250: 9352 dfbd 29e6 dbbc f1fc 8abd 3f8d 51bd
00000260: 9861 53bc 691f 0e3d d2d5 a33d b55e a0bd
00000270: e731 353c 8cfb 84bd 5e89 e5bc 9b2a c9bc
00000280: dfa3 eabc 140e babc d3cf 66bd f975 98bd
00000290: 921e 57bc 99e3 20bc 20dd ccbc 267c 5a3c
000002a0: db0c e6bc 7935 93bc e4af f6ba 3dc5 abbc
000002b0: 2d1f acbc 827f 043d 9579 3cbd b1d3 24bd
000002c0: d1e2 aebd 6b37 96bb 69ca 893d e4aa a6bc
000002d0: 9930 bb3b 6e5c a6bc e895 403d d390 7e3c
000002e0: 19cf 8bbc 52e0 b9bc 6839 01bd c698 d3bc
000002f0: 54a0 97bd 08f0 fa3c 7b43 6f3d d585 593d
00000300: c736 89bd 1bbc 2bbd cec9 8ebd ce75 67bd
00000310: a73f 39bd 9470 a63b 372e b6bd 52e0 98bc
00000320: 49af 1dbc 121b 513d c450 70bd fe3f 5abd
00000330: ddd0 b13b 5fca 973d 5e90 95bc 87a9 51bc
00000340: 94db 413d b4bb e9bb 1715 903c 1488 9dba
00000350: 7420 843d dd0e dcbc ccc7 d43b bcaa 3f3c
00000360: 05eb 84bd d181 94bc e469 8c3d 0fcc 7dbd
00000370: 8111 ebb8 3fdd b53d f795 30bd 1d96 633b
00000380: d6fc c6bd 3b5a 4d3d 129d 85bc f866 8a3b
00000390: 75b6 28bd b84e 943c 183a ac3c 2315 803d
000003a0: 5a60 983c afe4 073d d9db 363d bd0e d7bc
000003b0: 77a6 663d 1a44 3abc 044a 81bb bdbd d43c
000003c0: 4726 ee3c 4839 ce3d 1722 1cbd 38f5 123c
000003d0: 11e6 813d a99c 90bd 2e2e 6b3d 5caf 1bbd
000003e0: 1e55 3fbb 78fd 0dbc 7652 32bd deb8 943b
000003f0: e6f1 753d d1e4 b1bc 7648 5abd 9ba2 913b

embed_transform.0.bias f4 [64]
0.17271751 -0.16418326 0.20285669 -0.19038157 0.20118396 0.24015266 0.0009852776 -0.17020735
0.07348531 0.17956164 0.18140925 -0.2071941 -0.19407436 -0.23808827 -0.022679074 -0.2037744
0.15689504 -0.022897307 0.19921884 0.14674579 -0.10017317 -0.053546183 -0.17964937 -0.16675857
-0.18190944 -0.18086725 -0.10852085 0.18733025 0.14601976 0.1590698 -0.1541139 0.20631628
-0.22437896 0.20980085 0.18874335 0.02482712 -0.22161281 0.0093934545 -0.21509495 -0.21998025
0.21007177 0.041031234 0.21777421 0.1785373 -0.18706593 0.19451413 -0.17297268 -0.20747043
0.08029463 -0.1974663 0.2341035 -0.22620241 0.23910698 0.14373304 0.11483344 0.2535385
-0.18601355 -0.07570353 0.18440212 0.062930025 0.18293822 0.19220084 0.025488561 0.14799902
00000000: dcdc 303e a81f 28be aab9 4f3e 63f3 42be
00000010: 2b03 4e3e 94ea 753e 6e24 813a d64a 2ebe
00000020: 777f 963d 02df 373e 59c3 393e b12a 54be
00000030: 6ebb 46be 69cd 73be 77c9 b9bc 3caa 50be
00000040: 18a9 203e 2293 bbbc 0600 4c3e 8744 163e
00000050: 9727 cdbd 3e53 5bbd 01f6 37be c2c2 2abe
00000060: 7846 3abe 4435 39be 2e40 debd 80d3 3f3e
00000070: 3486 153e 32e3 223e 09d0 1dbe 9344 533e
00000080: 99c3 65be 09d6 563e f045 413e 3f62 cb3c
00000090: 78ee 62be 01e7 193c da41 5cbe 8142 61be
000000a0: 0e1d 573e 5e10 283d 3400 5f3e 7bd2 363e
000000b0: 368e 3fbe b62e 473e c01f 31be 2173 54be
000000c0: 8371 a43d 9b34 4abe d4b8 6f3e 9ba1 67be
000000d0: 76d8 743e c12e 133e cb2d eb3d cccf 813e
000000e0: 567a 3ebe 740a 9bbd e9d3 3c3e 75e1 803d
000000f0: 2854 3b3e 4cd0 443e 63cd d03c 0e8d 173e

conv.0.lin_rel.weight f4 [64, 38]
0.0035858755 -0.022777388 0.07287047 -0.03806949 -0.13637637 0.21148205 -0.002544086 0.059337355
-0.03179907 -0.028241089 -0.011295617 0.14129533 -0.13573015 0.10136094 -0.11474067 0.044867523
0.07885344 0.03610879 -0.01060195 0.05029959 -0.045756448 0.03682297 0.1314396 0.067886166
-0.116287924 -0.16110368 0.08240239 -0.15565032 0.19667275 -0.12495176 -0.15513754 0.1323888
-0.056591872 -0.12287382 0.16361326 -0.09669506 0.04971753 -0.052909356 -0.01952345 0.09378273
0.10382489 -0.10064168 0.024932323 0.097892314 0.036078967 -0.16394754 0.14387743 -0.025559695
-0.11238793 0.014442875 -0.0019680914 -0.12947597 0.028121678 -0.14745612 -0.104656406 -0.077340685
-0.00873797 0.0021671904 -0.013621918 0.020986645 0.07810188 0.08817283 -0.06638763 0.16122591
-0.04837584 -0.14916791 -0.101863876 -0.03265059 0.0013775445 0.09459276 0.07400369 0.10597092
0.00733977 0.006649665 -0.031168757 -0.1447874 0.061706662 -0.113191694 0.020833308 0.0018421464
0.17633669 -0.08153417 -0.06254791 0.09015244 -0.14184324 0.036014047 -0.14537965 -0.058436908
-0.021378312 0.03299986 -0.09452062 0.090161026 0.025237268 -0.08005536 -0.08128085 -0.031852767
0.08598947 -0.13055655 -0.10511913 -0.110171504 -0.15277095 0.11435245 -0.050196733 0.10524347
0.11047839 -0.00051852583 -0.12972367 0.0109967375 0.109768376 0.03335876 -0.070411384 0.10882874
0.027666088 -0.110106766 0.027076697 -0.07168895 0.1253268 0.152657 0.10603116 -0.01791738
0.015249446 0.16088456 -0.09888021 0.13521947 0.17116627 -0.052559096 -0.061883293 0.1316427
0.023918808 -0.03164363 -0.074485295 0.098904215 0.086638086 0.12635243 -0.13676126 -0.044896454
-0.058178984 -0.1321404 0.19620115 0.107218325 -0.11880951 -0.063482165 0.13396657 0.17961515
0.08668536 -0.035073817 -0.054257415 -0.036663346 -0.12046519 0.14047691 0.020879079 -0.040737405
0.05866543 0.12399749 0.023559915 -0.00012890788 0.009768073 0.060382143 0.043880086 -0.114999376
0.13704726 0.031331718 -0.004009203 0.08130941 0.13017069 0.022790737 -0.080038495 0.093419224
-0.012649054 0.15412198 -0.017737668 0.12219746 0.03806547 -0.05381525 0.060044855 0.017087778
-0.02023357 0.1506874 -0.08041314 -0.10368311 0.1962141 -0.0058256024 0.13244772 0.118838385
-0.06222819 0.021467749 -0.05249794 0.11460153 0.030778335 -0.026490802 -0.082730286 0.10026042
-0.013342682 0.013023985 0.09894516 -0.026524838 -0.114940286 0.08130947 0.13516478 -0.058175392
-0.008551596 -0.13645314 0.16587938 -0.13007249 0.110076405 -0.093893595 0.13825016 -0.07164605
-0.11500191 -0.07141775 -0.15814538 -0.08157746 -0.10197801 -0.04758192 -0.08184427 0.08132084
-0.06740293 -0.09282298 0.018646326 -0.011004898 -0.114701085 -0.1430864 0.16757469 -0.037429035
0.06111835 -0.16682503 -0.062055368 -0.12900756 0.06617348 0.069251314 0.06390127 0.052840296
-0.07603845 0.005981177 0.14167796 -0.020527763 -0.124528766 -0.023230977 0.15628691 0.037555873
-0.020084647 -0.0136453165 0.06631908 -0.0019750358 -0.033254836 0.091220856 0.01542147 -0.022841148
0.06493939 0.020353636 -0.16087084 -0.14655814 -0.11776162 -0.10824441 -0.011785978 0.10912493
00000000: 0201 6b3b a597 babc 1d3d 953d c1ee 1bbd
00000010: 3fa6 0bbe c08e 583e aeba 26bb ba0b 733d
00000020: be3f 02bd db59 e7bc 4011 39bc b9af 103e
00000030: d8fc 0abe 5396 cf3d 28fd eabd 02c7 373d
00000040: ea7d a13d d0e6 133d cdb3 2dbc f106 4e3d
00000050: 1d6b 3bbd afd3 163d 1a98 063e e707 8b3d
00000060: 5d28 eebd 5df8 24be 96c2 a83d cc62 1fbe
00000070: 9564 493e b5e6 ffbd 60dc 1ebe ee90 073e
00000080: e1cc 67bd 45a5 fbbd 3c8a 273e 0f08 c6bd
00000090: 9ca4 4b3d 7bb7 58bd a4ef 9fbc 2911 c03d
000000a0: 25a2 d43d 3a1d cebd df3e cc3c c47b c83d
000000b0: 8ac7 133d dde1 27be 9b54 133e 9162 d1bc
000000c0: a52b e6bd cfa1 6c3c 18fb 00bb 5995 04be
000000d0: 6f5f e63c bdfe 16be 1956 d6bd cb64 9ebd
000000e0: b429 0fbc 6c07 0e3b 772e 5fbc 2fec ab3c
000000f0: e1f3 9f3d f593 b43d 3df6 87bd 6818 253e
00000100: bf25 46bd 79bf 18be 029e d0bd a0bc 05bd
00000110: b98e b43a d9b9 c13d 3f8f 973d 4807 d93d
00000120: 7482 f03b 6fe5 d93b 9f55 ffbc 2643 14be
00000130: 20c0 7c3d 0cd1 e7bd 9daa aa3c 2d74 f13a
00000140: 9b91 343e 63fb a6bd 1e19 80bd d8a1 b83d
00000150: 5b3f 11be 7783 133d 67de 14be 8a5b 6fbd
00000160: 9221 afbc dc2a 073d 0794 c1bd 58a6 b83d
00000170: 63be ce3c 11f4 a3bd 9376 a6bd 0c78 02bd
00000180: 3f1b b03d 9eb0 05be b348 d7bd 99a1 e1bd
00000190: fd6f 1cbe 9e31 ea3d 179b 4dbd e389 d73d
000001a0: 7e42 e23d aeed 07ba 48d6 04be a92b 343c
000001b0: 3ece e03d 32a3 083d d833 90bd 9ae1 de3d
000001c0: fea3 e23c a87f e1bd f3cf dd3c a8d1 92bd
000001d0: ab55 003e 1e52 1c3e dd26 d93d 78c7 92bc
000001e0: d0d8 793c ecbe 243e b581 cabd f976 0a3e
000001f0: 3646 2f3e 3548 57bd 5679 7dbd 58cd 063e
00000200: 60f1 c33c c09c 01bd bf8b 98bd 4b8e ca3d
00000210: 4f6f b13d 8862 013e 250b 0cbe 58e5 37bd
00000220: 164d 6ebd d04f 07be f4e8 483e 4895 db3d
00000230: 6652 f3bd f002 82bd 882e 093e 09ed 373e
00000240: 1888 b13d 90a9 0fbd 063d 5ebd 4e2c 16bd
00000250: 74b6 f6bd 2ed9 0f3e 9a0a ab3c 44dc 26bd
00000260: 294b 703d 65f2 fd3d b900 c13c 722b 07b9
00000270: 450a 203c 4453 773d 9bbb 333d cb84 ebbd
00000280: 1e56 0c3e b055 003d a25f 83bb 8c85 a63d
00000290: 774b 053e a4b3 ba3c 39eb a3bd 9452 bf3d
000002a0: fa3d 4fbc 27d2 1d3e 964e 91bc a942 fa3d
000002b0: 8aea 1b3d 616d 5cbd 98f1 753d abfb 8b3c
000002c0: dfc0 a5bc cc4d 1a3e a5af a4bd cf57 d4bd
000002d0: 59ec 483e b2e4 bebb 60a0 073e 8a61 f33d
000002e0: fde2 7ebd 22dd af3c 1408 57bd 35b4 ea3d
000002f0: d922 fc3c 3d03 d9bc 7f6e a9bd 5655 cd3d
00000300: 449b 5abc 8d62 553c c3a3 ca3d 9e4a d9bc
00000310: d065 ebbd 9485 a63d a368 0a3e 5249 6ebd
00000320: fe1b 0cbc 5fba 0bbe 49dc 293e b931 05be
00000330: bd6f e13d 494b c0bd 7391 0d3e 2abb 92bd
00000340: 1f86 ebbd 7843 92bd ddf0 21be 1512 a7bd
00000350: d9d9 d0bd 42e5 42bd f89d a7bd 8a8b a63d
00000360: 8c0a 8abd f919 bebd 2ec0 983c e34d 34bc
00000370: 67e8 eabd 3e85 12be b398 2b3e 304f 19bd
00000380: 3c57 7a3d 2ed4 2abe c52d 7ebd 8f1a 04be
00000390: f685 873d a2d3 8d3d abde 823d 116f 583d
000003a0: 0cba 9bbd c0fd c33b 0714 113e d729 a8bc
000003b0: f008 ffbd e44e bebc ad09 203e 30d4 193d
000003c0: 8f88 a4bc 9b90 5fbc 4cd2 873d 9a6f 01bb
000003d0: 3936 08bd 00d2 ba3d 55aa 7c3c 5c1d bbbc
000003e0: f1fe 843d abbc a63c 53bb 24be 5613 16be
000003f0: 012d f1bd 3faf ddbd fa19 41bc e47c df3d

conv.0.lin_rel.bias f4 [64]
-0.12738687 0.08439028 0.13538481 -0.14264448 -0.05552022 0.09950852 -0.06203827 0.035751026
0.026778698 -0.04805398 0.077746786 -0.004987955 -0.025210476 0.04566452 -0.108393684 -0.08203596
-0.11728118 -0.096859805 -0.07674121 0.023970742 -0.09569686 -0.03217324 -0.052252177 -0.009599453
-0.03220808 -0.12284527 0.13405646 0.04383835 0.09862646 -0.009183079 0.083018675 -0.0011567083
0.03567592 -0.16320713 0.06355301 0.07314186 -0.060277633 -0.14978725 -0.1213486 0.09909644
-0.027244866 0.06349806 0.050483704 0.10876496 -0.02740076 0.034833714 -0.09423457 -0.04540527
0.09842686 -0.10740625 0.013437 -0.15209614 -0.06847597 -0.023915539 0.11926974 0.07392023
0.057245165 -0.030761596 0.053964686 0.053396758 0.057691697 -0.005657195 -0.011108117 0.1430309
00000000: b471 02be d0d4 ac3d 51a2 0a3e 6511 12be
00000010: 2c69 63bd 1fcb cb3d d71b 7ebd ab6f 123d
00000020: 005f db3c 40d4 44bd b539 9f3d 0072 a3bb
00000030: 3386 cebc b80a 3b3d 82fd ddbd 7802 a8bd
00000040: 1e31 f0bd 6f5e c6bd 7f2a 9dbd 4a5e c43c
00000050: b7fc c3bd 16c8 03bd 6106 56bd 0647 1dbc
00000060: 9fec 03bd 4d96 fbbd 1946 093e d78f 333d
00000070: abfc c93d a074 16bc b205 aa3d b19c 97ba
00000080: ea20 123d c51f 27be 1528 823d 66cb 953d
00000090: aee5 76bd d461 19be 9d85 f8bd 13f3 ca3d
000000a0: a030 dfbc 450b 823d 00c8 4e3d 2ac0 de3d
000000b0: 8f77 e0bc ccad 0e3d 0efe c0bd e0fa 39bd
000000c0: 0694 c93d cff7 dbbd dd26 5c3c 17bf 1bbe
000000d0: 213d 8cbd 85ea c3bc b243 f43d 7d63 973d
000000e0: e879 6a3d beff fbbc 130a 5d3d 8fb6 5a3d
000000f0: 214e 6c3d fe5f b9bb d2fe 35bc b176 123e

conv.0.lin_root.weight f4 [64, 38]
0.1345669 -0.010914084 -0.183553 0.06849263 0.028418735 0.1150413 -0.15245719 0.07452664
0.122966066 0.02145687 -0.057565838 -0.07698881 0.048710123 0.061053492 -0.12527916 0.123489626
-0.02842403 0.024901029 0.1197201 -0.11016063 0.113529146 -0.007918879 -0.05110233 -0.10318453
0.13047905 0.093783505 -0.034908608 0.03931813 0.044034142 -0.13027422 0.14370446 -0.14095587
0.09593563 0.045972798 -0.0024730011 -0.08316003 -0.13642822 0.10718518 -0.028712904 -0.09913516
-0.06556642 -0.006662535 0.12204855 -0.17387752 0.00095484743 -0.12989157 -0.13507621 -0.089891404
-0.043346427 -0.0026842842 0.06435399 0.105394945 -0.026856687 -0.009645441 -0.05099792 0.06418594
0.0785036 -0.16720316 0.1384588 -0.07119194 0.018941935 -0.057157133 0.02432941 -0.12434794
-0.09670318 -0.09492895 -0.12483098 -0.01696754 0.15114725 -0.12080642 0.099739045 0.0166277
-0.15584365 -0.092806995 0.10603246 -0.13748291 -0.025062263 0.099543065 -0.10076393 0.031287387
0.023273744 -0.017699653 0.076715715 0.017283428 -0.16132893 -0.02852412 -0.16002679 0.090323135
-0.12282897 0.1544426 0.060033094 0.078283995 0.0701015 0.13933355 -0.026335971 -0.08560037
0.00464657 0.02525574 -0.14599161 0.023568027 0.06793618 0.026945116 0.17215556 -0.06718914
-0.15851352 0.091086425 0.011453108 -0.099075854 -0.0017630213 -0.14113444 0.09020526 0.10299131
0.041618515 0.15953287 -0.10327869 -0.028528731 0.053752363 -0.030834246 0.102484636 0.107835695
-0.009703174 -0.11935621 0.033883467 0.08353275 0.08533918 -0.05849915 0.021556692 -0.15178724
0.1701006 0.022339309 0.16983989 0.19299692 0.13367297 -0.028946182 -0.08306795 -0.014844405
0.25204822 -0.048907638 0.119559795 -0.016607655 0.06406806 -0.08891454 0.0050441246 0.13979995
-0.13224256 -0.043180432 -0.028925572 -0.15121545 -0.13984448 0.0031393217 -0.019984817 0.106174015
-0.024900528 0.056695268 0.00987723 0.06903962 0.08862194 -0.0008862638 -0.08700486 0.14441673
0.073666126 0.06046699 -0.060802504 0.22247624 -0.13403419 0.083640926 0.14761153 0.073251724
0.071739204 -0.10133063 0.13160515 0.13642159 -0.0681525 0.18628135 -0.07357863 -0.1357884
0.12833354 0.050652962 0.11114753 0.039408643 0.06972407 0.06689417 0.06033101 -0.054772254
0.15416378 0.05333424 0.081906736 -0.1332402 -0.10050137 -0.07270914 -0.12107684 0.13438018
-0.003565951 -0.11449378 -0.0753668 -0.05007591 0.15463723 -0.12523572 0.1350502 0.03502429
-0.11664766 -0.14585915 0.08210017 0.18913053 0.016735213 -0.16109599 0.08283361 -0.045939848
-0.091341615 0.04278239 0.119903736 -0.12830548 0.0357641 -0.011365671 -0.14691584 0.13597491
-0.06868431 0.11900654 -0.12470308 -0.006398813 -0.042990454 0.025493888 -0.15639584 0.027874853
-0.071234815 0.09801652 -0.06971618 -0.0013565237 -0.14419782 -0.096246384 0.060958117 0.13756949
0.07415103 -0.21783115 -0.07077643 0.13626187 0.18809435 0.16693969 0.25529864 -0.041486938
-0.05449148 0.03362089 -0.14714442 0.00037531674 0.12911388 0.031785443 -0.054424267 -0.020709649
-0.03237152 -0.008526761 -0.14278798 0.15089944 -0.15655296 -0.079620615 -0.13304894 -0.051291227
00000000: e8cb 093e fcd0 32bc 51f5 3bbe dd45 8c3d
00000010: 68ce e83c c69a eb3d bd1d 1cbe 6ca1 983d
00000020: a2d5 fb3d 51c6 af3c 28ca 6bbd 4fac 9dbd
00000030: 4484 473d 3a13 7a3d 2e49 00be 21e8 fc3d
00000040: 83d9 e8bc 3efd cb3c d02f f53d e59b e1bd
00000050: f881 e83d 30be 01bc ad50 51bd 6952 d3bd
00000060: 4d9c 053e 9111 c03d 54fc 0ebd 0c0c 213d
00000070: 255d 343d 9b66 05be 4327 133e bc56 10be
00000080: e679 c43d f94d 3c3d 1312 22bb ce4f aabd
00000090: d7b3 0bbe e783 db3d 5337 ebbc 6007 cbbd
000000a0: b047 86bd 6551 dabb 97f4 f93d f30c 32be
000000b0: ba4e 7a3a 4c02 05be 6b51 0abe fc18 b8bd
000000c0: 068c 31bd d1ea 2fbb 06cc 833d 4ed9 d73d
000000d0: 8e02 dcbc e907 1ebc 32e3 50bd eb73 833d
000000e0: 7fc6 a03d 4e37 2bbe 25c8 0d3e 14cd 91bd
000000f0: 1e2c 9b3c 991d 6abd 794e c73c 22aa febd
00000100: 510c c6bd 1c6a c2bd 63a7 ffbd 83ff 8abc
00000110: 58c6 1a3e 5b69 f7bd fc43 cc3d d036 883c
00000120: 7a95 1fbe 9811 bebd 8c27 d93d 52c8 0cbe
00000130: 604f cdbc 3cdd cb3d 525d cebd 3427 003d
00000140: 94a8 be3c ddfe 90bc 211d 9d3d fa95 8d3c
00000150: 6933 25be 6aab e9bc 10de 23be 56fb b83d
00000160: c18d fbbd 3326 1e3e 43e5 753d 5c53 a03d
00000170: 6091 8f3d 74ad 0e3e 89be d7bc 3f4f afbd
00000180: 4142 983b 20e5 ce3c d37e 15be bc11 c13c
00000190: 2022 8b3d 01bc dc3c 8c49 303e 769a 89bd
000001a0: 5e51 22be 858b ba3d d1a5 3b3c 48e8 cabd
000001b0: 2e15 e7ba 8c85 10be 89bd b83d 1ced d23d
000001c0: 2d78 2a3d 965c 233e c783 d3bd 16b5 e9bc
000001d0: 702b 5c3d 1a98 fcbc 77e3 d13d f6d8 dc3d
000001e0: 10fa 1ebc 0771 f4bd 64c9 0a3d 3813 ab3d
000001f0: 4fc6 ae3d ce9c 6fbd a997 b03c 1d6e 1bbe
00000200: da2e 2e3e ed00 b73c 82ea 2d3e fca0 453e
00000210: 91e1 083e 8b20 edbc 881f aabd f335 73bc
00000220: 770c 813e 6053 48bd c4db f43d c70c 88bc
00000230: 1d36 833d d418 b6bd 2f49 a53b b827 0f3e
00000240: 986a 07be f7dd 30bd 52f5 ecbc 39d8 1abe
00000250: 6433 0fbe 14bd 4d3b 33b7 a3bc c371 d93d
00000260: 31fc cbbc 4c39 683d 1bd4 213c a564 8d3d
00000270: 6b7f b53d 2854 68ba 9b2f b2bd fbe1 133e
00000280: 44de 963d 3cac 773d 0c0c 79bd d0d0 633e
00000290: 4240 09be ef4b ab3d 7a27 173e 0005 963d
000002a0: 01ec 923d 6f86 cfbd 80c3 063e 1ab2 0b3e
000002b0: 8a93 8bbd 8ac0 3e3e 65b0 96bd 1d0c 0bbe
000002c0: de69 033e 7b79 4f3d 51a1 e33d f56a 213d
000002d0: 7ecb 8e3d d0ff 883d a61d 773d df58 60bd
000002e0: 1cdd 1d3e 0175 5a3d b8be a73d 1e70 08be
000002f0: aad3 cdbd 88e8 94bd 22f7 f7bd f59a 093e
00000300: bbb2 69bb b77b eabd e959 9abd 661c 4dbd
00000310: 3959 1e3e cb3d 00be 9a4a 0a3e a175 0f3d
00000320: f8e4 eebd 1a5c 15be 2224 a83d 6fab 413e
00000330: 4918 893c 59f6 24be aba4 a93d 6c2b 3cbd
00000340: 5011 bbbd 963c 2f3d 1790 f53d 8362 03be
00000350: 607d 123d 1437 3abc 1b71 16be 023d 0b3e
00000360: 5caa 8cbd b3b9 f33d 5464 ffbd 22ad d1bb
00000370: c216 30bd 8fd8 d03c 3b26 20be ce59 e43c
00000380: 8fe3 91bd e3bc c83d 5bc7 8ebd 62cd b1ba
00000390: 98a8 13be d31c c5bd 38af 793d 04df 0c3e
000003a0: 7fdc 973d 210f 5fbe 3cf3 90bd 3b88 0b3e
000003b0: ce9b 403e 3df2 2a3e 81b6 823e 35ee 29bd
000003c0: 7532 5fbd 0fb6 093d 07ad 16be 29c6 c439
000003d0: 6e36 043e 7431 023d fbeb 5ebd 48a7 a9bc
000003e0: 0098 04bd d4b3 0bbc 0337 12be 6285 1a3e
000003f0: 6b4f 20be 2210 a3bd fb3d 08be c016 52bd

conv.1.lin_rel.weight f4 [64, 64]
-0.092297696 0.0118316 0.019563932 -0.13220745 -0.09077147 -0.10016161 0.02736239 -0.19593477
-0.13789167 -0.05138196 -0.10282738 -0.01861881 -0.06798661 0.12170791 -0.28518227 -0.0092942715
-0.08321986 0.051716406 -0.122942835 0.008921397 0.12508883 -0.039512742 -0.08315225 0.10697562
0.022594312 -0.11023306 -0.07177965 0.040274926 -0.07986439 -0.047158226 -0.20061025 -0.26216355
-0.3019394 0.05530104 0.10696514 -0.08617819 -0.115698606 -0.048175875 -0.10725726 0.0054797763
-0.063825965 -0.0967872 -0.018926406 0.00038843023 -0.0869828 0.0045088283 -0.12585852 0.076951385
-0.026578074 0.07917189 -0.048339486 0.02143959 -0.11854692 -0.036715217 0.09541036 -0.12459911
0.14724512 -0.26814765 0.05636205 -0.02346943 0.04208339 0.05170506 -0.029491495 -0.03574268
0.008713432 -0.05992151 -0.027514374 0.08606872 -0.04580413 -0.006673811 -0.061870046 -0.027102204
-0.056251165 0.029266339 0.017048301 0.05695399 -0.1331714 -0.05743644 -0.03037728 -0.0481665
-0.027760731 0.069525994 0.08195786 -0.018872773 0.033743404 -0.052469328 0.02435131 -0.04768756
-0.04277418 -0.056199674 -0.004288301 -0.026111929 0.07022784 -0.025258163 -0.061613314 0.028935459
-0.07315842 0.091537476 -0.01914579 0.053563073 -0.03717379 -0.09647209 0.123195685 -0.05964338
0.14448383 -0.069508396 0.04024907 0.025190208 0.15055792 -0.06084928 0.1012531 0.14471488
-0.1091812 0.077768974 0.030570105 -0.09779384 -0.026130248 0.044407018 0.045913573 -0.11236924
0.039194033 0.07310935 -0.08280197 0.117494956 0.114505164 -0.031685244 -0.07225215 -0.049890473
-0.1188906 0.057399735 -0.017765062 0.16176398 -0.050552003 -0.08532111 0.13031183 0.10832791
-0.076484025 0.11920285 -0.056238603 -0.067031786 -0.017629301 -0.07746595 0.12445375 0.09869231
0.019781455 -0.003180441 0.24862823 0.16039227 -0.15509796 -0.075088225 -0.120437704 -0.030090952
-0.21633306 0.078889444 -0.021270996 0.106426336 -0.043463577 -0.08405548 0.0647618 -0.09121253
0.18520765 0.121009685 -0.043593984 -0.032835875 0.046168324 0.20044284 -0.077208556 -0.09444142
0.1388365 -0.026105635 0.0005025293 -0.014097798 0.044067238 -0.032690737 -0.066621326 0.08068575
0.088812016 -0.13706642 0.081615426 -0.09857109 -0.07919134 -0.00126458 0.04771675 -0.010957315
-0.04392935 -0.049918782 0.07323957 -0.059914142 -0.104635745 0.005306258 0.09521029 -0.10058448
0.09365614 -0.050354876 0.07993608 -0.12512073 0.08570436 -0.07021422 -0.04063365 0.07444589
0.038208913 -0.103155866 -0.062290344 -0.01677394 0.06604441 -0.12143375 -0.09376081 0.059528556
-0.034908444 -0.015622118 0.0029717714 -0.041959412 -0.09765418 0.04156985 0.06358424 -0.07490886
-0.04730615 0.09234788 -0.007494603 -0.09903683 0.080494806 0.08057614 -0.025054272 -0.12450221
0.025160506 -0.09299802 0.08780608 -0.019010967 -0.026622577 -0.02637199 -0.07708909 0.040765714
-0.016249353 0.03663209 -0.021608371 0.09868267 0.043671828 -0.019902853 0.04564125 0.09439783
-0.070468195 0.039935187 0.043614667 0.08993271 0.10431254 -0.041769054 -0.03480564 0.0182566
-0.08363352 -0.015604201 0.027970677 0.06309667 0.017512424 -0.043980557 0.028475309 -0.023723584
00000000: 9306 bdbd 54d9 413c 8a44 a03c 6461 07be
00000010: 64e6 b9bd 8821 cdbd 1727 e03c 20a3 48be
00000020: 7933 0dbe e475 52bd 2997 d2bd 7a86 98bc
00000030: 903c 8bbd ff41 f93d 6903 92be 0047 18bc
00000040: 2d6f aabd 95d4 533d 74c9 fbbd 0d2b 123c
00000050: 4917 003e 1dd8 21bd ba4b aabd 0916 db3d
00000060: b517 b93c dfc1 e1bd 3601 93bd 52f7 243d
00000070: f18f a3bd fc28 41bd c66c 4dbe 4d3a 86be
00000080: cd97 9abe 5883 623d 8a10 db3d 317e b0bd
00000090: 64f3 ecbd 1154 45bd b2a9 dbbd b28f b33b
000000a0: 30b7 82bd 5e38 c6bd 8d0b 9bbc 39a6 cb39
000000b0: 0a24 b2bd cbbe 933b 0ee1 00be b098 9d3d
000000c0: 43ba d9bc df24 a23d a0ff 45bd 14a2 af3c
000000d0: bac8 f2bd b262 16bd 8266 c33d d12d ffbd
000000e0: 6dc7 163e a64a 89be e5db 663d f642 c0bc
000000f0: a25f 2c3d afc8 533d 2698 f1bc eb66 12bd
00000100: c8c2 0e3c 4270 75bd d365 e1bc cc44 b03d
00000110: 1d9d 3bbd fcaf dabb 726b 7dbd 7105 debc
00000120: 9f67 66bd f6bf ef3c e1a8 8b3c 9648 693d
00000130: 155e 08be 7942 6bbd c6d9 f8bc 3c4a 45bd
00000140: 796a e3bc a563 8e3d 86d9 a73d 139b 9abc
00000150: 8636 0a3d 14ea 56bd 667c c73c 0854 43bd
00000160: fb33 2fbd a131 66bd e084 8cbb afe8 d5bc
00000170: 9dd3 8f3d 35ea cebc 3e5e 7cbd 0e0a ed3c
00000180: 15d4 95bd 0078 bb3d a2d7 9cbc f464 5b3d
00000190: 8b43 18bd 2993 c5bd 054e fc3d 9e4c 74bd
000001a0: 92f3 133e 6b5a 8ebd 35dc 243d b25b ce3c
000001b0: db2b 1a3e 183d 79bd c95d cf3d 2330 143e
000001c0: 659a dfbd 5745 9f3d 286e fa3c 2348 c8bd
000001d0: 1a0f d6bc 22e4 353d df0f 3c3d d821 e6bd
000001e0: ec89 203d 5bba 953d 1494 a9bd 32a1 f03d
000001f0: af81 ea3d 63c8 01bd eff8 93bd f459 4cbd
00000200: ea7c f3bd fc1b 6b3d 0988 91bc 75a5 253e
00000210: 9e0f 4fbd d6bc aebd 7770 053e 06db dd3d
00000220: a8a3 9cbd a020 f43d 735a 66bd f647 89bd
00000230: 536b 90bc 78a6 9ebd 9ce1 fe3d 321f ca3d
00000240: b80c a23c f26e 50bb 6698 7e3e df3d 243e
00000250: 00d2 1ebe dbc7 99bd 0ba8 f6bd 4d81 f6bc
00000260: 6a86 5dbe ca90 a13d 8340 aebc 0df6 d93d
00000270: dd06 32bd 4825 acbd d6a1 843d a3cd babd
00000280: 13a7 3d3e edd3 f73d 9b8f 32bd e97e 06bd
00000290: ff1a 3d3d e340 4d3e 851f 9ebd 816a c1bd
000002a0: 282b 0e3e 7cdb d5bc 2cbc 033a 73fa 66bc
000002b0: d97f 343d b9e6 05bd c370 88bd 923e a53d
000002c0: 13e3 b53d 245b 0cbe fd25 a73d a4df c9bd
000002d0: 122f a2bd 43c0 a5ba a472 433d 4f86 33bc
000002e0: 43ef 33bd a377 4cbd a1fe 953d 8868 75bd
000002f0: 444b d6bd 1ee0 ad3b 9dfd c23d 3cff cdbd
00000300: cace bf3d ea40 4ebd 87b5 a33d a61f 00be
00000310: c485 af3d 79cc 8fbd 786f 26bd 1677 983d
00000320: f380 1c3d 6243 d3bd 2924 7fbd 8069 89bc
00000330: 4b42 873d 42b2 f8bd ab05 c0bd 37d4 733d
00000340: 28fc 0ebd e9f3 7fbc 0dc2 423b a2dd 2bbd
00000350: eafe c7bd 2645 2a3d 7438 823d d169 99bd
00000360: 18c4 41bd e320 bd3d 4995 f5bb d2d3 cabd
00000370: 76da a43d 1a05 a53d 9e3e cdbc 04fb febd
00000380: 681d ce3c bf75 bebd add3 b33d e3bc 9bbc
00000390: 9717 dabc 120a d8bc e3e0 9dbd f3f9 263d
000003a0: 5d1d 85bc 880b 163d 0a04 b1bc 241a ca3d
000003b0: 3be1 323d 4f0b a3bc 52f2 3a3d a653 c13d
000003c0: a151 90bd 1493 233d 4ba5 323d a42e b83d
000003d0: d0a1 d53d 0716 2bbd 5c90 0ebd dd8e 953c
000003e0: 0d48 abbd c3a8 7fbc c322 e53c d438 813d
000003f0: 3776 8f3c f524 34bd 0d45 e93c f657 c2bc

conv.1.lin_rel.bias f4 [64]
-0.072808824 0.10966385 0.10029955 -0.022372756 0.004510922 0.04081959 -0.13362344 0.105969995
-0.05891176 -0.04566272 -0.017877093 0.05646314 -0.087375514 -0.07102696 -0.027649213 -0.009914555
0.08375394 0.0739388 0.05066254 -0.059934467 0.12844206 -0.015600952 -0.04997093 0.10249795
0.10297563 -0.01976481 -0.071556285 -0.0022994687 0.039863516 0.08142957 0.07194582 0.06480212
-0.0755945 0.029254582 -0.052301 -0.050413717 0.023215273 0.0035872585 0.095613085 0.09230658
0.05419717 -0.120226055 -0.07751457 0.0773803 -0.040732846 -0.009515379 0.11807261 0.12588736
-0.029890148 0.009136783 0.00061721454 0.06356524 0.039452605 0.08808228 -0.065754935 0.08915779
-0.035607252 -0.08963684 0.10008103 0.06889643 -0.03203244 0.029305419 -0.122239664 0.083751366
00000000: cb1c 95bd 7197 e03d da69 cd3d 1247 b7bc
00000010: 5bd0 933b 7132 273d 95d4 08be cc06 d93d
00000020: 754d 71bd d508 3bbd fb72 92bc e545 673d
00000030: eff1 b2bd 9576 91bd 9a80 e2bc a870 22bc
00000040: 3087 ab3d 3a6d 973d 8683 4f3d d87d 75bd
00000050: 5186 033e 239b 7fbc 51ae 4cbd 72ea d13d
00000060: e3e4 d23d d0e9 a1bc 1a8c 92bd afb2 16bb
00000070: ed47 233d 8cc4 a63d 5458 933d f9b6 843d
00000080: 4ad1 9abd 4ea7 ef3c 9339 56bd 9d7e 4ebd
00000090: f52d be3c 3618 6b3b cbd0 c33d 3b0b bd3d
000000a0: dafd 5d3d 1439 f6bd f5bf 9ebd 9079 9e3d
000000b0: 7cd7 26bd 64e6 1bbc 0dd0 f13d 9ee8 003e
000000c0: 2fdc f4bc 72b2 153c 91cc 213a 7e2e 823d
000000d0: 0e99 213d 7b64 b43d 86aa 86bd 5c98 b63d
000000e0: e9d8 11bd 8593 b7bd 48f7 cc3d 9219 8d3d
000000f0: 7334 03bd eb11 f03c ca58 fabd d685 ab3d

conv.1.lin_root.weight f4 [64, 64]
0.025155568 -0.08765271 0.08667286 -0.17850614 0.049298037 0.049233604 -0.0057552555 0.078559615
0.008800539 -0.037984356 0.07836777 0.09453957 0.053300105 0.058567982 0.056877952 0.043713007
-0.06613418 0.07976741 0.059136454 0.02205413 -0.0074107456 -0.038763843 0.047144584 -0.1459451
0.03564529 0.033134274 0.0074987668 0.043442816 -0.07504953 0.23192582 0.008040516 -0.054599572
-0.4921279 -0.09987709 0.081876695 -0.020004679 0.2016842 0.15144065 -0.25853965 0.04862174
0.21542276 -0.024847172 -0.050835922 -0.005945475 0.046876248 0.003926291 0.019803 -0.047522433
0.042970814 0.010822228 0.049366098 0.32634732 -0.013527252 0.09005404 0.037924 0.004099003
0.11696907 0.041262183 -0.079976276 0.061787136 0.03645934 0.08475853 0.08467081 0.07828315
0.18573707 -0.046887107 0.001091738 0.061217543 0.06397947 0.02417298 0.09499698 -0.06941568
0.09112464 -0.08422519 0.052920777 0.107377656 0.06451587 0.015382508 -0.00013593773 -0.050920434
-0.037999965 0.07845979 -0.11383125 -0.026210025 0.008457132 -0.04806331 -0.014003802 -0.031737123
0.15596971 -0.06718445 0.07218832 -0.01274652 -0.0479082 -0.08326016 -0.097098775 0.034548707
0.013456469 -0.058848914 0.013139188 0.010435747 0.11487563 0.009456749 0.02952804 0.012567894
-0.056557056 0.040547587 0.1685011 -0.01691534 -0.09684938 -0.039270453 0.012227475 0.06842648
-0.06724142 -0.07172586 0.013369702 -0.04302911 0.049948286 -0.036011375 -0.028896067 -0.07391655
0.124294244 0.11075627 0.024768822 0.062807985 -0.13497521 0.1105398 -0.023654634 -0.14495544
0.07379513 0.016902268 0.060849294 0.10091879 -0.03366941 0.02039861 0.045481354 -0.0848443
-0.024624346 0.11198139 0.058541175 0.041512582 0.018003562 -0.09468073 -0.06059192 -0.117630415
0.02441953 -0.116209835 0.05230385 0.103983365 -0.023239376 -0.07576164 -0.057944648 -0.018662717
-0.005294196 -0.0052585574 -0.053371076 -0.091127366 -0.108621955 -0.059927154 -0.040088244 0.03612518
0.026164483 -0.029769482 -0.14379726 -0.095106974 0.06612446 0.059146736 0.008076507 0.033512168
0.09112008 -0.05462954 -0.02762157 -0.08156052 0.077112205 -0.018264176 0.043467604 -0.13454825
0.10034917 -0.15664941 0.10502123 -0.015433041 -0.043880004 -0.011286472 0.07739228 -0.033743918
0.10296486 0.124883056 0.011844373 0.033427175 0.052136585 0.07522027 -0.1127086 -0.11182574
-0.04516021 -0.07329893 -0.080476575 0.060007367 -0.039326094 -0.12000561 -0.059333358 0.005090565
-0.08781962 0.030352617 0.09560227 -0.08185072 -0.01735597 0.007131972 -0.011077797 -0.015306047
-0.1302636 -0.07507201 -0.03976759 -0.14871599 0.0041186563 -0.070703745 0.10558651 0.010334115
0.02150295 -0.004664212 -0.12469084 -0.09769037 -0.03794133 0.07792074 -0.105899476 0.07499887
-0.013668398 0.08617858 -0.061856065 0.09933038 -0.03574268 -0.12017115 -0.06763064 -0.07543872
-0.080023415 0.05711298 -0.097022906 0.045388654 -0.090814754 -0.0015893539 -0.035279077 0.1057036
-0.038888354 0.074257225 -0.0135071995 0.035284113 -0.08957455 -0.045706384 0.038701277 0.046282895
-0.06391603 0.009765042 0.020496786 -0.10586133 0.009171027 -0.019684764 -0.110010326 -0.029948162
00000000: 0d13 ce3c 4483 b3bd 8a81 b13d 50ca 36be
00000010: bdec 493d 2da9 493d 9596 bcbb dde3 a03d
00000020: 2330 103c 7c95 1bbd 487f a03d f69d c13d
00000030: 3651 5a3d fbe4 6f3d dbf8 683d 690c 333d
00000040: 5b71 87bd 195d a33d 1139 723d ddaa b43c
00000050: d7d5 f2bb d6c6 1ebd ae1a 413d a272 15be
00000060: cc00 123d ceb7 073d 37b8 f53b 18f1 313d
00000070: 91b3 99bd f67d 6d3e 5ebc 033c cda3 5fbd
00000080: 30f8 fbbe 5c8c ccbd f8ae a73d dae0 a3bc
00000090: 4e86 4e3e 4213 1b3e 4f5f 84be 9727 473d
000000a0: c997 5c3e 4c8c cbbc 5439 50bd 42d2 c2bb
000000b0: 4f01 403d 1ea8 803b e739 a23c e2a6 42bd
000000c0: 2a02 303d b74f 313c 1b34 4a3d ff16 a73e
000000d0: 68a1 5dbc 416e b83d 3256 1b3d ee50 863b
000000e0: 7b8d ef3d 8902 293d 9aca a3bd 8214 7d3d
000000f0: 6456 153d e195 ad3d e467 ad3d eb52 a03d
00000100: dc31 3e3e b20c 40bd a618 8f3a 3fbf 7a3d
00000110: ab07 833d 6a06 c63c c78d c23d cf29 8ebd
00000120: 8e9f ba3d 427e acbd 75c3 583d d1e8 db3d
00000130: e520 843d ea06 7c3c 828a 0eb9 f291 50bd
00000140: daa5 1bbd 87af a03d 5c20 e9bd 68b6 d6bc
00000150: c88f 0a3c 09de 44bd 3470 65bc c9fe 01bd
00000160: 86b6 1f3e 0098 89bd 78d7 933d c8d6 50bc
00000170: 643b 44bd 4e84 aabd b9db c6bd f282 0d3d
00000180: 8678 5c3c 8f0b 71bd c045 573c b2fa 2a3c
00000190: ea43 eb3d 7bf0 1a3c cae4 f13c 91e9 4d3c
000001a0: 5fa8 67bd 3a15 263d 8d8b 2c3e 0a92 8abc
000001b0: f858 c6bd 0eda 20bd bf55 483c 2f23 8c3d
000001c0: dfb5 89bd 02e5 92bd 980c 5b3c 4b3f 30bd
000001d0: 9396 4c3d aa80 13bd 72b7 ecbc 8f61 97bd
000001e0: fb8d fe3d 2fd4 e23d fce7 ca3c 79a1 803d
000001f0: f136 0abe b162 e23d 5dc7 c1bc 336f 14be
00000200: e721 973d a076 8a3c 1c3d 793d 83ae ce3d
00000210: efe8 09bd fc1a a73c a84a 3a3d d9c2 adbd
00000220: ffb8 c9bc 8056 e53d dfc8 6f3d 1909 2a3d
00000230: 357c 933c f8e7 c1bd 3c2f 78bd 37e8 f0bd
00000240: 770b c83c 6cff edbd 903c 563d 3bf5 d43d
00000250: 8160 bebc eb28 9bbd 5e57 6dbd 8ee2 98bc
00000260: ef7a adbb fa4f acbb a19b 5abd fca0 babd
00000270: 3075 debd 2d76 75bd 9233 24bd fff7 133d
00000280: e656 d63c 21df f3bc 973f 13be 72c7 c2bd
00000290: 436c 873d d943 723d 5353 043c 0e44 093d
000002a0: 2a9d ba3d 39c3 5fbd a146 e2bc 3409 a7bd
000002b0: 01ed 9d3d c19e 95bc 160b 323d 04c7 09be
000002c0: de83 cd3d b468 20be 5f15 d73d deda 7cbc
000002d0: 85bb 33bd e5ea 38bc d87f 9e3d 1037 0abd
000002e0: 3edf d23d b0c2 ff3d e70e 423c efea 083d
000002f0: 2c8d 553d 160d 9a3d c4d3 e6bd e504 e5bd
00000300: eaf9 38bd c01d 96bd e7d0 a4bd 49ca 753d
00000310: 6614 21bd 80c5 f5bd 8907 73bd c1ce a63b
00000320: c6da b3bd 0da6 f83c 1fcb c33d 5aa1 a7bd
00000330: 1b2e 8ebc 51b3 e93b a67f 35bc 37c6 7abc
00000340: d263 05be 5bbf 99bd 57e3 22bd 0149 18be
00000350: cbf5 863b 20cd 90bd bd3d d83d 6b50 293c
00000360: f426 b03c 3fd6 98bb e95d ffbd e411 c8bd
00000370: 5e68 1bbd e994 9f3d d3e1 d8bd 0299 993d
00000380: 6bf1 5fbc 657e b03d c95c 7dbd ba6d cb3d
00000390: eb66 12bd 4b1c f6bd ef81 8abd 9e7f 9abd
000003a0: 51e3 a3bd 4def 693d f2b3 c6bd 74e9 393d
000003b0: 16fd b9bd de51 d0ba cb80 10bd 217b d83d
000003c0: 6549 1fbd 2c14 983d 4d4d 5dbc 1386 103d
000003d0: dd72 b7bd 9e36 3bbd 3b85 1e3d 2293 3d3d
000003e0: 68e6 82bd 8efd 1f3c e0e8 a73c d3cd d8bd
000003f0: 1342 163c f141 a1bc 184d e1bd d955 f5bc
