checkpoints/aids/model_AIDS.pt_l2_emb64_hid64_netot0.0.pt (torch, 99772 bytes, 9 tensors)

virtual_embedding f4 [64]
000000 e9 65 a8 3e 7c c9 3c 3f 08 2f 0b 3f a8 11 89 3d
       0.3289025 0.7374494 0.5436864 0.06692821
000010 9f 79 ef 3e d0 e9 37 3f 9c 94 83 3e 52 11 58 3f
       0.46772477 0.71841145 0.25699317 0.8440143
000020 a6 3b 82 3e 3c 3b 3d 3f d6 f9 2b 3f e0 08 8e 3e
       0.25436133 0.7391851 0.67178094 0.27741146
000030 b3 8d 4c 3f c6 a2 b8 3e 9c 14 de 3e bd 9a ad 3e
       0.79903716 0.36061686 0.433751 0.33907118
000040 85 56 b7 3d f8 f6 3f 3f fd cd 9a 3e 79 de 44 3f
       0.08952049 0.7498622 0.30235282 0.76901966
000050 de 55 37 3f 40 5d 32 3f 1c a3 30 3f d0 2e 29 3f
       0.716154 0.6967354 0.68998885 0.66087055
000060 df b4 31 3d ed 83 01 3f 4d 6e bc 3e 50 d1 78 3f
       0.043385383 0.5059193 0.36802903 0.97194386
000070 d7 be 4f 3f 5f c5 12 3f 39 5e ce 3c cf 92 96 3d
       0.81150573 0.57332414 0.025191413 0.0735222
000080 3e 42 7d 3c 60 5d 59 3f bc 01 58 3f fd eb e3 3d
       0.015457688 0.84908104 0.84377646 0.111289956
000090 86 c2 bc 3d 9e e0 4a 3f 69 c8 3c 3f d5 ca 84 3e
       0.0921679 0.7924899 0.737433 0.25936
0000a0 21 58 00 3f 04 23 4b 3f 7a 56 38 3f d7 a0 07 3f
       0.50134474 0.79350305 0.7200695 0.529798
0000b0 37 50 a6 3e d0 4a 9b 3e 94 85 b0 3e a1 71 5d 3e
       0.32483074 0.30330515 0.34476912 0.21625377
0000c0 c5 d0 83 3e 2e 49 3f 3f 42 51 22 3f c1 4d 35 3f
       0.25745216 0.7472104 0.6340524 0.7082177
0000d0 23 37 1d 3e 1f 86 20 3f fe 94 75 3f d9 91 31 3f
       0.15353064 0.6270465 0.9593047 0.6936317
0000e0 b5 2b 0b 3f e0 5f 78 3e bf 6c 56 3f 2d c0 bb 3e
       0.54363567 0.24255323 0.83759683 0.36670056
0000f0 ec fc c4 3e 12 45 26 3f 22 45 01 3f 65 79 04 3f
       0.38474214 0.6494914 0.50496113 0.51747733

embed_transform.0.weight f4 [64, 166]
000000 77 8a 01 bc 0c 1c ac bc 5c 0e 27 bd 0e 8d 62 bd
       -0.007906548 -0.021009468 -0.04078518 -0.0553103
000010 22 47 67 bd 5c c3 2c bd b8 00 d0 bd 50 f3 ff bb
       -0.056464322 -0.042178497 -0.10156387 -0.0078109875
000020 2c 7e 53 3d bc e1 ad bb 89 1f de bc 23 b2 92 3c
       0.051634 -0.0053064507 -0.027114647 0.017907208
000030 e1 a3 12 bd 41 a3 17 bd b1 ca 8c bc dc ec 35 bb
       -0.03580082 -0.037020925 -0.017186495 -0.0027759587
000040 b8 d1 c3 bc d5 bd ea 3c 1a cc 31 bd d7 ef 3a 3b
       -0.023903713 0.028654972 -0.043407537 0.0028524303
000050 56 62 7a bd b3 c9 8e bc 64 07 b3 bc d5 a6 7e bc
       -0.061128937 -0.017430162 -0.02185411 -0.015542706
000060 4b 7d 73 3c d7 8e 06 3c a0 ad 1f 3d 0f f9 1a bd
       0.014861415 0.008212767 0.03898394 -0.037835177
000070 07 4c 0c bd db 2c 33 bc f5 d7 f7 bc 1d e1 0d 3d
       -0.034252193 -0.010935987 -0.030254344 0.034638513
000080 b9 dc a9 b9 ad e1 ac 3c de 81 64 bd 31 b5 7f ba
       -0.00032398643 0.021103704 -0.055787914 -0.00097544777
000090 e2 93 39 bd 50 a3 88 3d 25 40 64 bd b2 0a 8d 3c
       -0.045307048 0.066717744 -0.055725235 0.017217014
0000a0 a8 fc 8d bb 11 dc 0b bd eb b3 3e 3c aa 72 63 bd
       -0.0043330975 -0.03414542 0.0116395755 -0.055529274
0000b0 dd 62 c5 bc 4e 8e 10 bd eb a6 8f 3d a5 cb 8f 3c
       -0.024094993 -0.035291962 0.07014259 0.01755316
0000c0 b5 93 c2 bc 86 4f cd bb ab 6c 83 3c a6 e8 5a 3d
       -0.023752073 -0.0062655834 0.016043028 0.053444527
0000d0 c9 78 f6 3c f5 5f 8e 3b a7 ee 38 3c 8c e5 69 bc
       0.030086892 0.004344935 0.011287368 -0.01427592
0000e0 7f 85 6e bd db 12 96 bd 12 92 94 bc 7a 41 57 bd
       -0.05823278 -0.07327815 -0.018136058 -0.052552678
0000f0 3e 34 72 3d 25 ff 0b 3d 96 64 06 3e 5c 56 3e 3d
       0.059131853 0.03417887 0.13124308 0.046469077
000100 70 85 fc 3c 2a 9f 81 3c 14 d8 b8 bc 90 66 d6 bc
       0.030825347 0.015822966 -0.022563972 -0.026171952
000110 b5 c0 e2 3c c9 b4 dd 3c f7 e1 f8 bc 94 e8 75 bb
       0.02767978 0.027063744 -0.030381186 -0.003752266
000120 1e c9 24 3d 97 f3 5b 3d d7 0b 3a 3d fc 25 ea 3b
       0.040230863 0.053699102 0.045421448 0.0071456414
000130 79 58 71 3d 95 8f 87 bd 2e 84 05 3d c3 18 32 bd
       0.058922265 -0.06619183 0.03259676 -0.043480646
000140 92 92 09 bc b5 58 71 3d 40 71 58 3d 6e 1f a3 bd
       -0.0083967615 0.05892249 0.05284238 -0.07964979
000150 59 72 52 3b 81 ea f2 bc 22 30 ae bc 5b df 96 ba
       0.0032111614 -0.029652836 -0.021263186 -0.0011510657
000160 53 da 53 3d bf 0b c6 bd bc 8a 38 3c 40 83 44 ba
       0.051721882 -0.09670209 0.011263546 -0.00074963644
000170 5e 69 f0 3c d6 d5 8a 3c 6b 9f 62 bd f9 11 d9 bc
       0.029347118 0.016947668 -0.055327814 -0.026497828
000180 53 0f ce 3c 9a 6a 00 3d ff 4a 32 bd bc 84 ae bc
       0.025153792 0.031351663 -0.043528553 -0.021303527
000190 f7 35 3e 3d 9c 2c be 3c ca d0 ab bd 53 b6 9f bd
       0.046438184 0.02321463 -0.08389433 -0.077984475
0001a0 2d 61 5b bc d7 47 10 3d 33 c9 e5 bd 08 a4 85 bb
       -0.013389868 0.03522476 -0.11220016 -0.004078392
0001b0 58 d6 89 3d e0 e4 85 bc 8e e0 a3 bc 9f d5 21 bc
       0.06730336 -0.016344488 -0.020004537 -0.009877591
0001c0 0e 31 a0 3d 26 af df bd 24 f2 1a be 89 d0 84 3d
       0.078218564 -0.10922079 -0.15131432 0.064850874
0001d0 14 13 d0 bc bf 4a 0d 3c b7 0f 38 3b 94 c9 4e 3d
       -0.025399722 0.008623778 0.0028085539 0.05048521
0001e0 3b ef 42 3a 07 eb 94 3c 8b d7 57 3d 1f 40 52 bd
       0.0007436161 0.018178476 0.052695792 -0.051330682
0001f0 3e 54 65 be 56 eb 24 bb b0 60 a2 3d 76 6e 08 3d
       -0.22395417 -0.0025164685 0.07928598 0.03330847
000200 2f 0a 0a 3c a9 cd a3 3d c8 5b e0 3c c8 b9 e9 3d
       0.0084252795 0.07998211 0.027387515 0.11412388
000210 15 1a 9a bc 69 1e e2 bc 94 12 0c bc ca 08 d2 bc
       -0.018811265 -0.027602391 -0.008549351 -0.025638957
000220 25 bd 91 3d 0c b7 97 3a 0e 00 58 3d e9 cf 39 3e
       0.071161546 0.0011574938 0.052734427 0.18145718
000230 05 32 ac 3d af b0 9e 3c 9d ab 72 3d ab 05 88 bb
       0.08407978 0.019371359 0.059245694 -0.0041510663
000240 5e dd 8e bd 04 da c2 3c e1 57 f3 bc db 9c aa 3c
       -0.06975816 0.023785599 -0.02970499 0.020826748
000250 ab ef c8 3d dd 56 b7 39 b9 ae 37 bd 99 84 0e bd
       0.09811338 0.00034969198 -0.044844363 -0.034794424
000260 72 53 d4 3c 9d f6 bb 3c 62 10 59 3c 8f 28 84 bd
       0.025918696 0.022944743 0.013248535 -0.064530484
000270 77 98 fc bc 52 80 8a 3d 80 d0 f4 bb 4e d2 aa bd
       -0.03083442 0.067627564 -0.007471144 -0.08340894
000280 8a a2 0e bd 09 a2 f7 bc 4c 82 57 3d 27 f5 5e bd
       -0.034822978 -0.030228632 0.052614495 -0.054433014
000290 2b 55 bd bc a2 bd 58 b9 6a 52 d8 bc b8 4f 16 3c
       -0.0231119 -0.00020670009 -0.026406486 0.00917428
0002a0 e9 22 a5 3c 09 7f 8b bd b8 39 ae bc eb 09 6b bd
       0.020158248 -0.068113394 -0.021267757 -0.057382505
0002b0 29 cf 36 be ad 26 dd 3a e6 6d 12 3d 1b 91 79 bd
       -0.17852463 0.0016872488 0.03574934 -0.0609294
0002c0 bc 6f 09 3d 20 43 54 bc 33 a1 51 bd fa b5 7d bd
       0.033553824 -0.012955457 -0.051179122 -0.061941124
0002d0 d8 2b 14 bd 4c 39 b4 3c f7 24 af bc 64 c5 7a 3d
       -0.036174625 0.021999978 -0.02137993 0.061223403
0002e0 bd e1 75 3d 60 77 6a 3d ed e9 cd bd 2f c0 37 bd
       0.060029734 0.05724275 -0.100543834 -0.044861015
0002f0 71 3b 4d bc 6c d6 a0 bc 00 29 63 bc d5 85 59 3d
       -0.012526379 -0.019633494 -0.013864756 0.053106148
000300 27 3e 55 bd 35 66 00 bd 12 80 1c 3c 59 5a 87 bd
       -0.052061226 -0.031347472 0.009552019 -0.06609029
000310 a7 3f 39 bd 06 9d 28 bc 6b 56 66 bb d2 97 0c 3d
       -0.04522672 -0.010291344 -0.0035146724 0.034324475
000320 b2 75 c1 bd 7a cd d8 3d c4 50 70 bd fe 3f 5a bd
       -0.09446277 0.105860665 -0.058670774 -0.053283684
000330 30 10 8d bc bf 08 58 3d 31 f0 8d bc 89 2b 2f 3e
       -0.017219633 0.052742716 -0.017326446 0.17106451
000340 6d 9c be 3c c4 68 10 3c 28 33 ee 3b 8e 44 e4 bb
       0.023267949 0.008814041 0.007269282 -0.00696618
000350 0f f0 b0 3d bf da ea 3d 33 3a 4a 3c 86 ba 77 3b
       0.086395375 0.11467504 0.012342977 0.0037800386
000360 b0 15 62 bd c4 ff b6 bc a0 52 bd 3d 0d 52 be bd
       -0.055196464 -0.022338755 0.09244275 -0.09292994
000370 aa ff de bb ce c9 a8 3d 3f 8a 0e 3d 9f 81 21 3c
       -0.00680538 0.08241616 0.03479981 0.009857564
000380 57 29 81 bd 52 0e 0f 3d 81 12 26 bb 24 da fa bc
       -0.06306713 0.034925766 -0.002534062 -0.030621596
000390 81 45 16 3e 88 0d 00 3d fa 6c ac 3c 05 76 46 3d
       0.14674951 0.031262904 0.021048058 0.048452396
0003a0 20 5c e0 bb fa 66 43 3d 42 5c 10 3d cf aa 34 bd
       -0.0068469197 0.047705628 0.035244234 -0.04410821
0003b0 46 d0 65 bd 12 a4 b2 bc 2e 3b 35 bb 8c b2 ff 3c
       -0.05610683 -0.02180675 -0.0027653682 0.031213067
0003c0 31 36 93 3b ae 7a be 3d 31 a8 7a bd 90 2b 14 bb
       0.004492544 0.09300743 -0.061195556 -0.0022608973
0003d0 d2 11 8b 3d 89 02 af bd 71 68 84 bc 0c d3 23 bd
       0.06790508 -0.085454054 -0.016163083 -0.03999619
0003e0 33 ac 12 bc dc db 19 bc 95 31 fa bb cf 2e 99 bd
       -0.008952188 -0.0093907975 -0.007635305 -0.07479631
0003f0 93 0e 23 3d f6 44 77 bd 92 39 16 bd 89 db 97 bd
       0.03980882 -0.0603685 -0.036675997 -0.0741492

embed_transform.0.bias f4 [64]
000000 24 e2 5c 3c ce ed 84 37 06 ad ba 3c e0 17 65 bd
       0.0134816505 1.5846363e-05 0.022787582 -0.055930972
000010 03 01 38 3d 53 d4 4b 3d 57 d0 0e 3c 6a a2 60 3b
       0.04492284 0.049763035 0.008716664 0.0034276494
000020 80 c6 91 3c 17 c2 72 3d 7f 72 aa 3c d5 13 f9 bc
       0.017794847 0.05926713 0.02080655 -0.030404964
000030 cb 85 b6 bc 89 df 61 bd ea ec 3f 3c fc e8 69 bd
       -0.022280594 -0.05514482 0.0117142 -0.057106957
000040 99 83 b4 3b e3 4c 0e 3c 9b 5e 64 3d 6e af 96 bc
       0.0055088517 0.008685323 0.055754285 -0.018394198
000050 71 71 8e 3a 3f da a2 3c f6 e9 df bc f8 8a af bc
       0.0010867548 0.019879458 -0.027333241 -0.02142857
000060 ee 56 a5 bc c8 70 ff bc 49 db 11 3b 2f 82 ea 3c
       -0.020183053 -0.031181708 0.0022255948 0.02862653
000070 68 8d 70 3c 22 fd 4a 3d 4e e3 99 bb a6 28 c7 3c
       0.014682151 0.049557813 -0.0046962863 0.024311375
000080 45 04 3e bd 10 c8 26 3d 7e dc 4d 3d 3f fc 1f 3d
       -0.04639079 0.04071814 0.050259106 0.03905892
000090 65 2d 63 bd 3e 9f 20 bb cb 04 52 bd 34 92 5a bd
       -0.055463213 -0.0024508978 -0.051274102 -0.053362086
0000a0 8d c8 43 3d ab 06 05 3d f5 43 46 3d 4b 07 07 3d
       0.047798682 0.032477062 0.048404653 0.03296594
0000b0 12 fc 88 bb e0 42 fb 3c 01 84 d6 bc 7e 18 3b bd
       -0.0041804397 0.030671537 -0.026185991 -0.045677654
0000c0 1b b0 ae bc b4 9a 12 bd 66 35 52 3d 98 a9 7a bd
       -0.021324208 -0.035792068 0.051320456 -0.061196893
0000d0 14 af 80 3d 01 f7 38 bc ba 1c c2 3b f5 93 6f 3d
       0.062833935 -0.011289359 0.0059238346 0.058490712
0000e0 19 9c d6 bc fb b0 c9 bc ba 65 e6 3c 91 40 5b bc
       -0.02619748 -0.024620524 0.028124679 -0.013382093
0000f0 64 05 b9 3a c8 f0 2d 3d 46 5a 33 3c 7e d3 fd 3c
       0.0014115986 0.042465955 0.010946816 0.030984636

conv.0.lin_rel.weight f4 [64, 38]
000000 13 21 cd bb 87 27 1a 3c 8a 3a 06 3e 11 e9 6c be
       -0.0062600463 0.009408838 0.13108268 -0.23135783
000010 7f a2 05 be 62 75 84 3e 8b 50 8c 3d 64 cd e9 bd
       -0.13050269 0.25870806 0.068513 -0.11416128
000020 be 3f 02 bd 56 6e d1 bd 40 11 39 bc d0 04 6d 3d
       -0.03179907 -0.10226123 -0.011295617 0.057865918
000030 d8 fc 0a be 55 d5 bf 3d 28 fd ea bd 02 c7 37 3d
       -0.13573015 0.09366862 -0.11474067 0.044867523
000040 d1 79 74 3e d5 d8 86 3c 87 e6 3c bd 3b f3 0c 3d
       0.23874594 0.016460815 -0.046118286 0.03441165
000050 1d 6b 3b bd 1f 83 bb 3c 1a 98 06 3e 46 df 9e 3d
       -0.045756448 0.022889672 0.1314396 0.0775743
000060 5d 28 ee bd 5d f8 24 be 96 c2 a8 3d cc 62 1f be
       -0.116287924 -0.16110368 0.08240239 -0.15565032
000070 ca 3b 0a 3e b5 e6 ff bd 60 dc 1e be 18 a9 e8 3d
       0.1349937 -0.12495176 -0.15513754 0.11360377
000080 e1 cc 67 bd 45 a5 fb bd 2a 8f e4 3d 0f 08 c6 bd
       -0.056591872 -0.12287382 0.11160119 -0.09669506
000090 9c a4 4b 3d 7b b7 58 bd d6 e7 d0 bc d5 02 bc 3d
       0.04971753 -0.052909356 -0.025501173 0.09180228
0000a0 93 6e cf 3d 1f 6b 63 3a f7 b1 a1 3b 9f 2c f0 3c
       0.10128512 0.0008675325 0.004934545 0.029318152
0000b0 c3 b3 c1 bd 20 06 08 be 9b 54 13 3e 4c 07 22 bd
       -0.09458115 -0.13283587 0.14387743 -0.03955774
0000c0 a5 2b e6 bd 1a 3f 13 3d b8 53 54 3d 9f 94 58 bd
       -0.11238793 0.03594885 0.051837653 -0.05287611
0000d0 6f 5f e6 3c 14 e4 08 be 8a 53 db bd 47 24 f5 bd
       0.028121678 -0.13368255 -0.10709293 -0.1196981
0000e0 71 1b 4b bd 7a 97 90 3c 77 2e 5f bc 49 e0 82 3b
       -0.049586717 0.017650355 -0.013621918 0.003994022
0000f0 f2 2b 0b 3d e9 65 2f 3e 3d f6 87 bd 68 18 25 3e
       0.033977456 0.1712872 -0.06638763 0.16122591
000100 bf 25 46 bd 79 bf 18 be 02 9e d0 bd f5 b4 8e bb
       -0.04837584 -0.14916791 -0.101863876 -0.004355068
000110 b9 8e b4 3a 65 a3 d0 3d 92 01 bf 3c 85 93 59 3e
       0.0013775445 0.10187415 0.023316178 0.2124768
000120 34 3b c1 3b 77 37 49 3d 9f 55 ff bc 26 43 14 be
       0.00589695 0.04912516 -0.031168757 -0.1447874
000130 a0 75 7e 3d d6 86 32 be 19 67 20 bd 3e 9a 01 be
       0.062123895 -0.17434248 -0.03916082 -0.12656495
000140 fd 86 21 3e 2b 15 0d be bb b7 5f bd c5 7e ce 3d
       0.1577415 -0.13777606 -0.05461858 0.10082773
000150 5b 3f 11 be ec 08 34 3d 67 de 14 be 49 5c 79 bd
       -0.14184324 0.04395382 -0.14537965 -0.060879026
000160 81 30 ce bd 92 e9 69 3d 07 94 c1 bd e2 1e ad 3c
       -0.10067845 0.057107516 -0.09452062 0.02113289
000170 35 d0 71 3c 3f 38 38 be a7 3c 05 bc 8a 3f 06 bd
       0.014759113 -0.17990206 -0.008132136 -0.03277544
000180 3f 1b b0 3d 6a 82 25 be 70 9c 72 bd 7a 99 41 be
       0.08598947 -0.1616303 -0.05923122 -0.18906203
000190 a3 f0 e5 bd 9e 31 ea 3d 17 9b 4d bd 45 36 c5 3d
       -0.112275384 0.11435245 -0.050196733 0.09629492
0001a0 75 a2 29 3e 7a ba 80 3d 48 d6 04 be 52 56 a8 bd
       0.16565879 0.062855676 -0.12972367 -0.08219589
0001b0 b8 1a 05 3d ac e6 e3 3d b6 63 10 be 22 55 21 3e
       0.032496184 0.111279815 -0.14100537 0.15755132
0001c0 fe a3 e2 3c a8 7f e1 bd 8b ec d3 3d 52 9f b7 bd
       0.027666088 -0.110106766 0.10347851 -0.08965935
0001d0 82 c1 8e 3d 0d ce 76 bb b0 35 cd 3d a4 38 ac bc
       0.069705024 -0.0037659437 0.10020006 -0.021023102
0001e0 3d d7 91 bc 59 4a 18 3e b5 81 ca bd 5a c3 83 3d
       -0.017802829 0.14872111 -0.09888021 0.06433745
0001f0 ee 46 ad 3d 04 23 1d be 56 79 7d bd 8b ef d6 3a
       0.084607944 -0.15345389 -0.061883293 0.0016398294
000200 60 f1 c3 3c c0 9c 01 bd 30 76 97 3d 94 99 9e 3d
       0.023918808 -0.03164363 0.07395589 0.077441365
000210 dd 57 c3 3d ee 7c 07 3e 25 0b 0c be 98 04 0a 3d
       0.09538243 0.1323125 -0.13676126 0.033695787
000220 16 4d 6e bd d0 4f 07 be e3 1e 1b 3e 48 95 db 3d
       -0.058178984 -0.1321404 0.15148501 0.107218325
000230 66 52 f3 bd f0 02 82 bd 17 45 d2 3d 82 d3 33 3e
       -0.11880951 -0.063482165 0.10267084 0.17561153
000240 18 88 b1 3d 90 a9 0f bd 1a 6f 81 bc 4e 2c 16 bd
       0.08668536 -0.035073817 -0.015800048 -0.036663346
000250 74 b6 f6 bd 2a 5e e0 3d 9a 0a ab 3c 44 dc 26 bd
       -0.12046519 0.1095546 0.020879079 -0.040737405
000260 94 3c 71 3d 5d d7 22 3e f6 90 8a 3d 62 bf 38 3d
       0.058895662 0.15902467 0.0676593 0.045104392
000270 57 b7 af bc 3d df 63 3d b7 2f 06 3d 18 93 c3 bb
       -0.021449728 0.05563282 0.03276035 -0.0059684627
000280 1e 56 0c 3e b6 80 5c bd 07 75 d2 3d e7 0f 88 3d
       0.13704726 -0.053833686 0.102762274 0.06643658
000290 5b 04 81 3e bc 2c 82 3d 39 eb a3 bd 79 45 04 3d
       0.25198635 0.06356189 -0.080038495 0.032292817
0002a0 34 49 5b 3d e2 16 a8 3d c0 97 01 bd 13 bc 48 3e
       0.05353661 0.082074896 -0.03163886 0.19602995
0002b0 8a ea 1b 3d 98 aa f0 bc 85 f0 4a 3e a1 89 82 3d
       0.03806547 -0.02937822 0.19818313 0.06373907
0002c0 b0 9a 00 3e cc 4d 1a 3e a5 af a4 bd ac aa 84 bd
       0.12559009 0.1506874 -0.08041314 -0.064778656
0002d0 d7 c6 90 3e cd 0a ff ba 60 a0 07 3e bf 7b 09 3e
       0.28276703 -0.0019458175 0.13244772 0.13426112
0002e0 0c 41 ce bc 5d 80 cf 3d db 92 d7 3b 9b f7 42 3e
       -0.025177501 0.10131905 0.006578786 0.19039766
0002f0 d9 22 fc 3c 3d 03 d9 bc 22 2f c1 bd bf 34 c6 3d
       0.030778335 -0.026490802 -0.09432818 0.09678029
000300 34 e9 18 be aa 06 f8 3d c4 0c ec 3d 4e c9 62 bd
       -0.1493271 0.12110646 0.11525872 -0.05536776
000310 22 39 7a bd 08 cf a2 3d a3 68 0a 3e 63 80 05 be
       -0.061089642 0.07949644 0.13516478 -0.13037257
000320 c6 4b de 3c 5f ba 0b be 30 c0 86 3d 07 64 b4 bd
       0.027135741 -0.13645314 0.065796256 -0.08808141
000330 bd 6f e1 3d b9 27 cc bd 04 a8 b0 3c dd 77 05 bc
       0.110076405 -0.09968514 0.021564491 -0.008146253
000340 89 c1 33 be 6e a3 08 be dd f0 21 be 15 12 a7 bd
       -0.17554297 -0.13343593 -0.15814538 -0.08157746
000350 d9 d9 d0 bd 32 76 cd bc cd 7f 8a bd 8a 8b a6 3d
       -0.10197801 -0.025080774 -0.06762657 0.08132084
000360 8c 0a 8a bd d7 53 07 3c 62 c4 1d bd 3f 20 d0 3d
       -0.06740293 0.008259735 -0.038517363 0.101624005
000370 67 e8 ea bd 3e 85 12 be 96 24 70 3e 06 c9 6c 3c
       -0.114701085 -0.1430864 0.23451456 0.014452225
000380 77 5b b4 3c 81 d4 1b be c5 2d 7e bd 8f 1a 04 be
       0.02201627 -0.15217783 -0.062055368 -0.12900756
000390 59 78 1d 3d d6 07 93 3d b6 8d 0d 3e 40 9f 99 bd
       0.03844485 0.07179229 0.1382359 -0.07501078
0003a0 3e 07 cf bd 2b 7b 10 3e 37 f7 9d bc 6e a8 f8 3d
       -0.10108803 0.14109485 -0.01928292 0.121415004
0003b0 f0 08 ff bd 74 90 04 be a5 3f 37 3e 64 8c 0e bd
       -0.124528766 -0.1294573 0.17895372 -0.034801856
0003c0 99 45 cc bc 7c 0f e5 3d 4c d2 87 3d 81 8a 7a 3d
       -0.02493553 0.11184594 0.06631908 0.061167244
0003d0 39 36 08 bd e1 d3 c3 3c 8f 4d 47 3d ec dc 5a bc
       -0.033254836 0.023904743 0.04865795 -0.013358336
0003e0 f1 fe 84 3d c5 f6 a4 3d 53 bb 24 be 56 13 16 be
       0.06493939 0.0805488 -0.16087084 -0.14655814
0003f0 01 2d f1 bd 3f af dd bd fa 19 41 bc 8b a4 b1 3d
       -0.11776162 -0.10824441 -0.011785978 0.08673962

conv.0.lin_rel.bias f4 [64]
000000 d2 6c 1f be 39 a9 da 3d 41 41 d7 3d 9d e6 16 be
       -0.15568855 0.10676808 0.10510493 -0.1473641
000010 b0 87 82 bd 31 3b f4 3d 6d ed 89 bd 44 74 3f bc
       -0.063735366 0.11925352 -0.067347385 -0.011685435
000020 ea ae d4 3c cb f9 dc bc 7b ba b4 3d df c7 0a bb
       0.025962312 -0.02697458 0.08824631 -0.0021176261
000030 4c ab b6 bc b1 6c 37 3d c1 13 c8 bd 19 f5 eb 3b
       -0.022298478 0.04478139 -0.09769393 0.007200849
000040 d6 69 d7 bd 39 82 f7 bd 76 14 7b ba 2a 8e 81 3d
       -0.105182335 -0.12085385 -0.0009577939 0.06325944
000050 72 03 96 bd 64 b2 5d bc 25 d7 99 bc d0 60 18 3a
       -0.07324876 -0.013531301 -0.018779347 0.0005812766
000060 a0 9b ab bd 72 64 5b bd 5a 7d 0d 3e ba 48 63 3d
       -0.083792925 -0.05356259 0.13817349 0.05548928
000070 96 5a a9 3d 15 cf 75 3d 53 d0 e1 3d 03 7f 40 3d
       0.08269231 0.060011942 0.11026063 0.046996128
000080 86 7e 7b 3d aa 9f 33 be ac a4 2c 3d 1d fc a0 3d
       0.06139996 -0.17541376 0.04214923 0.07860587
000090 36 8a a3 bd 68 8b b7 bd 4d cf fd bd 9f 6e ac 3d
       -0.07985346 -0.089621365 -0.12393055 0.08419537
0000a0 7b 08 aa bd e7 2a bf 3c 03 95 c8 3d d8 7d cc 3d
       -0.08302399 0.023335887 0.09794047 0.0998494
0000b0 13 10 20 3c 3c 54 9b 3d 83 12 ad bd 9f 69 97 bc
       0.009769457 0.07584426 -0.084507965 -0.018482981
0000c0 fd 60 ed 3d c3 7f 0e be 8d 3e 97 3d 90 f2 17 be
       0.11590765 -0.13915925 0.073849775 -0.14838624
0000d0 bf db eb bd dd c0 d9 ba 9e a7 e1 3d ad fd 66 3d
       -0.115165226 -0.0016613264 0.110182986 0.056394268
0000e0 9d 1e 6c 3d e7 3b 53 bd fb 36 2e 3d 7d 50 53 3d
       0.057646383 -0.0515708 0.042532902 0.05159043
0000f0 18 93 8e 3d 28 e3 93 bc a5 c7 00 bd ef aa 0b 3e
       0.0696165 -0.018052652 -0.031440396 0.13639425

conv.0.lin_root.weight f4 [64, 38]
000000 ac 93 fc 3d 24 06 c0 bd 22 ac da bd a2 3b 00 3d
       0.12332854 -0.09376171 -0.10677363 0.03130687
000010 68 ce e8 3c 7f ce e1 3d 30 90 26 be a6 12 9a bd
       0.028418735 0.11025714 -0.1626594 -0.07523088
000020 ae 65 0c 3e 51 c6 af 3c 5d 21 df bd 4f ac 9d bd
       0.13710663 0.02145687 -0.108950354 -0.07698881
000030 44 84 47 3d 74 ef 08 3e 2e 49 00 be 27 83 02 3e
       0.048710123 0.13372594 -0.12527916 0.12745343
000040 5d 09 20 3c fc bb 01 bc 77 55 a6 3c 06 4b 61 be
       0.009767857 -0.007918354 0.020304425 -0.22001275
000050 f8 81 e8 3d 3a ad 60 3a ad 50 51 bd 69 52 d3 bd
       0.113529146 0.00085707346 -0.05110233 -0.10318453
000060 3c 78 03 3e 91 11 c0 3d 54 fc 0e bd 0c 0c 21 3d
       0.12838835 0.093783505 -0.034908608 0.03931813
000070 25 5d 34 3d 9b 66 05 be 43 27 13 3e bc 56 10 be
       0.044034142 -0.13027422 0.14370446 -0.14095587
000080 c2 cd 56 3e ee 89 c2 3d 13 12 22 bb ce 4f aa bd
       0.20976928 0.09498964 -0.0024730011 -0.08316003
000090 d7 b3 0b be e7 83 db 3d 26 d2 1f bc 62 05 a6 bd
       -0.13642822 0.10718518 -0.009754693 -0.081064954
0000a0 09 de 87 bd 54 15 ac bd f2 0e 08 3d d4 02 3c be
       -0.06634147 -0.084025055 0.033217378 -0.18360454
0000b0 0f e9 c3 bd d6 38 8b bc 6b 51 0a be eb 10 72 3d
       -0.09565937 -0.016994875 -0.13507621 0.059098165
0000c0 66 30 41 3e 5c c8 7d 3d 89 97 1a bd d6 48 ec 3d
       0.18866119 0.061958656 -0.03774217 0.1153733
0000d0 9d 9a cb bd c0 87 38 bc e5 81 34 be dc ff b2 3c
       -0.099415995 -0.011262834 -0.17627676 0.021850519
0000e0 a7 64 41 3e d9 19 20 be fb 8a 90 bb 03 57 21 bd
       0.18886052 -0.1563486 -0.004411099 -0.03938962
0000f0 05 2f b0 3d 28 51 1b 3b 81 e9 a9 3d 22 aa fe bd
       0.08602718 0.0023699496 0.082964905 -0.12434794
000100 b6 e1 e5 bd 57 dc e5 bc b0 fb e8 bd 2e 39 49 3d
       -0.112246916 -0.028059168 -0.113761306 0.049126796
000110 58 c6 1a 3e 5b 69 f7 bd d7 58 ac 3d ca 3f be bc
       0.15114725 -0.12080642 0.08415382 -0.023223776
000120 7a 95 1f be 66 62 90 3a 8c 27 d9 3d 52 c8 0c be
       -0.15584365 0.0011015653 0.10603246 -0.13748291
000130 93 c3 3f bd 26 fe 17 3d 4e 81 6a bc bb 96 20 3e
       -0.046817373 0.03710761 -0.014313055 0.15682499
000140 ef f2 c0 3b f2 e3 2b bd 7a 18 27 bc 29 8a 42 3e
       0.005888335 -0.041965432 -0.010198707 0.18998016
000150 f2 e0 87 bd b4 70 06 be de f1 29 be 1c 7b 08 bc
       -0.06634702 -0.1312893 -0.16596171 -0.008330133
000160 ff f3 44 be 30 85 73 3d 03 de 7b 3e 45 84 c0 bc
       -0.19233702 0.05945319 0.2459641 -0.023500571
000170 50 17 8b 3e d0 90 03 3e c6 5f db bd 0b 47 95 bd
       0.27166224 0.1284821 -0.10711627 -0.07288941
000180 b7 8a 8c 3d 99 a5 11 3e bc 10 b0 bc 3b 9c 6a 3d
       0.06862395 0.14223327 -0.021492355 0.0572779
000190 20 22 8b 3d 01 bc dc 3c 2b a6 8d 3e 76 9a 89 bd
       0.06793618 0.026945116 0.2766584 -0.06718914
0001a0 5e 51 22 be 85 8b ba 3d d1 a5 3b 3c 01 61 1e be
       -0.15851352 0.091086425 0.011453108 -0.15466692
0001b0 2a 95 fe bc 57 cc 05 be 49 0b a4 3d a3 59 6c 3e
       -0.031076986 -0.1306623 0.08009965 0.23081069
0001c0 2d 78 2a 3d 96 5c 23 3e e7 60 2b be 36 d8 1b be
       0.041618515 0.15953287 -0.16736184 -0.15219197
0001d0 6c ca 52 bd 40 fe f1 bb a0 2f 05 3e db 31 3a 3e
       -0.051462576 -0.0073850453 0.13006449 0.18183081
0001e0 4f 2e a2 bd 2c 79 5f bd 64 c9 0a 3d 74 32 16 3e
       -0.07918989 -0.054558918 0.033883467 0.14667684
0001f0 66 2a 1a 3d ce 9c 6f bd 93 5d b2 3d c6 58 0f be
       0.03763809 -0.05849915 0.08709254 -0.13998708
000200 6d 3a 04 3e 13 43 71 3d 12 e8 ff 3d 4e 88 3b 3e
       0.12912913 0.058901858 0.12495436 0.18313715
000210 87 a8 28 3e 6c d3 9a bd 88 1f aa bd 79 5d a4 3c
       0.16470538 -0.07559857 -0.08306795 0.020064102
000220 27 d2 6b 3e a2 96 56 bd c4 db f4 3d c7 0c 88 bc
       0.23029386 -0.05238975 0.119559795 -0.016607655
000230 1d 36 83 3d d4 18 b6 bd 2f 49 a5 3b b8 27 0f 3e
       0.06406806 -0.08891454 0.0050441246 0.13979995
000240 98 6a 07 be 7a 19 68 bd 52 f5 ec bc 39 d8 1a be
       -0.13224256 -0.05666492 -0.028925572 -0.15121545
000250 64 33 0f be 14 bd 4d 3b 33 b7 a3 bc c3 71 d9 3d
       -0.13984448 0.0031393217 -0.019984817 0.106174015
000260 0a 78 33 bd c9 7c 62 3d bb 9a 55 bd 6b f1 54 3a
       -0.04381565 0.055294786 -0.052149516 0.0008123132
000270 44 ab 0b 3d 3c 2a 04 3d 02 33 67 be 19 f9 c8 3d
       0.03409888 0.03226684 -0.22578052 0.098131366
000280 47 1f ff 3d 9e ce 88 3d 73 70 c3 bd 53 ae 4a 3e
       0.124571376 0.06680034 -0.09542932 0.19793062
000290 42 40 09 be 1a 74 49 3d cc 80 c4 3d 7c 17 ad 3d
       -0.13403419 0.04918299 0.095948786 0.08451745
0002a0 e5 e6 8c 3d 3c f2 a8 bd a0 63 6b 3e be 51 1e 3e
       0.06879977 -0.082493275 0.22987223 0.1546087
0002b0 8a 93 8b bd c2 d0 c4 3d 65 b0 96 bd 17 21 e3 bd
       -0.0681525 0.0961013 -0.07357863 -0.11090296
0002c0 e5 ab e2 3d 7b 79 4f 3d 1c f5 3f 3d e8 bc 8f b9
       0.110679425 0.050652962 0.046864614 -0.00027415832
0002d0 a7 f2 f4 bb 87 31 c3 3d a6 1d 77 3d 7b 49 bf bc
       -0.0074752155 0.09530931 0.06033101 -0.023350468
0002e0 0d ad f2 3d 17 d5 df bc 6c 1d ed 3d 12 6d b6 3c
       0.11849413 -0.027323289 0.115778774 0.022268806
0002f0 aa d3 cd bd 88 e8 94 bd 4e 67 82 bd 25 72 cd 3d
       -0.10050137 -0.07270914 -0.0636736 0.10031537
000300 5e 6d 07 3e 34 80 92 be be ae 51 be c0 c7 bd bd
       0.13225314 -0.28613436 -0.20476815 -0.09266615
000310 cf f0 f6 bc 18 a3 03 be 5c 57 5c 3e 8a 59 0a 3e
       -0.030144123 -0.12855184 0.215177 0.13510719
000320 ea be 02 be 1a 5c 15 be 1e e3 81 3d 11 5c 60 3c
       -0.1276814 -0.14585915 0.06342147 0.013693825
000330 dc 52 d8 3d 75 2d 0f be bf 42 2e 3d eb 3c 44 bd
       0.10562679 -0.13982184 0.042544123 -0.04790966
000340 02 0d 22 3d ec 9c 1c bd 2b 34 e9 3d 16 bd 3d be
       0.039563186 -0.03823559 0.113869034 -0.18529162
000350 6a e3 f7 3d 50 f2 20 be d7 3b c5 bd 02 3d 0b 3e
       0.12103923 -0.15717435 -0.09630554 0.13597491
000360 7d a2 fa 3d 31 88 b2 3d 2f 9e 44 be 83 5a 13 ba
       0.122380234 0.08717383 -0.19200967 -0.0005621092
000370 c2 16 30 bd 58 73 bb 3d 3b 26 20 be 82 75 0f 3d
       -0.042990454 0.091528594 -0.15639584 0.035024174
000380 47 b4 b2 3d 52 92 de 3d 5b c7 8e bd 62 cd b1 ba
       0.087257914 0.10867752 -0.06971618 -0.0013565237
000390 b2 10 02 be 22 c3 02 be 27 fe 2e 3d 2a 72 b6 3d
       -0.12701681 -0.1276975 0.042722847 0.08908494
0003a0 d2 df 6d 3e 73 63 de bd a7 d6 79 bd bf 9c 93 3d
       0.23229912 -0.10858812 -0.060995724 0.07207631
0003b0 9d 77 0f 3d b4 78 19 3e 0a f4 8a 3d 47 41 7c bd
       0.03502618 0.14987451 0.06784828 -0.06158569
0003c0 75 32 5f bd b8 61 b8 bb 07 ad 16 be 7a f5 d9 bd
       -0.05449148 -0.0056268834 -0.14714442 -0.10642524
0003d0 86 e7 1f 3e 18 93 91 bd 33 58 88 bc 91 5c 26 be
       0.15615663 -0.07108134 -0.01664362 -0.16246249
0003e0 00 98 04 bd 50 b6 5e bd 03 37 12 be e3 7e 7d 3d
       -0.03237152 -0.054373085 -0.14278798 0.061888587
0003f0 f3 56 08 be 22 10 a3 bd fb 3d 08 be 51 4a 7f bd
       -0.13314418 -0.079620615 -0.13304894 -0.062326733

conv.1.lin_rel.weight f4 [64, 64]
000000 fb 33 88 bd a9 d1 3f 3d 51 84 33 3c 92 0b ba be
       -0.066505395 0.046830807 0.01095684 -0.36336952
000010 9b a6 9b bd 55 dd 90 bd 82 3a 87 3d 5b 02 89 be
       -0.07600137 -0.07073466 0.06602956 -0.2675961
000020 8f ac 59 be d7 d0 ac bd 22 78 88 bc 63 9e 0b bd
       -0.21257232 -0.084382705 -0.016658846 -0.034086596
000030 27 ea 9c bc e0 08 e6 3d 7b f3 89 be 0f 2c 54 bc
       -0.019154621 0.112321615 -0.26943573 -0.0129499575
000040 89 69 b8 3c 22 b1 61 3d 2d a6 3a be af c7 f7 3c
       0.02251126 0.055100568 -0.18227454 0.030246584
000050 b4 68 31 3e af d5 a0 bc 76 73 1e bd e1 3d 6e bd
       0.17325097 -0.019633142 -0.03868433 -0.05816448
000060 83 70 f2 bb c8 05 f2 bd 97 80 7c bd 0c 2d df bd
       -0.0073986663 -0.11817509 -0.06164607 -0.10897264
000070 4e c1 ae bd 74 a1 fb bc df 99 da bc b5 03 8f be
       -0.08532964 -0.030716635 -0.0266847 -0.27932516
000080 38 c6 00 3e 0b 5d 1f 3d da 24 0d 3e 5c e7 11 be
       0.12575614 0.038907092 0.13783589 -0.14248413
000090 25 07 db bc f2 91 c7 3d 9c 4a ca 3e c8 e7 83 3c
       -0.026736805 0.09744634 0.39510047 0.016101733
0000a0 6d ca 35 3e de 47 c9 bd 63 e0 9e be 5f a8 a6 3b
       0.17753 -0.09828161 -0.31030568 0.0050859894
0000b0 a8 48 22 3d f1 b2 36 3d ec 3f f3 bb 3c 55 5d 3e
       0.03962007 0.044604246 -0.0074233916 0.21614546
0000c0 db 7d fc bd f3 b1 06 3e 8c 94 9a bc 27 52 4d be
       -0.123286925 0.1315382 -0.01886966 -0.2005087
0000d0 b4 47 1b be 5c e6 a4 bc 28 ec f6 3d e0 d3 04 be
       -0.15164071 -0.020129375 0.12056762 -0.12971449
0000e0 c1 c1 34 3e b9 a5 b5 be eb 77 ed 3c 63 71 1c be
       0.17652036 -0.35478 0.028987845 -0.15277629
0000f0 9f 48 50 3e 3f b5 95 3d 25 10 e9 bb fb 0f 5e bd
       0.20340203 0.073099606 -0.0071125203 -0.05421446
000100 8f a8 bc 3d bf db 8c bd 50 4f 12 3d 8e 0a bd be
       0.092118375 -0.06877851 0.03572017 -0.36922115
000110 57 6e 4f be a3 2a 07 3e 2e 59 f7 bd b6 b6 88 bd
       -0.20256935 0.13199858 -0.120775566 -0.06675474
000120 d0 db 2b bb 3e bc 26 3e 7f 27 fe 3c d2 39 02 3c
       -0.0026223548 0.16282746 0.031024693 0.007948356
000130 a9 7d e6 bd 09 a6 1f bd 6e 79 78 bd 49 2f 88 be
       -0.112544365 -0.038976703 -0.06066268 -0.26598576
000140 16 61 bf bd 2b 38 fb bb 2e ad 87 3e bd 35 bf 39
       -0.093446895 -0.007666608 0.26499313 0.00036470397
000150 25 1b 0e bd 2c 1d 4f bd 7c 6a 80 3d 56 98 5a 3d
       -0.034693856 -0.05056493 0.0627031 0.053367935
000160 c8 40 cb 3c fd 65 e7 be df 97 02 3d ea 2f 3c be
       0.024811164 -0.45194998 0.031883117 -0.18377653
000170 ce a5 1e 3d 47 0d 8d 3e 0a b8 e7 bd b5 ea 12 3e
       0.038732342 0.27549192 -0.113143995 0.14347346
000180 3b 0f 54 be 5c 2b eb 3d d9 d5 1c bd 2e cb 45 3c
       -0.20708935 0.114828795 -0.03828988 0.012072368
000190 34 04 5b be 8e 5a 18 bd 0a 67 a2 3d 56 b4 bd bd
       -0.21388322 -0.037195735 0.079298094 -0.09262912
0001a0 06 dd 83 be 81 59 10 be 28 c1 b7 3d 13 95 79 3d
       -0.25754565 -0.14096643 0.089723885 0.060933184
0001b0 d1 a2 ac 3e ef 5b 9c bd 6f 91 fe bc 92 64 25 3e
       0.3371797 -0.076347224 -0.031075208 0.16151646
0001c0 a3 28 c1 bd 1d 38 00 3e d3 db 13 3d f9 d3 82 3e
       -0.09431579 0.12521406 0.036098313 0.25552347
0001d0 d3 f5 69 be e2 de ca 3d e1 54 9a 3d 1f 1f e3 bd
       -0.22847681 0.09905793 0.075357206 -0.1108992
0001e0 4a 01 42 3c 46 8c 18 3e 84 ae db bd f2 fe 24 be
       0.011841128 0.1489726 -0.107266456 -0.16112879
0001f0 4a 4d 04 3e 35 8f 2a bd 3a ef 35 bd de ee 9a bd
       0.12920108 -0.04164048 -0.044417597 -0.075650916
000200 51 fb 05 be f7 ac a7 3d 6d 81 ea bc e3 ff 0b 3e
       -0.13084151 0.08187287 -0.028626168 0.13671832
000210 f6 ba 12 bd a3 8c 7d bd a8 29 15 3d d1 d1 e4 3d
       -0.03582283 -0.0619017 0.03641668 0.11172832
000220 f8 77 2b 3a 81 54 c5 3d 95 4f 89 bd 31 25 70 bd
       0.0006541009 0.096352585 -0.06704632 -0.05862922
000230 5e 77 07 3d 91 be c1 bd e8 ce e2 3d c0 54 ed 3d
       0.03307282 -0.09460176 0.110746205 0.115884304
000240 5b 74 45 bb c4 4f 2a 3c 71 ae 74 3e 60 2b 29 3e
       -0.0030129168 0.010394994 0.23894669 0.16520452
000250 31 fe 48 be 5a a5 90 bc 83 08 95 bc 58 07 d6 bd
       -0.19628216 -0.01765697 -0.018192535 -0.104506195
000260 a1 05 d4 bd 57 6b 38 3e 04 65 dd bc 1a 53 0a 3e
       -0.10352636 0.18009697 -0.027025707 0.13508263
000270 4c de f1 bc 88 93 52 be 53 29 2f 3d 21 6c 99 bd
       -0.029524945 -0.20564091 0.04276402 -0.07491327
000280 01 eb c9 3d 4f 87 a4 3d fd b9 21 bd 82 3b 10 bd
       0.098592766 0.080336206 -0.039484013 -0.035213
000290 c5 44 4a 3d dc fd 2c 3e b7 da 39 bd 85 bf ab bd
       0.04938199 0.16893715 -0.0453746 -0.08386139
0002a0 24 0f 40 3d d8 0f be bc ed c1 60 bd 6d 0b cc bc
       0.04688944 -0.023200914 -0.054872442 -0.024907792
0002b0 95 96 1f 3d 5f 4b 6b 3d a6 71 30 bd 29 30 ac 3d
       0.038961966 0.057444926 -0.043077134 0.08407623
0002c0 3f 78 ba 3d 24 86 45 be 81 c1 d9 3d 5e 51 06 be
       0.09104966 -0.19289452 0.10632611 -0.13116977
0002d0 b1 33 96 bd 55 64 fb 3b a1 8e ac 3d b8 c4 58 bc
       -0.07334078 0.0076718726 0.08425642 -0.013230495
0002e0 e1 23 3e bc 8e 63 08 bd c1 29 97 3d 01 13 84 bd
       -0.011605234 -0.033298068 0.07381011 -0.06448937
0002f0 ac 30 13 be 8e d7 3b 3c cb 38 eb 3d 27 ed fc bd
       -0.14374036 0.011464966 0.11485442 -0.12349921
000300 07 8d 4d 3d cb 55 37 bd 13 15 83 3d 5d 08 a6 3e
       0.050183322 -0.044759553 0.06400504 0.32428256
000310 47 80 ce 3d aa 16 47 bd 87 91 9d bd c2 18 c5 3d
       0.10083061 -0.0486056 -0.07693773 0.09623863
000320 c7 67 2d bd 7d e8 bf bd c3 4a 63 bd 3e 6b ff 39
       -0.042335298 -0.093705155 -0.05549122 0.00048717292
000330 a7 25 9c 3d d6 31 15 be cf e9 9d bd 12 93 1d 3e
       0.07624369 -0.14569792 -0.07710611 0.15388134
000340 35 e5 9e bc 85 5b ad 3c 9d 1f 2f 3e 4c 45 d6 3c
       -0.019396404 0.021161804 0.17101903 0.02615609
000350 f0 d4 d0 bd 53 ff 9d 3c 6b 0f b8 3d a8 a8 b6 be
       -0.101968646 0.019286787 0.08987316 -0.3567555
000360 f1 32 ec 3d 76 e3 4a 3e 7c 39 68 bc 28 e7 85 bd
       0.11533154 0.19813332 -0.014173862 -0.0653823
000370 47 25 d3 3d db 8c 3a 3e 71 23 a1 bc 59 57 8d bd
       0.103098445 0.18217795 -0.01967022 -0.06901426
000380 9f f4 23 3d 12 e7 c1 bd 05 4b e9 3d ea 3e 18 bd
       0.04002821 -0.09467901 0.11391262 -0.037169375
000390 88 56 54 3c b0 d6 53 bc f4 bf 32 3e 02 c1 48 3d
       0.012960084 -0.012929603 0.17456037 0.04901219
0003a0 b8 34 25 3c 00 1e 67 3d 66 c6 38 be a8 a6 c6 3d
       0.01008337 0.056425095 -0.18044433 0.09699756
0003b0 53 82 14 3d 6a 95 b0 3c b7 b8 db 3d 53 38 8e bd
       0.0362571 0.021555621 0.10728591 -0.06944337
0003c0 42 08 a7 bd 07 95 fb bc d3 7d 0e 3d 1e fd b4 bd
       -0.08155872 -0.03071071 0.034787964 -0.08837341
0003d0 1b c3 f8 3d c4 79 30 bd 1c ea ac bd 74 50 90 3c
       0.121465884 -0.043084875 -0.0844309 0.017616488
0003e0 fb 21 8a bd 5a ac 46 3d 83 7e 08 3d f6 bf 23 3d
       -0.067447625 0.04850421 0.033323776 0.03997799
0003f0 4c f9 3d bd d0 46 0b bd fb ba 08 3d d2 5b b4 bd
       -0.046380326 -0.03400308 0.033381443 -0.08806576

conv.1.lin_rel.bias f4 [64]
000000 e1 34 f8 bd 81 02 16 3e f5 80 c0 3d dc 0b d6 bc
       -0.12119461 0.14649393 0.093995966 -0.026128702
000010 5b ef 04 bb 14 f6 9b 3d b2 44 e0 bd 07 9d e2 3d
       -0.0020284269 0.07615295 -0.109506026 0.11065107
000020 c8 f8 93 bd 18 11 79 bd 37 08 04 bc ab fa 06 3e
       -0.07225186 -0.060807317 -0.008058599 0.1318156
000030 ed f3 98 bd cf 7f 21 bd c9 b6 94 3d 18 a0 b8 bc
       -0.074684 -0.03942853 0.07261426 -0.022537276
000040 ae 0f 94 3d 81 43 a1 3d 33 b1 60 3d eb d9 99 bd
       0.07229553 0.078742035 0.05485649 -0.07512268
000050 e9 6c 10 3e 9f 62 03 3d 82 14 81 3d bb e1 0f 3e
       0.14104046 0.032076474 0.0630274 0.14050953
000060 7f f4 02 3e 28 03 84 bc 56 65 8e bd 83 0e bd 3c
       0.1278858 -0.016114786 -0.06952922 0.023078209
000070 fc b7 7a 3d 26 8f c8 3d 25 c1 60 3d 3c 92 a4 3d
       0.061210617 0.097929284 0.054871697 0.080357045
000080 f8 fc 96 bd 91 90 82 3d 7c b3 49 bc 69 08 4e bd
       -0.07372469 0.0637523 -0.012310859 -0.05030099
000090 c2 7b 11 3d 51 59 94 3d d2 2a e3 3d 5e 5d a6 3d
       0.035518415 0.07243598 0.11092152 0.08123277
0000a0 9d 0c 6d 3d 66 43 ed bd 02 be 0e bd 48 5b c2 3d
       0.057873357 -0.11585121 -0.034849174 0.09490067
0000b0 90 49 ac bb 88 d6 c8 bc 9d 1c fc 3d 38 ea 1b 3e
       -0.005257793 -0.024516359 0.12310145 0.15226066
0000c0 90 3b 7e bd c5 30 c2 3c a6 0d b5 3b 78 61 be 3d
       -0.062068522 0.023704896 0.0055253087 0.092959344
0000d0 f7 8c 67 3d 6d 8b a5 3d 84 9c a7 bd e5 c1 9f 3d
       0.05653092 0.08083234 -0.0818415 0.07800654
0000e0 63 99 ce bc bf 5d b7 bd b4 42 ea 3d eb b6 46 3d
       -0.025219625 -0.089534275 0.11438504 0.048514288
0000f0 fd f3 5b 3b aa c2 0c 3d 40 bc fd bd 95 30 a3 3d
       0.0033562176 0.034365334 -0.123894215 0.07968251

conv.1.lin_root.weight f4 [64, 64]
000000 37 e5 10 be d5 32 e6 bd 0e 3c a9 3d 76 96 d4 bd
       -0.14149939 -0.11240164 0.08263408 -0.10380261
000010 67 44 1b 3d 4e 1a b8 bd 5f 5e 38 bd c6 be a2 3d
       0.03790703 -0.08989392 -0.045011874 0.079465434
000020 09 9c 0e bd 6c 04 71 be 6e 85 62 3d 6c 0a 0c 3e
       -0.034816775 -0.23536843 0.05530303 0.1367585
000030 23 dc 0e 3d a9 9d a4 3c 2f 62 31 3d ed f0 64 3e
       0.034877907 0.02009471 0.043306526 0.22357531
000040 01 01 a0 bc c0 8e f6 3d bd 6a dc 3d 95 be ce bc
       -0.019531729 0.12038946 0.10762546 -0.025237361
000050 eb 9f 5c bc 48 03 5a 3d ee 25 7c bd 99 e1 2e be
       -0.013465862 0.053225785 -0.06155961 -0.17078246
000060 8d 35 cd 3c 26 6a c6 3d b8 48 3d bd ac 63 31 bd
       0.025049949 0.09688215 -0.046211928 -0.043307945
000070 00 36 c8 bd 31 f7 d2 3d 1c bb da bc e7 94 00 be
       -0.09775925 0.10301054 -0.026700549 -0.12556802
000080 61 0f a5 3c ba 22 a2 bd eb 51 1d 3d 1b 80 80 bd
       0.020148935 -0.0791678 0.0384082 -0.06274434
000090 37 e8 84 3e 26 53 45 3e 59 07 a7 bd f7 af 79 3d
       0.25958416 0.1927 -0.08155698 0.06095883
0000a0 e3 23 7e 3e 45 f7 05 3d c0 9a a6 be 86 2f f1 bc
       0.24818377 0.032706518 -0.3253994 -0.029441606
0000b0 4c 8c 57 bd f2 d9 6a bd c1 8a 10 bd 33 07 ac 3d
       -0.052624032 -0.057336755 -0.035288576 0.08399811
0000c0 ef be 06 3c 45 aa 79 bd 80 5f 28 bd 14 3d 21 3e
       0.008224233 -0.060953397 -0.0411067 0.15745956
0000d0 d3 a8 90 3b b4 19 a9 3d 5b b5 34 be 0a 64 fa bc
       0.0044146567 0.082568556 -0.17647307 -0.03056528
0000e0 78 79 64 be bf 4d b3 3e d2 21 5d bd 1e d9 19 bd
       -0.22311962 0.35020253 -0.05398733 -0.037560575
0000f0 16 03 a7 3d cd 27 5b 3d 3e dd 16 be e7 a5 1c 3c
       0.081548855 0.053504754 -0.14732835 0.009561039
000100 99 3a 2f 3e 6c ca 87 bd 0c 16 a8 3d 23 cb fb be
       0.17112197 -0.06630406 0.0820733 -0.4917842
000110 5d 39 6c bd 5a a5 17 3e 13 28 71 bd 48 fb eb bd
       -0.057671893 0.1480917 -0.05887611 -0.115225375
000120 d4 b3 1c 3e bf 96 3a bc 95 28 7d 3d 7e f3 16 3e
       0.15302974 -0.01138848 0.06180628 0.14741322
000130 66 7b bf 3d aa 3c 27 3d 0c d5 cd 3b e8 75 d7 be
       0.09349708 0.040829338 0.0062815007 -0.42082143
000140 0b c9 61 bd c4 cc 9e 3d 5e 98 2d be 6d 9e 83 3d
       -0.05512337 0.077539 -0.16952655 0.06426702
000150 ff 43 4b be 33 8f 7d 3d ce 13 f4 3c da 28 96 3d
       -0.19850157 0.061904144 0.0297946 0.073320106
000160 f4 78 4a bd 26 1f 42 be a0 3f db 3d a4 71 37 bd
       -0.049431756 -0.18957195 0.10705495 -0.04478611
000170 c5 3c d8 bd 62 55 3f be fc 0a 03 be 22 1d 30 3d
       -0.10558466 -0.18684915 -0.12797159 0.042996533
000180 97 39 96 be 96 5b a2 bb 6f ec c6 3b ac c4 88 3d
       -0.29340813 -0.0049547656 0.0060706655 0.06678137
000190 d1 c7 9e 3c 84 03 b9 bd 41 98 48 3d f7 8c e7 3b
       0.01938239 -0.09033874 0.048973326 0.007066365
0001a0 2e 70 bf be 9a 43 0a bc fd 28 8d 3e 32 84 00 3c
       -0.37390274 -0.008438969 0.27570334 0.007844018
0001b0 c6 e3 30 be 65 a9 cf 3c b9 3b 97 bc da 9e 53 3e
       -0.17274389 0.025349328 -0.018461095 0.20666066
0001c0 1f 96 a9 bd e9 5a 8c be 33 08 98 3d 60 91 d6 be
       -0.082805865 -0.2741311 0.07423439 -0.41907787
0001d0 aa 79 82 bd ba 14 8e 3c cb 80 57 3d c0 7c 72 bd
       -0.06370862 0.017343868 0.05261306 -0.059201002
0001e0 86 63 66 3e 19 5b 08 3d 19 35 33 3d ae 0d 8f be
       0.22498903 0.033290002 0.04375181 -0.27940124
0001f0 de 71 55 be fa a4 c6 bd 70 f0 db 3c 87 60 eb bd
       -0.20844218 -0.096994355 0.026848048 -0.114930205
000200 01 12 53 bb 47 51 16 bd dd 62 8f 3d 82 a4 95 3e
       -0.0032206776 -0.036698606 0.070012785 0.29227072
000210 db 5e 5c 3a df 84 b7 3d 6d 94 01 bd e9 86 9e bd
       0.00084064686 0.0896089 -0.03163569 -0.07740576
000220 bf 51 48 3b d9 ac 72 3e 71 da 98 3d b1 78 51 3d
       0.0030566303 0.23698749 0.074635394 0.05114049
000230 5f bb c1 bd 12 75 ab bd b3 c1 d2 bc 8c 89 90 bd
       -0.09459566 -0.08371939 -0.025727129 -0.07057485
000240 dc e1 8a 3d 9b 46 d4 bd 69 be 3b 3e a4 d0 1e 3e
       0.067813605 -0.103650294 0.18334354 0.15509278
000250 59 ad 26 bd 9c d8 1c be da 16 47 be 02 70 2a bd
       -0.04069266 -0.15317005 -0.19442311 -0.041610725
000260 68 14 4e 3e a2 54 69 3d 3b 0b a2 bd 16 db 0f be
       0.20124972 0.056965478 -0.07912298 -0.14048418
000270 73 78 de bd 50 2a d8 bd d9 8b b1 bb f1 09 2e 3b
       -0.108628176 -0.105549455 -0.0054182825 0.0026556219
000280 3d 02 da 3a 42 04 c8 bb cc f2 18 be a1 38 97 bd
       0.0016632747 -0.006104023 -0.1493637 -0.07383848
000290 b7 3b 9c 3d 0f 96 9e 3d db 48 53 bd 51 8c de 3c
       0.07628577 0.07743465 -0.051583152 0.027166517
0002a0 93 eb a7 3d ae 4d 53 bd e1 91 f0 bb db 63 aa bd
       0.08199229 -0.051587753 -0.007341609 -0.08319827
0002b0 dc 61 1c 3e 85 52 b8 bd 96 9f 64 bd 90 a4 41 be
       0.15271705 -0.09000114 -0.055816256 -0.18910432
0002c0 be 1b a8 3d 4d f6 ec bd ca 3e cb bb 37 eb b3 bd
       0.082084164 -0.11570416 -0.0062025534 -0.08785098
0002d0 87 78 31 bc f4 3d 1e bd e0 fe df bc 04 fd cc bc
       -0.010831959 -0.0386333 -0.027343214 -0.025022991
0002e0 30 f0 42 3d 19 cc 18 3e 69 c0 6e 3c 48 b4 a9 bc
       0.047592342 0.14921607 0.014572241 -0.020715848
0002f0 f2 6d d6 bb 01 cd 5c 3d f3 5c 0f be 64 d6 97 bd
       -0.006543868 0.053906444 -0.14000301 -0.07413939
000300 79 18 e9 bc 55 3a 0c be 7d fc 6c bd 1c e4 66 3e
       -0.028454052 -0.13694127 -0.05785798 0.22547954
000310 fb 78 26 bd 17 ae 58 bd 2b a6 86 bd 79 cf cd 3b
       -0.04064272 -0.0529004 -0.06574663 0.006280836
000320 9a 97 4b bd f1 e1 83 3e 10 98 d5 3d 17 a8 b2 bd
       -0.049705125 0.25758317 0.10429394 -0.08723467
000330 09 f5 f9 bd 92 1e 9a 3c 53 84 38 3c 28 b5 ac bd
       -0.1220494 0.018813405 0.011262017 -0.0843299
000340 c7 99 db bd cb e4 9b bd c8 e5 79 3e 5f d4 cb bd
       -0.1072269 -0.07611998 0.24404061 -0.09952616
000350 40 d4 4a 3e 32 51 02 be 2e 12 5c 3e c4 68 84 3d
       0.1980753 -0.12726286 0.2149131 0.06465295
000360 aa f9 43 3e dd 3f df 3c 26 0a dd bd 6c 91 08 be
       0.19138208 0.027252132 -0.10792951 -0.13336724
000370 18 e5 80 bd ac 51 cc 3e 15 ba a0 bd 90 94 0d 3e
       -0.06293696 0.3990606 -0.07847992 0.13826203
000380 a9 9f a5 bd e4 60 0e 3e a2 85 75 bd ee e8 f3 3d
       -0.080870934 0.13904148 -0.059941895 0.11909662
000390 41 87 6f bd f2 ba b0 bc 1c 30 8d bd 29 41 c4 bd
       -0.058478598 -0.021573517 -0.06893942 -0.09582741
0003a0 ab db 64 3c 7b f2 5e 3d 4d 62 b7 bd 1c 4d 5b 3d
       0.013968389 0.054430466 -0.08954296 0.053540334
0003b0 36 1d af bd c2 91 27 be 58 e4 14 3d 4c c8 9c bd
       -0.085504934 -0.16364196 0.036350578 -0.07655391
0003c0 4f 62 42 bd c1 36 26 3d 87 23 92 bc 49 7c 20 b8
       -0.047457036 0.04057956 -0.017839206 -3.8262722e-05
0003d0 71 53 a0 bd a2 66 96 bc 62 30 b9 bd fb b9 43 3d
       -0.07828415 -0.018359486 -0.090424314 0.047784787
0003e0 bf fd 00 be 11 1d 65 3d eb cf 5b 3c 72 4b 15 be
       -0.12596796 0.055935923 0.013416271 -0.14579561
0003f0 76 35 04 bd ed e3 ab bc 46 c9 18 be 0e b5 ab 3b
       -0.032277547 -0.020982707 -0.1492053 0.0052400893
