checkpoints/aids/model_AIDS.pt_l2_emb64_hid64_netot0.1.pt (torch, 99772 bytes, 9 tensors)

virtual_embedding f4 [64]
0.35210934 0.8213952 0.39110732 0.26682836 0.38944802 0.70542645 0.40763533 0.820069
0.2124049 0.6677725 0.79356825 0.2689784 0.7120371 0.5107091 0.6002635 0.5147783
0.12036524 0.722275 0.17860673 0.92218435 0.71678364 0.7500998 0.60167265 0.66069645
0.24979405 0.65844035 0.44109502 0.9426227 0.70329094 0.43187752 -0.17225201 -0.016630774
0.20492573 0.6464533 0.7307722 0.25165164 0.28370467 0.63109136 0.8780379 0.29636148
0.4051163 0.7596424 0.5652103 0.39781892 0.43444702 0.50638855 0.522055 0.37969664
0.4005077 0.80464154 0.4829741 0.5354836 -0.016346304 0.7937729 0.7669769 0.69566035
0.691152 0.426496 0.8282263 0.48186234 0.39081898 0.7561832 0.73287404 0.3406994
00000000: ad47 b43e f546 523f 383f c83e ba9d 883e
00000010: bb65 c73e d496 343f 94b5 d03e 0bf0 513f
00000020: ac80 593e 23f3 2a3f 4a27 4b3f 89b7 893e
00000030: 1048 363f d5bd 023f deaa 193f 83c8 033f
00000040: 0d82 f63d 04e7 383f afe4 363e 4614 6c3f
00000050: 227f 373f 8a06 403f 3807 1a3f 6723 293f
00000060: 03ca 7f3e 8c8f 283f 35d7 e13e b94f 713f
00000070: e00a 343f 0d1f dd3e d562 30be 433d 88bc
00000080: 0dd8 513e f77d 253f e313 3b3f 7cd8 803e
00000090: bd41 913e 348f 213f 18c7 603f b1bc 973e
000000a0: 676b cf3e ed77 423f 9fb1 103f ecae cb3e
000000b0: d76f de3e aea2 013f 65a5 053f 9967 c23e
000000c0: 580f cd3e fdfc 4d3f 6248 f73e 7415 093f
000000d0: afe8 85bc b334 4b3f 9958 443f cc16 323f
000000e0: 56ef 303f af5d da3e a406 543f a9b6 f63e
000000f0: 6d19 c83e 3995 413f a29d 3b3f 2770 ae3e

embed_transform.0.weight f4 [64, 166]
-0.01498569 -0.010916452 -0.02329427 -0.12244705 -0.06714772 0.024168573 -0.107481554 0.03998415
0.010492466 0.1089582 -0.067531094 0.015006819 -0.08536911 0.10198587 -0.114608355 -0.07216868
-0.06262266 0.017420879 0.0028241624 0.028457187 -0.13882598 -0.03648819 0.020364035 0.04051013
-0.07125353 0.008212767 -0.03899055 0.003938449 -0.019959608 0.044162873 -0.030254344 -0.008394369
0.012069866 -0.103972256 0.057442337 -0.13712813 -0.045307048 0.066717744 -0.048561886 -0.003103254
-2.643416e-05 0.04811324 -0.056448586 -0.004024306 -0.011830903 -0.031700745 0.04323894 -0.060361166
-0.014150942 -0.011960492 0.012978295 0.07173882 0.009300629 0.08561746 -0.04364416 -0.021360839
0.07058508 -0.03220608 -0.06848784 -0.040075228 0.010978386 0.03190377 0.06235066 -0.0034698218
0.07373682 -0.03952001 -0.014833406 -0.015986212 0.023908267 0.018083349 0.021922551 -0.025429659
0.027417643 0.022975609 0.010143908 0.09230512 0.06021434 -0.070401736 0.021822542 -0.058482945
-0.041163266 0.05584323 0.07787524 -0.016474465 -0.030387303 0.02385743 0.041362204 -0.07178224
0.03442431 -0.18050341 0.048547603 0.00035679145 0.03226624 0.037109934 -0.054413766 0.008601687
0.017163934 0.018245075 0.021897 -0.062866665 0.052444816 0.029114818 -0.13257292 -0.10275218
0.04004161 0.04121568 -0.11961888 -0.0016961786 -0.012376672 -0.061080582 -0.027869513 -0.0138756
0.14465128 -0.08096436 -0.13248675 0.08905861 -0.092400774 -0.057029273 0.066556655 0.008012696
-0.17416771 0.16375789 0.032941602 -0.246178 -0.15540501 0.090771 -0.14694509 0.08079503
-0.07135453 0.101834975 0.19651522 0.15926315 -0.02282259 -0.102036506 0.0067698113 -0.023236668
0.09849954 -0.042371757 0.061076913 0.11939159 0.101585 0.19155146 0.042782165 -0.10518488
-0.13745147 -0.0031201479 -0.0394805 0.108242214 0.07007087 0.09514123 -0.20955774 -0.14408235
0.06386922 0.08080964 0.111895405 -0.06575446 -0.055492453 -0.20846064 -0.027946398 0.00027804848
-0.020012937 -0.030930793 -0.046341695 -0.07943058 -0.060140755 0.030204732 -0.026546868 -0.0018281997
0.04847982 -0.118508235 -0.07041138 -0.02833332 -0.13320147 -0.0022762856 0.05955311 0.07197449
0.057922494 -0.050766192 -0.12619323 -0.0917656 -0.10985646 -0.003563288 -0.06668888 0.05114725
0.030143851 -0.1195295 -0.28581563 -0.06964366 0.033580884 -0.019371875 -0.008503044 0.053106148
0.023180699 -0.019065065 0.045796614 0.04445484 -0.04522672 -0.019842051 -0.03405304 0.023555858
-0.18620887 0.032367654 -0.058670774 -0.053283684 -0.016127815 0.034720786 -0.013682224 0.23612462
-0.04167383 0.052353166 0.057870377 0.0020243886 0.100669816 0.019363888 -0.015614541 0.010366187
-0.04674213 0.0021901594 0.07344774 -0.08070944 -0.015827859 0.06536316 0.05005231 -0.020368205
0.02306738 0.053455625 -0.0029399465 -0.03841987 0.027915679 -0.003617317 0.044100974 -0.020909604
0.05821138 0.02323155 0.040949166 0.00036795586 -0.036061812 0.026074026 0.02034091 -0.00012460395
-0.031287536 0.17401673 0.059630062 0.0013186714 0.04519582 -0.07826905 -0.021300357 -0.013268057
0.10586743 -0.03802059 -0.05846016 0.043784793 0.028891332 -0.070693344 0.006992346 -0.1882655
00000000: 8a86 75bc ebda 32bc a0d3 bebc 85c5 fabd
00000010: be84 89bd 2cfd c53c 4a1f dcbd 6cc6 233d
00000020: 98e8 2b3c 7a25 df3d be4d 8abd 29df 753c
00000030: 00d6 aebd f8dd d03d c9b7 eabd 2ccd 93bd
00000040: 4f40 80bd 3bb6 8e3c 9515 393b 0c1f e93c
00000050: 6628 0ebe a474 15bd 7ad2 a63c f3ed 253d
00000060: 5fed 91bd d78e 063c 8eb4 1fbd 1b0e 813b
00000070: 5582 a3bc 21e4 343d f5d7 f7bc 8988 09bc
00000080: b0c0 453c 68ef d4bd a848 6b3d 516b 0cbe
00000090: e293 39bd 50a3 883d d4e8 46bd f65f 4bbb
000000a0: edbe ddb7 6412 453d a236 67bd 53de 83bb
000000b0: 67d6 41bc a4d8 01bd 511b 313d 453d 77bd
000000c0: 5ad9 67bc f0f5 43bc eaa2 543c cdeb 923d
000000d0: aa61 183c 3558 af3d 38c4 32bd edfc aebc
000000e0: e98e 903d 86ea 03bd 5a43 8cbd ec25 24bd
000000f0: b0de 333c 87ad 023d 6863 7f3d f365 63bb
00000100: 5403 973d bcdf 21bd d007 73bc 84f5 82bc
00000110: 45db c33c 8823 943c ec96 b33c dc51 d0bc
00000120: f79a e03c 5837 bc3c a232 263c 770a bd3d
00000130: 50a3 763d c92e 90bd 30c5 b23c d08b 6fbd
00000140: d09a 28bd dfbb 643d 0e7d 9f3d 75f5 86bc
00000150: cbee f8bc a870 c33c 6a6b 293d 9102 93bd
00000160: 8100 0d3d e3d5 38be dad9 463d bd0f bb39
00000170: 9b29 043d 9600 183d f8e0 5ebd 17ee 0c3c
00000180: 619b 8c3c b276 953c 5661 b33c 3dc0 80bd
00000190: 60d0 563d 3382 ee3c 32c1 07be bc6f d2bd
000001a0: ac02 243d c6d1 283d befa f4bd 4f52 deba
000001b0: 86c7 4abc a22f 7abd 9b4e e4bc 7c56 63bc
000001c0: 771f 143e a4d0 a5bd 9baa 07be 5c64 b63d
000001d0: 9e3c bdbd 8797 69bd db4e 883d af47 033c
000001e0: 0559 32be 26b0 273e c6ed 063d 1616 7cbe
000001f0: 7e22 1fbe 25e6 b93d c678 16be dd77 a53d
00000200: 5322 92bd db8e d03d 493b 493e e115 233e
00000210: 71f6 babc 84f8 d0bd 4bd5 dd3b d35a bebc
00000220: 20ba c93d 028e 2dbd c92b 7a3d 9483 f43d
00000230: cc0b d03d 1126 443e 5a3c 2f3d 2c6b d7bd
00000240: 14c0 0cbe 657b 4cbb 4eb6 21bd 18ae dd3d
00000250: 5181 8f3d 68d9 c23d 4e96 56be 538a 13be
00000260: decd 823d 867f a53d 6b29 e53d 46aa 86bd
00000270: 0e4c 63bd b576 55be d8ef e4bc 09c7 9139
00000280: 2cf2 a3bc 9362 fdbc cad0 3dbd 80ac a2bd
00000290: 2756 76bd ea6f f73c d178 d9bc 34a0 efba
000002a0: c792 463d 72b4 f2bd d733 90bd 471b e8bc
000002b0: f765 08be bc2d 15bb f6ed 733d 5d67 933d
000002c0: 2340 6d3d 36f0 4fbd cc38 01be 9aef bbbd
000002d0: 6cfc e0bd 0d86 69bb 2e94 88bd c77f 513d
000002e0: 3df0 f63c e2cb f4bd 6d56 92be 56a1 8ebd
000002f0: 1c8c 093d c4b1 9ebc 5a50 0bbc d585 593d
00000300: 73e5 bd3c 572e 9cbc 3b95 3b3d 4716 363d
00000310: a73f 39bd cc8b a2bc 337b 0bbd 37f8 c03c
00000320: 8aad 3ebe f293 043d c450 70bd fe3f 5abd
00000330: 7b1e 84bc 6237 0e3d 682b 60bc a7ca 713e
00000340: 2eb2 2abd 4670 563d 7d09 6d3d 9bab 043b
00000350: fa2b ce3d 04a1 9e3c 22d4 7fbc f1d6 293c
00000360: ad74 3fbd c788 0f3b c56b 963d fe4a a5bd
00000370: 6da9 81bc 1fdd 853d a703 4d3d 39db a6bc
00000380: cdf7 bc3c 49f4 5a3d 1eac 40bb 275e 1dbd
00000390: 6caf e43c 8210 6dbb 39a3 343d 9e4a abbc
000003a0: 0e6f 6e3d 1750 be3c 50ba 273d 33ea c039
000003b0: 8db5 13bd 3299 d53c fba1 a63c 1ea8 02b9
000003c0: 5c27 00bd 7131 323e a73e 743d 45d7 ac3a
000003d0: 411f 393d 864b a0bd 167e aebc 4462 59bc
000003e0: 06d1 d83d 7abb 1bbd ec73 6fbd af57 333d
000003f0: 84ad ec3c acc7 90bd 0d20 e53b acc8 40be

embed_transform.0.bias f4 [64]
0.01612041 0.0013957339 0.0049489345 -0.054661695 0.02601268 0.030351376 0.005070985 -0.0051775924
0.010094673 0.05410203 0.01756517 -0.039627485 -0.014636629 -0.05380507 0.014237989 -0.037970293
0.0114325415 0.007574604 0.041207638 -0.018031895 -0.0076569896 0.0144195035 -0.03153509 -0.02940234
-0.014608848 -0.026896931 -0.016002007 0.022291942 0.0009766191 0.026240766 -0.008629349 0.014957084
-0.0402259 0.021420829 0.05078253 0.023152573 -0.044520732 -0.014087785 -0.05154209 -0.049712814
0.03215155 0.023361756 0.029384876 0.02400284 -0.010206706 0.022488873 -0.03228591 -0.032703962
0.0010869362 -0.02562419 0.029918723 -0.0574179 0.04548763 -0.013247178 -0.00022728276 0.0469371
-0.023134148 -0.012793495 0.018275153 -0.015654705 0.0057505416 0.03142804 0.013135939 0.022789095
00000000: f30e 843c 0ff1 b63a ac2a a23b f1e4 5fbd
00000010: 8b18 d53c 73a3 f83c 812a a63b cba8 a9bb
00000020: 2164 253c 179a 5d3d d5e4 8f3c 6e50 22bd
00000030: 79ce 6fbc b562 5cbd 7446 693c bd86 1bbd
00000040: 8e4f 3b3c 6234 f83b 57c9 283d a0b7 93bc
00000050: 7ce7 fabb c83f 6c3c f02a 01bd 2ddd f0bc
00000060: f359 6fbc f456 dcbc a416 83bc 979d b63c
00000070: e601 803a e0f6 d63c 1d62 0dbc 8f0e 753c
00000080: eac3 24bd bc7a af3c 5801 503d 77aa bd3c
00000090: 5f5b 36bd 74d0 66bc cc1d 53bd aa9f 4bbd
000000a0: 58b1 033d 2761 bf3c 8db8 f03c 9ba1 c43c
000000b0: 073a 27bc 963a b83c 3b3e 04bd 97f4 05bd
000000c0: 8777 8e3a d2e9 d1bc 1c18 f53c 082f 6bbd
000000d0: 3d51 3a3d b10a 59bc c052 6eb9 1e41 403d
000000e0: d383 bdbc cf9b 51bc c6b5 953c 4c3e 80bc
000000f0: 0a6f bc3b b0ba 003d 1f38 573c 32b0 ba3c

conv.0.lin_rel.weight f4 [64, 38]
-0.03374339 0.0032365816 0.11419278 0.11342129 -0.24862693 0.27124685 -0.099912085 0.06188796
-0.03179907 -0.049622037 -0.011295617 -0.070578195 -0.13573015 0.073630765 -0.11474067 0.044867523
0.42261195 0.13708925 0.007594666 0.22944736 -0.045756448 0.04385943 0.1314396 0.012041937
-0.116287924 -0.16110368 0.08240239 -0.15565032 0.1349937 -0.12495176 -0.15513754 0.107010566
-0.056591872 -0.12287382 0.052140076 -0.09669506 0.04971753 -0.052909356 -0.015385891 0.035382457
0.016943747 -0.024795048 -0.12294319 -0.024682436 -0.003374208 -0.052723527 0.14387743 0.08176105
-0.11238793 0.0461757 -0.072773516 -0.095632255 0.028121678 -0.13368255 -0.10956153 0.04199023
-0.02497574 0.047441185 -0.013621918 -0.04835709 0.07868721 0.21490245 -0.06638763 0.16122591
-0.04837584 -0.14916791 -0.101863876 0.20240642 0.0013775445 0.17593755 -0.09976349 0.043795876
-0.06698827 0.02822339 -0.031168757 -0.1447874 0.07962549 -0.27864075 0.039613474 -0.13131212
0.2623398 -0.19272561 0.028472714 0.056769297 -0.14184324 -0.250967 -0.14537965 -0.005468576
-0.111661084 -0.004703459 -0.09452062 0.13825673 -0.03897128 -0.19549643 -0.1257893 -0.03476304
0.08598947 -0.16369909 -0.033069175 -0.22358902 -0.082034186 0.11435245 -0.050196733 0.050723325
0.10869683 -0.08429869 -0.12972367 -0.08732465 -0.00776328 0.0331737 0.022437308 0.30310583
0.027666088 -0.110106766 -0.28693476 -0.014524033 0.068850756 0.18829057 0.19607687 0.10346772
0.1540275 0.2914095 -0.09888021 0.3982237 0.0360517 -0.082054205 -0.061883293 0.14966936
0.023918808 -0.03164363 -0.074485295 0.06599663 -0.045490324 0.17427558 -0.13676126 0.09993636
-0.058178984 -0.1321404 0.15148501 0.107218325 -0.11880951 -0.063482165 0.10267084 0.16480815
0.08668536 -0.035073817 -0.015800048 -0.036663346 -0.12046519 0.1095546 0.020879079 -0.040737405
0.12717699 0.15299477 -0.0046071443 -0.013181302 -0.04002071 0.13041194 -0.014879656 0.05967606
0.13704726 -0.0177559 0.118931994 0.057218593 0.2891334 -0.008769131 -0.080038495 0.11621756
0.019132266 0.112206995 -0.10573996 0.013410242 0.03806547 -0.10022132 0.2337925 -0.01351233
0.0948405 0.1506874 -0.08041314 -0.071016245 0.13895386 -0.13474467 0.13244772 0.12293385
0.00020479345 -0.08000496 0.087053746 -0.0031717187 0.030778335 -0.026490802 -0.12694186 0.103931755
-0.12770803 0.097279556 0.14622584 0.0840044 0.006646835 0.06863543 0.13516478 0.2336454
0.03358817 0.10414647 0.049743768 -0.24437992 0.110076405 -0.1390061 0.03187307 -0.08411453
-0.017630493 -0.18992597 -0.15814538 -0.12056504 -0.10197801 0.014057564 -0.14811106 0.08132084
-0.06740293 0.08151306 -0.14838375 0.14225495 -0.114701085 -0.1430864 0.057833333 0.022096032
0.024038408 0.16710538 -0.062055368 -0.12900756 0.09700715 0.15850098 0.18735464 0.07147541
-0.07603845 0.19037157 0.095379256 0.09427691 -0.124528766 -0.023319766 0.06980502 -0.12583059
-0.16422163 0.13449584 0.06631908 0.002814284 -0.033254836 0.12461827 0.026529895 -0.028603695
0.06493939 0.07179538 -0.16087084 -0.14655814 -0.11776162 -0.10824441 -0.011785978 0.08673962
00000000: 8236 0abd d41c 543b e7dd e93d 6c49 e83d
00000010: 0f98 7ebe dee0 8a3e b59e ccbd 3b7e 7d3d
00000020: be3f 02bd 7a40 4bbd 4011 39bc 4d8b 90bd
00000030: d8fc 0abe bacb 963d 28fd eabd 02c7 373d
00000040: 9860 d83e 2061 0c3e addc f83b 40f4 6a3e
00000050: 1d6b 3bbd f2a5 333d 1a98 063e 8b4b 453c
00000060: 5d28 eebd 5df8 24be 96c2 a83d cc62 1fbe
00000070: ca3b 0a3e b5e6 ffbd 60dc 1ebe 5b28 db3d
00000080: e1cc 67bd 45a5 fbbd d590 553d 0f08 c6bd
00000090: 9ca4 4b3d 7bb7 58bd 1b15 7cbc 32ed 103d
000000a0: 9dcd 8a3c fc1e cbbc a4c9 fbbd d232 cabc
000000b0: d121 5dbb a0f4 57bd 9b54 133e 5672 a73d
000000c0: a52b e6bd bb22 3d3d 480a 95bd d8da c3bd
000000d0: 6f5f e63c 14e4 08be cc61 e0bd f3fd 2b3d
000000e0: ec99 ccbc b051 423d 772e 5fbc 1612 46bd
000000f0: c326 a13d 630f 5c3e 3df6 87bd 6818 253e
00000100: bf25 46bd 79bf 18be 029e d0bd a143 4f3e
00000110: b98e b43a f928 343e cd50 ccbd 4e63 333d
00000120: 2531 89bd bd34 e73c 9f55 ffbc 2643 14be
00000130: b012 a33d 00aa 8ebe bd41 223d af76 06be
00000140: 6751 863e dd59 45be 9c3f e93c ec86 683d
00000150: 5b3f 11be bf7e 80be 67de 14be be31 b3bb
00000160: 91ae e4bd 791f 9abb 0794 c1bd 2c93 0d3e
00000170: 59a0 1fbd 3730 48be e9ce 00be b063 0ebd
00000180: 3f1b b03d bca0 27be 8b73 07bd 85f4 64be
00000190: 8a01 a8bd 9e31 ea3d 179b 4dbd 43c3 4f3d
000001a0: 729c de3d cba4 acbd 48d6 04be 44d7 b2bd
000001b0: 1d63 febb 25e1 073d 72ce b73c b030 9b3e
000001c0: fea3 e23c a87f e1bd 1de9 92be 36f6 6dbc
000001d0: a001 8d3d 3ecf 403e 60c8 483e e2e6 d33d
000001e0: 63b9 1d3e a033 953e b581 cabd fae3 cb3e
000001f0: f3aa 133d 090c a8bd 5679 7dbd ed42 193e
00000200: 60f1 c33c c09c 01bd bf8b 98bd 3e29 873d
00000210: 1054 3abd 4c75 323e 250b 0cbe 6fab cc3d
00000220: 164d 6ebd d04f 07be e31e 1b3e 4895 db3d
00000230: 6652 f3bd f002 82bd 1745 d23d 78c3 283e
00000240: 1888 b13d 90a9 0fbd 1a6f 81bc 4e2c 16bd
00000250: 74b6 f6bd 2a5e e03d 9a0a ab3c 44dc 26bd
00000260: af3a 023e a9aa 1c3e 87f7 96bb 63f6 57bc
00000270: c2ec 23bd b58a 053e cdc9 73bc e26e 743d
00000280: 1e56 0c3e d274 91bc 9e92 f33d 0b5e 6a3d
00000290: 4b09 943e 67ac 0fbc 39eb a3bd 7903 ee3d
000002a0: 45bb 9c3c c8cc e53d 318e d8bd a2b6 5b3c
000002b0: 8aea 1b3d d640 cdbd 4d67 6f3e d262 5dbc
000002c0: bc3b c23d cc4d 1a3e a5af a4bd f770 91bd
000002d0: ec49 0e3e 82fa 09be 60a0 073e bec4 fb3d
000002e0: d3bd 5639 a4d9 a3bd 3c49 b23d 9cdc 4fbb
000002f0: d922 fc3c 3d03 d9bc 0cfd 01be 2cda d43d
00000300: e5c5 02be 813a c73d 3abc 153e 800a ac3d
00000310: b1cd d93b bb90 8c3d a368 0a3e bd40 6f3e
00000320: c093 093d bf4a d53d 1fc0 4b3d bb3e 7abe
00000330: bd6f e13d 9d57 0ebe 568d 023d 3d44 acbd
00000340: d36d 90bc f47b 42be ddf0 21be ceea f6bd
00000350: d9d9 d0bd b251 663c 6daa 17be 8a8b a63d
00000360: 8c0a 8abd 52f0 a63d e9f1 17be 48ab 113e
00000370: 67e8 eabd 3e85 12be a5e2 6c3d bd02 b53c
00000380: 32ec c43c ac1d 2b3e c52d 7ebd 8f1a 04be
00000390: afab c63d 154e 223e e5d9 3f3e b361 923d
000003a0: 0cba 9bbd c4f0 423e 3356 c33d 4114 c13d
000003b0: f008 ffbd 1809 bfbc eff5 8e3d bcd9 00be
000003c0: b729 28be 47b9 093e 4cd2 873d da6f 383b
000003d0: 3936 08bd dd37 ff3d 3955 d93c 4c52 eabc
000003e0: f1fe 843d 7509 933d 53bb 24be 5613 16be
000003f0: 012d f1bd 3faf ddbd fa19 41bc 8ba4 b13d

conv.0.lin_rel.bias f4 [64]
-0.12394849 0.08144283 0.054737356 -0.1220473 -0.18412228 0.14044744 -0.13583858 -0.039022975
-0.025806926 -0.0007440818 0.09119042 -0.044167265 -0.03964471 0.008266252 -0.13479301 0.0041427743
-0.14593956 -0.1529769 -0.06083887 0.1060748 -0.11381033 -0.052758384 -0.0006350682 0.11593683
-0.10984421 -0.057930917 0.13777515 0.05664243 0.03347829 0.11676394 0.101353005 0.13376892
0.13272041 -0.23414618 0.0355392 0.047745112 -0.08782378 -0.097396605 -0.17962384 0.055991363
-0.1793761 -0.007624108 0.14738545 0.053887744 0.06038945 -0.007977118 -0.05674087 0.061351564
0.096322715 -0.12846847 0.07849652 -0.19490182 -0.18436328 -0.030267138 0.16275634 -0.015372406
0.08233239 -0.070344 -0.019541183 0.10382023 0.08468884 -0.027604667 -0.07592791 0.09145484
00000000: b5d8 fdbd 80cb a63d 4734 603d eff3 f9bd
00000010: 8d8a 3cbe 74d1 0f3e 4519 0bbe 8ed6 1fbd
00000020: 0c69 d3bc 7c0e 43ba 0bc2 ba3d bce8 34bd
00000030: 7e62 22bd 2d6f 073c 2e07 0abe 1cc0 873b
00000040: 2e71 15be faa5 1cbe 2e32 79bd bf3d d93d
00000050: 6415 e9bd 2d19 58bd b57a 26ba 4a70 ed3d
00000060: 00f6 e0bd f848 6dbd ee14 0d3e e501 683d
00000070: 8820 093d ef21 ef3d 2a92 cf3d b8fa 083e
00000080: dce7 073e 04c4 6fbe 8d91 113d 6190 433d
00000090: f4dc b3bd df77 c7bd 50ef 37be 3357 653d
000000a0: 5eae 37be a7d3 f9bb 36ec 163e 65b9 5c3d
000000b0: ee5a 773d 75b2 02bc 1d69 68bd c74b 7b3d
000000c0: d844 c53d 3d8d 03be c9c2 a03d 5894 47be
000000d0: bac9 3cbe caf2 f7bc 99a9 263e 8bdc 7bbc
000000e0: e29d a83d 8410 90bd d514 a0bc b39f d43d
000000f0: 5871 ad3d 2f23 e2bc 1880 9bbd ad4c bb3d

conv.0.lin_root.weight f4 [64, 38]
0.14545949 -0.13031173 -0.19911088 0.031229557 0.028418735 0.22792195 -0.17797689 0.018698549
0.10723823 0.02145687 -0.17340839 -0.07698881 0.0036493642 0.25518188 -0.12527916 0.0983443
-0.16236505 -0.05043337 0.0015465533 -0.16099858 0.113529146 0.07798263 -0.05110233 -0.05711413
0.12468644 0.093783505 -0.034908608 0.03931813 0.044034142 -0.13027422 0.14370446 -0.14095587
0.07386174 0.18678068 0.024332087 -0.08316003 -0.13642822 0.10718518 -0.05130528 -0.050170556
-0.048833713 -0.09555475 0.34856066 -0.10103203 -0.065605484 -0.1512474 -0.13507621 0.04576164
-0.0111558745 -0.07593521 0.034407523 -0.069726326 -0.08089655 -0.052169576 -0.117351614 0.029390605
0.3381609 -0.20127709 -0.11022024 -0.09421288 0.14258914 -0.026043825 0.07198982 -0.12434794
-0.04546889 -0.03234155 0.07755428 0.042483255 0.15114725 -0.12080642 0.14409228 -0.042536926
-0.15584365 -0.19561774 0.10603246 -0.13748291 -0.09305017 -0.07494137 -0.062732235 0.14374727
-0.14038265 0.12927006 -0.18837327 0.13529658 -0.1451444 -0.18006954 -0.17542854 0.07030905
0.06757163 0.39151838 0.07595726 0.023664623 0.27557397 0.12715228 0.02313378 -0.051941782
0.094350934 0.033988763 -0.12693803 0.082160704 0.06793618 0.026945116 0.07958307 -0.06718914
-0.15851352 0.091086425 0.011453108 -0.19675133 -0.12685043 -0.21823308 0.06424844 0.033484373
0.041618515 0.15953287 -0.12733375 -0.4622115 0.052250277 -0.16539486 0.118840985 0.28675035
-0.040616736 -0.054849066 0.033883467 0.085609436 -0.045423117 -0.05849915 0.014222958 -0.22306213
0.11128721 -0.13703291 0.28768075 0.17730552 0.28243765 -0.02755634 -0.08306795 0.0040295688
0.22903123 0.1659013 0.119559795 -0.016607655 0.06406806 -0.08891454 0.0050441246 0.16515572
-0.13224256 -0.07958623 -0.028925572 -0.15121545 -0.21057025 0.0031393217 -0.019984817 0.106174015
-0.19637145 0.047479216 -0.076392025 0.17295517 0.051768567 0.026103642 -0.1760022 0.10176123
0.13523537 0.18789437 -0.10618875 0.32894862 -0.13403419 -0.0443746 0.11409549 0.04242054
0.15212482 -0.021017635 0.062405962 0.08162605 -0.0681525 0.14721899 -0.07357863 -0.18285926
-0.062153507 0.050652962 0.05226189 -0.046027184 -0.032277502 0.044727463 0.06033101 0.01947694
0.18715014 -0.043603174 0.10967679 -0.10774558 -0.10050137 -0.07270914 0.01598738 0.111058064
0.03522777 -0.48864925 -0.19539346 -0.09648691 -0.105304785 -0.31754264 0.05744078 0.24899703
0.095168225 -0.14585915 0.27743942 -0.04082826 0.07918339 0.028920498 0.10096007 -0.059466086
0.12542224 0.17648599 0.199752 0.054141942 0.119431406 -0.21007092 -0.038636874 0.13597491
0.15499058 0.036335845 -0.006429734 0.015790695 -0.042990454 0.11548381 -0.15639584 0.1487089
0.13877138 -0.058169108 -0.06971618 -0.0013565237 -0.15649754 -0.2550986 -0.036910303 0.14539032
0.29007754 -0.22246592 -0.21331501 -0.06639873 0.03601348 0.13566704 -0.16255197 -0.08298854
-0.05449148 -0.017046843 -0.14714442 -0.03835669 0.16513723 -0.048230764 0.12624905 -0.28206465
-0.03237152 0.05187074 -0.14278798 0.18725847 -0.19367675 -0.079620615 -0.13304894 -0.017144289
00000000: 55f3 143e 7070 05be b9e3 4bbe 21d5 ff3c
00000010: 68ce e83c 5f64 693e 933f 36be b32d 993c
00000020: b89f db3d 51c6 af3c f891 31be 4fac 9dbd
00000030: 2c2a 6f3b 33a7 823e 2e49 00be bd68 c93d
00000040: 0643 26be 3993 4ebd b8b5 ca3a d0dc 24be
00000050: f881 e83d 5bb5 9f3d ad50 51bd 82f0 69bd
00000060: 9b5b ff3d 9111 c03d 54fc 0ebd 0c0c 213d
00000070: 255d 343d 9b66 05be 4327 133e bc56 10be
00000080: d344 973d 6f43 3f3e 1654 c73c ce4f aabd
00000090: d7b3 0bbe e783 db3d 7c25 52bd a47f 4dbd
000000a0: dc05 48bd 35b2 c3bd 8b76 b23e e2e9 cebd
000000b0: 2b5c 86bd 99e0 1abe 6b51 0abe 8f70 3b3d
000000c0: 21c7 36bc eb83 9bbd e7ee 0c3d adcc 8ebd
000000d0: 17ad a5bd c4af 55bd 0b56 f0bd 91c4 f03c
000000e0: 6d23 ad3e 951b 4ebe 26bb e1bd aff2 c0bd
000000f0: e302 123e dc59 d5bc 666f 933d 22aa febd
00000100: 963d 3abd 9378 04bd c7d4 9e3d ec02 2e3d
00000110: 58c6 1a3e 5b69 f7bd ed8c 133e 333b 2ebd
00000120: 7a95 1fbe 0450 48be 8c27 d93d 52c8 0cbe
00000130: 1691 bebd dc7a 99bd c279 80bd 7c32 133e
00000140: 78c0 0fbe 5f5f 043e ece4 40be 308b 0a3e
00000150: bca0 14be 2664 38be 8aa3 33be 31fe 8f3d
00000160: ff62 8a3d 1975 c83e 7b8f 9b3d 50dc c13c
00000170: 0818 8d3e 3534 023e 0e83 bd3c e8c0 54bd
00000180: 103b c13d cd37 0b3d 0bfc 01be df43 a83d
00000190: 2022 8b3d 01bc dc3c 73fc a23d 769a 89bd
000001a0: 5e51 22be 858b ba3d d1a5 3b3c 2e79 49be
000001b0: 14e5 01be 7e78 5fbe b094 833d e926 093d
000001c0: 2d78 2a3d 965c 233e c763 02be fca6 ecbe
000001d0: 6304 563d 455d 29be e762 f33d f1d0 923e
000001e0: bc5d 26bd 6aa9 60bd 64c9 0a3d 0054 af3d
000001f0: 970d 3abd ce9c 6fbd 6907 693c 666a 64be
00000200: 8cea e33d 5b52 0cbe e44a 933e 948f 353e
00000210: ab9b 903e d5bd e1bc 881f aabd 790a 843b
00000220: 2a87 6a3e 08e2 293e c4db f43d c70c 88bc
00000230: 1d36 833d d418 b6bd 2f49 a53b 951e 293e
00000240: 986a 07be 1bfe a2bd 52f5 ecbc 39d8 1abe
00000250: ba9f 57be 14bd 4d3b 33b7 a3bc c371 d93d
00000260: 9915 49be 9179 423d 6c73 9cbd 291b 313e
00000270: 470b 543d 4ed7 d53c ec39 34be 3168 d03d
00000280: 247b 0a3e 6267 403e 7d79 d9bd f46b a83e
00000290: 4240 09be 24c2 35bd e5aa e93d 29c1 2d3d
000002a0: 9cc6 1b3e 2d2d acbc 659d 7f3d 8f2b a73d
000002b0: 8a93 8bbd 93c0 163e 65b0 96bd 753f 3bbe
000002c0: ad94 7ebd 7b79 4f3d 9010 563d 0087 3cbd
000002d0: 6a35 04bd 2534 373d a61d 773d 1b8e 9f3c
000002e0: 49a4 3f3e 3e99 32bd 3a9e e03d b7a9 dcbd
000002f0: aad3 cdbd 88e8 94bd f7f7 823c 6972 e33d
00000300: ff4a 103d 3c30 fabe 3915 48be ee9a c5bd
00000310: 09aa d7bd f394 a2be 0647 6b3d 14f9 7e3e
00000320: 8fe7 c23d 1a5c 15be 8a0c 8e3e 893b 27bd
00000330: e72a a23d aeea ec3c 27c4 ce3d b692 73bd
00000340: b06e 003e beb8 343e ca8b 4c3e f1c3 5d3d
00000350: 7498 f43d d51c 57be b341 1ebd 023d 0b3e
00000360: dab5 1e3e e5d4 143d 85b0 d2bb 7d5b 813c
00000370: c216 30bd c782 ec3d 3b26 20be 2547 183e
00000380: 161a 0e3e bb42 6ebd 5bc7 8ebd 62cd b1ba
00000390: e440 20be 499c 82be 422f 17bd 33e1 143e
000003a0: 0b85 943e 1bce 63be 406f 5abe 0ffc 87bd
000003b0: df82 133d 4dec 0a3e 0674 26be e5f5 a9bd
000003c0: 7532 5fbd d2a5 8bbc 07ad 16be e81b 1dbd
000003d0: bc19 293e 9f8d 45bd 6e47 013e c76a 90be
000003e0: 0098 04bd 6a76 543d 0337 12be afc0 3f3e
000003f0: 3353 46be 2210 a3bd fb3d 08be 2e72 8cbc

conv.1.lin_rel.weight f4 [64, 64]
-0.06876206 0.058947735 -0.15320669 -0.19609356 -0.096208416 0.05138529 0.03100633 -0.27314556
-0.30079928 -0.036595557 -0.055598687 -0.09543074 -0.031938415 0.073361956 -0.25826538 0.18012105
0.13616893 0.024207182 -0.12989524 0.21940842 0.27901894 -0.017207213 -0.03339818 0.38795647
0.0710258 -0.21032955 -0.09034456 0.0198558 -0.12593082 -0.042993475 -0.0013823869 -0.14663385
0.45716798 -0.16227357 0.13830994 -0.21525773 0.060234804 -0.010302653 0.07841007 0.010416818
0.08191564 -0.15957297 -0.036905985 -0.03543144 0.24644487 0.06417056 -0.13238068 0.03284586
-0.321176 0.16689573 -0.06198011 -0.041632608 -0.13990927 0.031981774 0.11474084 -0.095052645
0.14748208 -0.15380746 -0.028005583 -0.13527457 -0.25982875 0.09302582 -0.013162751 0.013021926
0.039721113 -0.11915053 -0.21586443 0.454791 0.16286962 -0.30174544 -0.041601565 -0.8789062
-0.15478438 0.14391035 -0.3678558 -0.20916972 -0.25546065 -0.10288066 -0.49544257 -0.26538223
-0.11215054 -0.21874245 0.02424253 0.06601851 0.22150789 -0.05458935 0.053542234 -0.5183776
0.6609955 -0.42364267 -0.17352359 -1.3322606 0.06428456 -0.19311514 -0.91477525 -0.10829044
-0.18791889 0.11263037 -0.016997214 -0.071908526 0.40081555 0.30678633 0.6240226 -0.15506718
0.086245455 -0.67792404 0.27990025 -0.03575455 0.14234495 0.0128016025 -0.3875232 0.12772714
-0.78400576 0.21840349 -0.03569141 -0.081763364 -0.025722226 0.035439584 0.07360912 -0.26829147
0.04287133 -0.6907368 -0.28941417 0.2848694 0.07361511 0.005363383 -0.06842091 0.0030132239
-0.14673713 0.074843265 -0.09085045 0.14680716 0.028808573 0.061493836 0.15301183 0.07675911
-0.35493034 0.38246286 -0.14534935 -0.09525073 0.021837475 -0.175701 0.068913154 0.16588216
0.052000787 -0.01352747 0.28571486 0.29352555 -0.013342742 -0.08393408 0.027439855 -0.03895255
-0.22649735 0.20128667 -0.08994805 0.14188425 0.012025006 0.26823974 0.011857487 -0.007096727
0.19050768 0.067978375 -0.05708269 -0.11456546 0.08472031 0.20874782 -0.032215808 -0.11408066
0.21983998 -0.060669847 -0.14089307 -0.05055312 0.18137583 0.08382976 -0.040144112 0.20037945
0.04356664 -0.026967546 0.18225652 -0.014484234 0.011554174 -0.045630597 0.1558248 -0.04047125
0.00647149 0.047087308 0.031650547 -0.053189937 -0.26471066 0.057300366 0.07417812 -0.16315776
-0.046363857 -0.00818788 0.07699797 0.03729362 0.20418322 0.026437422 0.03701416 0.078548044
0.17667362 -0.10195721 -0.050971925 0.010260005 0.023559647 -0.13911448 -0.061324753 0.1724684
-0.046894442 0.058299676 0.21159181 0.038227618 0.0961776 0.03288165 0.004861111 -0.49749833
-0.33751938 0.19113736 -0.0021943839 -0.010963752 0.050869316 0.36103114 -0.013310954 -0.2578636
-0.032031722 -0.038281597 0.12638004 -0.029726846 0.017547632 0.31379297 0.26488143 0.0678673
-0.0067164386 0.062151432 0.0060452675 0.12801455 0.0048254146 -0.057095516 0.048240826 0.057055768
-0.100590415 -0.1875778 -0.0029857242 -0.039174538 0.17401512 -0.06597455 -0.080883265 0.03430706
-0.09428513 0.027197085 0.055968385 0.16479991 -0.016297927 0.018103957 3.534031e-05 -0.043435313
00000000: 1fd3 8cbd 2e73 713d 37e2 1cbe c0cc 48be
00000010: eb08 c5bd 6279 523d fd00 fe3c bcd9 8bbe
00000020: 5d02 9abe 39e5 15bd 73bb 63bd 3171 c3bd
00000030: dbd1 02bd cb3e 963d 5c3b 84be a771 383e
00000040: de6f 0b3e 244e c63c 4203 05be 9aac 603e
00000050: 92db 8e3e 24f6 8cbc 88cc 08bd 3ba2 c63e
00000060: fa75 913d a160 57be 9206 b9bd a1a8 a23c
00000070: 02f4 00be ed19 30bd 3531 b5ba 2f27 16be
00000080: ec11 ea3e 0b2b 26be 1fa1 0d3e 866c 5cbe
00000090: c5b8 763d 75cc 28bc 7595 a03d 4dab 2a3c
000000a0: 63c3 a73d 1967 23be bb2a 17bd 8f20 11bd
000000b0: 0b5c 7c3e db6b 833d cd8e 07be 6189 063d
000000c0: 2e71 a4be b7e6 2a3e dbde 7dbd f486 2abd
000000d0: 6044 0fbe 52ff 023d 3ffd ea3d f6aa c2bd
000000e0: 8b05 173e b47f 1dbe f76b e5bc 6b85 0abe
000000f0: 4608 85be 5284 be3d 94a8 57bc eb59 553c
00000100: 9bb2 223d 3105 f4bd 910b 5dbe 5eda e83e
00000110: 4bc7 263e 617e 9abe 6766 2abd ffff 60bf
00000120: cc7f 1ebe 3c5d 133e 9857 bcbe 9630 56be
00000130: bdcb 82be 18b3 d2bd a6aa fdbe 2ee0 87be
00000140: 2faf e5bd 05fe 5fbe 4598 c63c b634 873d
00000150: f7d2 623e 1599 5fbd 1a4f 5b3d 65b4 04bf
00000160: 0037 293f b1e7 d8be 2bb0 31be 8487 aabf
00000170: a0a7 833d fabf 45be b62e 6abf 61c7 ddbd
00000180: cf6d 40be c0aa e63d be3d 8bbc c744 93bd
00000190: b237 cd3e 1913 9d3e f2bf 1f3f eec9 1ebe
000001a0: 75a1 b03d 6e8c 2dbf 164f 8f3e 5d73 12bd
000001b0: e0c2 113e d0bd 513c 7169 c6be e7ca 023e
000001c0: 9ab4 48bf 2aa5 5f3e 2831 12bd 8d73 a7bd
000001d0: 6bb7 d2bc 1929 113d 61c0 963d 805d 89be
000001e0: d999 2f3d 20d4 30bf 182e 94be 67da 913e
000001f0: 85c3 963d 51bf af3b 4320 8cbd 8279 453b
00000200: 4242 16be 6d47 993d cd0f babd 9e54 163e
00000210: f5ff eb3c f6e0 7b3d 22af 1c3e e133 9d3d
00000220: 6eb9 b5be 2cd2 c33e 76d6 14be d112 c3bd
00000230: 81e4 b23c f7ea 33be 5722 8d3d 03dd 293e
00000240: c7fe 543d 52a2 5dbc 3849 923e fb48 963e
00000250: 849b 5abc a2e5 abbd 8cc9 e03c b68c 1fbd
00000260: ecee 67be 181e 4e3e af36 b8bd 1b4a 113e
00000270: 8804 453c b856 893e e845 423c a98b e8bb
00000280: 7214 433e 3f38 8b3d 8acf 69bd 4ca1 eabd
00000290: d881 ad3d fdc1 553e b9f4 03bd 1fa3 e9bd
000002a0: bb1d 613e f280 78bd 4646 10be ca10 4fbd
000002b0: 96ba 393e f0ae ab3d 276e 24bd 4530 4d3e
000002c0: ef72 323d 0beb dcbc 74a1 3a3e 484f 6dbc
000002d0: b84d 3d3c 26e7 3abd 8990 1f3e 2ec5 25bd
000002e0: cb0e d43b 9fde 403d 01a4 013d b1dd 59bd
000002f0: 2888 87be cab3 6a3d b3ea 973d d412 27be
00000300: 07e8 3dbd 7526 06bc 1db1 9d3d 32c1 183d
00000310: 6815 513e 4b93 d83c 299c 173d ccdd a03d
00000320: eee9 343e f1ce d0bd f0c7 50bd 9419 283c
00000330: 2900 c13c 0774 0ebe aa2f 7bbd 8e9b 303e
00000340: 6314 40bd a4cb 6e3d 86ab 583e 9094 1c3d
00000350: c3f8 c43d e9ae 063d f449 9f3b 1ab8 febe
00000360: 57cf acbe 83b9 433e a7cf 0fbb 4fa1 33bc
00000370: 585c 503d 13d9 b83e 3016 5abc b306 84be
00000380: b233 03bd 2acd 1cbd c569 013e b785 f3bc
00000390: 0dc0 8f3c 79a9 a03e 8a9e 873e 03fe 8a3d
000003a0: 9215 dcbb 8092 7e3d 6117 c63b 3f16 033e
000003b0: 831e 9e3b fddc 69bd 2c98 453d 4fb3 693d
000003c0: 5902 cebd 6514 40be 24ac 43bb 7b75 20bd
000003d0: 0531 323e aa1d 87bd 20a6 a5bd 8f85 0c3d
000003e0: 9018 c1bd 6ccc de3c 1b3f 653d 4fc1 283e
000003f0: 3b83 85bc c04e 943c 5e3a 1438 3ae9 31bd

conv.1.lin_rel.bias f4 [64]
-0.0673026 0.05037272 0.040079907 -0.045489013 -0.0040259464 0.074276246 -0.100615226 0.110619515
-0.046941385 -0.033852287 0.02927523 0.022142468 -0.059997793 -0.07269827 0.008248559 -0.028786225
0.07224985 0.10260698 0.123823754 -0.07986832 0.12292138 -0.009060788 0.08061489 0.07670283
0.10671905 -0.06407786 -0.032099675 0.022087237 0.048673183 0.11024511 0.058487885 0.006512957
-0.07499086 0.067502886 -0.0143276 -0.07495456 -0.0067087025 0.028193943 0.029161615 0.13905267
0.067638494 -0.13992399 -0.011555071 0.036263812 0.035869285 -0.04831342 0.108389325 0.12003211
-0.0032113602 0.09940696 -0.040666573 0.08620257 0.04655417 0.0867804 -0.07604036 -0.011092464
-0.019554034 -0.19967586 0.09006351 0.039831847 0.055396546 0.0046448857 -0.07783229 0.025745986
00000000: f2d5 89bd a053 4e3d d42a 243d b052 3abd
00000010: 16ec 83bb 251e 983d 5b0f cebd 7c8c e23d
00000020: 9c45 40bd b2a8 0abd 9bd2 ef3c 1f64 b53c
00000030: 3fc0 75bd d5e2 94bd f724 073c 17d1 ebbc
00000040: bbf7 933d 9c23 d23d 4f97 fd3d 0092 a3bd
00000050: 34be fb3d b373 14bc 6b19 a53d 6016 9d3d
00000060: 848f da3d 413b 83bd f37a 03bd 4bf0 b43c
00000070: 885d 473d 30c8 e13d fe90 6f3d a56a d53b
00000080: cf94 99bd f43e 8a3d 4fbe 6abc c781 99bd
00000090: add4 dbbb fcf6 e63c 57e4 ee3c d363 0e3e
000000a0: 0d86 8a3d 3c48 0fbe 7b51 3dbc 5d89 143d
000000b0: aceb 123d 4be4 45bd 39fb dd3d 65d3 f53d
000000c0: af75 52bb e095 cb3d fe91 26bd f98a b03d
000000d0: 96af 3e3d ecb9 b13d 0cbb 9bbd 2bbd 35bc
000000e0: c82f a0bc d477 4cbe 3873 b83d b826 233d
000000f0: 7de7 623d 2034 983b 8966 9fbd 3fe9 d23c

conv.1.lin_root.weight f4 [64, 64]
0.16018659 -0.0008929999 0.022068666 -0.3742317 0.17385739 0.0234397 -0.015457854 0.10141307
-0.029646311 -0.42111626 0.06342505 0.107266344 0.20780057 -0.002674022 0.029842224 0.22280966
-0.20482092 0.10360417 -0.06204634 0.1212706 0.10566379 0.1537256 0.010480227 -0.316303
0.1444493 0.14970392 -0.038644798 0.096149944 -0.085930936 0.038404785 -0.07772619 -0.047774006
-0.33978572 -0.22294964 0.066522084 -0.06338205 0.2802385 -0.07570479 -0.2344436 0.08866808
0.052375518 0.036063947 -0.22927408 -0.092199065 -0.09037175 0.135483 0.26516953 0.401027
-0.008344736 0.14581917 0.17566697 -0.15009226 -0.03831358 0.026130289 -0.02365131 0.0005428373
-0.0005626805 0.14820838 -0.10037537 0.13714437 0.09930354 0.1868528 0.11324023 0.038693
0.2571393 0.04449043 -0.15279348 -0.6575506 0.04692424 0.1536452 -0.047646653 -0.19779387
0.02478972 -0.103975736 -0.022602556 -0.07016525 0.13892576 -0.074799195 -0.09101809 -0.15133877
0.26162452 -0.28559187 0.118175305 0.13817772 0.04737779 -0.45676056 0.1288045 -0.03570773
-0.40117466 0.004407369 0.053703964 0.037144177 0.2621586 0.22277947 -0.10454111 0.1563778
-0.09855758 -0.36025214 -0.036739774 -0.06769533 -0.11700286 -0.41843906 -0.14084014 -0.10049737
-0.26591596 -0.035431754 0.1279684 -0.10350639 -0.0040049776 -0.09096913 -0.50557995 -0.06084977
-0.28757685 -0.35730475 0.055042956 0.21365833 -0.3051903 -0.086754546 -0.098825864 -0.13928086
0.1739988 0.45746574 -0.21480499 0.2829101 -0.1990349 0.20898548 -0.26996568 -0.14492029
0.05350364 -0.08189289 0.007252599 0.6371738 -0.08245309 0.19463488 -0.17276365 -0.10123525
-0.11747904 0.13620734 0.020432249 0.030081205 0.010547222 -0.15574703 -0.110596366 -0.22378607
0.06471432 -0.17425993 0.2149611 0.06682354 0.2753025 -0.19562632 0.2156807 -0.0149246305
0.3420037 0.15283807 -0.06761555 -0.057432033 -0.0062101274 0.1478298 -0.032722086 0.09158935
-0.084544465 -0.07678789 -0.32036418 -0.10095715 0.042693876 0.09246499 -0.106483795 -0.043894753
0.22492702 -0.044016346 -0.039053503 -0.16749866 0.18871643 -0.15824696 0.13332069 -0.03756363
-0.008447054 0.39680523 0.1883159 -0.07581237 -0.096214615 -0.08471078 0.003354986 -0.05508279
0.19141722 0.1568759 -0.008075462 0.03042799 0.010776014 -0.05259885 -0.21125148 -0.11899687
0.007858892 -0.12277179 -0.12540844 0.5416211 -0.015661 -0.019654585 0.10468292 0.038365286
0.012120457 0.22139259 0.11531689 -0.06894182 0.058637533 0.020657856 0.06351196 -0.17222281
-0.03727073 -0.037113924 -0.21708773 -0.1279544 0.35257757 -0.085348584 0.13988823 0.10581987
0.48776168 -0.15602648 -0.120782636 -0.20533547 -0.057396077 0.25853962 -0.05762184 0.21011962
-0.42298183 0.18769561 0.035326924 0.12563203 -0.052672837 0.15098229 -0.08060998 -0.07516832
0.011472925 0.048439946 -0.2653199 0.07821473 0.0783322 -0.055004407 -0.091159165 0.15045826
-0.14232895 -0.014894302 -0.14030507 -0.016472388 0.12519072 -0.035627082 -0.069602415 0.08967151
-0.13572988 -0.05790189 0.027007835 -0.25834313 -0.1685996 0.07133532 -0.055950873 0.11287157
00000000: f407 243e 3518 6aba 59c9 b43c 4c9b bfbe
00000010: ac07 323e 9d04 c03c f042 7dbc a8b1 cf3d
00000020: d2dc f2bc 8d9c d7be fee4 813d 75ae db3d
00000030: acc9 543e a53e 2fbb ae77 f43c 3728 643e
00000040: 93bc 51be 6c2e d43d 4e24 7ebd b85c f83d
00000050: 4266 d83d 3e6a 1d3e 42b5 2b3c 78f2 a1be
00000060: 84ea 133e fc4b 193e 024a 1ebd 43ea c43d
00000070: 8ffc afbd 564e 1d3d e92e 9fbd adae 43bd
00000080: 65f8 adbe e94c 64be bb3c 883d 73ce 81bd
00000090: 6c7b 8f3e 1d0b 9bbd fc11 70be 9c97 b53d
000000a0: b687 563d cab7 133d d3c6 6abe ddd2 bcbd
000000b0: d314 b9bd 0ebc 0a3e 4dc4 873e 6953 cd3e
000000c0: 5cb8 08bc 9f51 153e 0be2 333e c9b1 19be
000000d0: b3ee 1cbd 300f d63c 64c0 c1bc 324d 0e3a
000000e0: d980 13ba f0c3 173e 9a91 cdbd 936f 0c3e
000000f0: a85f cb3d 5756 3f3e 7eea e73d 8d7c 1e3d
00000100: c3a7 833e 993b 363d e575 1cbe 3c55 28bf
00000110: a233 403d 2b55 1d3e 2329 43bd 7a8a 4abe
00000120: d013 cb3c 3bf1 d4bd ff28 b9bc ccb2 8fbd
00000130: 8e42 0e3e 5230 99bd b167 babd 8df8 1abe
00000140: a6f3 853e 1939 92be e505 f23d 767e 0d3e
00000150: 370f 423d 85dc e9be 54e5 033e 4542 12bd
00000160: c466 cdbe b16b 903b b0f8 5b3d 7e24 183d
00000170: a739 863e 4d20 643e a619 d6bd 8121 203e
00000180: 8ed8 c9bd f872 b8be 727c 16bd d9a3 8abd
00000190: 329f efbd a53d d6be 6638 10be 91d1 cdbd
000001a0: 2326 88be e320 11bd 260a 033e 28fb d3bd
000001b0: 303c 83bb 064e babd b06d 01bf 9c3d 79bd
000001c0: 463d 93be a6f0 b6be b974 613d 40c9 5a3e
000001d0: e741 9cbe 5eac b1bd 3765 cabd a49f 0ebe
000001e0: be2c 323e f338 ea3e d7f5 5bbe 98d9 903e
000001f0: cecf 4bbe 4a00 563e f138 8abe fc65 14be
00000200: a226 5b3d 76b7 a7bd 36a7 ed3b d21d 233f
00000210: 2add a8bd 5e4e 473e f4e8 30be 6d54 cfbd
00000220: da98 f0bd f079 0b3e 8861 a73c dc6c f63c
00000230: 41ce 2c3c 267c 1fbe 5980 e2bd 2d28 65be
00000240: f188 843d 3271 32be c31e 5c3e c8da 883d
00000250: 73f4 8c3e 4452 48be 67db 5c3e 7086 74bc
00000260: 1c1b af3e 9581 1c3e 057a 8abd da3d 6bbd
00000270: 537e cbbb b260 173e 9807 06bd 3293 bb3d
00000280: a625 adbd f842 9dbd c606 a4be 9fc2 cebd
00000290: c6df 2e3d 495e bd3d 2d14 dabd fcca 33bd
000002a0: 4553 663e 7c4a 34bd 91f6 1fbd c584 2bbe
000002b0: e13e 413e 7e0b 22be 3885 083e 52dc 19bd
000002c0: 8365 0abc 0e2a cb3e e2d5 403e 8443 9bbd
000002d0: 2b0c c5bd d87c adbd 53df 5b3b 7e9e 61bd
000002e0: e002 443e 13a4 203e f14e 04bc 1f44 f93c
000002f0: e18d 303c e471 57bd 4f52 58be a2b4 f3bd
00000300: 95c2 003c c76f fbbd 126b 00be aea7 0a3f
00000310: 7f4b 80bc a702 a1bc 0064 d63d eb24 1d3d
00000320: e294 463c bdb4 623e 432b ec3d 5e31 8dbd
00000330: e92d 703d aa3a a93c 8f12 823d 2d5b 30be
00000340: 31a9 18bd c504 18bd 3f4c 5ebe 7a06 03be
00000350: 0c85 b43e 3dcb aebd dc3e 0f3e 17b8 d83d
00000360: e6bb f93e 68c5 1fbe e35c f7bd 7643 52be
00000370: 2618 6bbd 4e5f 843e e104 6cbd 9929 573e
00000380: 1391 d8be 4733 403e f7b2 103d afa5 003e
00000390: 79bf 57bd 1a9b 1a3e d816 a5bd d9f1 99bd
000003a0: eff8 3b3c f768 463d 03d8 87be 0b2f a03d
000003b0: a26c a03d 4d4c 61bd a8b1 babd bb11 1a3e
000003c0: aebe 11be 3b07 74bc 22ac 0fbe 1af1 86bc
000003d0: ff31 003e b4ed 11bd b68b 8ebd b2a5 b73d
000003e0: c6fc 0abe 882a 6dbd 893f dd3c 8d45 84be
000003f0: 60a5 2cbe 4118 923d be2c 65bd 3629 e73d
