checkpoints/aids/model_AIDS.pt_l2_emb64_hid64_netot1.0.pt (torch, 99772 bytes, 9 tensors)

virtual_embedding f4 [64]
00000000: 7db4 983e bf8c 313f 9f1c 133f 9de1 4e3d
00000010: 4999 e73e 371f 413f f828 6c3e e97a 603f
00000020: d3b2 693e a2d6 483f be21 213f 4c03 643e
00000030: c4ae 613f fa14 be3e 57e5 d03e b258 a83e
00000040: 419e 0b3d bd9c 3f3f b64e 973e a79d 533f
00000050: f5cb 4d3f 5ca6 373f deeb 3f3f 49b2 153f
00000060: a88c 503d 20ce 0c3f 1c91 bc3e 378d 623f
00000070: 1983 493f 2c36 093f 6979 4c3d 8305 2a3d
00000080: 000e 603c 6010 5f3f 6a97 4d3f b82b 1a3d
00000090: f055 313d 17a2 4d3f f68d 313f ac14 463e
000000a0: 82af e23e 142f 323f ff3b 433f d63f f73e
000000b0: 0767 853e d6ea a33e 1b19 b63e e3c9 2f3e
000000c0: 98fc 4b3e a8d0 4c3f 05b4 213f 6dd0 273f
000000d0: c318 093e 2a70 163f c88f 653f 0216 4a3f
000000e0: a3d5 003f af91 7b3e 9d8c 673f 5a75 ac3e
000000f0: 1f78 ed3e 66b1 1f3f 31e4 db3e 362c 013f
0.29825202 0.69355386 0.5746555 0.05050813 0.45234135 0.75438255 0.23062503 0.87687546
0.22822122 0.78452504 0.6294211 0.22266883 0.88157296 0.3712538 0.40799972 0.3288017
0.03408647 0.7484854 0.2955224 0.82662433 0.8038934 0.7173822 0.7496928 0.58475167
0.05091539 0.5500202 0.3682946 0.88496727 0.78715664 0.53598285 0.049920473 0.041509163
0.013675213 0.8713436 0.80309165 0.03763935 0.043294847 0.80325454 0.6935724 0.19343823
0.44274527 0.69603086 0.7626342 0.4829089 0.26055166 0.32015103 0.3556603 0.17166857
0.19920576 0.80005884 0.63165313 0.6555241 0.13388352 0.587649 0.8967252 0.7893983
0.50325984 0.24567293 0.90448934 0.33683282 0.46380708 0.62380064 0.42947534 0.50458086

embed_transform.0.weight f4 [64, 166]
00000000: 4101 23b6 f615 d6bc 20dd 16bd 30a1 2ab9
00000010: eff1 4bbd e99b 20bd 1577 24bd 5671 a03b
00000020: bdaa 603c 172b fdbc e750 03be b4fc 9a3c
00000030: dd46 c1bb f74c 623c 8556 5abc 1a4e 363d
00000040: b926 83bc f50a 543d 176b 53bd 19a5 2abd
00000050: b1cb d4bd 2f56 40bc a7e3 913b 754d b33b
00000060: f41a bd3c d78e 063c 6311 7dbb e9bb 74bd
00000070: d23f 03bd 04f2 babc f5d7 f7bc f7de 713d
00000080: defd a2bb 570f c9bc 94c0 1f3b b6f2 36bd
00000090: e293 39bd 50a3 883d a822 abbd 5cf7 f13c
000000a0: a955 34bc f6b0 2cbc 51af 893c 9d61 03bd
000000b0: 4633 99bc c879 37bd 2ad5 fa3c f836 0f3d
000000c0: 4e8a 17bd 3dfe c2bb ea8a 093d 8b02 643d
000000d0: 2c5e f73c 0ea5 f23c 1229 3ebd 23fa dcbc
000000e0: f323 e5bb fcc5 c7bb eefc 9f3b cec4 88bd
000000f0: 187e 153d 9bc1 2f3d 116c 72bd 603a ad3c
00000100: 0106 4c3d 30ad c53b 6b6d b5bc 647d f3bc
00000110: eb1b 293c 9fe0 693d ae0a 8f3c 2b7e ffbc
00000120: 68de 233d b83d 5b3d 5098 923d f518 b43d
00000130: a09c ea3d eb3e 92bd f548 bd3d 7c56 43bd
00000140: 2411 f9bc b3f7 803d 0add 723d b464 4cbd
00000150: 6d31 cbbb 1e85 483d 78a2 893b 255a c8bc
00000160: 553e 0c3d 7bf0 0fbe 7798 9c3d d092 233b
00000170: 759b 303d 5e69 a03c 8a52 70bd cc0e d5bc
00000180: b844 cb3c 16a6 f13c 4921 17bd 460e 52bd
00000190: 5125 393d 9838 bd3b 38ea 7dbd 486f ebb9
000001a0: 24b8 933a f2ad 92bc a26d 603d 1947 793a
000001b0: 4f41 28bc fbb5 b83c d42b 72bd 0dc8 533d
000001c0: a9df 473d 584d cb3c 0214 0f3c 9160 463d
000001d0: 1776 16bb ce64 063c fb80 2d3c 9573 da3c
000001e0: 4f89 62bd b32b 723b 3462 833c 9079 613d
000001f0: dc77 b6bd 93da 033c 2d3e 873c a0c4 7fbd
00000200: 573c ba3d a6f5 703d 614b cb3c 7d02 4dbd
00000210: 790f e53b fc14 60bc 2c17 cfbb 6295 dbbb
00000220: ed0a c33c 8997 95ba 050f bb3c d36e 01bd
00000230: 3d95 9b3d 42f1 0a3b 3709 4d3d a470 4d3b
00000240: 6271 debc 11db 4fbd f972 a3bb b0c6 c1bb
00000250: d1e1 b93d 8cfc fb3c 3f23 fcbd eb26 203d
00000260: 1581 8f3d 78b6 4f3d 7fac ae3d 4656 04bd
00000270: 4f79 983c 98ee 90bd 32c0 13bd e4db e93d
00000280: 7c9a 82bc 625d a9bc 956b 9cbd a7bc 56bd
00000290: e308 813b 10ec 7dbc eaec cfbc 61eb 00bc
000002a0: 6783 81b9 1498 0abd 8be9 86bd 96bf 27bd
000002b0: 7122 9dbd 180b d93c 05a5 593d e549 0fbc
000002c0: 9633 7d3d 6379 10bb e125 0cbd 36e6 74bd
000002d0: 0f88 0bbd 718f b13c e38e 3fbc aa72 a53c
000002e0: b1d3 343d d099 4e3d f41d 02be 3386 9dbc
000002f0: 25db 853c a2e9 94bc 8001 9bbc d585 593d
00000300: 8ad3 fabb 8f4e c53b cc0c 06bd e018 b8bd
00000310: a73f 39bd 5f83 2ebd 789f 83bc fa33 fdbb
00000320: 0d49 6fbd 1ac6 dd3d c450 70bd fe3f 5abd
00000330: 31d6 10bd 6920 6c3d b25e 6dbc 4741 0f3e
00000340: 6c89 3b3c 7d6a d53c ba67 d2bb ce74 b6bb
00000350: 09f0 853d 718c f63d 4689 823c 90bd 1d3c
00000360: 7049 7bbd 4922 f6bc 840d ae3d 000d a0bd
00000370: 582b a43b 81f1 b53d 72af d3bc b3bd b7bd
00000380: dc0c 01bd 1353 0b3d 0550 8abc 4065 7bbd
00000390: 42b3 7a3d fd16 1b3c b4a2 ae3c e419 633d
000003a0: 2948 9aba 315c 9a3d ddef 6a3d d7de 09bd
000003b0: ffd5 a83c 0672 a9bc ef68 90bc a7ba e93c
000003c0: 029d b23c 7306 123e b80c c03c 83c5 9d39
000003d0: f288 963d 32d3 90bd a243 0dbd eba3 3ebd
000003e0: 732b 8fb9 55d5 213b b99b 043b 849b 033d
000003f0: 7a90 293d e0ad a7bc 2b5e b6bc ef98 04be
-2.4289623e-06 -0.026133519 -0.036831975 -0.0001627251 -0.049791273 -0.039211188 -0.040152628 0.004896323
0.013712582 -0.030904336 -0.1282383 0.018919326 -0.00589834 0.013812295 -0.013326292 0.044508077
-0.016009675 0.051768262 -0.0516158 -0.041661356 -0.103904136 -0.011739298 0.004452187 0.00547188
0.023084141 0.008212767 -0.00386151 -0.059749518 -0.032043286 -0.02282048 -0.030254344 0.059050526
-0.004974111 -0.024543447 0.002437626 -0.04466506 -0.045307048 0.066717744 -0.083562195 0.029536895
-0.011006751 -0.010540238 0.01680723 -0.032075513 -0.018701207 -0.044793874 0.030619223 0.03496453
-0.036997132 -0.0059507177 0.033579744 0.055666488 0.030196272 0.02961972 -0.046425886 -0.026974743
-0.006992811 -0.0060965996 0.0048824465 -0.066781625 0.036497205 0.042909246 -0.05918509 0.021146
0.049810413 0.0060326084 -0.022146901 -0.029722877 0.010321598 0.05709898 0.017461147 -0.031188091
0.040007025 0.053525656 0.071579576 0.08793823 0.11455655 -0.07140907 0.09242431 -0.0476899
-0.030403681 0.06297245 0.05929283 -0.049900725 -0.0062009604 0.048955075 0.004200276 -0.024457047
0.034239132 -0.1405658 0.07646268 0.0024959333 0.043117005 0.019581493 -0.058672465 -0.026008032
0.024813041 0.029498141 -0.036896978 -0.051283143 0.045201603 0.0057745688 -0.061990947 -0.00044905604
0.0011270088 -0.01790521 0.054792054 0.00095091906 -0.010269477 0.022547713 -0.05912383 0.051704455
0.048797283 0.024817154 0.008732798 0.048431937 -0.002295857 0.008202745 0.010589833 0.026666442
-0.05530673 0.0036952316 0.016038038 0.05504757 -0.0890958 0.008047718 0.01650914 -0.062443376
0.0909354 0.05882802 0.024816217 -0.0500512 0.00699037 -0.013676878 -0.006319901 -0.0067011574
0.02380892 -0.0011412959 0.02283431 -0.03159983 0.07596824 0.002120093 0.050057616 0.0031347657
-0.027153675 -0.050746027 -0.004988071 -0.005913578 0.09076274 0.030760072 -0.1231141 0.039099615
0.07007042 0.050711125 0.08528995 -0.03230884 0.018612532 -0.07076758 -0.036071964 0.11418894
-0.015942805 -0.020674411 -0.07637707 -0.052426007 0.003937827 -0.015498176 -0.025381524 -0.007868619
-0.000247027 -0.03383644 -0.065875135 -0.040954195 -0.07672585 0.026494548 0.05313589 -0.008745645
0.061816774 -0.0022045008 -0.03421581 -0.05978986 -0.034065302 0.021674844 -0.011691782 0.020196278
0.044147197 0.050439656 -0.12706739 -0.01922903 0.016339848 -0.018177811 -0.018921614 0.053106148
-0.007654612 0.006021328 -0.032727048 -0.089891195 -0.04522672 -0.042605754 -0.016067252 -0.0077271434
-0.058419276 0.108288005 -0.058670774 -0.053283684 -0.03536052 0.057648096 -0.014487909 0.13989745
0.011446338 0.026051754 -0.0064210566 -0.0055681234 0.06539924 0.12038506 0.015934598 0.009627715
-0.061349332 -0.030045645 0.08498672 -0.078149796 0.00501005 0.08883954 -0.025840495 -0.08971729
-0.031506404 0.034014773 -0.01688386 -0.061375856 0.06120611 0.00946593 0.021317817 0.055444613
-0.0011770773 0.07537115 0.057357658 -0.033659782 0.020609854 -0.020684253 -0.017628161 0.028531386
0.021803383 0.14260273 0.023443565 0.0003009253 0.07350339 -0.07071532 -0.034488328 -0.046543043
-0.00027307458 0.0024693806 0.002023442 0.032130733 0.04139755 -0.020468652 -0.0222617 -0.12948965

embed_transform.0.bias f4 [64]
00000000: 5405 993c a828 ffba 0e51 ba3c 60bb 48bd
00000010: 5bdd 483d e2e6 463d 987d 063b b2f3 7c3b
00000020: 0211 713c 4887 833d 14ec be3c 43a0 33bd
00000030: 4175 94bc 4d9d 90bd 2d09 873b fc2a 68bd
00000040: 7684 163c d8c6 623c 8838 5e3d 47b5 80bc
00000050: ef39 193b 3873 5e3c 58d7 b7bc bfd5 90bc
00000060: aaba ddbc e6e4 09bd c04d 0439 c97f 003d
00000070: 618d 843c c8c7 453d afa0 bbba c996 043d
00000080: c784 33bd 4cf9 383d 42d4 753d eb8f e83c
00000090: 5109 73bd 240a be3b c3b4 51bd f9be 76bd
000000a0: 818c 5d3d baf2 133d 36e8 523d 99d0 213d
000000b0: 42e7 63bc 2eb5 083d a83a 0bbd 5d53 43bd
000000c0: 0be5 8abc d682 f7bc ed71 453d b19e 63bd
000000d0: 5066 913d c667 a5bb b9f0 083c 5fdb 7f3d
000000e0: 7904 14bd 4a9c 8bbc 1556 013d 2245 b1bc
000000f0: fa86 943b d250 193d 2fe6 c93b b61a 0c3d
0.018679298 -0.0019467073 0.022743728 -0.04900682 0.049039226 0.04856003 0.0020521637 0.0038597402
0.014713528 0.06422287 0.02330593 -0.04385401 -0.018122317 -0.07061253 0.004120967 -0.056681618
0.009186855 0.013841353 0.05425313 -0.01571144 0.0023380478 0.013577275 -0.022441551 -0.017680047
-0.027066547 -0.03366556 0.00012617465 0.031371865 0.016180696 0.04828623 -0.0014314855 0.032370362
-0.0438278 0.045159623 0.060016878 0.028388938 -0.059335057 0.0057995487 -0.05119778 -0.06024072
0.054089073 0.036120154 0.051490985 0.039505575 -0.013910117 0.03337591 -0.033991486 -0.047686923
-0.01695492 -0.030213755 0.04820435 -0.05557126 0.07099593 -0.005047771 0.008358174 0.062465068
-0.036137078 -0.017042298 0.031576235 -0.02163941 0.004532692 0.037430592 0.006161473 0.03420516

conv.0.lin_rel.weight f4 [64, 38]
00000000: b272 783a d02f 93bd 6918 203e e899 6ebe
00000010: 5d16 85be d951 6e3e 88af a0bc 5bdb 523e
00000020: be3f 02bd 57d9 bebd 4011 39bc ba3d ec3d
00000030: d8fc 0abe 3856 133e 28fd eabd bbf2 c73c
00000040: d6d5 333e 12e5 b6bc 451d db3d 0b13 92bc
00000050: 1d6b 3bbd 9bf5 de3b 1a98 063e d948 be3d
00000060: 5d28 eebd 5df8 24be 96c2 a83d cc62 1fbe
00000070: ca3b 0a3e b5e6 ffbd 60dc 1ebe 3291 573e
00000080: e1cc 67bd 45a5 fbbd 2802 5c3e 0f08 c6bd
00000090: 9ca4 4b3d 7bb7 58bd 95de bcbc fd95 cd3d
000000a0: ab61 9a3d 8391 49bd a16e abbd b501 8c3d
000000b0: 2ad7 023c cb1f 1cbd 9b54 133e 00b0 7c3c
000000c0: a52b e6bd 48e4 933c 711f 963d 1486 d0bd
000000d0: 6f5f e63c 225a cfbd a1ce f3bd b555 06be
000000e0: fe5c 14bc 948f 7d3b 772e 5fbc 78e7 013e
000000f0: ffb3 c63d e8e3 f83d 3df6 87bd 6818 253e
00000100: bf25 46bd 79bf 18be 029e d0bd 308b 23bd
00000110: b98e b43a 9915 1a3e 5f35 82bd 11a3 783d
00000120: 43f6 ca3b d167 35bd 9f55 ffbc 2643 14be
00000130: 10c0 863d 98b1 60be 4a7a 5b3c 0ac5 4cbe
00000140: f8b4 b23a 7e4e 54be 90f3 02be 04b8 053e
00000150: 5b3f 11be 5451 6f3c 67de 14be d8ba cbbd
00000160: a396 95bd 7ab4 653c 0794 c1bd 3052 4d3d
00000170: 099f 7abd cdfb ecbd e0c7 8fbd a027 8b3c
00000180: 3f1b b03d 073e d4bd 631c d63c 2c8d 1abe
00000190: 9cbc 1fbd 9e31 ea3d 179b 4dbd 2d99 143e
000001a0: 8062 2e3e b123 cd3d 48d6 04be b64b 97bd
000001b0: 8dd5 b2bd b3b2 7a3d 698f 15be 114c 553e
000001c0: fea3 e23c a87f e1bd 3860 a63d 6d75 d1bd
000001d0: d2cc 993d 4373 0d3d f1c9 423e 3774 063c
000001e0: a039 4dbc 2c6f af3d b581 cabd 47b8 ee3d
000001f0: ee46 ad3d 6c50 3cbe 5679 7dbd fb92 343d
00000200: 60f1 c33c c09c 01bd d6bd 433d 663f 3b3d
00000210: 4df7 c9bd ead1 003e 250b 0cbe f5d6 34bd
00000220: 164d 6ebd d04f 07be e31e 1b3e 4895 db3d
00000230: 6652 f3bd f002 82bd 1745 d23d bb5f 333e
00000240: 1888 b13d 90a9 0fbd 1a6f 81bc 4e2c 16bd
00000250: 74b6 f6bd 2a5e e03d 9a0a ab3c 44dc 26bd
00000260: 84ee fd3c d377 b13d 7f6d 273d 1a18 963d
00000270: f42b fbbc 7b41 ba3d 654e 37bd 1389 91bc
00000280: 1e56 0c3e 0715 aebd 7f3b af3b e633 863d
00000290: f2e8 493e 5b9a 553d 39eb a3bd 373a 9d3d
000002a0: 75b7 c83d c2eb b03d 4fb5 043c f1c5 f73d
000002b0: 8aea 1b3d ab57 94bd 576f 303d 67cd e8bc
000002c0: 29de b03d cc4d 1a3e a5af a4bd 4a1a b1bd
000002d0: fb5e 233e f5fb be3a 60a0 073e 60aa 1e3e
000002e0: 2d10 bebd ac7f 62bd 40d1 67bd 9923 e33d
000002f0: d922 fc3c 3d03 d9bc ebcd 06be 5425 f63d
00000300: 7cb5 8bbd 09b0 f33d 1858 3f3e 6460 1d3d
00000310: 8cea 953d ed62 f23d a368 0a3e dddc 323d
00000320: e2c9 713c 7641 57be fe07 253e 6c8d 3cbe
00000330: bd6f e13d dcbc 06be 157d ce3c fe1d b1bd
00000340: 74c9 6cbe 1291 a3bd ddf0 21be c065 adbd
00000350: d9d9 d0bd 24bc d43c b673 89bd 8a8b a63d
00000360: 8c0a 8abd 7e97 02bd 9267 41bd d48e cc3d
00000370: 67e8 eabd 3e85 12be 6c06 a43e c7c7 edbb
00000380: d994 bf3c 80d4 ce3d c52d 7ebd 8f1a 04be
00000390: 2b50 663d 52cd 023e 2bd8 d0ba 211c 6f3e
000003a0: 0cba 9bbd bff4 053e 4a2e 653e 35fd 04bd
000003b0: f008 ffbd c1cc ecbd eb5d d83d 7321 2f3e
000003c0: e627 ffbd d26a 4abc 4cd2 873d 78a3 f53b
000003d0: 3936 08bd 4f34 ad3d 4373 ed3c 8285 08bd
000003e0: f1fe 843d 6c08 4f3c 53bb 24be 5613 16be
000003f0: 012d f1bd 3faf ddbd fa19 41bc 9c32 8e3d
0.000947754 -0.07186854 0.15634312 -0.23300898 -0.25993624 0.2327341 -0.01961495 0.2059149
-0.03179907 -0.09318798 -0.011295617 0.11535211 -0.13573015 0.14388359 -0.11474067 0.024407735
0.1756204 -0.022326026 0.10698942 -0.017831346 -0.045756448 0.006804181 0.1314396 0.09291238
-0.116287924 -0.16110368 0.08240239 -0.15565032 0.1349937 -0.12495176 -0.15513754 0.21051481
-0.056591872 -0.12287382 0.21485198 -0.09669506 0.04971753 -0.052909356 -0.023055354 0.100383736
0.0753816 -0.049211036 -0.0837071 0.06836263 0.007985869 -0.038116258 0.14387743 0.015422821
-0.11238793 0.018053189 0.07330216 -0.101818234 0.028121678 -0.10124613 -0.11904646 -0.13118632
-0.009055374 0.0038690316 -0.013621918 0.12685955 0.097023 0.12152845 -0.06638763 0.16122591
-0.04837584 -0.14916791 -0.101863876 -0.03992766 0.0013775445 0.15047301 -0.06357836 0.060702387
0.0061939075 -0.04428846 -0.031168757 -0.1447874 0.06579602 -0.21942747 0.013395855 -0.1999704
0.0013634255 -0.20733067 -0.12788224 0.13058478 -0.14184324 0.0146067925 -0.14537965 -0.09947747
-0.07304122 0.01402008 -0.09452062 0.05012721 -0.061186824 -0.11571465 -0.07020545 0.016986668
0.08598947 -0.10363393 0.026136583 -0.15092915 -0.03899823 0.11435245 -0.050196733 0.14511557
0.17029762 0.10016573 -0.12972367 -0.073874876 -0.08732138 0.061205577 -0.14605488 0.20829798
0.027666088 -0.110106766 0.08123821 -0.10227475 0.075097695 0.03453375 0.19022347 0.008206419
-0.012525946 0.08566126 -0.09888021 0.11656242 0.084607944 -0.18390054 -0.061883293 0.044085484
0.023918808 -0.03164363 0.047788464 0.04571476 -0.09861622 0.12580076 -0.13676126 -0.04415031
-0.058178984 -0.1321404 0.15148501 0.107218325 -0.11880951 -0.063482165 0.10267084 0.17516987
0.08668536 -0.035073817 -0.015800048 -0.036663346 -0.12046519 0.1095546 0.020879079 -0.040737405
0.030997522 0.08665433 0.040875908 0.07328816 -0.030660607 0.09094521 -0.044752497 -0.017765557
0.13704726 -0.085001044 0.0053476687 0.065528676 0.19717768 0.052149158 -0.080038495 0.07677119
0.09800617 0.08638717 0.008099868 0.12098301 0.03806547 -0.07243284 0.043074932 -0.028418256
0.08636124 0.1506874 -0.08041314 -0.08647592 0.15954201 0.0014570939 0.13244772 0.1549468
-0.09280429 -0.05529754 -0.05659604 0.11090774 0.030778335 -0.026490802 -0.13164489 0.120188385
-0.06821725 0.118988104 0.18685949 0.038422003 0.07320127 0.11835275 0.13516478 0.043667663
0.014757605 -0.21021065 0.1611633 -0.18413323 0.110076405 -0.13157982 0.025206128 -0.08648299
-0.23123723 -0.07986654 -0.15814538 -0.08466673 -0.10197801 0.025968619 -0.06711523 0.08132084
-0.06740293 -0.031882755 -0.047217913 0.0998818 -0.114701085 -0.1430864 0.3203615 -0.0072564813
0.023386406 0.10099125 -0.062055368 -0.12900756 0.056228798 0.12773636 -0.0015933564 0.23350574
-0.07603845 0.13081644 0.22380939 -0.03246804 -0.124528766 -0.11562491 0.105647884 0.17102604
-0.12458782 -0.0123545695 0.06631908 0.0074962936 -0.033254836 0.08457243 0.028985625 -0.033330448
0.06493939 0.012636285 -0.16087084 -0.14655814 -0.11776162 -0.10824441 -0.011785978 0.06943247

conv.0.lin_rel.bias f4 [64]
00000000: d1a8 12be f7d2 cf3d 10c0 003e d83c 07be
00000010: 60ec a9bd b757 083e ddc5 71bd 19bf 57bc
00000020: edbc 8b3c d9c8 06bd 6274 c33d c0a4 d4bb
00000030: 8a13 25bd 9745 c53c 5ac3 e6bd 66bf 17bc
00000040: 5edc 06be 3709 f1bd 621c 013c 50d6 50bc
00000050: af70 d6bd 4554 acbc b459 47bc 7b6b d63a
00000060: a71f 94bc 0664 54bd f50d 013e 5053 503d
00000070: 3e08 cb3d 9b47 083d e7a7 ba3d d151 773c
00000080: 92ea 313d 394a 48be 9c2e 7b3d f0aa b03d
00000090: ae8d aabd c327 8dbd 20e3 0bbe 857f b53d
000000a0: 4dab 99bd fc71 0d3c 5c09 bb3d 6b40 ea3d
000000b0: 0a25 b9bc f059 f93c 76c0 72bd 36e4 c639
000000c0: 531a d53d 7b6a fbbd 47ed 193d d9ff 1cbe
000000d0: c3d5 03be 5b60 c9bc d7f4 d03d 30b1 5b3d
000000e0: 50d0 bd3d 5701 4bbd 9568 953b 2bd3 483d
000000f0: d695 803d 8cba 22bc 6f49 1dbd cdd0 0a3e
-0.14322211 0.1014766 0.12573266 -0.13206804 -0.08297038 0.1331471 -0.059026588 -0.01316812
0.01705786 -0.032906387 0.09543683 -0.0064893663 -0.040301837 0.024081035 -0.11267729 -0.009261942
-0.13170001 -0.11769336 0.007880302 -0.012746409 -0.104707114 -0.021036277 -0.012167383 0.0016358936
-0.0180815 -0.051853202 0.1260298 0.050860703 0.099136814 0.033271413 0.09114056 0.01509519
0.043436594 -0.19559564 0.061323747 0.08626354 -0.083278045 -0.068923496 -0.1366086 0.08862213
-0.07503376 0.008633133 0.091326445 0.11438068 -0.02260067 0.030438393 -0.059265576 0.00037935533
0.104054116 -0.12276169 0.0375798 -0.15331973 -0.12874512 -0.024582079 0.102029495 0.053635776
0.09268248 -0.049561825 0.0045595863 0.04902951 0.06278579 -0.009932172 -0.03840011 0.13556214

conv.0.lin_root.weight f4 [64, 38]
00000000: 2b83 003e 2a9f d2bd 875b 3cbe 0c0e a63d
00000010: 68ce e83c bd52 563e 02c4 31be b359 d0bd
00000020: ae65 0c3e 51c6 af3c 51e7 0dbe 4fac 9dbd
00000030: 4484 473d b865 6bbc 2e49 00be 4396 ef3d
00000040: a076 4abe 3451 843d 8c90 5b3d a2a0 08be
00000050: f881 e83d 3aad 603a ad50 51bd 6952 d3bd
00000060: f7d7 de3d 9111 c03d 54fc 0ebd 0c0c 213d
00000070: 255d 343d 9b66 05be 4327 133e bc56 10be
00000080: bcb2 6b3e 5cb4 8f3e 1312 22bb ce4f aabd
00000090: d7b3 0bbe e783 db3d 3313 35bc 67a4 edbd
000000a0: 72b5 9abd b04c d7bb d0a0 663c 9efa cfbd
000000b0: 0da3 c1bb 1ac7 a9bd 6b51 0abe 380d 87bc
000000c0: 3ca5 55bd efe6 1a3d 7ac7 e03c ba86 f13d
000000d0: 8fbd 47bc 0225 b0bc e5fc 44be 21e0 0f3d
000000e0: 7450 333e 77c0 e4bd ea08 e5bd a680 273d
000000f0: c496 6d3d f51f 90bc d399 013e 22aa febd
00000100: d8af 89bd e6bd 42bd bc38 f7bd c077 873d
00000110: 58c6 1a3e 5b69 f7bd 5723 373e cafb fdbc
00000120: 7a95 1fbe 7123 d3bd 8c27 d93d 52c8 0cbe
00000130: 8f30 2fbd 8004 be3d 9f3e a4bd 5871 293e
00000140: bc3f 703c fe81 553c 7005 70bb 09bc 493e
00000150: 0f68 0bbe 0787 1dbe e481 02be 1b46 2bbc
00000160: 6dc4 3ebd f1df f83d 761d aa3d 50f1 c83c
00000170: 77cc 0dbd 1d7d 183e a230 99bc 3d54 0ebe
00000180: c81d 06be f871 ba3d 28ac 783d ed45 71bc
00000190: 2022 8b3d 01bc dc3c 404c b13d 769a 89bd
000001a0: 5e51 22be 858b ba3d d1a5 3b3c 8e6e 3dbe
000001b0: d84e c6bd 66d2 58be 30a9 8c3d 18ea 983e
000001c0: 2d78 2a3d 965c 233e 465d d9bd 1450 0ebe
000001d0: e3d3 d5bc 40fe f1bb 54ad 1e3e 4bb6 3d3e
000001e0: f300 5dbd 8268 0fbe 64c9 0a3d bf78 233e
000001f0: 75a6 633b ce9c 6fbd 9e23 373c 1a12 fbbd
00000200: ffd8 e43d 0d24 223d 545a 0c3e f3c0 0f3e
00000210: 6568 e63d ac2a f9bd 881f aabd 405c 6f3b
00000220: 7f0a 6c3e 524e 1fbd c4db f43d c70c 88bc
00000230: 1d36 833d d418 b6bd 2f49 a53b b827 0f3e
00000240: 986a 07be 947a 8cbd 52f5 ecbc 39d8 1abe
00000250: de3d 34be 14bd 4d3b 33b7 a3bc c371 d93d
00000260: 178b 0abd e6d6 9abc 3116 b73c 145f fe3d
00000270: 9b3a b73d e87d 873c b7b9 1cbe c108 e43d
00000280: 4a59 8a3d aa5b 5b3e edad 0bbd 8bfc 8c3e
00000290: 4240 09be fbe7 76bd 52e3 e63d 1a56 933d
000002a0: f1d9 04bd 6199 c8bd 1d2d 5a3e edb0 493e
000002b0: 8a93 8bbd 7d9f 1b3e 65b0 96bd 6c95 77be
000002c0: ec35 263d 7b79 4f3d b34f 843d ff52 a73d
000002d0: 2d91 be3d f365 c53d a61d 773d 7941 cfbc
000002e0: 6d40 b23e 7da8 2abd 5969 1e3e eccf 16be
000002f0: aad3 cdbd 88e8 94bd 60b6 873b 26e5 003e
00000300: 5ec2 be3d 5a5b 3dbe be84 f2bd 78a0 5cbe
00000310: d3ba 0ebd 5cb5 a8bd aa6d 373e e63b 903d
00000320: 3303 0bbe 1a5c 15be eda3 9a3c 5ad7 10bc
00000330: 5996 9a3d e4a6 a6bd 4d6c ddbc 0796 bbbc
00000340: 4536 a4bd 8ad3 623d 63b8 ad3d bb76 11be
00000350: ba54 8c3d ceec dabd 8a16 ebbd 023d 0b3e
00000360: 1923 973d 3bd0 473e 7ee1 31be 91a7 24bb
00000370: c216 30bd 491c fd3d 3b26 20be ddab aabd
00000380: e807 c8bc 7749 c53d 5bc7 8ebd 62cd b1ba
00000390: d2af 35be fe99 fe3b 83e7 7b3d 5295 043e
000003a0: 6a76 d63d a668 4abe 2cd0 69be 7ac9 ff3d
000003b0: ac50 223d 5c25 b53d 16eb 6b3d 6ad0 aebc
000003c0: 70f4 bebd 1fd5 173e 07ad 16be b6c1 673d
000003d0: 764b 123e 623c 403c eb02 e5bc abce 13be
000003e0: 0098 04bd 8022 653c 0337 12be a5f6 0f3e
000003f0: 3676 0bbe 2210 a3bd fb3d 08be 5949 a9bd
0.12550037 -0.102842644 -0.1839429 0.08108148 0.028418735 0.2093 -0.17359927 -0.10173359
0.13710663 0.02145687 -0.13857771 -0.07698881 0.048710123 -0.014367513 -0.12527916 0.11698582
-0.19771814 0.06460801 0.053604648 -0.13342527 0.113529146 0.00085707346 -0.05110233 -0.10318453
0.10881036 0.093783505 -0.034908608 0.03931813 0.044034142 -0.13027422 0.14370446 -0.14095587
0.230174 0.2806729 -0.0024730011 -0.08316003 -0.13642822 0.10718518 -0.011051941 -0.11603623
-0.07554139 -0.006570421 0.014076427 -0.10155223 -0.0059093297 -0.08289929 -0.13507621 -0.016485795
-0.052159533 0.03781789 0.027438868 0.11793275 -0.01219119 -0.021502022 -0.19237097 0.035125855
0.17511159 -0.11169522 -0.11183341 0.040894173 0.05800511 -0.017593363 0.12656336 -0.12434794
-0.06722993 -0.047544383 -0.12071368 0.066146374 0.15114725 -0.12080642 0.17884575 -0.031003851
-0.15584365 -0.10309494 0.10603246 -0.13748291 -0.04277092 0.09278202 -0.080197565 0.16547143
0.014663633 0.013031481 -0.0036624335 0.19700636 -0.13613914 -0.1538354 -0.12744862 -0.010453726
-0.046574045 0.121520884 0.083064005 0.02452913 -0.03461882 0.14891477 -0.018699948 -0.13899322
-0.13097298 0.09103769 0.060711056 -0.014726144 0.06793618 0.026945116 0.08657122 -0.06718914
-0.15851352 0.091086425 0.011453108 -0.18499205 -0.09683007 -0.2117401 0.068682075 0.298661
0.041618515 0.15953287 -0.106134936 -0.13897735 -0.026102012 -0.0073850453 0.15495807 0.1852657
-0.053955983 -0.1400471 0.033883467 0.1596403 0.0034736667 -0.05849915 0.011177925 -0.12259312
0.11174201 0.039585162 0.13706332 0.14038448 0.112503804 -0.12166342 -0.08306795 0.003652349
0.23050879 -0.03889305 0.119559795 -0.016607655 0.06406806 -0.08891454 0.0050441246 0.13979995
-0.13224256 -0.068593174 -0.028925572 -0.15121545 -0.17601725 0.0031393217 -0.019984817 0.106174015
-0.033824053 -0.0189013 0.022349449 0.124204785 0.08946725 0.016539529 -0.1530522 0.11134482
0.06755312 0.21421686 -0.034101415 0.27536425 -0.13403419 -0.060279828 0.11273827 0.07194157
-0.032434408 -0.0979488 0.21306272 0.19696398 -0.0681525 0.15197559 -0.07357863 -0.24178094
0.040578768 0.050652962 0.06460514 0.08170127 0.09305034 0.09638586 0.06033101 -0.025299774
0.34814778 -0.04166459 0.15469874 -0.14727753 -0.10050137 -0.07270914 0.004141614 0.12587413
0.09314416 -0.18491879 -0.11841725 -0.21545589 -0.03484614 -0.082377166 0.17912927 0.07042675
-0.13575439 -0.14585915 0.018876994 -0.008840406 0.07548208 -0.081373006 -0.02702918 -0.022898687
-0.080181636 0.05537752 0.084824346 -0.14205448 0.06852098 -0.10689698 -0.11478908 0.13597491
0.07379741 0.19513027 -0.17371175 -0.0025124291 -0.042990454 0.123589106 -0.15639584 -0.083335616
-0.024417832 0.09633153 -0.06971618 -0.0013565237 -0.17742851 0.007769822 0.061500084 0.12947586
0.104718044 -0.19766483 -0.22833318 0.124896005 0.039627716 0.08845016 0.057597242 -0.021339614
-0.093239665 0.14827393 -0.14714442 0.05658122 0.14286599 0.011733146 -0.027955493 -0.14434306
-0.03237152 0.013985276 -0.14278798 0.14058931 -0.13619313 -0.079620615 -0.13304894 -0.08265943

conv.1.lin_rel.weight f4 [64, 64]
00000000: 69b5 adbc 0de7 893d f9b4 16bc 1150 c23c
00000010: 9886 12bd 90d9 86bd 2efb 033e 636e 7bbe
00000020: 2abd 85bd bfbb 5dbd 09ce a1bd 0ab2 a8bd
00000030: 4a53 7f3d 2b1c 0a3e 7723 89be c07b 113d
00000040: d46a eabd 42d7 4a3d 5d41 183d 16fc 863d
00000050: ed77 2b3e 781b 06bc 511d d93c 7848 5e3e
00000060: 4fff ea3d f0c6 e73d dc49 b3bc 62e1 22bc
00000070: 4acc 36bd 9e01 bfbd 9946 56bd 4288 6dbd
00000080: 8f8e 5c3e eb16 1e3d 0666 2a3e d169 15be
00000090: 4547 3ebe 3062 e9bd 94fc 1d3d 8a11 8e3c
000000a0: fffa 9d3e d96d 37be 1195 9d3d fbf3 c53c
000000b0: afc6 453d 6901 9b3d 0ea5 ed3d fce9 9bbd
000000c0: 931a ce3d 099f 3a3e 63ee a43c d5cb 943e
000000d0: 630a 35be 1099 693c 027d 313e a804 cfbd
000000e0: f302 323e 4311 9abe bb77 433c 39dc 8cbe
000000f0: ebd7 f33c 4f8f d93d 1d2e 5d3c ff3e 843c
00000100: 40b7 e0ba 8bd9 c4bd 4d9d 72bd 30a3 04bc
00000110: 4b7b abbd 5bea a9bc 2a31 c7bd 3210 26bd
00000120: d4b6 eebd f920 88bd 6460 adbc 5339 ea3c
00000130: ae60 e9bd 8905 c4bd 0ace 2ebd 7873 90bd
00000140: 67c2 c8bc 3751 2f3d 7bfd 09bd 3078 91bd
00000150: 928c b63c d57f acbd b75d 6abc bff7 1ebe
00000160: e428 c8bc 2a8f e9bd 3b51 65bd b734 c0bd
00000170: 4471 2e3d a027 78bd 35fe cdbd a393 d8ba
00000180: d4f3 1abe 69f8 a23d b8cd 09bd 295c 373c
00000190: ee34 3bbd 9812 ffbd 2c0a 853d 58a2 c6bd
000001a0: 924d b33d a2e3 adbd dab4 49bc 70b8 15bc
000001b0: 788f e83d 3ff2 9ebd 9d58 81bc a9bd 403d
000001c0: 43e6 02be b16e 893d 0126 49bd 2df2 7abd
000001d0: 25b9 05bd 6642 92bb d595 183c d39c 15be
000001e0: 5ea1 a43a a405 7c3d 7b47 eabd 308f 28bd
000001f0: da2b c33d f659 35bd 87fa c8bd e281 9dbd
00000200: f8be 14be 19f9 a63d 1325 e8bc 9b7c 863e
00000210: 2128 e2bb 7f58 083d c33e ef3d 8ad5 dd3d
00000220: 2691 dfbe 7b85 553e dfaa 8fbd e4cc 6bbd
00000230: c889 ad3d d99e ccbd ac94 0d3e a88b 263e
00000240: d5a6 823c b884 0b3c 11ac 19be a8e7 433d
00000250: 1109 b7bc 4f0b c8bb 07f9 8e3b a31e 06be
00000260: e24c 623e e894 853e 5300 24bd a420 203e
00000270: 2fd1 5fba eaff ef3d 3c59 543d b3e0 01bd
00000280: b53d 183b 58d8 a33d 937a 24bd 5e08 54bd
00000290: 9601 713d 708f ea3c 16cc a5bd b18a abbd
000002a0: 5549 ac3e 9f1e adbc 63fa 84be 7c63 fcbc
000002b0: 8e10 9d3d af7d 343c c7d9 c5bc d56c e33d
000002c0: a67f 7e3d 07da 5ebe b355 a43d 8005 10be
000002d0: 6af7 96bc 0d7a cebc 7fb2 d23d ef7e 1cbc
000002e0: 2e0e 18bc 3607 3cbd 247d 933d 0c04 dcbd
000002f0: 97e6 4abe 7827 a43d b0c1 e63d 575d edbd
00000300: dd97 c1bc 7abc 9dbd 5c3a cf3d 37c5 c13e
00000310: 590b 8c3d f338 343d d94c 9ebd 27b1 a23d
00000320: 2c22 953d e2db a83d a05b 5ebd 4e38 b2bb
00000330: 3c67 233c bddf f4bd d75c aabd a7af 573e
00000340: f9b3 48bd d980 133b 7713 e83d bcbe bbbd
00000350: 1ca3 27bd 1df7 14b9 84f6 c03c ea9a 7abe
00000360: 55e6 a23e 33be 443e fda4 4f3a d05f bdbd
00000370: 4155 703d 775e 923e c63f 203c 5eaa fabd
00000380: ac35 ad3d 649f 84bd 7a77 c23d c83d 8fbc
00000390: f507 56bc d272 433e 73d3 e1bb f70f 0f3d
000003a0: cc58 883e b7e2 473d 03bf a4bc 4665 d13d
000003b0: 308c af3d 7f82 eabd 1955 363c 2c26 c53e
000003c0: a69f 00bd 0b13 5fbe 5e43 c2bd 04d0 aebc
000003d0: 25c8 223e 3e5a 58bc da3a 89bd 29ef 953c
000003e0: d0c8 58bd 75bf 6c3d 5af2 073d 44c2 573d
000003f0: 9569 00bd 8f83 92bd ae93 7d3c 1bb6 68bd
-0.021204667 0.067335226 -0.009198421 0.02371982 -0.03577289 -0.065844655 0.12888786 -0.24553828
-0.06530221 -0.054134127 -0.07900626 -0.08237083 0.06233529 0.13487308 -0.2678487 0.035518408
-0.11446157 0.049521692 0.03717171 0.0659105 0.16744967 -0.00818526 0.026503237 0.21707332
0.114744775 0.11317241 -0.021885805 -0.009941431 -0.04462842 -0.0932648 -0.05231342 -0.057991274
0.21538757 0.038596075 0.16640481 -0.14591147 -0.18581875 -0.11395681 0.038570955 0.017342348
0.30855557 -0.17912997 0.07694448 0.02416419 0.048285183 0.07568628 0.11603747 -0.07612988
0.100636624 0.1822473 0.020133203 0.29061761 -0.17679743 0.014257684 0.17332843 -0.1010831
0.17383938 -0.30091295 0.011930401 -0.27511767 0.029766044 0.10623037 0.013499764 0.01614332
-0.0017144457 -0.096118055 -0.059232045 -0.008095548 -0.08373126 -0.020741632 -0.09726174 -0.04054279
-0.116559654 -0.06646914 -0.021164127 0.028591787 -0.11395393 -0.09571368 -0.042676963 -0.07053274
-0.02450676 0.042802062 -0.033689003 -0.07103002 0.022283826 -0.084228195 -0.01430457 -0.15524195
-0.02443356 -0.114042595 -0.05598567 -0.093850546 0.042588487 -0.060584664 -0.10058252 -0.0016523491
-0.15132076 0.07957537 -0.033643454 0.011191406 -0.045704775 -0.12454718 0.06496081 -0.09698933
0.0875503 -0.08490683 -0.012311185 -0.009138212 0.113554895 -0.077610485 -0.015789324 0.047055874
-0.1278315 0.06710566 -0.04910851 -0.061266113 -0.03264727 -0.0044634817 0.0093130665 -0.14610605
0.0012560298 0.061528817 -0.11439415 -0.04115218 0.095298484 -0.044275247 -0.09813409 -0.07690789
-0.14525974 0.0815298 -0.02833799 0.2626694 -0.0069017564 0.03328752 0.11681893 0.10831745
-0.43665427 0.208517 -0.07015013 -0.057568446 0.08473545 -0.09991235 0.13826245 0.16264212
0.015948692 0.008515529 -0.15007044 0.047828346 -0.02234319 -0.0061048637 0.0043631825 -0.13097624
0.22099641 0.2609017 -0.04003937 0.15637451 -0.00085379457 0.117187336 0.051842913 -0.03170843
0.002323014 0.08000249 -0.04015596 -0.051765792 0.058839403 0.02863285 -0.08095567 -0.08376063
0.33649698 -0.021132765 -0.2597228 -0.030809157 0.07669173 0.011016293 -0.024151696 0.111047424
0.062133454 -0.21762858 0.08024158 -0.14064598 -0.018428523 -0.025204683 0.10287952 -0.009551748
-0.009280724 -0.045905314 0.07201603 -0.107429594 -0.19814526 0.080153406 0.11267412 -0.11590069
-0.023631984 -0.07701965 0.10118553 0.37845775 0.06838102 0.043999624 -0.07729501 0.079439454
0.072819084 0.08245064 -0.0542866 -0.005438841 0.009973343 -0.11956737 -0.08318489 0.210631
-0.04899976 0.002250722 0.113318376 -0.09167239 -0.040927038 -0.00014206437 0.023555048 -0.24473158
0.31816354 0.1921318 0.00079210085 -0.092467904 0.058675054 0.28587696 0.00978083 -0.12239526
0.08457503 -0.06475714 0.094954446 -0.017485514 -0.013063421 0.19086769 -0.006891662 0.034927335
0.26630247 0.048800196 -0.020110613 0.102243945 0.085716605 -0.114506714 0.011128687 0.38505685
-0.031402253 -0.21784608 -0.094855055 -0.021339424 0.15896662 -0.013205109 -0.06700678 0.018302517
-0.052925885 0.057799775 0.03319011 0.0526755 -0.03135069 -0.07153999 0.015477104 -0.056814294

conv.1.lin_rel.bias f4 [64]
00000000: 7d62 d6bd 19a7 933d ae55 bb3d 9968 83bc
00000010: 9af5 fbbc 5ec0 4c3d 0f6b debd 7d26 df3d
00000020: 3bfe d4bd 1604 4ebd af68 0d3c 95d1 6a3d
00000030: f55a 06be 048b f5bc 324b 813c 59d9 76bc
00000040: af9d 9d3d b607 9a3d dbd2 0a3e 74a8 cbbd
00000050: a702 ff3d 408d 843d d79c 233d 27a4 0d3e
00000060: 3df8 ef3d 415b 5dbd aec1 40bd 0f1f e93c
00000070: efbe 8a3c cc2f 1f3e 32f2 3d3d c870 a03d
00000080: 2cf4 99bd f8a8 643d 15a6 42bd 27aa 4cbd
00000090: 304c 6e3c 96e1 b83c a0be b83d f856 9b3d
000000a0: a729 f53d 7583 00be 7fe0 2fbd 0028 8a3d
000000b0: 2c38 853b b59d a3bc 902a f43d a0f5 123e
000000c0: 85f3 23bd 2c52 343d 2978 0d3b 3657 c03d
000000d0: cbb8 823d 9668 ac3d 3a08 a0bd 63fc af3d
000000e0: f292 aebc 4d5d 79bd 390e 023e 5c2f 803c
000000f0: 15c4 58bd 91bb ef3c 7a9d b8bd 8261 c03d
-0.10468004 0.07209606 0.091472015 -0.016041087 -0.03075676 0.049988143 -0.108602636 0.10896013
-0.10400053 -0.050296865 0.008630916 0.05732878 -0.13120635 -0.029973514 0.015782926 -0.015066468
0.076960914 0.07521002 0.13556997 -0.09944239 0.12451678 0.06472254 0.039944496 0.1383215
0.117172696 -0.054042105 -0.047059707 0.028457193 0.016936747 0.15545577 0.046373554 0.07834011
-0.07517275 0.055825204 -0.04752167 -0.049966957 0.014544532 0.022568505 0.09020734 0.07584947
0.11970835 -0.12550147 -0.042938706 0.06745911 0.004065534 -0.019972662 0.11922181 0.14351511
-0.04002716 0.044023678 0.0021586514 0.09391634 0.06382903 0.08418386 -0.07814069 0.08593061
-0.021310303 -0.060879994 0.12700738 0.015647583 -0.052921373 0.029264243 -0.09014411 0.09393598

conv.1.lin_root.weight f4 [64, 64]
00000000: 88af 5a3d d7e4 ccbd 3ab2 9e3d dd1a fcbd
00000010: 8626 d4bc 7d3e 8bbd 5e66 70bd 5b01 843d
00000020: a234 7439 0aea 85be 449b 313d 7c1a 8c3d
00000030: d341 d63d 4029 4c3d 2773 323d 954c aa3e
00000040: a731 e7bd 956f bc3d 7f99 fc3c afbf df3d
00000050: de51 113e 6f52 cd3d ccbb 9abc 9172 76bd
00000060: 8bfa d9bd 9a74 8d3e 2400 a8bc 456a 2ebe
00000070: d3bb cfbd c55a 733e bb71 e6bc 795a 8dbd
00000080: 902d b9be 6601 44bd 331c 9d3d 2c42 6fbd
00000090: 8243 0b3e 6a0b 89bd 9d88 54be 8869 fa3c
000000a0: a1a3 103e 0481 88bd 42ce cbbd c900 46bc
000000b0: a28c ab3d 52b0 4f3e 46a6 293e eede 423d
000000c0: 7cf5 50bd cd5c 2f3e 2aec df3d 9479 9c3d
000000d0: 3418 97bd e563 243d 0a07 6e3c 5a6c 4ebc
000000e0: ee01 1ebd 65d1 8c3d 6dba a7bd 139f bbbc
000000f0: 0b05 363c c0c1 863d a952 4b3d fcab 813d
00000100: 4c3d eb3c c489 c3bd a6fe 88bd 1308 303d
00000110: ff85 833d 50fc b83d ae63 c33d d727 cdbd
00000120: f995 043e be30 27bd ab02 8c3d b0d6 913d
00000130: 39d7 2e3d 2326 b7bc 4880 0bbc 50a6 2abe
00000140: e75b 19bd d164 3c3d 3455 2d3b a2b2 70bd
00000150: 78a6 b13c 71f8 5bbe 3655 ee3d 6c52 4dba
00000160: f486 f43d 8153 1abe 66d5 933d fcc9 1cbc
00000170: a539 6abd 46ca 993d b8cc 15be 4305 493d
00000180: b53f 2abe ba90 c2bd 3c7e 0a3d 5aba 6f3b
00000190: 2fb8 eb3d c6a3 513d b0a7 b0bd b0d5 efbc
000001a0: 6f6f 6bbe 5a4c babb cafd d53d 0eb4 e1bc
000001b0: 314a 24be cc51 b4bd 6a88 50be 9314 a03e
000001c0: 53be 22be a97e 97bd fa01 dd3d 345a 9cbd
000001d0: 124a 8b3d 41ba 12be 5b6c b6bd 4eb7 d4bd
000001e0: 2fe2 df3d 8ada 06be 47a3 bebc 7144 243d
000001f0: adb3 2dbe 6812 983d 2dbc c1bd c95e 02be
00000200: ae13 573d 70f2 39bc bdd2 4d3d 69b7 803d
00000210: 9d4d 12bc 3dbc a93d 1421 e1bd 3dd5 a2bd
00000220: f7f9 3a3d cda9 a03e 708d 9e3d cb76 463d
00000230: ccc5 083d c00d d5bd fb01 efbb f914 96bd
00000240: c89a 293d b160 cabd 4828 0c3e d664 153c
00000250: 8ef6 b8bd d785 07be 31c7 aabd 53e2 cf3d
00000260: 221f 1d3e f5ae c33d c6ba 96bd ad59 bfbd
00000270: 8979 e2bd 8904 fdbd 6dc3 febc 79af 013d
00000280: 1ef5 70bd bc9f 81bd 3a2c 2cbe 7b49 93bd
00000290: ca44 a73d 70d6 073e 4575 62bd 98e5 d13c
000002a0: 963f cfbd a98c 62bd 86ae 0f3e f3b2 ccbd
000002b0: f881 db3d 2c42 17be e269 af3d 1465 0f3e
000002c0: 3a88 713d 4ef5 2abe f5c8 b7bc 9980 13be
000002d0: 39bb 403b 32c2 45bd e72b 383d 508c eabc
000002e0: 7377 c13b fc17 eb3d 53cf d53b d403 e8bc
000002f0: b0d8 aebc 69fb d63c 05a2 09be 3283 b2bd
00000300: 7437 b8bd befb bdbd 09f0 7ebd 3a41 993e
00000310: dcae 02bd 542a 3e3d 7af4 13be 61e2 323c
00000320: 8a3e 59bc 9acf 693e 900d d23d 7f08 96bd
00000330: cbe6 81bd c727 ac3c 7f04 c23c 3deb b5bb
00000340: 4db7 efbd 0fa5 7cbd c54f 3c3e d097 b8bd
00000350: 9e8f 63bd 4183 8dbd befb 2c3d a3a6 d13d
00000360: 658e 3e3e 67ce b53c 0d1d d3bd 481c eabd
00000370: 5b0e 45bc a67f b13e 0a3a adbd 842b fe3d
00000380: dca8 95bd 3121 e73d c5c8 8abd 7222 003e
00000390: c04b 35bd 6c94 b43d 61d2 e2bc d1ec 99bd
000003a0: d579 9abd d52a 7a3d d243 c83d a9c9 683d
000003b0: 6603 bfbc fcd4 b3bd 3016 753a 4935 023e
000003c0: 92fc a5bd 5de9 063c a07d c7bd 0b24 213d
000003d0: 4b14 90bd 867d 10bd 55c8 003d 33d9 5d3d
000003e0: 5269 9fbd 172c 043d 7429 b63c 61a1 fcbd
000003f0: 8ee3 d0bc 8ce0 01bd 385a e3bd 4c78 823c
0.053390056 -0.10004585 0.07748838 -0.12309811 -0.025897276 -0.06799028 -0.058691375 0.06445571
0.0002328926 -0.2615512 0.043360963 0.06840989 0.10461774 0.049844027 0.04356685 0.33261552
-0.11288767 0.0920097 0.030834911 0.109252326 0.14191386 0.100254886 -0.018888377 -0.060167853
-0.106434904 0.27628022 -0.02050788 -0.17032726 -0.101432465 0.23765095 -0.028130403 -0.06902022
-0.36167574 -0.047852896 0.07671394 -0.058412716 0.13599971 -0.0669163 -0.20755239 0.0305679
0.1412492 -0.06665233 -0.0995145 -0.012085148 0.08376433 0.20282105 0.16567335 0.047575884
-0.051015362 0.17125244 0.109337166 0.07640377 -0.07377663 0.04013433 0.014528045 -0.012599075
-0.03857606 0.06875876 -0.08189855 -0.022903001 0.011109601 0.06579924 0.049639378 0.063316315
0.028715752 -0.09547761 -0.06689195 0.04297645 0.06422042 0.090325 0.09540497 -0.100173645
0.12947835 -0.04081797 0.068364464 0.071210265 0.04268572 -0.022357052 -0.008514471 -0.16665006
-0.03744116 0.045994584 0.002644849 -0.058764108 0.021685824 -0.21481492 0.116373464 -0.0007832411
0.11939803 -0.15070917 0.07218437 -0.009569641 -0.05718388 0.07509284 -0.14628875 0.049077284
-0.16625865 -0.09500261 0.033811793 0.003657958 0.115097396 0.051181577 -0.08625734 -0.029276699
-0.22991727 -0.0056853713 0.10448797 -0.027551677 -0.16043927 -0.08804664 -0.20364538 0.31265697
-0.15892915 -0.073972054 0.107913926 -0.076343924 0.06801237 -0.14328863 -0.08907386 -0.10386525
0.10931813 -0.13169304 -0.023271216 0.040104333 -0.16963072 0.07425386 -0.0945972 -0.1273147
0.052509002 -0.0113493055 0.050249804 0.06284983 -0.008929637 0.08287857 -0.10992637 -0.07950828
0.04564854 0.31379548 0.07741821 0.048453134 0.03339176 -0.10403013 -0.0072939373 -0.07328219
0.041407377 -0.09881724 0.13687241 0.009118279 -0.090314016 -0.1323465 -0.08338774 0.1015059
0.15343907 0.09554855 -0.07359843 -0.09343276 -0.11058337 -0.12354381 -0.031099046 0.031661484
-0.058827512 -0.06329295 -0.16813746 -0.0719175 0.08167417 0.13265395 -0.05528762 0.025622174
-0.1011955 -0.055309925 0.14031419 -0.09995069 0.10718149 -0.14771336 0.085651174 0.14003402
0.058967806 -0.16695139 -0.022434691 -0.14404525 0.0029408468 -0.048280902 0.044963744 -0.02863136
0.005904132 0.11479184 0.006524959 -0.028322138 -0.021343559 0.026242929 -0.13440712 -0.0871643
-0.08994952 -0.09276532 -0.062240634 0.29932576 -0.03190504 0.046427086 -0.14448729 0.010918231
-0.013259539 0.228331 0.10256493 -0.07325839 -0.063428484 0.021015061 0.023683785 -0.005551724
-0.11704884 -0.06168085 0.18389805 -0.09013331 -0.055556886 -0.069098 0.042232268 0.102368616
0.18609007 0.022193147 -0.10308275 -0.114311755 -0.012027348 0.346677 -0.08458336 0.12410644
-0.07307598 0.11285628 -0.06776575 0.1251314 -0.044261694 0.08817372 -0.027688207 -0.07515872
-0.07542769 0.061076004 0.09778561 0.056832943 -0.02331705 -0.08780858 0.00093493145 0.12715639
-0.081048146 0.008234349 -0.09740758 0.039341014 -0.070351206 -0.03527596 0.03144105 0.054162215
-0.0778376 0.03226861 0.022236563 -0.12335468 -0.025499132 -0.031708285 -0.11101192 0.015926503
