out_ec/checkpoints/model_merge_ec.pt_l3_emb32.pt (torch, 21135 bytes, 19 tensors)

enlarge f4 [20, 21]
0.9729069 -0.1244482 0.48303765 -0.014712757 -0.31342456 -0.013150027 0.02408558 0.15721604
-0.27396318 0.084109955 0.0051838057 -0.14717416 -0.14373535 -0.12516096 -0.089268215 0.07079889
-0.05630677 -0.26797187 -0.005613903 -0.18044974 0.2959085 0.1533922 1.0193096 -0.08117875
0.068612024 -0.08117954 0.1367307 0.090321705 -0.043553706 0.07299844 -0.26948628 0.16171177
-0.4489132 0.07540686 -0.109579936 0.35301676 -0.0388461 0.32413077 0.12533359 -0.17354856
-0.0087762335 -0.14894089 -0.30407235 0.20643315 0.74960065 -0.17928006 0.117972225 -0.18355237
0.11317685 0.2879025 0.056152917 0.29263225 -0.26723456 0.061221883 -0.0146331685 -0.0031846697
0.0026896044 0.100222334 -0.075727865 0.037907127 0.068943694 0.32078353 -0.07646236 -0.4177393
0.07386379 -0.1657202 0.88760585 0.26333192 -0.22255784 0.2792382 -0.16202746 -0.12776823
-0.3936339 0.2170115 -0.30145872 0.052892193 0.052545868 0.11603801 0.19632696 0.5580063
0.04674287 0.19605774 -0.24420977 -0.092619635 0.037784982 -0.07913208 -0.010919978 -0.100347795
0.80742335 0.08092858 0.1464056 -0.057763245 -0.22005008 0.16293404 -0.29744768 0.0846698
0.13185495 -0.04796626 -0.026102852 -0.029779425 0.04855324 0.051586393 0.020036032 0.05430535
-0.1365873 0.15740527 0.21622458 -0.56338906 0.018270133 -0.5708009 1.0026968 -0.27193806
-0.07757036 -0.11221303 0.4338085 -0.31458578 0.41415593 -0.64304835 0.25539863 0.24081604
-0.78134567 -0.0426913 -0.4437235 0.38451514 0.08756631 0.38283864 -0.18469606 -0.027823377
0.019397033 0.013577144 -0.17296126 0.12253019 0.80740225 0.15209076 0.14242814 0.16698787
0.12922986 -0.0931222 -0.22613859 -0.08850803 -0.5548884 0.082510255 0.09831699 -0.13862184
-0.1958772 -0.42373514 0.17145266 0.38185513 0.35255706 -0.21102282 0.121015415 -0.25550175
-0.14562526 -0.3718696 0.7397063 -0.29241055 0.02485027 0.37500605 0.026829729 -0.090896115
-0.42501053 -0.24136855 0.004297937 -0.57980704 0.28332457 -0.015808562 0.13492343 -0.056781527
0.019477684 0.06709281 0.20185685 -0.17285661 0.09813313 0.16800754 -0.1302471 -0.022607319
1.1418833 -0.18676941 -0.18959944 -0.10510834 0.17386512 0.061556473 0.0010540655 -0.0812507
-0.08406739 -0.0713015 -0.19366471 -0.13328284 0.15104997 0.08551541 0.020775523 -0.45469227
-0.0807695 0.15129185 0.0052233003 -0.3044017 -0.27731588 0.26111132 0.49784464 -0.11507817
0.15850075 0.12594946 0.009061144 -0.14660963 -0.08869267 -0.24598429 0.12831633 0.03253852
0.29507273 -0.031023892 -0.0037856845 0.08288004 0.10399884 -0.32129943 0.28088903 0.36469424
-0.1788571 -0.47053158 0.34218225 -0.56879085 1.0416315 -0.28289482 0.19365469 0.290261
-0.08493968 -0.088012286 -0.011039299 0.042947266 0.021236762 0.025869371 0.1637825 -0.048739027
0.098352216 0.15071432 -0.104779504 0.21090475 -0.20885442 0.04065015 -0.02372946 0.16547418
-0.028949296 -0.072917484 0.80661017 -0.1647903 -0.10220449 -0.07071225 0.06564842 -0.029498909
0.011603187 0.15407047 0.08518913 0.0036302132 -0.094160475 0.04428434 0.050657474 -0.23602207
00000000: 6d10 793f b3de febd b650 f73e c70d 71bc
00000010: 2f79 a0be 3673 57bc 1f4f c53c 3efd 203e
00000020: e744 8cbe d741 ac3d eadc a93b d3b4 16be
00000030: 5c2f 13be 322a 00be 41d2 b6bd 02ff 903d
00000040: eda1 66bd 9c33 89be d5f4 b7bb d1c7 38be
00000050: 5281 973e d812 1d3e bd78 823f 0b41 a6bd
00000060: 7684 8c3d 7541 a6bd 2203 0c3e 96fa b83d
00000070: 5f65 32bd 3580 953d 1bfa 89be c597 253e
00000080: f3d7 e5be e96e 9a3d 726b e0bd 9dbe b43e
00000090: 171d 1fbd 78f4 a53e 7357 003e b7b6 31be
000000a0: 31ca 0fbc f683 18be 5faf 9bbe 3663 533e
000000b0: d4e5 3f3f 3195 37be 6c9b f13d 27f5 3bbe
000000c0: 44c9 e73d f567 933e 9a00 663d e5d3 953e
000000d0: f8d2 88be ccc3 7a3d f5bf 6fbc e4b5 50bb
000000e0: 1344 303b 5e41 cd3d 3617 9bbd 8144 1b3d
000000f0: 5a32 8d3d bd3d a43e 4c98 9cbd ede1 d5be
00000100: e645 973d 8eb2 29be 233a 633f 71d3 863e
00000110: 34e6 63be 4ff8 8e3e 87ea 25be add5 02be
00000120: 628a c9be 4338 5e3e cc58 9abe 7ca5 583d
00000130: 563a 573d 56a5 ed3d ef09 493e 80d9 0e3f
00000140: 7475 3f3d 5cc3 483e 2012 7abe 5daf bdbd
00000150: 6dc4 1a3d 0010 a2bd b5e9 32bc 2583 cdbd
00000160: 4cb3 4e3f e2bd a53d 59eb 153e 2799 6cbd
00000170: cf54 61be 2ed8 263e 104b 98be 5c67 ad3d
00000180: fc04 073e 4578 44bd a6d5 d5bc fbf3 f3bc
00000190: c3df 463d 414c 533d 9b22 a43c 496f 5e3d
000001a0: 8bdd 0bbe d92e 213e fa69 5d3e 443a 10bf
000001b0: 3fab 953c 0220 12bf 5e58 803f 773b 8bbe
000001c0: 35dd 9ebd f2cf e5bd 261c de3e 6311 a1be
000001d0: 3f0c d43e d19e 24bf 9cc3 823e 7b98 763e
000001e0: 4506 48bf 13dd 2ebd ba2f e3be 2bdf c43e
000001f0: f755 b33d 6d03 c43e f720 3dbe daed e3bc
00000200: 87e6 9e3c ab72 5e3c c21c 31be 1cf1 fa3d
00000210: eab1 4e3f aebd 1b3e afd8 113e defe 2a3e
00000220: d554 043e dab6 bebd e090 67be b343 b5bd
00000230: 2b0d 0ebf 23fb a83d 6b5a c93d e2f2 0dbe
00000240: 0894 48be d0f3 d8be 4991 2f3e 8482 c33e
00000250: 5c82 b43e 5e16 58be eed6 f73d 20d1 82be
00000260: ca1e 15be b165 bebe 645d 3d3f d6b6 95be
00000270: cb92 cb3c cb00 c03e 05ca db3c be27 babd
00000280: fb9a d9be 5129 77be b5d5 8c3b 3c6e 14bf
00000290: eb0f 913e f580 81bc 5e29 0a3e bf93 68bd
000002a0: aa8f 9f3c f567 893d 90b3 4e3e 5301 31be
000002b0: 06fa c83d 2b0a 2c3e 7f5f 05be fc32 b9bc
000002c0: 3b29 923f 7b40 3fbe 5b26 42be 0b43 d7bd
000002d0: b309 323e a422 7c3d 9228 8a3a c466 a6bd
000002e0: 862b acbd 8506 92bd 0b50 46be 4c7b 08be
000002f0: d8ac 1a3e b422 af3d 6e31 aa3c 6dcd e8be
00000300: 7b6a a5bd 40ec 1a3e 3828 ab3b 8ada 9bbe
00000310: 59fc 8dbe 62b0 853e 7ee5 fe3e 1bae ebbd
00000320: 054e 223e e5f8 003e 3175 143c d620 16be
00000330: 81a4 b5bd 4ee3 7bbe 5b65 033e 1c47 053d
00000340: c613 973e d125 febc 3f19 78bb 03bd a93d
00000350: 58fd d43d 5c81 a4be b0d0 8f3e 34b9 ba3e
00000360: 5126 37be 84e9 f0be 8332 af3e 479c 11bf
00000370: 2e54 853f 97d7 90be 6a4d 463e 179d 943e
00000380: dbf4 adbd c93f b4bd 2dde 34bc 79e9 2f3d
00000390: b8f8 ad3c 01ec d33c 9ab6 273e 93a2 47bd
000003a0: e36c c93d db54 1a3e a396 d6bd 6af7 573e
000003b0: efdd 55be c680 263d 4964 c2bc 1072 293e
000003c0: 1327 edbc c355 95bd 017e 4e3f cabe 28be
000003d0: 9650 d1bd 96d1 90bd ae72 863d b2a7 f1bc
000003e0: 4b1b 3e3c a6c4 1d3e a377 ae3d dfe8 6d3b
000003f0: 35d7 c0bd 7f63 353d 367e 4f3d c5af 71be

virtual_embedding f4 [42]
-0.027896248 0.06961999 -0.02647773 -0.08804585 -0.026536355 -0.16723847 -0.08509815 -0.034005467
-0.018060012 0.00022393704 0.001760166 -0.010986929 -0.018056352 -0.057751916 0.030898672 -0.08508167
-0.0040565385 0.006576508 -0.023763798 -0.029887075 1.0550277 0.0808729 -0.070962556 0.087399006
0.07290369 -0.12727946 0.19216032 -0.20741546 -0.14438628 0.18608113 -0.1504184 -0.071538754
-0.014899871 0.08300092 -0.10911133 0.00033991292 0.097102165 -0.049758397 -0.13435647 -0.023206124
0.12004555 -0.25144824
00000000: ac86 e4bc ed94 8e3d d3e7 d8bc 6251 b4bd
00000010: c562 d9bc 9040 2bbe f047 aebd 5149 0bbd
00000020: 97f2 93bc a4d0 6a39 5fb5 e63a 8502 34bc
00000030: eaea 93bc 468d 6cbd 361f fd3c 4c3f aebd
00000040: b6ec 84bb bf7f d73b 4cac c2bc bdd5 f4bc
00000050: 260b 873f b1a0 a53d d154 91bd 40fe b23d
00000060: 884e 953d 8c55 02be adc5 443e b864 54be
00000070: ffd9 13be 0d8c 3e3e 4807 1abe e982 92bd
00000080: 971e 74bc 63fc a93d c375 dfbd 5736 b239
00000090: 80dd c63d 76cf 4bbd be94 09be c51a bebc
000000a0: 71da f53d d3bd 80be

embed_transform.0.weight f4 [32, 42]
0.64047575 0.051884178 -0.18249218 -0.04617054 0.18580057 -0.021918757 0.2108271 0.1466006
0.1799019 0.26642653 0.10676148 -0.14711155 0.104187146 0.24291274 -0.056469776 0.12624742
0.36531398 0.1849354 0.25678113 0.32791302 -0.0040609413 0.03552738 0.009587393 0.12952137
-0.14048369 -0.24342923 0.11348294 -0.09355067 0.11334096 0.07504725 0.25111923 0.019288547
0.20814215 0.3300975 0.18835035 0.08602966 -0.03803151 0.00977512 -0.12092766 0.15231897
0.1049071 -0.05178281 0.0778938 0.373291 0.0074359886 0.10426832 0.10085859 -0.0012067454
0.019418765 -0.1757022 -0.10218378 -0.005891832 -0.024656005 0.03925752 -0.019773245 -0.009133009
-0.017875189 0.013647516 -0.07810956 0.053779434 -0.1191563 -0.066944174 0.074179314 -0.021090617
-0.20732094 0.30720258 0.028853226 0.32553813 0.19756778 -0.1127579 0.23927827 0.14397807
-0.06251936 0.00082045095 -0.063212864 -0.16368793 0.27323893 -0.12539539 0.32045123 0.12556578
0.09296657 0.09228357 -0.01818416 -0.092562966 -0.056335997 0.005590661 0.47811568 0.39254275
-0.073625244 0.021357365 -0.17220342 -0.09360081 -0.013737828 0.12541424 0.13926451 0.06007587
-0.104037106 0.1961381 -0.20542075 0.0064622047 -0.06791983 -0.017427389 -0.037223186 0.04096449
-0.18567663 0.16873138 0.027890882 0.09839553 -0.049631268 -0.16447958 -0.13052796 -0.024454953
-0.001409847 -0.02420752 0.23114818 -0.11665985 -0.03377264 0.28871018 0.0064273914 0.049013816
-0.00087059406 0.14901426 0.08071054 0.032793462 -0.13674195 0.032766487 0.23395257 -0.010827087
0.2414786 0.775448 0.18787976 0.42136827 -0.0196625 0.11141002 0.2883594 0.13444301
0.09459845 0.089492925 0.121018864 0.15265538 -0.03668972 0.23694828 -0.1631671 0.09103295
-0.04960378 0.2622323 -0.20066722 -0.16720846 0.18826663 -0.2746364 -0.18670867 0.12831053
0.12317053 0.24864921 0.12226474 0.06998645 0.14070246 -0.24460465 0.0017118052 -0.2637026
0.07620756 0.036798988 0.185251 0.16708058 0.006564019 0.1783678 0.23545295 0.113249704
0.1957745 -0.025117205 -0.08062551 0.025486127 0.40376407 0.07703951 0.029275732 0.17725055
0.05959317 0.00065560767 0.022500057 0.057779483 -0.12854275 0.10046496 -0.11323325 0.018913658
0.27689868 0.015078332 0.013534795 0.13772778 -0.1135855 0.4022523 -0.039737828 -0.27221066
0.15342648 0.04103679 -0.13688055 -0.027810197 -0.25062516 -0.15669928 0.0035642083 0.10094621
0.005636684 0.0069770697 0.38247526 -0.09635585 -0.32965228 -0.010341785 -0.15596852 0.1919173
0.2318737 0.27863696 0.11035929 -0.19716258 0.063984886 0.1839289 0.255562 0.77014166
0.16271211 0.20225988 0.051200032 -0.016342785 0.10592755 0.007549185 0.0024949482 -0.034154497
0.097306624 0.24354857 -0.068170175 0.016955532 -0.09688699 0.11779395 -0.28149483 0.048395824
0.09630981 0.09760103 -0.01433252 -0.12185195 0.04152057 0.07887602 0.09243944 -0.11696789
0.16149348 0.28397945 -0.09848537 -0.114220314 0.13915126 0.19419962 -0.10854647 0.15648589
0.048056845 0.20305653 -0.051216204 0.09492854 0.13691036 -0.045718063 -0.18508552 0.0012648853
00000000: 38f6 233f 8184 543d 3bdf 3abe 521d 3dbd
00000010: 8142 3e3e f78e b3bc 0fe3 573e 781e 163e
00000020: 3438 383e 0f69 883e c3a5 da3d 69a4 16be
00000030: 1260 d53d 1ebe 783e da4c 67bd 0147 013e
00000040: 6f0a bb3e b55f 3d3e d178 833e 37e4 a73e
00000050: a511 85bb 2885 113d 7114 1d3c 40a1 043e
00000060: f5da 0fbe 8345 79be be69 e83d 7e97 bfbd
00000070: 4e1f e83d 5fb2 993d b392 803e 0403 9e3c
00000080: 3723 553e 8a02 a93e eade 403e 5230 b03d
00000090: eec6 1bbd d327 203c eca8 f7bd 81f9 1b3e
000000a0: 89d9 d63d 361a 54bd c986 9f3d ff1f bf3e
000000b0: 98a9 f33b a18a d53d f38e ce3d a82b 9eba
000000c0: 1a14 9f3c 47eb 33be bb45 d1bd 4510 c1bb
000000d0: 64fb c9bc 7ecc 203d 80fb a1bc 9ea2 15bc
000000e0: fd6e 92bc d599 5f3c e8f7 9fbd d347 5c3d
000000f0: 3808 f4bd 071a 89bd 53eb 973d 3bc6 acbc
00000100: f14b 54be a849 9d3e 9a5d ec3c efac a63e
00000110: 354f 4a3e 9ded e6bd 5d05 753e fd6e 133e
00000120: 260a 80bd 8813 573a bf75 81bd cf9d 27be
00000130: f9e5 8b3e a667 00be 2f12 a43e 5194 003e
00000140: 4265 be3d 2bff bc3d f3f6 94bc a791 bdbd
00000150: 93c0 66bd dd31 b73b 94cb f43e 5dfb c83e
00000160: d5c8 96bd a4f5 ae3c 1856 30be c8b1 bfbd
00000170: a014 61bc 976c 003e 5b9b 0e3e 1e12 763d
00000180: 6811 d5bd 6dd8 483e d159 52be e7c0 d33b
00000190: 8d19 8bbd e2c3 8ebc 5777 18bd 62ca 273d
000001a0: 0422 3ebe ebc7 2c3e 6b7b e43c 9883 c93d
000001b0: 284a 4bbd 566d 28be 1fa9 05be c155 c8bc
000001c0: 9eca b8ba d94e c6bc 1cb2 6c3e 5ceb eebd
000001d0: 2e55 0abd d2d1 933e de9c d23b b6c2 483d
000001e0: 9438 64ba 3297 183e 914b a53d 7052 063d
000001f0: 1506 0cbe 2736 063d 4391 6f3e 1864 31bc
00000200: 2b46 773e c383 463f 8d63 403e 95bd d73e
00000210: 4013 a1bc f02a e43d d8a3 933e 6eab 093e
00000220: d5bc c13d 1148 b73d bdd8 f73d b151 1c3e
00000230: f647 16bd 92a2 723e 4715 27be 7c6f ba3d
00000240: 552d 4bbd 5043 863e b57b 4dbe b238 2bbe
00000250: f8c8 403e 249d 8cbe 8f30 3fbe d663 033e
00000260: d540 fc3d e69d 7e3e f065 fa3d 0e55 8f3d
00000270: 4e14 103e a479 7abe a75e e03a 0704 87be
00000280: b612 9c3d 89ba 163d 70b2 3d3e 2c17 2b3e
00000290: fb16 d73b 0ca6 363e 941a 713e 76ef e73d
000002a0: 1c79 483e 99c2 cdbc fd1e a5bd 48c8 d03c
000002b0: 2aba ce3e e4c6 9d3d a9d3 ef3c 2b81 353e
000002c0: f817 743d 16dd 2b3a 0a52 b83c 2eaa 6c3d
000002d0: b6a0 03be 93c0 cd3d d6e6 e7bd d1f0 9a3c
000002e0: aac5 8d3e 1c0b 773c 0bc1 5d3c 8308 0d3e
000002f0: 849f e8bd 03f4 cd3e 22c4 22bd 325f 8bbe
00000300: d51b 1d3e 3116 283d 6a2a 0cbe 36d2 e3bc
00000310: f151 80be c775 20be 7e95 693b e3bc ce3d
00000320: efb3 b83b e79f e43b ccd3 c33e 3756 c5bd
00000330: 2fc8 a8be 9770 29bc 36b6 1fbe f885 443e
00000340: 4d70 6d3e 81a9 8e3e 0d04 e23d fde4 49be
00000350: 820a 833d dc57 3c3e 06d9 823e 0128 453f
00000360: 019e 263e 371d 4f3e 20b7 513d 4ee1 85bc
00000370: 8bf0 d83d 275f f73b 4982 233b 96e5 0bbd
00000380: b248 c73d cc64 793e ce9c 8bbd 54e6 8a3c
00000390: b06c c6bd f43d f13d 1720 90be b33a 463d
000003a0: 143e c53d 0ce3 c73d f2d2 6abc 848d f9bd
000003b0: 7911 2a3d c089 a13d e450 bd3d dc8c efbd
000003c0: 8c5e 253e c165 913e b3b2 c9bd 57ec e9bd
000003d0: ab7d 0e3e 44dc 463e 9d4d debd d63d 203e
000003e0: 41d7 443d 0dee 4f3e 15c8 51bd e569 c23d
000003f0: 3b32 0c3e dd42 3bbd 0f87 3dbe 82ca a53a

embed_transform.0.bias f4 [32]
-0.044499006 -0.06352227 -0.12043382 -0.014361764 -0.04362248 -0.13272305 -0.08463703 0.015018451
-0.0671678 -0.029438168 -0.1042133 -0.13291356 -0.096072055 -0.06256759 -0.036659095 0.050879303
-0.13346192 -0.075081736 0.07977779 0.0023089405 0.045934137 -0.06528521 0.07096881 -0.06448977
-0.059584014 -0.08079439 -0.053856187 0.08300522 -0.026879044 0.19267587 -0.08620693 0.05307139
00000000: 9744 36bd f717 82bd 02a6 f6bd 9b4d 6bbc
00000010: 7cad 32bd 8de8 07be 2e56 adbd f30f 763c
00000020: 468f 89bd 5028 f1bc c86d d5bd 7e1a 08be
00000030: 6dc1 c4bd 7023 80bd d927 16bd d166 503d
00000040: 3eaa 08be 74c4 99bd 8a62 a33d 9851 173b
00000050: 6f25 3c3d 41b4 85bd 1858 913d 3613 84bd
00000060: 5e0e 74bd 8777 a5bd 4e98 5cbd a4fe a93d
00000070: 7131 dcbc d34c 453e 428d b0bd 6361 593d

conv.0.att_src f4 [1, 1, 21]
0.4168548 0.4822559 0.22278449 -0.42078733 -0.32336512 0.1700489 -0.51394427 0.3526442
0.42341027 -0.006955181 -0.4257204 0.30261436 0.0260379 -0.19243789 0.29833108 0.07016472
-0.3650217 0.034336895 -0.3203113 0.4307532 0.41618493
00000000: fe6d d53e 3fea f63e 9e21 643e 7071 d7be
00000010: 1d90 a5be 4d21 2e3e da91 03bf c88d b43e
00000020: 3bc9 d83e 49e8 e3bb 06f8 d9be 45f0 9a3e
00000030: 6f4d d53c 700e 45be dabe 983e 85b2 8f3d
00000040: 20e4 babe d8a4 0c3d d8ff a3be af8b dc3e
00000050: 3116 d53e

conv.0.att_dst f4 [1, 1, 21]
0.37877095 0.27238405 -1.069446 -0.2713869 -0.96535826 -0.5310243 -0.18816528 0.44889793
0.12034808 0.4635072 -0.07662317 0.34744206 -0.26412272 -0.089594156 0.3879855 0.056328792
-0.17311104 0.34498864 -0.080784805 0.09863392 -0.87564313
00000000: 44ee c13e ec75 8b3e 9be3 88bf 39f3 8abe
00000010: b821 77bf 35f1 07bf 66ae 40be f3d5 e53e
00000020: 0e79 f63d d150 ed3e 9cec 9cbd ede3 b13e
00000030: 183b 87be 247d b7bd 09a6 c63e 05b9 663d
00000040: 0544 31be 5aa2 b03e 8172 a5bd 9500 ca3d
00000050: 262a 60bf

conv.0.bias f4 [21]
-0.116123945 -0.25065494 0.033463255 -0.019925416 0.09741199 -0.031325057 -0.12550369 -0.14322777
-0.0020636814 0.09212556 -0.016931402 0.028540844 0.04002561 -0.10014607 0.07182489 0.023361504
-0.023447527 -0.044081844 0.029815687 -0.0036224918 -0.08774567
00000000: 64d2 edbd d855 80be c410 093d a03a a3bc
00000010: f07f c73d b44e 00bd 0a84 00be 4daa 12be
00000020: d43e 07bb 53ac bc3d b9b3 8abc 7dce e93c
00000030: e5f1 233d 6219 cdbd ee18 933d a060 bf3c
00000040: 0715 c0bc 2a8f 34bd 0740 f43c 5467 6dbb
00000050: 00b4 b3bd

conv.0.lin_src.weight f4 [21, 21]
0.24970494 -0.2577637 0.19780332 -0.3141912 0.02060717 0.4363964 0.03995281 -0.49530306
0.5147561 0.114514634 -0.3308557 -0.13369982 0.5675949 -0.06851743 0.3293544 0.14806609
-0.0361007 0.15114258 -0.2600739 0.45785803 -0.36284366 0.11573766 0.020435296 0.4604569
-0.5650163 0.18199052 0.36014885 -0.009500275 -0.092868485 0.2287729 -0.21748477 -0.11796659
0.34010407 0.38472003 0.5002199 -0.17820689 0.145384 -0.26799282 0.0099198315 -0.086809255
0.23855709 -0.107117444 0.42995116 0.29355815 0.30327073 0.0023562838 -0.005156928 -0.29929504
-0.11457507 0.30252442 -0.30704355 0.5706644 -0.58406377 0.03844926 -0.859535 -0.89755964
0.07530543 -0.29709968 -0.3844536 -0.80773747 0.20800659 0.15608285 0.5182464 0.5071171
-0.48499876 0.17729756 -0.06424207 0.17925152 0.18710011 -0.51971555 -0.07557951 0.32445377
-0.19944534 0.78127944 -0.36966515 -0.28779748 0.28812528 0.50120676 0.101755194 -0.40415135
-0.3967003 -0.5642095 0.035642143 0.54114527 0.26586303 -0.1522794 0.17437974 0.47106227
-0.39555955 -0.41134593 -0.11684671 0.31489712 -0.07255025 0.084126845 0.463879 -0.14869706
-0.18783745 -0.019909406 0.373117 0.15522927 -0.31598943 -0.24847707 0.14897276 -0.2173963
0.45604053 -0.19097416 0.43698204 0.44984895 -0.18286018 0.53763646 -0.66843426 -0.10436766
0.21756907 0.01501904 -0.07220713 -0.07453044 -0.055748962 0.45146865 0.03182661 0.39604166
0.4205502 -0.26648206 0.09114349 0.1920933 0.40173665 -0.62111896 -0.29916131 -0.330249
-0.5717128 -0.58080024 0.3231534 0.3078506 -0.5727631 -0.1828897 0.30266201 -0.10014306
-0.024986671 0.27907163 -0.045278803 0.74470466 -0.3945617 -0.31644383 -0.47009152 -0.1895344
0.37879023 0.26083705 0.5453725 -0.40559715 0.33615676 0.55053777 -0.217031 0.25868702
0.14222786 0.4969622 -0.59994024 0.48514444 -0.16971007 0.35551006 -0.2223405 -0.2569744
-0.23443088 0.37722147 -0.28259388 0.32122812 0.27729777 0.46521768 -0.19920446 -0.28310642
-0.07228783 -0.51810384 0.30738688 -0.15952793 -0.15993176 -0.28567293 -0.110255554 -0.1373016
-0.4191723 0.5776568 -0.26064005 0.3790916 0.009472744 -0.38869482 -0.34385118 0.29744142
-0.5724648 0.28008446 0.018756583 0.0789314 -0.4550086 0.18608266 -0.83342266 -0.41512528
0.46083745 0.060890064 -0.3913032 -0.17806898 -0.56556517 -0.5012944 0.13792045 0.034715414
0.04803202 -0.0023325267 -0.044987056 1.2899958 -0.12674648 0.4172489 -0.25027615 -0.13401762
0.31333846 0.1548489 0.30355436 0.28697628 -0.034171253 -0.17052044 0.13279572 0.32631359
0.086682566 0.0016452753 -0.46668085 -0.011589459 0.4709608 0.2162527 0.25905988 0.1441777
0.5242797 -0.17841484 0.14132932 0.2218972 0.30507287 0.18956165 -0.36426413 0.14369667
0.43650773 -0.27487674 0.13890295 -0.5036601 0.069920026 0.22196005 0.7001804 -0.19303586
-0.23501141 -0.2989069 0.30256325 -0.20899425 0.82290334 0.536017 -0.32922128 -0.1574388
0.12928544 -0.16291262 -0.20436116 -0.35966405 -0.31454572 0.3572935 0.079102255 0.2719523
00000000: a7b2 7f3e 9bf9 83be f48c 4a3e abdd a0be
00000010: 5ed0 a83c 596f df3e 8fa5 233d 5d98 fdbe
00000020: 0ec7 033f a686 ea3d eb65 a9be 9be8 08be
00000030: e64d 113f de52 8cbd 24a1 a83e a39e 173e
00000040: 54de 13bd 1fc5 1a3e 6828 85be 5e6c ea3e
00000050: a5c6 b9be de07 ed3d ec67 a73c 02c1 eb3e
00000060: e9a4 10bf b95b 3a3e 6e65 b83e 0ba7 1bbc
00000070: d531 bebd 7143 6a3e 54b4 5ebe 7898 f1bd
00000080: 1f22 ae3e 06fa c43e 690e 003f de7b 36be
00000090: 8bdf 143e 5b36 89be ca86 223c 0dc9 b1bd
000000a0: 4f48 743e 6460 dbbd 8f22 dc3e 414d 963e
000000b0: 4d46 9b3e e26b 1a3b 73fb a8bb 333d 99be
000000c0: 56a6 eabd 7be4 9a3e d034 9dbe 1017 123f
000000d0: 3485 15bf f97c 1d3d 7c0a 5cbf 78c6 65bf
000000e0: bc39 9a3d 731d 98be 1ad7 c4be e2c7 4ebf
000000f0: aeff 543e 2fd4 1f3e ccab 043f 6dd2 013f
00000100: c251 f8be 7e8d 353e 5991 83bd b68d 373e
00000110: 2c97 3f3e 140c 05bf 6ec9 9abd ce1e a63e
00000120: 663b 4cbe ee01 483f c044 bdbe 315a 93be
00000130: 2885 933e 164f 003f 0765 d03d edec cebe
00000140: 4d1c cbbe 0970 10bf 7ffd 113d 7f88 0a3f
00000150: 331f 883e 22ef 1bbe 9a90 323e 132f f13e
00000160: c886 cabe ef9b d2be 544d efbd 323a a13e
00000170: 3a95 94bd b24a ac3d 8c81 ed3e 0b44 18be
00000180: 7658 40be 0d19 a3bc 3109 bf3e 6cf4 1e3e
00000190: 5ec9 a1be c670 7ebe 518c 183e 239d 5ebe
000001a0: 257e e93e bb8e 43be 1cbc df3e 9a52 e63e
000001b0: b33f 3bbe 8ba2 093f 821e 2bbf b6be d5bd
000001c0: 6dca 5e3e 6b12 763c 55e1 93bd 6aa3 98bd
000001d0: 0659 64bd e626 e73e 9f5c 023d f9c5 ca3e
000001e0: 5b52 d73e 5670 88be 70a9 ba3d 1bb4 443e
000001f0: 6db0 cd3e a701 1fbf ac2b 99be 6616 a9be
00000200: c55b 12bf 53af 14bf 5d74 a53e 989e 9d3e
00000210: 9aa0 12bf 7047 3bbe 84f6 9a3e ce17 cdbd
00000220: d9b0 ccbc 7ae2 8e3e 4476 39bd f7a4 3e3f
00000230: fe03 cabe ed04 a2be d6af f0be 4e15 42be
00000240: cbf0 c13e 6f8c 853e 889d 0b3f 6eaa cfbe
00000250: bd1c ac3e 0bf0 0c3f 603d 5ebe a072 843e
00000260: 2ea4 113e d471 fe3e af95 19bf da64 f83e
00000270: 7ac8 2dbe 6a05 b63e 3aad 63be 2692 83be
00000280: a60e 70be 2c23 c13e 25b0 90be 0378 a43e
00000290: f9f9 8d3e 0331 ee3e 41fc 4bbe 53f3 90be
000002a0: a40b 94bd 74a2 04bf d061 9d3e 4a5b 23be
000002b0: 27c5 23be b943 92be aacd e1bd ca98 0cbe
000002c0: c09d d6be 51e1 133f 9d72 85be 4b18 c23e
000002d0: 9133 1b3c 0203 c7be 430d b0be 3e4a 983e
000002e0: 0e8d 12bf 3b67 8f3e 68a7 993c c9a6 a13d
000002f0: e3f6 e8be 748c 3e3e 305b 55bf 4d8b d4be
00000300: e3f2 eb3e dc67 793d e558 c8be b757 36be
00000310: e1c8 10bf d454 00bf 053b 0d3e c031 0e3d
00000320: 39bd 443d 4edd 18bb 5944 38bd 951e a53f
00000330: d4c9 01be a6a1 d53e 3224 80be ea3b 09be
00000340: e66d a03e b690 1e3e 7a6b 9b3e 8eee 923e
00000350: 28f7 0bbd e99c 2ebe 9afb 073e 9312 a73e
00000360: a186 b13d 47a6 d73a cbf0 eebe b7e1 3dbc
00000370: c621 f13e 5971 5d3e 7fa3 843e 52a3 133e
00000380: 3237 063f 61b2 36be a2b8 103e 0539 633e
00000390: 8332 9c3e 731c 423e d480 babe 3825 133e
000003a0: f17d df3e a5bc 8cbe 933c 0e3e deef 00bf
000003b0: 3b32 8f3d 7f49 633e 063f 333f 31ab 45be
000003c0: d5a6 70be 530a 99be 92e9 9a3e 9702 56be
000003d0: cba9 523f 6938 093f b18f a8be a337 21be
000003e0: 6763 043e 91d2 26be 0d44 51be e325 b8be
000003f0: 230c a1be 2cef b63e 5d00 a23d 553d 8b3e

conv.0.lin_dst.weight f4 [21, 21]
0.24970494 -0.2577637 0.19780332 -0.3141912 0.02060717 0.4363964 0.03995281 -0.49530306
0.5147561 0.114514634 -0.3308557 -0.13369982 0.5675949 -0.06851743 0.3293544 0.14806609
-0.0361007 0.15114258 -0.2600739 0.45785803 -0.36284366 0.11573766 0.020435296 0.4604569
-0.5650163 0.18199052 0.36014885 -0.009500275 -0.092868485 0.2287729 -0.21748477 -0.11796659
0.34010407 0.38472003 0.5002199 -0.17820689 0.145384 -0.26799282 0.0099198315 -0.086809255
0.23855709 -0.107117444 0.42995116 0.29355815 0.30327073 0.0023562838 -0.005156928 -0.29929504
-0.11457507 0.30252442 -0.30704355 0.5706644 -0.58406377 0.03844926 -0.859535 -0.89755964
0.07530543 -0.29709968 -0.3844536 -0.80773747 0.20800659 0.15608285 0.5182464 0.5071171
-0.48499876 0.17729756 -0.06424207 0.17925152 0.18710011 -0.51971555 -0.07557951 0.32445377
-0.19944534 0.78127944 -0.36966515 -0.28779748 0.28812528 0.50120676 0.101755194 -0.40415135
-0.3967003 -0.5642095 0.035642143 0.54114527 0.26586303 -0.1522794 0.17437974 0.47106227
-0.39555955 -0.41134593 -0.11684671 0.31489712 -0.07255025 0.084126845 0.463879 -0.14869706
-0.18783745 -0.019909406 0.373117 0.15522927 -0.31598943 -0.24847707 0.14897276 -0.2173963
0.45604053 -0.19097416 0.43698204 0.44984895 -0.18286018 0.53763646 -0.66843426 -0.10436766
0.21756907 0.01501904 -0.07220713 -0.07453044 -0.055748962 0.45146865 0.03182661 0.39604166
0.4205502 -0.26648206 0.09114349 0.1920933 0.40173665 -0.62111896 -0.29916131 -0.330249
-0.5717128 -0.58080024 0.3231534 0.3078506 -0.5727631 -0.1828897 0.30266201 -0.10014306
-0.024986671 0.27907163 -0.045278803 0.74470466 -0.3945617 -0.31644383 -0.47009152 -0.1895344
0.37879023 0.26083705 0.5453725 -0.40559715 0.33615676 0.55053777 -0.217031 0.25868702
0.14222786 0.4969622 -0.59994024 0.48514444 -0.16971007 0.35551006 -0.2223405 -0.2569744
-0.23443088 0.37722147 -0.28259388 0.32122812 0.27729777 0.46521768 -0.19920446 -0.28310642
-0.07228783 -0.51810384 0.30738688 -0.15952793 -0.15993176 -0.28567293 -0.110255554 -0.1373016
-0.4191723 0.5776568 -0.26064005 0.3790916 0.009472744 -0.38869482 -0.34385118 0.29744142
-0.5724648 0.28008446 0.018756583 0.0789314 -0.4550086 0.18608266 -0.83342266 -0.41512528
0.46083745 0.060890064 -0.3913032 -0.17806898 -0.56556517 -0.5012944 0.13792045 0.034715414
0.04803202 -0.0023325267 -0.044987056 1.2899958 -0.12674648 0.4172489 -0.25027615 -0.13401762
0.31333846 0.1548489 0.30355436 0.28697628 -0.034171253 -0.17052044 0.13279572 0.32631359
0.086682566 0.0016452753 -0.46668085 -0.011589459 0.4709608 0.2162527 0.25905988 0.1441777
0.5242797 -0.17841484 0.14132932 0.2218972 0.30507287 0.18956165 -0.36426413 0.14369667
0.43650773 -0.27487674 0.13890295 -0.5036601 0.069920026 0.22196005 0.7001804 -0.19303586
-0.23501141 -0.2989069 0.30256325 -0.20899425 0.82290334 0.536017 -0.32922128 -0.1574388
0.12928544 -0.16291262 -0.20436116 -0.35966405 -0.31454572 0.3572935 0.079102255 0.2719523
00000000: a7b2 7f3e 9bf9 83be f48c 4a3e abdd a0be
00000010: 5ed0 a83c 596f df3e 8fa5 233d 5d98 fdbe
00000020: 0ec7 033f a686 ea3d eb65 a9be 9be8 08be
00000030: e64d 113f de52 8cbd 24a1 a83e a39e 173e
00000040: 54de 13bd 1fc5 1a3e 6828 85be 5e6c ea3e
00000050: a5c6 b9be de07 ed3d ec67 a73c 02c1 eb3e
00000060: e9a4 10bf b95b 3a3e 6e65 b83e 0ba7 1bbc
00000070: d531 bebd 7143 6a3e 54b4 5ebe 7898 f1bd
00000080: 1f22 ae3e 06fa c43e 690e 003f de7b 36be
00000090: 8bdf 143e 5b36 89be ca86 223c 0dc9 b1bd
000000a0: 4f48 743e 6460 dbbd 8f22 dc3e 414d 963e
000000b0: 4d46 9b3e e26b 1a3b 73fb a8bb 333d 99be
000000c0: 56a6 eabd 7be4 9a3e d034 9dbe 1017 123f
000000d0: 3485 15bf f97c 1d3d 7c0a 5cbf 78c6 65bf
000000e0: bc39 9a3d 731d 98be 1ad7 c4be e2c7 4ebf
000000f0: aeff 543e 2fd4 1f3e ccab 043f 6dd2 013f
00000100: c251 f8be 7e8d 353e 5991 83bd b68d 373e
00000110: 2c97 3f3e 140c 05bf 6ec9 9abd ce1e a63e
00000120: 663b 4cbe ee01 483f c044 bdbe 315a 93be
00000130: 2885 933e 164f 003f 0765 d03d edec cebe
00000140: 4d1c cbbe 0970 10bf 7ffd 113d 7f88 0a3f
00000150: 331f 883e 22ef 1bbe 9a90 323e 132f f13e
00000160: c886 cabe ef9b d2be 544d efbd 323a a13e
00000170: 3a95 94bd b24a ac3d 8c81 ed3e 0b44 18be
00000180: 7658 40be 0d19 a3bc 3109 bf3e 6cf4 1e3e
00000190: 5ec9 a1be c670 7ebe 518c 183e 239d 5ebe
000001a0: 257e e93e bb8e 43be 1cbc df3e 9a52 e63e
000001b0: b33f 3bbe 8ba2 093f 821e 2bbf b6be d5bd
000001c0: 6dca 5e3e 6b12 763c 55e1 93bd 6aa3 98bd
000001d0: 0659 64bd e626 e73e 9f5c 023d f9c5 ca3e
000001e0: 5b52 d73e 5670 88be 70a9 ba3d 1bb4 443e
000001f0: 6db0 cd3e a701 1fbf ac2b 99be 6616 a9be
00000200: c55b 12bf 53af 14bf 5d74 a53e 989e 9d3e
00000210: 9aa0 12bf 7047 3bbe 84f6 9a3e ce17 cdbd
00000220: d9b0 ccbc 7ae2 8e3e 4476 39bd f7a4 3e3f
00000230: fe03 cabe ed04 a2be d6af f0be 4e15 42be
00000240: cbf0 c13e 6f8c 853e 889d 0b3f 6eaa cfbe
00000250: bd1c ac3e 0bf0 0c3f 603d 5ebe a072 843e
00000260: 2ea4 113e d471 fe3e af95 19bf da64 f83e
00000270: 7ac8 2dbe 6a05 b63e 3aad 63be 2692 83be
00000280: a60e 70be 2c23 c13e 25b0 90be 0378 a43e
00000290: f9f9 8d3e 0331 ee3e 41fc 4bbe 53f3 90be
000002a0: a40b 94bd 74a2 04bf d061 9d3e 4a5b 23be
000002b0: 27c5 23be b943 92be aacd e1bd ca98 0cbe
000002c0: c09d d6be 51e1 133f 9d72 85be 4b18 c23e
000002d0: 9133 1b3c 0203 c7be 430d b0be 3e4a 983e
000002e0: 0e8d 12bf 3b67 8f3e 68a7 993c c9a6 a13d
000002f0: e3f6 e8be 748c 3e3e 305b 55bf 4d8b d4be
00000300: e3f2 eb3e dc67 793d e558 c8be b757 36be
00000310: e1c8 10bf d454 00bf 053b 0d3e c031 0e3d
00000320: 39bd 443d 4edd 18bb 5944 38bd 951e a53f
00000330: d4c9 01be a6a1 d53e 3224 80be ea3b 09be
00000340: e66d a03e b690 1e3e 7a6b 9b3e 8eee 923e
00000350: 28f7 0bbd e99c 2ebe 9afb 073e 9312 a73e
00000360: a186 b13d 47a6 d73a cbf0 eebe b7e1 3dbc
00000370: c621 f13e 5971 5d3e 7fa3 843e 52a3 133e
00000380: 3237 063f 61b2 36be a2b8 103e 0539 633e
00000390: 8332 9c3e 731c 423e d480 babe 3825 133e
000003a0: f17d df3e a5bc 8cbe 933c 0e3e deef 00bf
000003b0: 3b32 8f3d 7f49 633e 063f 333f 31ab 45be
000003c0: d5a6 70be 530a 99be 92e9 9a3e 9702 56be
000003d0: cba9 523f 6938 093f b18f a8be a337 21be
000003e0: 6763 043e 91d2 26be 0d44 51be e325 b8be
000003f0: 230c a1be 2cef b63e 5d00 a23d 553d 8b3e

conv.1.att_src f4 [1, 1, 21]
0.08327264 -1.2856174 -0.031043736 0.79864615 0.5978485 -0.52319956 0.3313273 -0.21358187
-1.018038 0.14225198 0.19796106 -0.5380263 -0.5418126 -0.43700904 -0.33902448 -0.42959142
-0.39732546 -0.57551664 -0.3578597 0.16926694 1.2169732
00000000: d98a aa3d 1c8f a4bf 6f4f febc 1374 4c3f
00000010: 990c 193f 68f0 05bf bba3 a93e 35b5 5abe
00000020: 124f 82bf 81aa 113e 4eb6 4a3e 17bc 09bf
00000030: 3bb4 0abf a6bf dfbe 9e94 adbe 68f3 dbbe
00000040: 3e6e cbbe 0f55 13bf 6339 b7be 5054 2d3e
00000050: c7c5 9b3f

conv.1.att_dst f4 [1, 1, 21]
-1.0534745 -0.8406785 0.049241748 0.5530115 -0.20970535 1.1993161 -0.659886 1.0728352
-0.2742313 0.70089865 0.41993275 -0.033674784 0.40064275 0.42432827 0.058587033 0.59418595
0.20304766 0.98663753 -0.5517059 0.1109647 -0.75809157
00000000: 41d8 86bf b536 57bf b7b1 493d 2992 0d3f
00000010: 00bd 56be 3183 993f 4aee 28bf aa52 893f
00000020: 0c68 8cbe 186e 333f 6d01 d73e 92ee 09bd
00000030: 0c21 cd3e 8e41 d93e f5f8 6f3d 921c 183f
00000040: baeb 4f3e 4794 7c3f 993c 0dbf 7641 e33d
00000050: 4a12 42bf

conv.1.bias f4 [21]
0.10077467 0.21412659 -0.15220758 -0.11083999 -0.04685747 0.02598691 -0.07773644 -0.07931858
0.18133157 0.00546056 -0.09176559 0.0067242887 -0.013591837 0.022224009 0.02205592 -0.03176777
-0.039980285 -0.06793941 -0.012710931 0.0050897337 0.004688198
00000000: f362 ce3d 0044 5b3e 4edc 1bbe 1400 e3bd
00000010: 9eed 3fbd 80e2 d43c 4834 9fbd c871 a2bd
00000020: fcae 393e 7fee b23b 99ef bbbd 6c57 dc3b
00000030: 4cb0 5ebc 200f b63c 9eae b43c ec1e 02bd
00000040: 5ec2 23bd d123 8bbd 8241 50bc c8c7 a63b
00000050: 759f 993b

conv.1.lin_src.weight f4 [21, 21]
0.5798576 0.36973938 0.35594875 0.12109431 -0.26407525 0.49741104 -0.08955783 -0.23065706
-0.11839235 0.3010268 -0.051181786 0.23435836 -0.12383211 0.0024246585 -0.1463697 -0.61669683
-0.26068988 0.1526668 0.048085924 0.4167242 0.30459368 -0.4878271 -0.38705894 0.09572499
0.30314392 -0.20255212 -0.1377315 -0.04131814 -0.3128029 -0.31519505 0.7996164 -0.014038732
-0.078189306 0.696792 0.0992408 0.62930775 -0.13833828 0.7106098 -0.30448097 -0.11047321
0.06327474 -0.5543691 0.30768558 -0.20550197 -0.32877547 0.687019 0.67377174 0.37248892
0.23539384 0.51503783 0.5015457 0.92365474 0.1473024 0.0054428033 0.054906677 0.04602314
0.06404087 0.4544857 -0.06593991 0.49422082 -0.37961245 -0.28457814 0.4112718 0.027050229
0.1325866 -0.4662649 -0.3062441 -0.30135018 0.31241575 0.48464635 0.43139145 0.037890814
-0.26220882 -0.013167789 -0.36848053 0.2752851 -0.6707644 -0.40442753 -0.31808326 0.2725276
0.36416295 -0.1237246 -0.21763664 0.6474004 0.5098165 0.4172027 0.37842482 0.16154474
-0.34878325 0.14406098 0.5563784 0.06459226 -0.3463122 0.10088428 -0.059862003 -0.36530933
0.42334625 -0.04432377 -0.33967718 -0.41584042 0.60346156 0.24706902 -0.31513673 0.08516781
0.31557238 0.22482431 -0.6558648 0.083349004 0.2449679 0.1460526 -0.12487049 -0.2615974
-0.7375615 0.38635698 0.45707715 -0.20186667 -0.6782207 0.17266522 -0.62344736 -0.47195745
0.4300055 -0.07916113 0.07774722 0.5143302 -0.22628753 0.38661927 -0.08993494 0.48561972
0.13941874 0.64019114 0.062719874 -0.4047391 0.28809547 0.4650066 -0.03008335 0.08562321
-0.47971168 0.35901448 -0.49427333 0.50970626 0.029391075 -0.19109952 -0.64182115 0.46546677
-0.03390299 0.48506656 0.25268522 -0.2934368 -0.3656918 -0.15914778 0.2603746 0.284629
-0.033493195 -0.23136254 0.009179158 -0.43813923 -0.42087373 -0.29200447 0.52727044 0.69729453
-0.609425 -0.18609478 0.10083696 0.26955563 0.6309426 -0.054737654 -0.30869552 0.22094212
-0.2884576 -0.69763386 0.54969925 -0.12889872 0.33490315 0.30257195 -0.061558884 0.31656992
-0.20983395 0.5434942 -0.06999175 0.30311212 0.34233898 -0.7342337 0.50472474 0.44115576
-0.5006555 0.21217145 -0.5354422 0.22007519 -0.15409786 -0.51248366 0.29758984 0.033367306
0.5615056 0.37469238 0.054795213 0.52438974 0.15415525 0.45643166 -0.26603082 0.42080784
-0.12619637 -0.14076385 -0.2073635 -0.6579626 0.26815665 0.1104268 -0.6763659 -0.6955467
0.2511746 -0.45336476 -0.030223124 -0.36673957 0.35808817 0.054476324 -0.51189697 -0.43177995
-0.39227223 0.31501338 -0.18800859 -0.38420284 -0.22657569 -0.03196944 -0.022239624 -0.04795283
-0.46739143 -0.08555914 0.31627116 -0.25105208 0.5694441 0.057191793 0.09893966 0.12724431
-0.71829903 0.35661495 0.25450006 0.49322954 -0.42554587 -0.23133318 0.04946194 -0.3715085
0.32087472 -0.6565358 -0.22112912 -0.18701932 -0.27564874 0.2463271 -0.5610343 -0.10654988
-0.120147824 -0.2414309 0.40258947 0.111971684 -0.41332695 0.17849393 0.44502607 -0.082595974
00000000: 8c71 143f 7b4e bd3e ea3e b63e 4b00 f83d
00000010: df34 87be a9ac fe3e 186a b7bd 5d31 6cbe
00000020: b077 f2bd 2f20 9a3e fea3 51bd a3fb 6f3e
00000030: b09b fdbd 05e7 1e3b f0e1 15be d8df 1dbf
00000040: 2579 85be b054 1c3e bff5 443d e05c d53e
00000050: b4f3 9b3e 79c4 f9be 972c c6be 770b c43d
00000060: ae35 9b3e d369 4fbe 7d09 0dbe 363d 29bd
00000070: b427 a0be 3f61 a1be a9b3 4c3f b602 66bc
00000080: b721 a0bd f660 323f c33e cb3d 501a 213f
00000090: 8da8 0dbe 86ea 353f eee4 9bbe c73f e2bd
000000a0: 3096 813d 22eb 0dbf f788 9d3e 1c6f 52be
000000b0: 4255 a8be 7ae0 2f3f 4e7c 2c3f deb6 be3e
000000c0: 150b 713e 85d9 033f 4d65 003f a374 6c3f
000000d0: 71d6 163e 8b59 b23b d3e5 603d c382 3c3d
000000e0: dc27 833d 5ab2 e83e 810b 87bd 830a fd3e
000000f0: 905c c2be 3ab4 91be 3892 d23e 7198 dd3c
00000100: c8c4 073e 46ba eebe 07cc 9cbe 924a 9abe
00000110: f5f4 9f3e 9123 f83e 57df dc3e 6633 1b3d
00000120: 3c40 86be b6bd 57bc 7ba9 bcbe 2bf2 8c3e
00000130: 37b7 2bbf 2011 cfbe cfdb a2be bd88 8b3e
00000140: 9173 ba3e 5363 fdbd 24dc 5ebe 08bc 253f
00000150: 5683 023f 989b d53e e6c0 c13e fc6b 253e
00000160: b893 b2be b984 133e d16e 0e3f f248 843d
00000170: d54f b1be 6b9c ce3d dc31 75bd d309 bbbe
00000180: d7c0 d83e d78c 35bd 2bea adbe 09e9 d4be
00000190: 757c 1a3f a9ff 7c3e 9a59 a1be 766c ae3d
000001a0: b492 a13e 5838 663e c1e6 27bf e2b2 aa3d
000001b0: ddd8 7a3e d08e 153e 19bc ffbd 18f0 85be
000001c0: d5d0 3cbf 95d0 c53e 0406 ea3e 23b6 4ebe
000001d0: df9f 2dbf 27cf 303e 3f9a 1fbf 68a4 f1be
000001e0: ae29 dc3e 3b1f a2bd ef39 9f3d 25ab 033f
000001f0: ebb7 67be f6f2 c53e cf2f b8bd 26a3 f83e
00000200: c9c3 0e3e 91e3 233f 4773 803d f739 cfbe
00000210: 4081 933e 5815 ee3e 5c71 f6bc 395b af3d
00000220: c59c f5be bfd0 b73e 6511 fdbe 1c7c 023f
00000230: 8dc5 f03c 98af 43be 644e 24bf a951 ee3e
00000240: dddd 0abd a55a f83e f55f 813e 593d 96be
00000250: f53b bbbe a3f7 22be d24f 853e e4ba 913e
00000260: 2930 09bd 4dea 6cbe 2e64 163c c953 e0be
00000270: c37c d7be 9c81 95be 32fb 063f e581 323f
00000280: 4703 1cbf a18f 3ebe 9c83 ce3d 3203 8a3e
00000290: 7485 213f 9734 60bd 570d 9ebe a73e 623e
000002a0: b7b0 93be 2298 32bf 17b9 0c3f 07fe 03be
000002b0: 6d78 ab3e b6ea 9a3e 2b25 7cbd 7415 a23e
000002c0: b6de 56be 7022 0b3f d657 8fbd 8331 9b3e
000002d0: 0e47 af3e bdf6 3bbf a435 013f 2bdf e13e
000002e0: f52a 00bf 7943 593e bd12 09bf 645b 613e
000002f0: d4cb 1dbe 2132 03bf b25d 983e 28ac 083d
00000300: d5be 0f3f aed7 bf3e f270 603d 683e 063f
00000310: e0da 1d3e 69b1 e93e 3135 88be 2074 d73e
00000320: 9f39 01be 6624 10be 1957 54be 3d70 28bf
00000330: d44b 893e 7227 e23d 5126 2dbf 590f 32bf
00000340: f599 803e 6d1f e8be 7c96 f7bc 4ac5 bbbe
00000350: 5557 b73e 9122 5f3d ae0b 03bf 4312 ddbe
00000360: e8d7 c8be 6f49 a13e 5385 40be 3cb6 c4be
00000370: 7503 68be 63f2 02bd df2f b6bc 306a 44bd
00000380: ee4d efbe a139 afbd 4bee a13e e689 80be
00000390: 17c7 113f f141 6a3d e0a0 ca3d 554c 023e
000003a0: 72e2 37bf 3c96 b63e d54d 823e 9588 fc3e
000003b0: 26e1 d9be 9be2 6cbe 9a98 4a3d 5d36 bebe
000003c0: b149 a43e bb12 28bf ac6f 62be fe81 3fbe
000003d0: d521 8dbe 2c3d 7c3e f29f 0fbf d336 dabd
000003e0: 1010 f6bd a939 77be 3520 ce3e 6951 e53d
000003f0: 979f d3be 1dc7 363e 75da e33e 1428 a9bd

conv.1.lin_dst.weight f4 [21, 21]
0.5798576 0.36973938 0.35594875 0.12109431 -0.26407525 0.49741104 -0.08955783 -0.23065706
-0.11839235 0.3010268 -0.051181786 0.23435836 -0.12383211 0.0024246585 -0.1463697 -0.61669683
-0.26068988 0.1526668 0.048085924 0.4167242 0.30459368 -0.4878271 -0.38705894 0.09572499
0.30314392 -0.20255212 -0.1377315 -0.04131814 -0.3128029 -0.31519505 0.7996164 -0.014038732
-0.078189306 0.696792 0.0992408 0.62930775 -0.13833828 0.7106098 -0.30448097 -0.11047321
0.06327474 -0.5543691 0.30768558 -0.20550197 -0.32877547 0.687019 0.67377174 0.37248892
0.23539384 0.51503783 0.5015457 0.92365474 0.1473024 0.0054428033 0.054906677 0.04602314
0.06404087 0.4544857 -0.06593991 0.49422082 -0.37961245 -0.28457814 0.4112718 0.027050229
0.1325866 -0.4662649 -0.3062441 -0.30135018 0.31241575 0.48464635 0.43139145 0.037890814
-0.26220882 -0.013167789 -0.36848053 0.2752851 -0.6707644 -0.40442753 -0.31808326 0.2725276
0.36416295 -0.1237246 -0.21763664 0.6474004 0.5098165 0.4172027 0.37842482 0.16154474
-0.34878325 0.14406098 0.5563784 0.06459226 -0.3463122 0.10088428 -0.059862003 -0.36530933
0.42334625 -0.04432377 -0.33967718 -0.41584042 0.60346156 0.24706902 -0.31513673 0.08516781
0.31557238 0.22482431 -0.6558648 0.083349004 0.2449679 0.1460526 -0.12487049 -0.2615974
-0.7375615 0.38635698 0.45707715 -0.20186667 -0.6782207 0.17266522 -0.62344736 -0.47195745
0.4300055 -0.07916113 0.07774722 0.5143302 -0.22628753 0.38661927 -0.08993494 0.48561972
0.13941874 0.64019114 0.062719874 -0.4047391 0.28809547 0.4650066 -0.03008335 0.08562321
-0.47971168 0.35901448 -0.49427333 0.50970626 0.029391075 -0.19109952 -0.64182115 0.46546677
-0.03390299 0.48506656 0.25268522 -0.2934368 -0.3656918 -0.15914778 0.2603746 0.284629
-0.033493195 -0.23136254 0.009179158 -0.43813923 -0.42087373 -0.29200447 0.52727044 0.69729453
-0.609425 -0.18609478 0.10083696 0.26955563 0.6309426 -0.054737654 -0.30869552 0.22094212
-0.2884576 -0.69763386 0.54969925 -0.12889872 0.33490315 0.30257195 -0.061558884 0.31656992
-0.20983395 0.5434942 -0.06999175 0.30311212 0.34233898 -0.7342337 0.50472474 0.44115576
-0.5006555 0.21217145 -0.5354422 0.22007519 -0.15409786 -0.51248366 0.29758984 0.033367306
0.5615056 0.37469238 0.054795213 0.52438974 0.15415525 0.45643166 -0.26603082 0.42080784
-0.12619637 -0.14076385 -0.2073635 -0.6579626 0.26815665 0.1104268 -0.6763659 -0.6955467
0.2511746 -0.45336476 -0.030223124 -0.36673957 0.35808817 0.054476324 -0.51189697 -0.43177995
-0.39227223 0.31501338 -0.18800859 -0.38420284 -0.22657569 -0.03196944 -0.022239624 -0.04795283
-0.46739143 -0.08555914 0.31627116 -0.25105208 0.5694441 0.057191793 0.09893966 0.12724431
-0.71829903 0.35661495 0.25450006 0.49322954 -0.42554587 -0.23133318 0.04946194 -0.3715085
0.32087472 -0.6565358 -0.22112912 -0.18701932 -0.27564874 0.2463271 -0.5610343 -0.10654988
-0.120147824 -0.2414309 0.40258947 0.111971684 -0.41332695 0.17849393 0.44502607 -0.082595974
00000000: 8c71 143f 7b4e bd3e ea3e b63e 4b00 f83d
00000010: df34 87be a9ac fe3e 186a b7bd 5d31 6cbe
00000020: b077 f2bd 2f20 9a3e fea3 51bd a3fb 6f3e
00000030: b09b fdbd 05e7 1e3b f0e1 15be d8df 1dbf
00000040: 2579 85be b054 1c3e bff5 443d e05c d53e
00000050: b4f3 9b3e 79c4 f9be 972c c6be 770b c43d
00000060: ae35 9b3e d369 4fbe 7d09 0dbe 363d 29bd
00000070: b427 a0be 3f61 a1be a9b3 4c3f b602 66bc
00000080: b721 a0bd f660 323f c33e cb3d 501a 213f
00000090: 8da8 0dbe 86ea 353f eee4 9bbe c73f e2bd
000000a0: 3096 813d 22eb 0dbf f788 9d3e 1c6f 52be
000000b0: 4255 a8be 7ae0 2f3f 4e7c 2c3f deb6 be3e
000000c0: 150b 713e 85d9 033f 4d65 003f a374 6c3f
000000d0: 71d6 163e 8b59 b23b d3e5 603d c382 3c3d
000000e0: dc27 833d 5ab2 e83e 810b 87bd 830a fd3e
000000f0: 905c c2be 3ab4 91be 3892 d23e 7198 dd3c
00000100: c8c4 073e 46ba eebe 07cc 9cbe 924a 9abe
00000110: f5f4 9f3e 9123 f83e 57df dc3e 6633 1b3d
00000120: 3c40 86be b6bd 57bc 7ba9 bcbe 2bf2 8c3e
00000130: 37b7 2bbf 2011 cfbe cfdb a2be bd88 8b3e
00000140: 9173 ba3e 5363 fdbd 24dc 5ebe 08bc 253f
00000150: 5683 023f 989b d53e e6c0 c13e fc6b 253e
00000160: b893 b2be b984 133e d16e 0e3f f248 843d
00000170: d54f b1be 6b9c ce3d dc31 75bd d309 bbbe
00000180: d7c0 d83e d78c 35bd 2bea adbe 09e9 d4be
00000190: 757c 1a3f a9ff 7c3e 9a59 a1be 766c ae3d
000001a0: b492 a13e 5838 663e c1e6 27bf e2b2 aa3d
000001b0: ddd8 7a3e d08e 153e 19bc ffbd 18f0 85be
000001c0: d5d0 3cbf 95d0 c53e 0406 ea3e 23b6 4ebe
000001d0: df9f 2dbf 27cf 303e 3f9a 1fbf 68a4 f1be
000001e0: ae29 dc3e 3b1f a2bd ef39 9f3d 25ab 033f
000001f0: ebb7 67be f6f2 c53e cf2f b8bd 26a3 f83e
00000200: c9c3 0e3e 91e3 233f 4773 803d f739 cfbe
00000210: 4081 933e 5815 ee3e 5c71 f6bc 395b af3d
00000220: c59c f5be bfd0 b73e 6511 fdbe 1c7c 023f
00000230: 8dc5 f03c 98af 43be 644e 24bf a951 ee3e
00000240: dddd 0abd a55a f83e f55f 813e 593d 96be
00000250: f53b bbbe a3f7 22be d24f 853e e4ba 913e
00000260: 2930 09bd 4dea 6cbe 2e64 163c c953 e0be
00000270: c37c d7be 9c81 95be 32fb 063f e581 323f
00000280: 4703 1cbf a18f 3ebe 9c83 ce3d 3203 8a3e
00000290: 7485 213f 9734 60bd 570d 9ebe a73e 623e
000002a0: b7b0 93be 2298 32bf 17b9 0c3f 07fe 03be
000002b0: 6d78 ab3e b6ea 9a3e 2b25 7cbd 7415 a23e
000002c0: b6de 56be 7022 0b3f d657 8fbd 8331 9b3e
000002d0: 0e47 af3e bdf6 3bbf a435 013f 2bdf e13e
000002e0: f52a 00bf 7943 593e bd12 09bf 645b 613e
000002f0: d4cb 1dbe 2132 03bf b25d 983e 28ac 083d
00000300: d5be 0f3f aed7 bf3e f270 603d 683e 063f
00000310: e0da 1d3e 69b1 e93e 3135 88be 2074 d73e
00000320: 9f39 01be 6624 10be 1957 54be 3d70 28bf
00000330: d44b 893e 7227 e23d 5126 2dbf 590f 32bf
00000340: f599 803e 6d1f e8be 7c96 f7bc 4ac5 bbbe
00000350: 5557 b73e 9122 5f3d ae0b 03bf 4312 ddbe
00000360: e8d7 c8be 6f49 a13e 5385 40be 3cb6 c4be
00000370: 7503 68be 63f2 02bd df2f b6bc 306a 44bd
00000380: ee4d efbe a139 afbd 4bee a13e e689 80be
00000390: 17c7 113f f141 6a3d e0a0 ca3d 554c 023e
000003a0: 72e2 37bf 3c96 b63e d54d 823e 9588 fc3e
000003b0: 26e1 d9be 9be2 6cbe 9a98 4a3d 5d36 bebe
000003c0: b149 a43e bb12 28bf ac6f 62be fe81 3fbe
000003d0: d521 8dbe 2c3d 7c3e f29f 0fbf d336 dabd
000003e0: 1010 f6bd a939 77be 3520 ce3e 6951 e53d
000003f0: 979f d3be 1dc7 363e 75da e33e 1428 a9bd

conv.2.att_src f4 [1, 1, 21]
0.31210423 -0.45116904 -0.3651908 -0.66773266 0.036425114 -0.34575573 0.0746547 0.08501699
0.05113863 -0.6904852 0.47918758 0.8397867 -0.696348 0.38506523 -0.68280756 0.029433342
-0.37677112 -0.16105953 -0.7723659 0.48892105 -0.06877941
00000000: 20cc 9f3e a1ff e6be 4afa babe 87f0 2abf
00000010: 8032 153d e506 b1be 90e4 983d 631d ae3d
00000020: bd76 513d a3c3 30bf 1358 f53e 43fc 563f
00000030: dd43 32bf 4527 c53e 7acc 2ebf 311e f13c
00000040: 25e8 c0be caec 24be c6b9 45bf dc53 fa3e
00000050: 38dc 8cbd

conv.2.att_dst f4 [1, 1, 21]
0.46908903 0.38961112 1.2012786 0.7908029 -0.8493561 -0.3979639 0.08278776 -0.39949036
-0.52558815 0.36462674 -0.5282486 -0.29545942 0.67115366 0.43836713 -0.023788193 0.47350097
0.28114277 -0.17203876 0.058436595 -0.08896801 -0.14503293
00000000: 702c f03e 1c7b c73e 7fc3 993f 0f72 4a3f
00000010: 676f 59bf edc1 cbbe a18c a93d 008a ccbe
00000020: f28c 06bf 5bb0 ba3e 4d3b 07bf 7546 97be
00000030: bad0 2b3f a871 e03e 75df c2bc b86e f23e
00000040: f2f1 8f3e ee2a 30be 365b 6f3d dc34 b6bd
00000050: 8383 14be

conv.2.bias f4 [21]
-0.13549682 -0.03167033 -0.06786013 0.005416287 -0.01831974 -0.14822768 -0.012764043 0.04610247
-0.0696684 0.04209725 0.11523319 -0.019576684 -0.013514146 -0.031032046 -0.07397476 -0.04021236
-0.04442952 -0.011567233 -0.041033287 -0.12797765 -0.026588678
00000000: aebf 0abe bfb8 01bd 40fa 8abd 1c7b b13b
00000010: 4813 96bc ffc8 17be 4720 51bc f2d5 3c3d
00000020: 4eae 8ebd 2b6e 2c3d 61ff eb3d 485f a0bc
00000030: 706a 5dbc eb36 febc 1480 97bd b7b5 24bd
00000040: bafb 35bd 7e84 3dbc 8512 28bd 930c 03be
00000050: 80d0 d9bc

conv.2.lin_src.weight f4 [21, 21]
0.19790466 0.32395905 -0.19081931 -0.0871029 0.20437577 0.24249268 -0.43216035 0.07485543
-0.040547084 0.88677 -0.4114731 -0.58891374 0.33160466 0.23317423 -0.26002428 0.5451863
-0.14652355 -0.31763804 -0.36357453 -0.3125447 -0.1103428 -0.7138085 0.4351943 0.57913476
-0.44194412 0.010858472 0.24346897 -0.11788932 -0.16068748 0.076798424 0.31959066 0.24175176
0.5148407 0.051837876 0.55011445 -0.25060657 0.022508033 -0.33190298 0.16334358 0.050395153
-0.20900908 -0.42030928 -0.016520338 -0.32498065 -0.75139064 -0.24797562 -0.44129434 0.61706233
-0.09841677 0.5635366 -0.060573064 -0.1381632 0.42503664 0.43919748 0.20739506 0.32222793
0.2482179 0.049127776 0.14457037 0.5506169 -0.6728976 0.81582093 -0.11241758 0.4220321
-0.3589622 0.20003031 -0.40608007 -0.5241063 0.17331626 -0.12133 0.025190987 0.63708633
-0.529802 -0.46508616 -0.28174844 0.24908212 0.26362494 -0.53903586 -0.60757667 0.4054251
0.6597288 -0.39393994 0.22713219 -0.17226234 0.32396308 -0.014648373 0.68124014 0.6190227
0.69992566 -0.13412571 0.20283091 0.47333533 -0.15297996 -0.5125735 -0.46165287 0.4276672
-0.0956407 0.22470382 -0.14646892 -0.3032607 0.4362833 -0.18393424 -0.477207 0.035472073
-0.1778626 -0.36425236 -0.19917874 0.043658614 -0.032319605 -0.25062138 0.31728062 -0.061342973
-0.4860868 0.28239134 -0.26067075 -0.1489419 0.4251406 0.36364117 -0.5955583 0.59885603
0.41548553 -0.19566983 -0.64272916 -0.2530277 -0.076997675 0.024277547 -0.026946247 0.25792226
0.15255563 -0.38745353 0.4574081 0.44733402 0.3422736 -0.006478012 -0.46803245 0.15549742
-0.26691306 0.4565432 -0.36436138 0.5039886 0.369707 -0.35979617 -0.38918844 0.1181417
-0.31651878 -0.40096536 -0.25307184 0.5787961 -0.27898875 -0.46090975 -0.058092047 0.4058348
0.111887746 0.36614767 -0.08566565 -0.24974364 -0.22371647 0.3266236 0.5606382 -0.39049283
-0.31172734 0.42010823 0.107774235 0.27774554 -0.19539745 0.6030392 0.22451055 -0.20363891
-0.33202985 0.1495174 0.16024679 -0.2701163 -0.27611983 0.023808768 0.3046495 0.5024193
-0.15730815 -0.45349377 -0.281391 -0.23657979 0.42967546 -0.20861304 -0.14324367 0.43235725
0.40436313 -0.48246983 -0.10748609 0.055359133 0.14663686 -0.340593 -0.26001343 -0.5394539
-0.20978597 -0.5168267 -0.64152205 0.4642335 0.11498329 -0.18906006 0.24121734 -0.23736674
-0.33433992 -0.56276584 0.59200406 -0.45119894 -0.4788695 0.42885858 -0.27439645 -0.2594873
0.14755206 -0.51913583 -0.4770791 -0.61776966 0.007994102 0.029340165 0.38158944 0.6438165
0.34699184 -0.29133332 -0.43118832 0.63358104 0.3413923 -0.46530765 0.48148334 -0.23929337
0.5937611 -0.62768406 0.20310637 0.1317071 -0.4471641 0.44408032 -0.12936236 -0.109848745
-0.24339232 -0.030210808 -0.16935109 0.22685921 0.03341311 0.35399818 0.24244201 -0.13506386
0.37006477 0.12276647 -0.3236975 -0.31038514 -0.2855455 -0.41604614 0.18695475 -0.27326706
-0.3416865 0.39314696 0.4500187 0.4655141 0.3066718 -0.30511758 0.35214415 -0.6332978
00000000: 85a7 4a3e f6dd a53e 2366 43be 0163 b2bd
00000010: e247 513e 0050 783e 1f44 ddbe ce4d 993d
00000020: b314 26bd 5c03 633f 9aac d2be 0dc3 16bf
00000030: 16c8 a93e 3ac5 6e3e e721 85be 5491 0b3f
00000040: 450a 16be 74a1 a2be 7126 babe dc05 a0be
00000050: 68fb e1bd 27bc 36bf cad1 de3e 2d42 143f
00000060: 8046 e2be bce7 313c ee4f 793e f56f f1bd
00000070: 428b 24be 7e48 9d3d 63a1 a33e c68d 773e
00000080: 9acc 033f f453 543d 4dd4 0c3f 814f 80be
00000090: c462 b83c 30ef a9be 8a43 273e 266b 4e3d
000000a0: 7a06 56be c732 d7be a955 87bc dd63 a6be
000000b0: 235b 40bf 52ed 7dbe 55f1 e1be ccf7 1d3f
000000c0: bb8e c9bd ef43 103f 761b 78bd a77a 0dbe
000000d0: 679e d93e 7ede e03e 5f5f 543e 0ffb a43e
000000e0: d52c 7e3e 353a 493d 410a 143e 3bf5 0c3f
000000f0: 0443 2cbf a4d9 503f 303b e6bd 9714 d83e
00000100: e5c9 b7be bfd4 4c3e bae9 cfbe d52b 06bf
00000110: d179 313e dd7b f8bd 545d ce3c 1718 233f
00000120: 1ba1 07bf c61f eebe 5541 90be 620f 7f3e
00000130: d9f9 863e 41fe 09bf 258a 1bbf e193 cf3e
00000140: fde3 283f 7fb2 c9be 5795 683e 8a65 30be
00000150: 7dde a53e bbff 6fbc c165 2e3f 4678 1e3f
00000160: 542e 333f 4058 09be e8b2 4f3e 0259 f23e
00000170: c7a6 1cbe 0438 03bf c45d ecbe 32f7 da3e
00000180: 45df c3bd c218 663e f3fb 15be fd44 9bbe
00000190: 8660 df3e 4259 3cbe 7a54 f4be 2a4b 113d
000001a0: 9d21 36be 497f babe 83f5 4bbe 60d3 323d
000001b0: 9061 04bd 7251 80be 9b72 a23e c542 7bbd
000001c0: 5ee0 f8be 9995 903e a376 85be 3a84 18be
000001d0: 07ac d93e 2d2f ba3e 8276 18bf a14e 193f
000001e0: 85ba d43e ac5d 48be e689 24bf d98c 81be
000001f0: f5b0 9dbd b5e1 c63c 60be dcbc 630e 843e
00000200: 8b37 1c3e 4f60 c6be 6531 ea3e f708 e53e
00000210: 7c3e af3e 8145 d4bb f3a1 efbe b73a 1f3e
00000220: d4a8 88be 08c0 e93e 938d babe 6605 013f
00000230: 3c4a bd3e 3437 b8be b543 c7be 47f4 f13d
00000240: c00e a2be 554b cdbe a292 81be fb2b 143f
00000250: 9dd7 8ebe 5dfc ebbe edf1 6dbd 94c9 cf3e
00000260: 6725 e53d b577 bb3e 7971 afbd ccbc 7fbe
00000270: ee15 65be 353b a73e fc85 0f3f adee c7be
00000280: ba9a 9fbe 6d18 d73e bdb8 dc3d aa34 8e3e
00000290: 4516 48be c760 1a3f 18e6 653e b886 50be
000002a0: d1ff a9be 171b 193e bc17 243e af4c 8abe
000002b0: 945f 8dbe 9b0a c33c 05fb 9b3e 8d9e 003f
000002c0: 6315 21be 5630 e8be 7b12 90be f941 72be
000002d0: 6cfe db3e a89e 55be 78ae 12be ee5d dd3e
000002e0: af08 cf3e 4906 f7be ab21 dcbd 42c0 623d
000002f0: f927 163e 3562 aebe 7b20 85be a719 0abf
00000300: 22d2 56be c14e 04bf ca3a 24bf 03b0 ed3e
00000310: 5c7c eb3d f698 41be ae01 773e 4410 73be
00000320: 9a2e abbe 6c11 10bf 948d 173f 8c03 e7be
00000330: 622e f5be 5a93 db3e b17d 8cbe 85db 84be
00000340: e317 173e 16e6 04bf b643 f4be 2726 1ebf
00000350: b2f9 023c c95a f03c b15f c33e 28d1 243f
00000360: eaa8 b13e a429 95be b7c4 dcbe 5e32 223f
00000370: f9ca ae3e ce3c eebe fc84 f63e 5209 75be
00000380: ba00 183f e7af 20bf 1efb 4f3e 3ade 063e
00000390: b1f2 e4be 7f5e e33e 9177 04be 61f8 e0bd
000003a0: d63b 79be a87c f7bc 5f6a 2dbe c84d 683e
000003b0: 2fdc 083d 403f b53e b842 783e 2e4e 0abe
000003c0: 2179 bd3e fd6c fb3d aebb a5be cdea 9ebe
000003d0: 0533 92be 0004 d5be 1171 3f3e a9e9 8bbe
000003e0: 88f1 aebe 8f4a c93e da68 e63e dd57 ee3e
000003f0: 1604 9d3e 5f38 9cbe 3d4c b43e ce1f 22bf
