out_aids/checkpoints/model_AIDS.pt_l3_emb64.pt (torch, 53839 bytes, 19 tensors)

enlarge f4 [38, 39]
0	0x3f6ed604	0.9329531
1	0xbbc0b196	-0.005880545
2	0xbccb877f	-0.024844883
3	0xbce928d4	-0.028461851
4	0xbd76eaa2	-0.060282357
5	0x3be2bcfa	0.0069195004
6	0x3d3ca048	0.046051294
7	0x3d216312	0.03940112
8	0x3c9e6661	0.019335927
9	0xbc913560	-0.017725646
10	0xbbb87bfa	-0.0056300135
11	0xbba2e13d	-0.004970698
12	0x3bf356cb	0.007426118
13	0xbd8d86d3	-0.06910481
14	0x38df2ce3	0.000106418294
15	0x3bf73dfc	0.007545231
16	0xbbfc9bc3	-0.007708998
17	0xbd5e83b5	-0.054324824
18	0xbcd8fa81	-0.026486637
19	0x3c1da8af	0.009622737
20	0x3d082f42	0.033248194
21	0xbc142f01	-0.00904441
22	0x3c285e0e	0.010276331
23	0xbd0c6218	-0.034273237
24	0xb9836da0	-0.00025067944
25	0x3ca6e9d3	0.020375168
26	0xbd2f4ad7	-0.042795982
27	0xbd58b992	-0.05291135
28	0x3d8af085	0.06784157
29	0xba42e3aa	-0.0007434437
30	0x3c48926b	0.01224194
31	0xbd6190a1	-0.05506957
32	0xbd2a5524	-0.041585103
33	0x3bc8a721	0.006123439
34	0x3d642995	0.05570372
35	0xbc5a6bab	-0.013331334
36	0x3b120452	0.0022280407
37	0xbaf3c8a7	-0.0018599228
38	0xbcaf1972	-0.021374438
39	0x3d09fb22	0.033686765
40	0x3f74e7c7	0.95666164
41	0x3d053e86	0.03253033
42	0x3bbc7ca8	0.005752165
43	0xbe0edc0b	-0.13951127
44	0x3d33bc0a	0.0438805
45	0xbd9b1a55	-0.07573382
46	0xbe16b64f	-0.14717983
47	0xbe41bca8	-0.18919623
48	0xbde393ed	-0.11112199
49	0xbe33d73e	-0.17562577
50	0xbe25f5ca	-0.16207042
51	0xbe0ecb73	-0.13944797
52	0x3c52ce98	0.012866639
53	0xbe355ae7	-0.17710458
54	0xbdc19bdf	-0.09453558
55	0x3e049945	0.12949093
56	0x3c483240	0.012219012
57	0x3d9ecd0b	0.077539526
58	0xbd812f04	-0.06307796
59	0xbc7fd980	-0.015615821
60	0x3dd61843	0.10453846
61	0xbcbe9481	-0.023264172
62	0x3c27007c	0.010192987
63	0xba578690	-0.00082216505
64	0xbc759700	-0.0149896145
65	0xbd850d95	-0.06496731
66	0x3c90b830	0.017665952
67	0xbd3233f6	-0.043506585
68	0x3d02ee39	0.031965468
69	0xbc61a7ad	-0.013772887
70	0x3ccb73c0	0.024835467
71	0x3ce2fd3d	0.027708644
72	0xbd244fdb	-0.04011522
73	0xbe3132f7	-0.17304598
74	0xbcbb8385	-0.022889862
75	0xbceda69c	-0.02901011
76	0xbdaab296	-0.08334844
77	0x3b8cb7e7	0.004294384
78	0xbd62065f	-0.055181857
79	0x3e974354	0.29543555
80	0x3fcd9f03	1.6064152
81	0x3d36f2da	0.044665195
82	0x3a3246e6	0.0006800726
83	0x3d875490	0.06607926
84	0xbe7a0c5a	-0.24418774
85	0xbf1b5dc6	-0.6068996
86	0xbeaf69c8	-0.34260392
87	0xbe80fabc	-0.25191295
88	0xbf16f8a9	-0.58973175
89	0xbd8edc01	-0.06975556
90	0xbf329b7d	-0.69768506
91	0x3e9b9792	0.30389076
92	0xbebcfe26	-0.3691265
93	0xbe7bbb5f	-0.24583195
94	0x3e80bd18	0.25144267
95	0x3db73ed3	0.0894753
96	0x3e988680	0.29790115
97	0xbe9a6fb8	-0.3016336
98	0xbe257109	-0.161564
99	0x3d0b83ea	0.03406135
100	0xbe2365f0	-0.15956855
101	0x3d8a50ae	0.0675367
102	0xbe88c13c	-0.26709926
103	0xbe02f209	-0.12787642
104	0xbe878ff5	-0.26477018
105	0x3d4c2112	0.049836226
106	0xbe02528e	-0.12726805
107	0x3e4dcab3	0.20096855
108	0xbe1b6826	-0.15176448
109	0x3c226049	0.0099106515
110	0xbdb3c184	-0.087771446
111	0xbd5c34f6	-0.053761445
112	0xbe93e687	-0.28886816
113	0xbd9cb930	-0.07652509
114	0xbd0aa902	-0.033852585
115	0xbd32035d	-0.04346024
116	0xbd10b8c0	-0.03533244
117	0x3e45458d	0.19264813
118	0x3e8308df	0.25592706
119	0xbd7b37af	-0.0613324
120	0x3f8217e8	1.0163546
121	0xbdc8647b	-0.0978479
122	0xbbef7568	-0.007307697
123	0xbddd49a8	-0.108050644
124	0x3c532255	0.012886603
125	0x3e027f03	0.12743764
126	0x3c4852aa	0.01222674
127	0x3e5451e8	0.2073437
128	0xbdb1db3c	-0.08684394
129	0x3ea00cea	0.31259853
130	0xbda182d7	-0.07886284
131	0xbd6c3fc8	-0.057678014
132	0x3d171efb	0.03689478
133	0x3de3b0ce	0.11117707
134	0x3d89dc66	0.06731491
135	0xbcd300a9	-0.02575715
136	0xbd481c7d	-0.048855294
137	0xbd13cf9d	-0.036086667
138	0xbd373345	-0.04472663
139	0x3d52e2cf	0.051485833
140	0x3d023264	0.031786337
141	0x3dccc01a	0.09997578
142	0xbe872c0e	-0.264008
143	0x3e83f946	0.25776118
144	0xbdcb2885	-0.09919838
145	0xbdb8d7d9	-0.09025545
146	0xbce29349	-0.027658122
147	0xbc0e68b5	-0.008691956
148	0xbd09e15c	-0.033662185
149	0xbc51ac84	-0.012797479
150	0xbcb2aac6	-0.021809947
151	0xbdcf4df4	-0.1012229
152	0x3e3a9009	0.18219008
153	0xbd05f1dd	-0.032701362
154	0xbd998293	-0.07495608
155	0x3dd53f78	0.10412496
156	0x3e223bf2	0.1584318
157	0xbde157a9	-0.11003048
158	0xbdb73609	-0.08945853
159	0x3e4d84d6	0.20070204
160	0x3f9fb899	1.247821
161	0xbd9853a5	-0.07437829
162	0x3ebeae79	0.37242487
163	0xbec720b0	-0.38892126
164	0xbab2dac4	-0.001364552
165	0xbda03773	-0.07823076
166	0x3e7f1e07	0.24913798
167	0xbe8f70e9	-0.2801583
168	0x3b8c358d	0.0042788447
169	0xbde42be5	-0.11141185
170	0xbe708062	-0.23486474
171	0xbd3dd054	-0.046341255
172	0x3e86ef9c	0.26354682
173	0x3e5077d3	0.2035821
174	0xbe553c84	-0.20823866
175	0xbe8baa25	-0.27278247
176	0xbe526ca5	-0.20549257
177	0xbdd3274a	-0.10310228
178	0xbdcee201	-0.101017006
179	0x3e22fa42	0.15915778
180	0x3c74e25c	0.014946546
181	0x3e5d851b	0.21632807
182	0xbdf23c26	-0.11827879
183	0x3d235cb9	0.03988335
184	0xbda511b2	-0.08060016
185	0xbd906d4b	-0.07052096
186	0x3cbcf36d	0.023065293
187	0xbde7a620	-0.11310983
188	0xbdaccfce	-0.08438073
189	0xbd4415c1	-0.04787231
190	0xbe4dd1ca	-0.2009956
191	0xbd3c9a3a	-0.04604552
192	0xbee1a1cc	-0.44068754
193	0xbea1d6c6	-0.31609172
194	0xbdcbbd46	-0.099482104
195	0x3d4159c0	0.047204733
196	0x3e861976	0.261913
197	0x3dd59285	0.10428337
198	0x3e4308b7	0.19046293
199	0xbdfafd7f	-0.12255382
200	0x3f8ff144	1.1245503
201	0xbe306dd7	-0.172294
202	0xbd21c741	-0.039496664
203	0xbed2ecbb	-0.41196236
204	0x3d2cb9a5	0.042169232
205	0xbed7ba00	-0.42134094
206	0x3d288383	0.041141044
207	0xbda23fb0	-0.07922304
208	0x3d9cb227	0.07651167
209	0xbea09f18	-0.3137138
210	0xbe891f45	-0.2678167
211	0x3e4f2a2d	0.20230933
212	0x3c8670e3	0.01641125
213	0xbd9988e7	-0.07496815
214	0xbe55280b	-0.20816056
215	0xbd9c68ac	-0.07637152
216	0x3e7ddeac	0.24791974
217	0xbe0919ea	-0.13388792
218	0x3e1966d4	0.14980632
219	0xbd34635e	-0.044040076
220	0xbe10a3d8	-0.14125001
221	0xbe23b141	-0.15985586
222	0x3def61b9	0.11688561
223	0xbe230dba	-0.15923205
224	0x3e614756	0.21999869
225	0xbdeb4bee	-0.11489092
226	0x3e81fc73	0.25387916
227	0x3df2474f	0.11830007
228	0xbe984536	-0.29740304
229	0xbe9264d6	-0.28592557
230	0xbeaff427	-0.3436596
231	0xbe10ae6b	-0.14129035
232	0xbe5ca859	-0.21548595
233	0xbd921927	-0.07133704
234	0x3ddfb1fa	0.10922618
235	0x3e9bf641	0.30461314
236	0xbe6a6ead	-0.22893782
237	0x3f274b16	0.6534895
238	0x3ea9c476	0.331577
239	0x3e47e1a7	0.19519673
240	0x3f91dfca	1.139642
241	0xbed14e1f	-0.40879914
242	0xbe43d7f9	-0.19125356
243	0xbc910aad	-0.017705286
244	0x3efb2a87	0.49055883
245	0xbe71df0b	-0.2362024
246	0x3e80aaa3	0.25130185
247	0xbde20c49	-0.110374995
248	0xbedbb8d2	-0.42914444
249	0xbebcf5dd	-0.3690633
250	0x3e9fdee9	0.31224754
251	0x3eae3078	0.34021354
252	0xbeb6632b	-0.35622534
253	0xbef3e1ed	-0.47633305
254	0xbe83a8ec	-0.25714815
255	0x3dfea193	0.124331616

virtual_embedding f4 [78]
0	0xbe26c397	-0.16285549
1	0x3c60d8b7	0.013723544
2	0xbdc566dd	-0.0963876
3	0x3db23beb	0.08702835
4	0xbda570ec	-0.08078179
5	0x3d29ecd3	0.04148562
6	0xbd5aa75a	-0.053382255
7	0xbbcfd3cb	-0.0063423864
8	0x3d809b9a	0.06279679
9	0x3ee24aec	0.44197786
10	0x3d2ff38b	0.04295687
11	0xbd66c92a	-0.05634419
12	0x3e71130a	0.23542419
13	0xbdb367d1	-0.08760036
14	0x3ca24ed2	0.019812975
15	0x3d46de4d	0.048551846
16	0xbd03c117	-0.032166567
17	0xbbc7b5c4	-0.006094666
18	0xbd3469fd	-0.04404639
19	0x3b357c54	0.0027692514
20	0x3d1c304a	0.03813199
21	0x3cd16cb1	0.025564523
22	0x3db74542	0.08948757
23	0xbd22d104	-0.039750114
24	0x3e0a10ac	0.13482922
25	0xbe6036af	-0.2189586
26	0x3ef15b40	0.4713993
27	0xbdd8c485	-0.10584358
28	0x3b1e0ef8	0.0024117809
29	0xbe1dbe67	-0.15404664
30	0x3be119d4	0.006869534
31	0xbd10322d	-0.0352041
32	0x3d20fdd4	0.03930457
33	0xbd3dc24b	-0.04632787
34	0xbc5e9fb2	-0.013587879
35	0x3dc90f4e	0.09817372
36	0x3d4f8107	0.05066016
37	0x3d039357	0.032122936
38	0x3f79c9ca	0.9757353
39	0xbd8a0023	-0.06738307
40	0x3dc11dc3	0.09429505
41	0x3d58ad47	0.052899625
42	0xbd9e3310	-0.07724583
43	0x3af7d692	0.0018908551
44	0xbd99daec	-0.07512459
45	0xbc9a7490	-0.01885441
46	0xbc20f325	-0.009823595
47	0xbd460c75	-0.048351724
48	0xbcaba3d4	-0.020952143
49	0x3d3bac54	0.04581864
50	0x3e99a2a2	0.3000689
51	0xbc8c89a9	-0.017155485
52	0xbdffb6ea	-0.1248606
53	0xbeb3f6f3	-0.35149345
54	0x3e582568	0.2110802
55	0xbe38a291	-0.18030764
56	0xbd509a1d	-0.050928224
57	0x3df39b7d	0.118948914
58	0x3ddada82	0.10686208
59	0x3e8f6d65	0.2801315
60	0xbe02acfb	-0.127613
61	0xbd5e59d0	-0.05428487
62	0xbea54e54	-0.32286322
63	0xbd3ee94e	-0.046609215
64	0xbcb00ea3	-0.021491354
65	0xbd0070eb	-0.031357687
66	0xbd245a3c	-0.040125117
67	0xb8eb620f	-0.00011223938
68	0xbc5eb7da	-0.013593638
69	0x3aa42f78	0.0012526354
70	0xbc870641	-0.016482474
71	0xbd5251d3	-0.051347565
72	0xbcef7bd8	-0.029233858
73	0xbd3034e9	-0.04301921
74	0x3e1d746b	0.15376441
75	0xbe5c0424	-0.21485955
76	0x3d28ff80	0.04125929
77	0x3d1f5a86	0.03890469

embed_transform.0.weight f4 [64, 78]
0	0x3f6bd76d	0.9212559
1	0x3e6c85ce	0.23097917
2	0xbcd83caa	-0.026396114
3	0x3ea7ebe8	0.3279717
4	0x3e1ecb67	0.1550728
5	0xbe2c3e5f	-0.16820668
6	0xbe563ac4	-0.20920855
7	0x3e0ed3a7	0.13947926
8	0xbe217f6c	-0.15771264
9	0xbedd17b4	-0.43182147
10	0x3dfbfb58	0.123037994
11	0xbea08249	-0.313494
12	0xbec55c3b	-0.3854693
13	0x3e311cca	0.17296138
14	0xbe37fca6	-0.17967471
15	0xbd90b562	-0.07065846
16	0x3e939312	0.28823143
17	0x3dc02962	0.09382893
18	0x3e6d0669	0.23146977
19	0x3d793dd3	0.060849976
20	0xbe21fa8b	-0.15818231
21	0x3c1d2521	0.009591372
22	0xbe25ef44	-0.16204554
23	0x3e28c29c	0.16480488
24	0xbe2a2a71	-0.16617753
25	0x3e99cf15	0.30040804
26	0xbeb59a32	-0.35469204
27	0x3db99f4d	0.09063587
28	0xbd914d92	-0.070948735
29	0x3e6d6bb3	0.23185615
30	0x3ca2f5c3	0.019892579
31	0x3db4b9eb	0.088245235
32	0xbd02147a	-0.03175781
33	0x3ee3dd41	0.4450474
34	0xbe39770c	-0.18111819
35	0xbcf3ce59	-0.02976148
36	0xbc9180eb	-0.017761668
37	0xbb62cfc6	-0.0034608706
38	0xbe017638	-0.12642753
39	0x3e901f69	0.28148964
40	0x3b3c888b	0.002876791
41	0x3dfde351	0.12396873
42	0x3e48bef9	0.196041
43	0x3dc1b2d6	0.094579384
44	0xbe879926	-0.2648403
45	0x3d942b63	0.07234838
46	0x3e3114af	0.17293046
47	0x3deaa643	0.11457493
48	0xbda1bc2b	-0.07897218
49	0x3c9a0704	0.018802173
50	0xbe861e50	-0.26195002
51	0x3b7a5c4b	0.0038201984
52	0xbe55f950	-0.20895886
53	0x3e88abf0	0.26693678
54	0x3e0d2f5e	0.137876
55	0x3c78a788	0.015176661
56	0x3e3b3544	0.18282038
57	0x3e0c2e31	0.13689496
58	0xbe818049	-0.25293186
59	0xbe554864	-0.20828396
60	0x3e843d42	0.25827986
61	0xbe6bf7a1	-0.23043682
62	0x3cba9bae	0.022779312
63	0xbda0be95	-0.07848851
64	0x3dd29de2	0.1028402
65	0xbd856171	-0.06512726
66	0xbd443437	-0.04790136
67	0x3e6a31f7	0.22870623
68	0x3e46dbdc	0.19419807
69	0x3dc640e2	0.09680344
70	0x3c6581eb	0.014008026
71	0x3d759ed7	0.059965935
72	0x3cc11a88	0.023572221
73	0x3e029115	0.12750657
74	0x3de8112e	0.11331402
75	0x3ddddb32	0.10832824
76	0xbdc9ee65	-0.09859923
77	0xbde08b85	-0.10964111
78	0x3d9b2905	0.07576183
79	0x3f9bc84f	1.2170504
80	0x3e90eb50	0.2830453
81	0x3e8decb3	0.2771965
82	0xbe7688b6	-0.24075589
83	0xbeaad389	-0.33364514
84	0xbe0bf9cc	-0.13669509
85	0x3d3c6a27	0.045999672
86	0xbe88f600	-0.26750183
87	0xbd09126a	-0.033464827
88	0xbe28dfb6	-0.16491589
89	0x3ddbff01	0.107419975
90	0xbe506d87	-0.20354281
91	0x3e22a550	0.15883374
92	0xbf0c1198	-0.54714346
93	0xbe7cdedd	-0.2469439
94	0x3f152ebd	0.5827444
95	0x3e00d3dd	0.1258082
96	0x3e581a88	0.21103871
97	0xbee988ab	-0.45612082
98	0xbe089c24	-0.13340813
99	0x3d8a90e5	0.06765918
100	0xbe1dd9c4	-0.15415102
101	0x3daeae28	0.085293114
102	0xbd4f3310	-0.050585806
103	0xbe45ac6e	-0.19304058
104	0xbd38beb7	-0.045103755
105	0xbcfb8520	-0.030703127
106	0xbd902073	-0.07037439
107	0x3dc0a596	0.09406583
108	0xbe08f63c	-0.13375181
109	0x3bcd4a61	0.00626497
110	0xbcdc0058	-0.026855633
111	0x3e01e4a1	0.12684871
112	0xbe84f3bf	-0.25967214
113	0x3e008d4d	0.12553902
114	0xbda51550	-0.08060706
115	0xbdce17fa	-0.10063167
116	0x3c6eba56	0.014570793
117	0x3cc029fb	0.023457518
118	0xbc978ea9	-0.018500643
119	0x3d238863	0.03992499
120	0xbdb9ea99	-0.09077949
121	0xbd9f1de1	-0.07769371
122	0xbe6a8103	-0.22900777
123	0xbdabc253	-0.08386674
124	0xbcd50191	-0.026001723
125	0x3c5799e9	0.013159254
126	0xbb266f79	-0.0025396033
127	0x3d1b38a9	0.037895832
128	0x3e01f819	0.12692298
129	0x3d476e1a	0.048688985
130	0xbd28cf5a	-0.04121337
131	0x3dd413b9	0.10355324
132	0xbc947d5b	-0.01812618
133	0xbe342d6b	-0.1759545
134	0xbd9f8bed	-0.077903606
135	0x3d5aa646	0.053381227
136	0xbd495479	-0.049152825
137	0xbe6ca82a	-0.23111024
138	0xbd5bd315	-0.0536681
139	0x3d17cd9d	0.037061322
140	0x3df6b2bb	0.12045809
141	0x3d596902	0.05307866
142	0x3d31ea18	0.04343614
143	0x3dd0f94a	0.10203798
144	0x3c92a1a5	0.017899344
145	0x3e1d9eb8	0.15392578
146	0x3c9c71d1	0.01909724
147	0x3d9cf9ee	0.07664858
148	0xbd894aa3	-0.06703689
149	0xbdaa7caf	-0.08324563
150	0xbda28066	-0.07934646
151	0xbdbd7ced	-0.09252343
152	0xbd2eba55	-0.04265817
153	0xbe0385dc	-0.12844032
154	0xbca0ae44	-0.019614346
155	0xbc735b10	-0.014853254
156	0x3d9aa183	0.07550337
157	0x3ec64d30	0.38730764
158	0x3f49a185	0.78762084
159	0xbec7bc84	-0.39011014
160	0xbd2c9f75	-0.042144258
161	0x3e8089fe	0.2510528
162	0xbdeac742	-0.11463787
163	0xbd602809	-0.05472568
164	0xbf1425e1	-0.578703
165	0xbead4b0b	-0.33846316
166	0xbf4970af	-0.78687567
167	0xbda2ce90	-0.07949555
168	0xbed1194f	-0.4083962
169	0x3e500074	0.20312673
170	0xbed8acdc	-0.4231938
171	0xbe8767ef	-0.26446483
172	0x3e0a4bdc	0.135055
173	0xbcbfccc2	-0.023413066
174	0x3da2ae70	0.079434276
175	0xbe03ec07	-0.12883006
176	0xbda80039	-0.082031675
177	0x3e8022e9	0.25026634
178	0xbe857525	-0.26065937
179	0x3e25aaad	0.16178389
180	0xbde4301b	-0.11141988
181	0x3edb4a03	0.42829904
182	0xbf1737d5	-0.5906957
183	0x3e355fa7	0.1771227
184	0xbdd2009c	-0.102540225
185	0x3ebadf01	0.36498263
186	0xbe35f936	-0.17770848
187	0x3e42b59b	0.1901459
188	0x3dfa8bf0	0.12233722
189	0xbe50030a	-0.2031366
190	0xbdea628a	-0.11444576
191	0xbf01c82a	-0.5069605
192	0xbe34e18d	-0.17664166
193	0xbeca7d2f	-0.39548633
194	0xbe1704cd	-0.14747925
195	0xbc80496c	-0.01566001
196	0x3bd3f4a5	0.006468373
197	0x3c7c21c6	0.015388912
198	0x3dab248b	0.083565794
199	0x3cc3a5b2	0.02388272
200	0x3d5e89f0	0.054330766
201	0x3bca3466	0.006170797
202	0x3c8c11ad	0.017098272
203	0x3d49f079	0.0493016
204	0x3d3d6e7a	0.046247937
205	0xbda7365c	-0.08164665
206	0xbcbfff5b	-0.023437193
207	0xbd7abd36	-0.0612156
208	0x3d027a9a	0.031855203
209	0x3e2b6cd8	0.1674074
210	0xbb2f6cd9	-0.002676776
211	0x3d775caf	0.060391124
212	0xbc81f058	-0.015861675
213	0x3c8ba0bd	0.01704442
214	0x3ced1997	0.028942866
215	0xbe1fa30e	-0.15589544
216	0x3d62963d	0.05531906
217	0x3a8a6e88	0.0010561505
218	0x3d468257	0.048464146
219	0x3b494280	0.0030709803
220	0xbc531d19	-0.012885355
221	0xbbb0f8e6	-0.0054007648
222	0xbbf79bfc	-0.0075564366
223	0x3c41a8ed	0.01182006
224	0xbc16c508	-0.009202249
225	0xbd597a70	-0.05309528
226	0x3a98ccb8	0.0011657691
227	0x3ca9e43e	0.020738717
228	0xbda0fe90	-0.07861054
229	0x3db6bd26	0.08922796
230	0x3c140a08	0.009035595
231	0x3d6656e3	0.056235205
232	0xbc412e1e	-0.01179078
233	0xbc9b1b7e	-0.018934008
234	0x3d11c484	0.035587803
235	0x3e8835db	0.26603588
236	0x3e6cdb98	0.23130643
237	0x3f7461fe	0.95462024
238	0xbb6a33a6	-0.0035736351
239	0x3e71bfbf	0.23608302
240	0xbe81928b	-0.25307116
241	0xbda4b6c4	-0.08042672
242	0x3df851e0	0.121249914
243	0x3e96c81f	0.29449555
244	0xbe02369b	-0.12716143
245	0xbdeb81bc	-0.11499354
246	0x3e07a7d7	0.1324762
247	0x3d7a618a	0.061128177
248	0xbe9068fc	-0.28205097
249	0x3d8fa591	0.07014001
250	0x3e856b41	0.2605839
251	0x3d5c9644	0.053854242
252	0x3e37e71a	0.17959252
253	0xbe0d1d7c	-0.13780779
254	0xbcacaac7	-0.021077527
255	0x3e0a2729	0.13491501

embed_transform.0.bias f4 [64]
0	0xbe0da8e2	-0.13833955
1	0x3e0ddba4	0.13853317
2	0xbd61c3d7	-0.055118408
3	0x3de99c27	0.11406737
4	0xbdbb2438	-0.091377676
5	0x3c67df1e	0.014152316
6	0xbe076f5a	-0.13226071
7	0xbcb60abd	-0.022221917
8	0xbd70fda1	-0.05883563
9	0xbd86882d	-0.06568942
10	0xbdc42ba5	-0.09578637
11	0xbd15c8b5	-0.036568362
12	0x3a8c7dc4	0.0010718633
13	0x3b4c63aa	0.0031187334
14	0xbdec64f5	-0.115426935
15	0x3a7d28d7	0.00096572697
16	0x3e0e285b	0.13882582
17	0x3d5e4865	0.05426826
18	0x3d72bbce	0.059261136
19	0xbd007145	-0.031358022
20	0xbe255279	-0.16144742
21	0xbd9d1724	-0.07670429
22	0xbdfc3538	-0.12314838
23	0x3de09a82	0.1096697
24	0xbc4db05c	-0.012554254
25	0xbd8818fc	-0.066453904
26	0x3cc59103	0.024116999
27	0xbda6509b	-0.08120843
28	0xbe060ce5	-0.13090856
29	0xbd11d04f	-0.03559905
30	0xbda6c996	-0.08143918
31	0x3df2e126	0.1185935
32	0xbc753cb1	-0.014968083
33	0xbd7cd3e0	-0.061725497
34	0xbcd8c8fe	-0.026463028
35	0xbd99c6a9	-0.075085945
36	0xbe0fb900	-0.14035416
37	0xbe069989	-0.13144507
38	0xbd725578	-0.05916354
39	0x3d4824fb	0.048863392
40	0xbe10677a	-0.14101973
41	0x3c816518	0.015795276
42	0xbda1b14d	-0.078951456
43	0xbdc0e6f9	-0.094190545
44	0xbdd0e9aa	-0.10200818
45	0xbdc96743	-0.09834149
46	0xbd8a2e2d	-0.067470886
47	0xbd836898	-0.06416434
48	0xbdde4e05	-0.10854725
49	0xbd31df4c	-0.043425843
50	0xbdc333a8	-0.09531337
51	0x3ccd85a5	0.02508814
52	0xbc2e4629	-0.010636845
53	0xbdc50f9e	-0.09622119
54	0xbdd10e9a	-0.10207863
55	0xbd8f4708	-0.0699597
56	0xbd07d1a6	-0.03315892
57	0xbd5793fa	-0.052631356
58	0xbd8cc7f4	-0.068740755
59	0xbc717cbb	-0.014739211
60	0xbcff078b	-0.031131526
61	0xbe0838fb	-0.13302986
62	0xbba83a3d	-0.0051338957
63	0x3b488b18	0.0030600484

conv.0.att_src f4 [1, 1, 39]
0	0x3ec5ea30	0.38655233
1	0x3e9075d8	0.28214908
2	0x3e74e6ef	0.23916219
3	0x3f21eae0	0.63249016
4	0xbdfa5fee	-0.122253284
5	0x3e60e1d1	0.21961142
6	0x3ec70dc7	0.388777
7	0xbe1ade0d	-0.15123768
8	0xbdf29ec8	-0.11846691
9	0x3efc5973	0.49286994
10	0x3e9d7d55	0.30759683
11	0xbdd5685a	-0.10420294
12	0x3e68d9c7	0.22739325
13	0xbea58104	-0.32324994
14	0xbf0556bd	-0.5208548
15	0x3e4e48f3	0.20145015
16	0xbdce2cff	-0.10067176
17	0x3e34bf5a	0.1765112
18	0xbbe2be5e	-0.006919666
19	0xbe476d28	-0.19475234
20	0x3f169733	0.5882446
21	0x3b18fe09	0.0023344776
22	0xbec0045d	-0.3750333
23	0x3ea8f593	0.32999858
24	0x3e669af0	0.22520041
25	0x3e85111b	0.25989613
26	0x3e849f97	0.25903007
27	0xbea65a31	-0.32490686
28	0x3ef3c1ad	0.476087
29	0x3ee45bc6	0.44601268
30	0xbf22584b	-0.63415974
31	0x3f0d7b22	0.5526601
32	0xbee459da	-0.445998
33	0x3ea4fe57	0.32225296
34	0xbef76c1a	-0.48324662
35	0x3e784b96	0.24247584
36	0xbe95e307	-0.2927477
37	0x3bc6b173	0.006063634
38	0xbdb9f2bf	-0.09079503

conv.0.att_dst f4 [1, 1, 39]
0	0x3f729f1c	0.9477403
1	0xbe08c083	-0.13354687
2	0x3ea8e30f	0.32985732
3	0xbe7328f6	-0.23746094
4	0xbeb9ab92	-0.3626371
5	0x3e8b0a91	0.271565
6	0xbe474521	-0.19459964
7	0xbf3f7b1b	-0.7479722
8	0x3e4e780e	0.20162985
9	0xbf42c54b	-0.76082295
10	0xbf1af4b2	-0.60529625
11	0x3f19de6f	0.6010503
12	0xbd8f9c19	-0.07012195
13	0x3dd3693c	0.10322806
14	0x3da56cb9	0.08077378
15	0xbe6e4547	-0.23268615
16	0x3f3d8409	0.74029595
17	0xbe04bb99	-0.12962188
18	0x3f6b30cf	0.9187135
19	0x3d8e094f	0.06935369
20	0xbcf2db23	-0.029645508
21	0xbf33e6b6	-0.7027391
22	0x3cfb2ea9	0.030661898
23	0x3e6fe5cf	0.23427509
24	0xbf2b9069	-0.6701723
25	0x3e6c5f01	0.23083116
26	0x3f548b01	0.83024603
27	0xbf2e2974	-0.68032
28	0xbf316d64	-0.6930754
29	0xbf241ac9	-0.6410337
30	0xbec0dc4b	-0.3766807
31	0x3e9ee1d0	0.31031656
32	0x3f2f205f	0.6840877
33	0xbf6f1288	-0.9338765
34	0x3f2585d8	0.64657354
35	0xbf502323	-0.81303614
36	0x3da37c8c	0.0798274
37	0xbf80fd22	-1.007725
38	0x3f3c9c41	0.73675925

conv.0.bias f4 [39]
0	0xbe5bf09e	-0.21478507
1	0x3dc2d50c	0.09513292
2	0xbce51cf4	-0.027967907
3	0xbdd12e69	-0.1021393
4	0x3e41d03a	0.18927088
5	0x3d58efaf	0.052962955
6	0xbd3d948c	-0.046284243
7	0x3dba51ed	0.09097657
8	0xbdca8e65	-0.09890441
9	0x3d10d3cc	0.035358235
10	0x3e14fbbc	0.14549154
11	0x3d2a28cd	0.041542817
12	0xbe6370a8	-0.22210944
13	0xbe1703b0	-0.147475
14	0x3c2e370a	0.0106332395
15	0x3c445f21	0.011985571
16	0x3d00fcbf	0.031491037
17	0xbe2b9adf	-0.16758297
18	0xbdd8d226	-0.10586958
19	0x3d64509b	0.055740934
20	0x3cbc9a32	0.023022745
21	0xbe078dca	-0.13237682
22	0xbe410ec1	-0.18853284
23	0xbdfc5b48	-0.12322098
24	0xbd99d588	-0.07511431
25	0xbdfb566f	-0.12272345
26	0x3d8a5cec	0.06756005
27	0xbd2b3a07	-0.041803386
28	0x3af6f8c6	0.0018842451
29	0xbcc09f52	-0.02351347
30	0xbda03caa	-0.07824071
31	0xbdcb6990	-0.09932244
32	0xbda36724	-0.07978657
33	0x3c01bb73	0.0079182265
34	0x3e72a9e5	0.23697622
35	0x3e1d656b	0.15370719
36	0x3e0f224d	0.13977928
37	0xbd74bb1b	-0.05974875
38	0xbe6990c5	-0.22809131

conv.0.lin_src.weight f4 [39, 39]
0	0x3edc6e04	0.43052685
1	0x3e300030	0.17187572
2	0xbf0a43c1	-0.54009634
3	0xbd5f51c7	-0.05452135
4	0xbec12c87	-0.37729284
5	0x3ead8933	0.33893737
6	0x3e3eb7fa	0.18624869
7	0x3e3703ed	0.17872591
8	0xbe906cf7	-0.28208134
9	0x3e33a155	0.17542012
10	0x3e38b9f8	0.18039691
11	0x3e4ce9e1	0.20011093
12	0x3decfbe2	0.1157148
13	0x3ce0c0ff	0.027435778
14	0x3c8ff4a9	0.017572718
15	0xbd8070ee	-0.0627154
16	0x3d83d360	0.06436801
17	0x3da45542	0.08024074
18	0xbe6580d3	-0.22412424
19	0xbcd1084c	-0.025516652
20	0x3ddb6e3c	0.10714385
21	0x3daf609f	0.08563351
22	0xbdfb86e0	-0.12281585
23	0x3cf51955	0.029919306
24	0x3e6c7f44	0.23095423
25	0x3e0a8b44	0.13529688
26	0x3da8fb03	0.08251002
27	0x3e1c46d5	0.15261395
28	0x3e4ea730	0.20180964
29	0x3e2822a1	0.1641946
30	0x3dbb43d2	0.09143795
31	0xbe3bfbcd	-0.18357773
32	0xbd282931	-0.04105491
33	0xbe926268	-0.28590703
34	0x3e6a3cb0	0.22874713
35	0xbdedb17e	-0.116061196
36	0xbe945d4f	-0.2897744
37	0xbed9b518	-0.42520976
38	0xbeb9c85b	-0.36285672
39	0xbe31852b	-0.17335956
40	0xbe146261	-0.14490654
41	0xbf123cf8	-0.5712428
42	0x3bf222f9	0.007389423
43	0xbe2ae9c1	-0.16690733
44	0x3ef5dbae	0.48019165
45	0x3d4ce5bd	0.050023783
46	0xbe3a5410	-0.1819613
47	0xbe14d3c9	-0.14533915
48	0xbe3cf6f2	-0.18453577
49	0xbde81446	-0.11331992
50	0xbecee0c3	-0.40405855
51	0x3e1bf26a	0.15229192
52	0xbeb028b4	-0.34406054
53	0xbdca6656	-0.098828
54	0xbe8261d6	-0.25465268
55	0x3c59aa21	0.013285191
56	0xbe061539	-0.13094033
57	0xbec43357	-0.3832042
58	0xbdc42989	-0.09578235
59	0x3eeb17f4	0.45916712
60	0x3e685dd0	0.22692037
61	0xbcf35453	-0.029703295
62	0x3ccb0c99	0.02478628
63	0x3ee5a34a	0.44851142
64	0x3e9fae8d	0.3118786
65	0xbe515e25	-0.2044607
66	0xbce3f2c8	-0.027825728
67	0x3dce396e	0.100695476
68	0xbe1a3e9f	-0.1506295
69	0x3ecc3b96	0.3988921
70	0x3e52c37c	0.20582384
71	0xbc508176	-0.012726178
72	0x3e382b08	0.17985165
73	0x3cdcd3c9	0.026956456
74	0x3cf6e0db	0.030136516
75	0x3dd7b661	0.10532833
76	0x3d389d59	0.045071933
77	0x3e49a218	0.1969074
78	0x3e35f387	0.1776868
79	0x3e55ef61	0.20892097
80	0xbcabb11c	-0.020958476
81	0xbe5be6bc	-0.21474737
82	0x3ceb26d3	0.028705036
83	0x3f10df2e	0.56590545
84	0x3e1cf110	0.15326333
85	0x3eb69506	0.3566057
86	0xbd617107	-0.055039432
87	0x3ed75c78	0.42062736
88	0x3e750932	0.23929289
89	0x3cbc27ec	0.022968255
90	0x3e370148	0.17871583
91	0x3e9198aa	0.28436786
92	0xbe6d0edd	-0.23150201
93	0xbd7137a1	-0.058890942
94	0xbe1da99c	-0.15396732
95	0xbd84908d	-0.064728834
96	0xbe84c9a8	-0.25935102
97	0x3c96d6e7	0.01841302
98	0x3d4023a5	0.046908993
99	0xbeaa18c5	-0.33222023
100	0xbdb66f49	-0.08907945
101	0x3e7338c7	0.23752128
102	0x3d5592b8	0.052141875
103	0xbe94bb39	-0.2904909
104	0x3e3bff45	0.18359096
105	0xbbda6394	-0.0066647027
106	0x3e3a5629	0.1819693
107	0x3e9c9aca	0.30586845
108	0xbee6f103	-0.45105752
109	0x3d08cb79	0.03339717
110	0x3e84b66c	0.25920427
111	0xbe014178	-0.1262263
112	0x3d196855	0.037453014
113	0xbe13e330	-0.14442134
114	0xbd7b1ed3	-0.061308693
115	0xbdd76762	-0.105177656
116	0x3cbeeb28	0.02330549
117	0x3e2ecb00	0.17069626
118	0x3d8e9984	0.069628745
119	0x3c7384e9	0.014863231
120	0x3ed1d0b8	0.40979552
121	0xbf064310	-0.5244608
122	0x3e010873	0.1260088
123	0xbe966f78	-0.2938192
124	0x3e9c6f80	0.30553818
125	0xbdc98c0c	-0.09841165
126	0xbce1b5f0	-0.027552575
127	0xbde3af09	-0.1111737
128	0x3e8d72ac	0.2762655
129	0x3ec90120	0.3925867
130	0x3dfc59d7	0.12321823
131	0x3e404d01	0.18779375
132	0xbe99c640	-0.30034065
133	0x3eb09d64	0.3449508
134	0xbe01e670	-0.12685561
135	0x3e35dfb9	0.17761125
136	0x3d3b9207	0.04579356
137	0x3e69997e	0.22812459
138	0x3ea81b35	0.32833257
139	0xbe4d5113	-0.20050459
140	0x3e261cd4	0.16221935
141	0x38a8f3cc	8.056275e-05
142	0xbe9c54cf	-0.30533454
143	0x3d33a23a	0.043855883
144	0x3d4fcc8e	0.050732188
145	0xbe953728	-0.29143643
146	0x3e9ea261	0.3098326
147	0x3d36d00b	0.044632
148	0x3e7aea89	0.2450353
149	0x3e4725ae	0.19447967
150	0xbeba4406	-0.36380023
151	0xbeb1b519	-0.3470848
152	0xbe626ee7	-0.22112618
153	0xbe082673	-0.13295917
154	0xbe8a7907	-0.27045462
155	0x3e2db726	0.16964397
156	0xbea5ab1b	-0.32357106
157	0xba84108f	-0.0010075736
158	0x3e8a0ebf	0.26964375
159	0xbd919162	-0.07107808
160	0x3d3e48b8	0.04645607
161	0x3c77783b	0.015104349
162	0xbe8354e8	-0.25650716
163	0x3e857797	0.26067802
164	0x3e90a83b	0.2825335
165	0x3e55b828	0.20871031
166	0xbdbc422d	-0.091923095
167	0x3e91212c	0.2834562
168	0xbe1382fc	-0.14405435
169	0x3d1f856f	0.03894561
170	0x3eaa2a52	0.33235413
171	0x3d3f73ce	0.0467413
172	0x3e06654a	0.13124576
173	0xbd5f11b8	-0.054460257
174	0xbd71d5c4	-0.059041753
175	0x3e42bca5	0.19017275
176	0xbe020414	-0.12696868
177	0x3dd3ca58	0.103413284
178	0x3d85bfab	0.065306984
179	0xbd18f916	-0.03734692
180	0xbe412d29	-0.18864883
181	0xbc99fba2	-0.018796746
182	0xbe3da20b	-0.18518846
183	0x3dd78da1	0.105250604
184	0x3e40b80e	0.18820211
185	0xbe848c7e	-0.25888437
186	0x3d97ac7f	0.07405948
187	0xbe852e2a	-0.26011783
188	0x3e6fb973	0.23410587
189	0xbd2f01c1	-0.042726282
190	0xbcaddb7b	-0.02122282
191	0x3da2105a	0.07913275
192	0xbdb6dab9	-0.08928437
193	0x3e9d3cec	0.30710542
194	0x3ea702d0	0.32619333
195	0x3de2f737	0.11082309
196	0x3e43047e	0.19044682
197	0xbe8143a9	-0.25246933
198	0x3e16398c	0.1467039
199	0x3f15e169	0.58547074
200	0xbd5725a2	-0.052526124
201	0x3e414492	0.18873814
202	0x3d54ac8b	0.051922362
203	0xbe98cd91	-0.29844335
204	0x3e1b0326	0.1513792
205	0x3e2c6de3	0.16838793
206	0xbe33af25	-0.17547281
207	0x3eb2d4b0	0.34927893
208	0xbe92a0fb	-0.28638443
209	0xbe2f0249	-0.17090715
210	0x3e497824	0.19674736
211	0xbc7e6343	-0.0155265955
212	0x3e2e0396	0.16993555
213	0xbe0afb51	-0.13572432
214	0xbe8dfaf5	-0.27730528
215	0xbe91fceb	-0.28513274
216	0xbe09052e	-0.13380882
217	0xbe86a121	-0.26294807
218	0xbddbe1b3	-0.10736408
219	0xbe07d73b	-0.13265698
220	0x3e9ff857	0.31244156
221	0x3e566e25	0.20940454
222	0x3da3cfd0	0.079986215
223	0xbe78b500	-0.24287796
224	0xbe20f158	-0.15717065
225	0x3e48b1e5	0.19599111
226	0x3da0381b	0.07823201
227	0x3d8be096	0.06829946
228	0xbe729128	-0.23688185
229	0xbe21592c	-0.15756673
230	0xbda0b35d	-0.07846711
231	0xbe897e5f	-0.26854226
232	0xbe44e38f	-0.19227432
233	0xbe78d0ec	-0.24298447
234	0xbe5ce9b5	-0.21573527
235	0xbdc5e6f9	-0.09663195
236	0xbe9b8b6a	-0.30379802
237	0x3eb2a31c	0.34890068
238	0x3dbfebc7	0.09371143
239	0xbd3034ce	-0.04301911
240	0x3eb74ef7	0.35802433
241	0x3d2de211	0.04245192
242	0xbdb5fe3d	-0.08886383
243	0x3da8d158	0.08243054
244	0xbd17f3fb	-0.037097912
245	0xbee76161	-0.45191482
246	0x3e5459ca	0.20737377
247	0xbe9455a8	-0.289716
248	0xbeb75f0b	-0.358147
249	0xbe301229	-0.17194428
250	0x3ea44073	0.3208042
251	0x3e588821	0.21145679
252	0xbe7be4b1	-0.24598958
253	0xbed44ab9	-0.4146326
254	0xbdf11a56	-0.11772601
255	0xbd5f8aed	-0.05457585

conv.0.lin_dst.weight f4 [39, 39]
0	0x3edc6e04	0.43052685
1	0x3e300030	0.17187572
2	0xbf0a43c1	-0.54009634
3	0xbd5f51c7	-0.05452135
4	0xbec12c87	-0.37729284
5	0x3ead8933	0.33893737
6	0x3e3eb7fa	0.18624869
7	0x3e3703ed	0.17872591
8	0xbe906cf7	-0.28208134
9	0x3e33a155	0.17542012
10	0x3e38b9f8	0.18039691
11	0x3e4ce9e1	0.20011093
12	0x3decfbe2	0.1157148
13	0x3ce0c0ff	0.027435778
14	0x3c8ff4a9	0.017572718
15	0xbd8070ee	-0.0627154
16	0x3d83d360	0.06436801
17	0x3da45542	0.08024074
18	0xbe6580d3	-0.22412424
19	0xbcd1084c	-0.025516652
20	0x3ddb6e3c	0.10714385
21	0x3daf609f	0.08563351
22	0xbdfb86e0	-0.12281585
23	0x3cf51955	0.029919306
24	0x3e6c7f44	0.23095423
25	0x3e0a8b44	0.13529688
26	0x3da8fb03	0.08251002
27	0x3e1c46d5	0.15261395
28	0x3e4ea730	0.20180964
29	0x3e2822a1	0.1641946
30	0x3dbb43d2	0.09143795
31	0xbe3bfbcd	-0.18357773
32	0xbd282931	-0.04105491
33	0xbe926268	-0.28590703
34	0x3e6a3cb0	0.22874713
35	0xbdedb17e	-0.116061196
36	0xbe945d4f	-0.2897744
37	0xbed9b518	-0.42520976
38	0xbeb9c85b	-0.36285672
39	0xbe31852b	-0.17335956
40	0xbe146261	-0.14490654
41	0xbf123cf8	-0.5712428
42	0x3bf222f9	0.007389423
43	0xbe2ae9c1	-0.16690733
44	0x3ef5dbae	0.48019165
45	0x3d4ce5bd	0.050023783
46	0xbe3a5410	-0.1819613
47	0xbe14d3c9	-0.14533915
48	0xbe3cf6f2	-0.18453577
49	0xbde81446	-0.11331992
50	0xbecee0c3	-0.40405855
51	0x3e1bf26a	0.15229192
52	0xbeb028b4	-0.34406054
53	0xbdca6656	-0.098828
54	0xbe8261d6	-0.25465268
55	0x3c59aa21	0.013285191
56	0xbe061539	-0.13094033
57	0xbec43357	-0.3832042
58	0xbdc42989	-0.09578235
59	0x3eeb17f4	0.45916712
60	0x3e685dd0	0.22692037
61	0xbcf35453	-0.029703295
62	0x3ccb0c99	0.02478628
63	0x3ee5a34a	0.44851142
64	0x3e9fae8d	0.3118786
65	0xbe515e25	-0.2044607
66	0xbce3f2c8	-0.027825728
67	0x3dce396e	0.100695476
68	0xbe1a3e9f	-0.1506295
69	0x3ecc3b96	0.3988921
70	0x3e52c37c	0.20582384
71	0xbc508176	-0.012726178
72	0x3e382b08	0.17985165
73	0x3cdcd3c9	0.026956456
74	0x3cf6e0db	0.030136516
75	0x3dd7b661	0.10532833
76	0x3d389d59	0.045071933
77	0x3e49a218	0.1969074
78	0x3e35f387	0.1776868
79	0x3e55ef61	0.20892097
80	0xbcabb11c	-0.020958476
81	0xbe5be6bc	-0.21474737
82	0x3ceb26d3	0.028705036
83	0x3f10df2e	0.56590545
84	0x3e1cf110	0.15326333
85	0x3eb69506	0.3566057
86	0xbd617107	-0.055039432
87	0x3ed75c78	0.42062736
88	0x3e750932	0.23929289
89	0x3cbc27ec	0.022968255
90	0x3e370148	0.17871583
91	0x3e9198aa	0.28436786
92	0xbe6d0edd	-0.23150201
93	0xbd7137a1	-0.058890942
94	0xbe1da99c	-0.15396732
95	0xbd84908d	-0.064728834
96	0xbe84c9a8	-0.25935102
97	0x3c96d6e7	0.01841302
98	0x3d4023a5	0.046908993
99	0xbeaa18c5	-0.33222023
100	0xbdb66f49	-0.08907945
101	0x3e7338c7	0.23752128
102	0x3d5592b8	0.052141875
103	0xbe94bb39	-0.2904909
104	0x3e3bff45	0.18359096
105	0xbbda6394	-0.0066647027
106	0x3e3a5629	0.1819693
107	0x3e9c9aca	0.30586845
108	0xbee6f103	-0.45105752
109	0x3d08cb79	0.03339717
110	0x3e84b66c	0.25920427
111	0xbe014178	-0.1262263
112	0x3d196855	0.037453014
113	0xbe13e330	-0.14442134
114	0xbd7b1ed3	-0.061308693
115	0xbdd76762	-0.105177656
116	0x3cbeeb28	0.02330549
117	0x3e2ecb00	0.17069626
118	0x3d8e9984	0.069628745
119	0x3c7384e9	0.014863231
120	0x3ed1d0b8	0.40979552
121	0xbf064310	-0.5244608
122	0x3e010873	0.1260088
123	0xbe966f78	-0.2938192
124	0x3e9c6f80	0.30553818
125	0xbdc98c0c	-0.09841165
126	0xbce1b5f0	-0.027552575
127	0xbde3af09	-0.1111737
128	0x3e8d72ac	0.2762655
129	0x3ec90120	0.3925867
130	0x3dfc59d7	0.12321823
131	0x3e404d01	0.18779375
132	0xbe99c640	-0.30034065
133	0x3eb09d64	0.3449508
134	0xbe01e670	-0.12685561
135	0x3e35dfb9	0.17761125
136	0x3d3b9207	0.04579356
137	0x3e69997e	0.22812459
138	0x3ea81b35	0.32833257
139	0xbe4d5113	-0.20050459
140	0x3e261cd4	0.16221935
141	0x38a8f3cc	8.056275e-05
142	0xbe9c54cf	-0.30533454
143	0x3d33a23a	0.043855883
144	0x3d4fcc8e	0.050732188
145	0xbe953728	-0.29143643
146	0x3e9ea261	0.3098326
147	0x3d36d00b	0.044632
148	0x3e7aea89	0.2450353
149	0x3e4725ae	0.19447967
150	0xbeba4406	-0.36380023
151	0xbeb1b519	-0.3470848
152	0xbe626ee7	-0.22112618
153	0xbe082673	-0.13295917
154	0xbe8a7907	-0.27045462
155	0x3e2db726	0.16964397
156	0xbea5ab1b	-0.32357106
157	0xba84108f	-0.0010075736
158	0x3e8a0ebf	0.26964375
159	0xbd919162	-0.07107808
160	0x3d3e48b8	0.04645607
161	0x3c77783b	0.015104349
162	0xbe8354e8	-0.25650716
163	0x3e857797	0.26067802
164	0x3e90a83b	0.2825335
165	0x3e55b828	0.20871031
166	0xbdbc422d	-0.091923095
167	0x3e91212c	0.2834562
168	0xbe1382fc	-0.14405435
169	0x3d1f856f	0.03894561
170	0x3eaa2a52	0.33235413
171	0x3d3f73ce	0.0467413
172	0x3e06654a	0.13124576
173	0xbd5f11b8	-0.054460257
174	0xbd71d5c4	-0.059041753
175	0x3e42bca5	0.19017275
176	0xbe020414	-0.12696868
177	0x3dd3ca58	0.103413284
178	0x3d85bfab	0.065306984
179	0xbd18f916	-0.03734692
180	0xbe412d29	-0.18864883
181	0xbc99fba2	-0.018796746
182	0xbe3da20b	-0.18518846
183	0x3dd78da1	0.105250604
184	0x3e40b80e	0.18820211
185	0xbe848c7e	-0.25888437
186	0x3d97ac7f	0.07405948
187	0xbe852e2a	-0.26011783
188	0x3e6fb973	0.23410587
189	0xbd2f01c1	-0.042726282
190	0xbcaddb7b	-0.02122282
191	0x3da2105a	0.07913275
192	0xbdb6dab9	-0.08928437
193	0x3e9d3cec	0.30710542
194	0x3ea702d0	0.32619333
195	0x3de2f737	0.11082309
196	0x3e43047e	0.19044682
197	0xbe8143a9	-0.25246933
198	0x3e16398c	0.1467039
199	0x3f15e169	0.58547074
200	0xbd5725a2	-0.052526124
201	0x3e414492	0.18873814
202	0x3d54ac8b	0.051922362
203	0xbe98cd91	-0.29844335
204	0x3e1b0326	0.1513792
205	0x3e2c6de3	0.16838793
206	0xbe33af25	-0.17547281
207	0x3eb2d4b0	0.34927893
208	0xbe92a0fb	-0.28638443
209	0xbe2f0249	-0.17090715
210	0x3e497824	0.19674736
211	0xbc7e6343	-0.0155265955
212	0x3e2e0396	0.16993555
213	0xbe0afb51	-0.13572432
214	0xbe8dfaf5	-0.27730528
215	0xbe91fceb	-0.28513274
216	0xbe09052e	-0.13380882
217	0xbe86a121	-0.26294807
218	0xbddbe1b3	-0.10736408
219	0xbe07d73b	-0.13265698
220	0x3e9ff857	0.31244156
221	0x3e566e25	0.20940454
222	0x3da3cfd0	0.079986215
223	0xbe78b500	-0.24287796
224	0xbe20f158	-0.15717065
225	0x3e48b1e5	0.19599111
226	0x3da0381b	0.07823201
227	0x3d8be096	0.06829946
228	0xbe729128	-0.23688185
229	0xbe21592c	-0.15756673
230	0xbda0b35d	-0.07846711
231	0xbe897e5f	-0.26854226
232	0xbe44e38f	-0.19227432
233	0xbe78d0ec	-0.24298447
234	0xbe5ce9b5	-0.21573527
235	0xbdc5e6f9	-0.09663195
236	0xbe9b8b6a	-0.30379802
237	0x3eb2a31c	0.34890068
238	0x3dbfebc7	0.09371143
239	0xbd3034ce	-0.04301911
240	0x3eb74ef7	0.35802433
241	0x3d2de211	0.04245192
242	0xbdb5fe3d	-0.08886383
243	0x3da8d158	0.08243054
244	0xbd17f3fb	-0.037097912
245	0xbee76161	-0.45191482
246	0x3e5459ca	0.20737377
247	0xbe9455a8	-0.289716
248	0xbeb75f0b	-0.358147
249	0xbe301229	-0.17194428
250	0x3ea44073	0.3208042
251	0x3e588821	0.21145679
252	0xbe7be4b1	-0.24598958
253	0xbed44ab9	-0.4146326
254	0xbdf11a56	-0.11772601
255	0xbd5f8aed	-0.05457585

conv.1.att_src f4 [1, 1, 39]
0	0xbf281e13	-0.6567089
1	0x3f0ce52a	0.55037177
2	0x3eafcb26	0.34334677
3	0xbee935b6	-0.4554879
4	0x3f527460	0.82208824
5	0xbeeef382	-0.46670157
6	0xbeab39e6	-0.3344261
7	0x3eb52b1e	0.35384458
8	0x3c7c2046	0.015388554
9	0x3f42327a	0.7585827
10	0x3fb32b17	1.3997525
11	0xbec1dee0	-0.37865353
12	0xbe0fc930	-0.1404159
13	0xbf2b9bdd	-0.67034703
14	0xbe4269e9	-0.18985714
15	0x3d4231ed	0.047410894
16	0x3e78804a	0.24267688
17	0x3f7b3268	0.9812379
18	0x3dc10fb0	0.0942682
19	0x3f2b729c	0.66971755
20	0x3f8049bf	1.0022506
21	0xbd04dcf6	-0.032437287
22	0x3f7d8aae	0.99039733
23	0x3f65d434	0.8977692
24	0xbeb07bee	-0.3446955
25	0xbf16b6e0	-0.58872795
26	0x3f4beaa0	0.79654884
27	0x3fa1358f	1.259447
28	0xbe9ce4df	-0.30643365
29	0xbe2df5f1	-0.1698835
30	0x3f8f7898	1.1208677
31	0x3ea193a8	0.31557965
32	0x3d867373	0.06564989
33	0xbf6927fe	-0.9107665
34	0xbe5b742f	-0.2143104
35	0x3e95eb41	0.29281047
36	0xbf00a1fc	-0.5024717
37	0xbdfb67ce	-0.122756585
38	0xbf156991	-0.58364207

conv.1.att_dst f4 [1, 1, 39]
0	0xbf0000ac	-0.50001025
1	0x3ed3ece5	0.41391674
2	0xbe9e63ba	-0.3093546
3	0x3d855d98	0.06511992
4	0x3ecf970c	0.40544927
5	0x3e1342dd	0.14380975
6	0x3ec805d2	0.3906694
7	0x3cab0140	0.02087462
8	0xbd7e8887	-0.06214192
9	0xbe88fd2a	-0.2675565
10	0xbdda6a8f	-0.10664856
11	0xbeecc90e	-0.46247143
12	0xbed5fc95	-0.41794267
13	0xbda294a2	-0.07938506
14	0xbdab00bc	-0.083497494
15	0x3e837dcf	0.25681922
16	0x3e9f4bcc	0.31112516
17	0xbeb5abf7	-0.3548276
18	0x3df31481	0.11869145
19	0x3d292133	0.041291427
20	0x3eeb43c2	0.45950133
21	0xbe69094f	-0.22757457
22	0x3e88481f	0.26617524
23	0x3e40da6c	0.18833321
24	0xbd8b5eb6	-0.06805174
25	0xbe556eef	-0.20843099
26	0x3e9c83c3	0.30569276
27	0x3ea98828	0.3311169
28	0xbeb804f8	-0.3594129
29	0x3ea54276	0.32277268
30	0x3c814e47	0.015784396
31	0xbe2e63a1	-0.17030193
32	0x3c939b55	0.018018404
33	0x3e4a1747	0.19735442
34	0xbd8285be	-0.063731655
35	0xbe9168e6	-0.28400344
36	0xbda51387	-0.08060365
37	0x3e7ae7fd	0.24502559
38	0x3e8f9552	0.2804361

conv.1.bias f4 [39]
0	0xbe2021c4	-0.1563788
1	0xbe24e7e3	-0.16104083
2	0xbe31dbbf	-0.17368983
3	0x3dae19d4	0.0850102
4	0xbe26dcc1	-0.16295148
5	0xbd97de1f	-0.07415413
6	0x3e94307a	0.28943235
7	0xbd7147d9	-0.05890641
8	0x3dad8368	0.084723294
9	0xbe04ea97	-0.12980114
10	0x3e0194c7	0.1265441
11	0xbe49b5cf	-0.1969826
12	0x3d898f69	0.067168064
13	0x3d58818b	0.052857917
14	0x3cdd63d9	0.02702515
15	0x3d62b501	0.0553484
16	0x3dc01091	0.0937816
17	0x3e32e6b0	0.17470813
18	0xbd4b79a3	-0.04967655
19	0x3e86e858	0.2634914
20	0xbdeda4fc	-0.11603734
21	0xbd992dce	-0.0747944
22	0x3d8e29f8	0.06941599
23	0xbdc1c68b	-0.09461697
24	0x3d3631cb	0.04448108
25	0xbe42b5eb	-0.19014709
26	0x3e870d3d	0.26377288
27	0xbe933581	-0.28751758
28	0xbe523dfe	-0.2053146
29	0x3d7fca52	0.062448807
30	0x3e6d822c	0.23194188
31	0x3e3fe637	0.18740164
32	0x3e92ca18	0.2866981
33	0x3dd4767d	0.10374162
34	0x3e0af71d	0.13570829
35	0xbd4bd5db	-0.049764495
36	0x3da173a3	0.07883384
37	0x3e72e59a	0.23720399
38	0x3d06cc85	0.03290989

conv.1.lin_src.weight f4 [39, 39]
0	0x3e367405	0.17817695
1	0x3df782fc	0.1208553
2	0x3e8aba69	0.27095345
3	0xbd9cd9f7	-0.07658761
4	0xbe9e8b53	-0.3096567
5	0x3e8a68ff	0.2703323
6	0xbc19c62a	-0.009385625
7	0x3d81e4b0	0.06342447
8	0x3e09506a	0.13409582
9	0xbd38bde3	-0.045102965
10	0xbe9d2968	-0.30695653
11	0x3e50ad31	0.20378567
12	0x3eacdcd9	0.33762243
13	0xbd549077	-0.051895585
14	0xbe902797	-0.28155205
15	0x3e169e90	0.14708924
16	0xbe646b66	-0.22306594
17	0x3e18643d	0.14881988
18	0x3eb03ae5	0.34419933
19	0xbe0325ab	-0.12807338
20	0x3bcba31b	0.006214512
21	0x3e035839	0.12826623
22	0x3c745297	0.014912269
23	0x3e65faa5	0.22458895
24	0xbd186171	-0.037202302
25	0x3d699274	0.057024434
26	0xbcdb5be4	-0.026777215
27	0xbd47a650	-0.048742592
28	0x3dd0965a	0.10184927
29	0x3e6303be	0.22169396
30	0xbc901d2e	-0.017592039
31	0x3e154d26	0.14580211
32	0xbe3da783	-0.18520932
33	0x3dfc2435	0.123115934
34	0x3dd92ff9	0.10604853
35	0xbebfd4bd	-0.37466994
36	0x3e12c434	0.14332658
37	0x3d2a8862	0.04163397
38	0x3dd78423	0.1052325
39	0xbe2e8f68	-0.17046893
40	0xbe5206ce	-0.20510408
41	0xbd490155	-0.049073536
42	0x3e51eccb	0.20500486
43	0xbc2d6464	-0.010583017
44	0xbb769d3b	-0.0037630338
45	0x3e815ebc	0.2526759
46	0x3dfecc57	0.124413185
47	0x3e339ff6	0.17541489
48	0xbe0519dd	-0.12998147
49	0x3d617ea4	0.055052415
50	0xbe31c035	-0.17358477
51	0x3c2fb311	0.010723845
52	0x3e29c61b	0.16579477
53	0xbc5fbcf9	-0.013655894
54	0x3c98d19e	0.01865464
55	0xbe33408b	-0.1750509
56	0x3dcfde27	0.10149794
57	0xbd6a1b4c	-0.05715494
58	0xbdc0d16c	-0.09414944
59	0xbed9bd4f	-0.42527243
60	0xbe05a1bc	-0.13049978
61	0x3dcfb1e2	0.1014135
62	0xbb71c7fe	-0.0036892886
63	0x3efc8e3b	0.49327263
64	0x3e3a3465	0.1818405
65	0x3e964a94	0.29353774
66	0xbe00de49	-0.12584795
67	0x3e94c0bd	0.29053298
68	0x3e12e1aa	0.14343897
69	0xbe367158	-0.17816675
70	0xbe26243b	-0.16224758
71	0xbe877ea1	-0.26463798
72	0xbe063007	-0.13104258
73	0x3e6bfb3d	0.23045059
74	0x3b975f83	0.00461954
75	0x3de75fe2	0.11297585
76	0x3c94b79f	0.018153964
77	0xbe2cf61a	-0.16890755
78	0x3dcdaa75	0.10042278
79	0x3d3db809	0.046318088
80	0x3e01b837	0.12667929
81	0xbd8d614c	-0.069033235
82	0xbe94a348	-0.29030824
83	0x3ea83fd3	0.32861194
84	0x3e35df45	0.17760952
85	0xbd36322d	-0.044481445
86	0x3eb7e576	0.35917252
87	0x3e501934	0.20322114
88	0xbe621c54	-0.22081119
89	0xbe2b3eb1	-0.16723134
90	0xbe91b0b2	-0.2845512
91	0x3e328fcd	0.17437668
92	0x3dcbb592	0.09946741
93	0x3e191ce0	0.14952421
94	0xbd28161c	-0.04103671
95	0x3da4b1d6	0.08041732
96	0xbe34d66b	-0.17659919
97	0xbee245f2	-0.4419399
98	0xbe66746a	-0.22505346
99	0x3d9d63fc	0.07685086
100	0xbdb64a5b	-0.08900901
101	0xbda7ad0f	-0.08187305
102	0x3d036cff	0.03208637
103	0xbe1a8d83	-0.15093045
104	0xbdbafdb5	-0.09130422
105	0xbe0309a9	-0.12796654
106	0x3e641ab8	0.22275817
107	0xbdb5978c	-0.08866796
108	0xbe0eeae2	-0.13956788
109	0xbdd5bec3	-0.104367755
110	0xbe66eb0f	-0.22550605
111	0xbe28b248	-0.16474259
112	0xbe5b3976	-0.21408638
113	0x3dd0881c	0.10182211
114	0xbe92d75b	-0.28679928
115	0xbdfb1ead	-0.1226171
116	0xbd9cb39b	-0.076514445
117	0x3e9f667a	0.3113287
118	0xbe926528	-0.285928
119	0x3e5c0a44	0.21488291
120	0xbe4af77e	-0.19820973
121	0x3c88bf5e	0.016692813
122	0xbba4d1fa	-0.005029914
123	0xbe9be51a	-0.30448228
124	0xbde5c67e	-0.112195
125	0xbdf4da2d	-0.11955676
126	0xbe324746	-0.17410001
127	0x3c84f0fa	0.016228188
128	0xbe688d4d	-0.22710152
129	0x3e73b5bb	0.23799793
130	0xbd6c26b7	-0.05765411
131	0xbe8677ef	-0.26263377
132	0xbe45b909	-0.19308867
133	0x3e9b3d05	0.30319992
134	0xbc5ce71c	-0.013482835
135	0x3e091a7a	0.13389006
136	0x3e5eea75	0.21769126
137	0xbd9c8359	-0.0764224
138	0x3e8119e3	0.25215062
139	0xbdff9dcc	-0.12481269
140	0xbe1cca4a	-0.15311542
141	0xbbd209b1	-0.0064098467
142	0xbe7e4ce4	-0.24834019
143	0xbe1ed4b4	-0.15510827
144	0xbe8b5213	-0.27211055
145	0x3ddbb5d4	0.1072804
146	0xbd4aeeff	-0.04954433
147	0x3e69e7cc	0.2284233
148	0xbd95674d	-0.07295094
149	0x3d7b4eee	0.06135457
150	0x3dda0d58	0.10647076
151	0x3c019814	0.007909793
152	0xbde95720	-0.11393571
153	0xbe08bf7f	-0.133543
154	0x3de7d80c	0.113205045
155	0x3e3373f8	0.17524707
156	0xbe15a71e	-0.14614531
157	0xbe2d98dd	-0.16952844
158	0x3e550f66	0.20806655
159	0xbe8a598b	-0.2702144
160	0x3e7831dc	0.2423777
161	0x3e5f3085	0.21795852
162	0xbe44fe66	-0.1923767
163	0x3ebffe45	0.3749868
164	0x3d2d8f99	0.042373274
165	0x3e135f8d	0.14391918
166	0x3c9d5166	0.019203853
167	0xbdd806de	-0.10548185
168	0xbdcfa7f1	-0.10139454
169	0xbccb106b	-0.024788102
170	0xbe50df48	-0.20397675
171	0xbd23b6b3	-0.039969157
172	0x3e054814	0.13015777
173	0xbced0447	-0.028932704
174	0xbe916d41	-0.28403667
175	0xbdf3b115	-0.1189901
176	0x3e546801	0.207428
177	0x3d8e1c4f	0.06938993
178	0x3e4c86dd	0.19973321
179	0xbea7cbfe	-0.3277282
180	0x3e1bc368	0.1521126
181	0xbe9ef32b	-0.31044897
182	0x3cc9ffa8	0.02465804
183	0x3d429187	0.047502067
184	0xbe78141f	-0.24226426
185	0x3e2838cd	0.16427918
186	0x3d1ae3d3	0.037814926
187	0xbe97a99c	-0.2962159
188	0xbce0e3d7	-0.027452393
189	0x3e4a601b	0.19763224
190	0x3e87f3ae	0.265531
191	0x3f0a9958	0.54140234
192	0xbc42f724	-0.011899743
193	0x3cc2ad33	0.023764228
194	0xbeaf2d55	-0.34214273
195	0xbe31b95a	-0.17355862
196	0x3e838687	0.25688574
197	0x3ea193c4	0.3155805
198	0x3e8fb9c0	0.28071404
199	0xbe02d806	-0.12777719
200	0xbe9bef61	-0.3045607
201	0xbe701c8a	-0.23448387
202	0xbdb3adec	-0.08773407
203	0xbdc4eec5	-0.09615854
204	0xbe2fedf3	-0.17180614
205	0xbe3c3fbe	-0.1838369
206	0xbe6f71e1	-0.23383285
207	0xbe3d0616	-0.18459353
208	0xbd561607	-0.0522671
209	0x3e7a08c6	0.2441741
210	0xbeac0a0b	-0.33601412
211	0x3e1dd8c9	0.15414728
212	0x3d842179	0.06451697
213	0x3e9c7254	0.30555975
214	0xbe58ded4	-0.21178752
215	0xbe7379f1	-0.23776986
216	0xbc6b24dd	-0.014352051
217	0x3daeaeee	0.08529459
218	0xbe401e53	-0.18761568
219	0xbe66c709	-0.22536863
220	0xbe94ee1a	-0.29087907
221	0x3e899333	0.26870117
222	0xbe67ddf4	-0.22643262
223	0xbd767501	-0.060170177
224	0xbe8afde5	-0.2714683
225	0x3d4aeffc	0.049545273
226	0x3e977532	0.295816
227	0x3d11e37e	0.035617344
228	0x3e0a8dff	0.1353073
229	0x3eb4304b	0.35193095
230	0xbd9a8416	-0.07544725
231	0x3d9d9658	0.076946914
232	0x3e08e202	0.13367465
233	0xbd1cd184	-0.038285747
234	0xbe82d950	-0.2555642
235	0x3e0133cf	0.1261742
236	0xbc2a831a	-0.010407234
237	0xbcabc30b	-0.020967027
238	0x3e42c3f7	0.19020067
239	0x3e13de50	0.14440274
240	0x3e4d41a6	0.20044574
241	0xbc9e4471	-0.019319745
242	0xbea15921	-0.31513312
243	0xbe29525e	-0.16535327
244	0x3dbe2f0b	0.092863165
245	0x3ebcf817	0.36908028
246	0xbe8ed838	-0.27899337
247	0x3ec9a5ee	0.39384407
248	0x3c011728	0.007879056
249	0x3d604951	0.05475742
250	0xbdab837b	-0.08374687
251	0x3d9b3c37	0.075798444
252	0xbdce1c3e	-0.100639805
253	0x3eb4481a	0.3521126
254	0x3daa16e2	0.08305146
255	0xbe3e9a93	-0.18613653

conv.1.lin_dst.weight f4 [39, 39]
0	0x3e367405	0.17817695
1	0x3df782fc	0.1208553
2	0x3e8aba69	0.27095345
3	0xbd9cd9f7	-0.07658761
4	0xbe9e8b53	-0.3096567
5	0x3e8a68ff	0.2703323
6	0xbc19c62a	-0.009385625
7	0x3d81e4b0	0.06342447
8	0x3e09506a	0.13409582
9	0xbd38bde3	-0.045102965
10	0xbe9d2968	-0.30695653
11	0x3e50ad31	0.20378567
12	0x3eacdcd9	0.33762243
13	0xbd549077	-0.051895585
14	0xbe902797	-0.28155205
15	0x3e169e90	0.14708924
16	0xbe646b66	-0.22306594
17	0x3e18643d	0.14881988
18	0x3eb03ae5	0.34419933
19	0xbe0325ab	-0.12807338
20	0x3bcba31b	0.006214512
21	0x3e035839	0.12826623
22	0x3c745297	0.014912269
23	0x3e65faa5	0.22458895
24	0xbd186171	-0.037202302
25	0x3d699274	0.057024434
26	0xbcdb5be4	-0.026777215
27	0xbd47a650	-0.048742592
28	0x3dd0965a	0.10184927
29	0x3e6303be	0.22169396
30	0xbc901d2e	-0.017592039
31	0x3e154d26	0.14580211
32	0xbe3da783	-0.18520932
33	0x3dfc2435	0.123115934
34	0x3dd92ff9	0.10604853
35	0xbebfd4bd	-0.37466994
36	0x3e12c434	0.14332658
37	0x3d2a8862	0.04163397
38	0x3dd78423	0.1052325
39	0xbe2e8f68	-0.17046893
40	0xbe5206ce	-0.20510408
41	0xbd490155	-0.049073536
42	0x3e51eccb	0.20500486
43	0xbc2d6464	-0.010583017
44	0xbb769d3b	-0.0037630338
45	0x3e815ebc	0.2526759
46	0x3dfecc57	0.124413185
47	0x3e339ff6	0.17541489
48	0xbe0519dd	-0.12998147
49	0x3d617ea4	0.055052415
50	0xbe31c035	-0.17358477
51	0x3c2fb311	0.010723845
52	0x3e29c61b	0.16579477
53	0xbc5fbcf9	-0.013655894
54	0x3c98d19e	0.01865464
55	0xbe33408b	-0.1750509
56	0x3dcfde27	0.10149794
57	0xbd6a1b4c	-0.05715494
58	0xbdc0d16c	-0.09414944
59	0xbed9bd4f	-0.42527243
60	0xbe05a1bc	-0.13049978
61	0x3dcfb1e2	0.1014135
62	0xbb71c7fe	-0.0036892886
63	0x3efc8e3b	0.49327263
64	0x3e3a3465	0.1818405
65	0x3e964a94	0.29353774
66	0xbe00de49	-0.12584795
67	0x3e94c0bd	0.29053298
68	0x3e12e1aa	0.14343897
69	0xbe367158	-0.17816675
70	0xbe26243b	-0.16224758
71	0xbe877ea1	-0.26463798
72	0xbe063007	-0.13104258
73	0x3e6bfb3d	0.23045059
74	0x3b975f83	0.00461954
75	0x3de75fe2	0.11297585
76	0x3c94b79f	0.018153964
77	0xbe2cf61a	-0.16890755
78	0x3dcdaa75	0.10042278
79	0x3d3db809	0.046318088
80	0x3e01b837	0.12667929
81	0xbd8d614c	-0.069033235
82	0xbe94a348	-0.29030824
83	0x3ea83fd3	0.32861194
84	0x3e35df45	0.17760952
85	0xbd36322d	-0.044481445
86	0x3eb7e576	0.35917252
87	0x3e501934	0.20322114
88	0xbe621c54	-0.22081119
89	0xbe2b3eb1	-0.16723134
90	0xbe91b0b2	-0.2845512
91	0x3e328fcd	0.17437668
92	0x3dcbb592	0.09946741
93	0x3e191ce0	0.14952421
94	0xbd28161c	-0.04103671
95	0x3da4b1d6	0.08041732
96	0xbe34d66b	-0.17659919
97	0xbee245f2	-0.4419399
98	0xbe66746a	-0.22505346
99	0x3d9d63fc	0.07685086
100	0xbdb64a5b	-0.08900901
101	0xbda7ad0f	-0.08187305
102	0x3d036cff	0.03208637
103	0xbe1a8d83	-0.15093045
104	0xbdbafdb5	-0.09130422
105	0xbe0309a9	-0.12796654
106	0x3e641ab8	0.22275817
107	0xbdb5978c	-0.08866796
108	0xbe0eeae2	-0.13956788
109	0xbdd5bec3	-0.104367755
110	0xbe66eb0f	-0.22550605
111	0xbe28b248	-0.16474259
112	0xbe5b3976	-0.21408638
113	0x3dd0881c	0.10182211
114	0xbe92d75b	-0.28679928
115	0xbdfb1ead	-0.1226171
116	0xbd9cb39b	-0.076514445
117	0x3e9f667a	0.3113287
118	0xbe926528	-0.285928
119	0x3e5c0a44	0.21488291
120	0xbe4af77e	-0.19820973
121	0x3c88bf5e	0.016692813
122	0xbba4d1fa	-0.005029914
123	0xbe9be51a	-0.30448228
124	0xbde5c67e	-0.112195
125	0xbdf4da2d	-0.11955676
126	0xbe324746	-0.17410001
127	0x3c84f0fa	0.016228188
128	0xbe688d4d	-0.22710152
129	0x3e73b5bb	0.23799793
130	0xbd6c26b7	-0.05765411
131	0xbe8677ef	-0.26263377
132	0xbe45b909	-0.19308867
133	0x3e9b3d05	0.30319992
134	0xbc5ce71c	-0.013482835
135	0x3e091a7a	0.13389006
136	0x3e5eea75	0.21769126
137	0xbd9c8359	-0.0764224
138	0x3e8119e3	0.25215062
139	0xbdff9dcc	-0.12481269
140	0xbe1cca4a	-0.15311542
141	0xbbd209b1	-0.0064098467
142	0xbe7e4ce4	-0.24834019
143	0xbe1ed4b4	-0.15510827
144	0xbe8b5213	-0.27211055
145	0x3ddbb5d4	0.1072804
146	0xbd4aeeff	-0.04954433
147	0x3e69e7cc	0.2284233
148	0xbd95674d	-0.07295094
149	0x3d7b4eee	0.06135457
150	0x3dda0d58	0.10647076
151	0x3c019814	0.007909793
152	0xbde95720	-0.11393571
153	0xbe08bf7f	-0.133543
154	0x3de7d80c	0.113205045
155	0x3e3373f8	0.17524707
156	0xbe15a71e	-0.14614531
157	0xbe2d98dd	-0.16952844
158	0x3e550f66	0.20806655
159	0xbe8a598b	-0.2702144
160	0x3e7831dc	0.2423777
161	0x3e5f3085	0.21795852
162	0xbe44fe66	-0.1923767
163	0x3ebffe45	0.3749868
164	0x3d2d8f99	0.042373274
165	0x3e135f8d	0.14391918
166	0x3c9d5166	0.019203853
167	0xbdd806de	-0.10548185
168	0xbdcfa7f1	-0.10139454
169	0xbccb106b	-0.024788102
170	0xbe50df48	-0.20397675
171	0xbd23b6b3	-0.039969157
172	0x3e054814	0.13015777
173	0xbced0447	-0.028932704
174	0xbe916d41	-0.28403667
175	0xbdf3b115	-0.1189901
176	0x3e546801	0.207428
177	0x3d8e1c4f	0.06938993
178	0x3e4c86dd	0.19973321
179	0xbea7cbfe	-0.3277282
180	0x3e1bc368	0.1521126
181	0xbe9ef32b	-0.31044897
182	0x3cc9ffa8	0.02465804
183	0x3d429187	0.047502067
184	0xbe78141f	-0.24226426
185	0x3e2838cd	0.16427918
186	0x3d1ae3d3	0.037814926
187	0xbe97a99c	-0.2962159
188	0xbce0e3d7	-0.027452393
189	0x3e4a601b	0.19763224
190	0x3e87f3ae	0.265531
191	0x3f0a9958	0.54140234
192	0xbc42f724	-0.011899743
193	0x3cc2ad33	0.023764228
194	0xbeaf2d55	-0.34214273
195	0xbe31b95a	-0.17355862
196	0x3e838687	0.25688574
197	0x3ea193c4	0.3155805
198	0x3e8fb9c0	0.28071404
199	0xbe02d806	-0.12777719
200	0xbe9bef61	-0.3045607
201	0xbe701c8a	-0.23448387
202	0xbdb3adec	-0.08773407
203	0xbdc4eec5	-0.09615854
204	0xbe2fedf3	-0.17180614
205	0xbe3c3fbe	-0.1838369
206	0xbe6f71e1	-0.23383285
207	0xbe3d0616	-0.18459353
208	0xbd561607	-0.0522671
209	0x3e7a08c6	0.2441741
210	0xbeac0a0b	-0.33601412
211	0x3e1dd8c9	0.15414728
212	0x3d842179	0.06451697
213	0x3e9c7254	0.30555975
214	0xbe58ded4	-0.21178752
215	0xbe7379f1	-0.23776986
216	0xbc6b24dd	-0.014352051
217	0x3daeaeee	0.08529459
218	0xbe401e53	-0.18761568
219	0xbe66c709	-0.22536863
220	0xbe94ee1a	-0.29087907
221	0x3e899333	0.26870117
222	0xbe67ddf4	-0.22643262
223	0xbd767501	-0.060170177
224	0xbe8afde5	-0.2714683
225	0x3d4aeffc	0.049545273
226	0x3e977532	0.295816
227	0x3d11e37e	0.035617344
228	0x3e0a8dff	0.1353073
229	0x3eb4304b	0.35193095
230	0xbd9a8416	-0.07544725
231	0x3d9d9658	0.076946914
232	0x3e08e202	0.13367465
233	0xbd1cd184	-0.038285747
234	0xbe82d950	-0.2555642
235	0x3e0133cf	0.1261742
236	0xbc2a831a	-0.010407234
237	0xbcabc30b	-0.020967027
238	0x3e42c3f7	0.19020067
239	0x3e13de50	0.14440274
240	0x3e4d41a6	0.20044574
241	0xbc9e4471	-0.019319745
242	0xbea15921	-0.31513312
243	0xbe29525e	-0.16535327
244	0x3dbe2f0b	0.092863165
245	0x3ebcf817	0.36908028
246	0xbe8ed838	-0.27899337
247	0x3ec9a5ee	0.39384407
248	0x3c011728	0.007879056
249	0x3d604951	0.05475742
250	0xbdab837b	-0.08374687
251	0x3d9b3c37	0.075798444
252	0xbdce1c3e	-0.100639805
253	0x3eb4481a	0.3521126
254	0x3daa16e2	0.08305146
255	0xbe3e9a93	-0.18613653
