outc_pfam/checkpoints/model_merge_pf.pt_lab1_n18700_l3_emb64.pt (torch, 26639 bytes, 19 tensors)

enlarge f4 [20, 21]
00000000: 133d 943f 1c9c ccbd 1911 2b3e a37d 5abe
00000010: c222 6e3e 42d1 8bbe 04a5 33be 15cf 70be
00000020: 9944 e3bc cba4 1abc 9ae6 b43d 7eaa 81be
00000030: 3574 9cbe 8b3a 50bd ec0c 68bc eb3b 08bd
00000040: 4023 0f3e 7b51 80bd 166f 30be 1113 7fbe
00000050: 00a5 dbbc 181b c6bd 192b 4d3f 5c4e 9e3e
00000060: 6ba7 4dbe 0ce7 583e c2a7 aa3e f51b a03c
00000070: 178d 0b3d efc3 213e ebd1 67be c43e 173e
00000080: 4fa0 8b3e 84d8 3d3e 046d e3bd 4ccf 003e
00000090: fd15 483d a0b5 44be 603e 03be 0eff 1cbe
000000a0: 2948 a0be cc26 753e 0598 443e cf1b 9cbd
000000b0: ed35 783f be20 86bc e2d8 87be 5e0c 13bf
000000c0: 37ba 143e 96ca 9dbd 257d 3c3e bd7a 9fbe
000000d0: 1a08 793c 5c3e 32be 0b4f 8cbe cca3 d93c
000000e0: 2c13 663e bd51 5ebc 6ad3 453e 1f85 71bd
000000f0: 8d1c ab3d 6eb6 eabe f48d 1f3e d3ac 193e
00000100: db29 38bc cd28 0f3e d94f 5a3f d55f e1be
00000110: 4a24 9c3d 1206 9bbd 784c 22bf cffd 31be
00000120: fd8d 9a3e 4d09 c7bd ad01 8b3d a27b d83d
00000130: bb0a 743e ecdf 1ebe e715 fbbc 3682 fc3d
00000140: 0e63 4f3b edd4 663c 060c 0c3e af78 0bbe
00000150: 0075 8ebe 40d6 6dbe 5ca4 563e 8308 343e
00000160: f3d7 8f3f 3527 ac3e cbfb 38bd eb2c 9d3c
00000170: 19d5 bf3e 51ad 52be febf e8bd b9df 54bc
00000180: 76d2 f63d 7bdd 913e e406 4d3c 901a 8d3e
00000190: 0681 88be 8527 983e 197b 093e f9ec 00bd
000001a0: 1a8f 8dbe 36ca 583c e146 b93c f182 103e
000001b0: c16f 073d 0419 d4be cba0 4b3f 3e7b 50bd
000001c0: bd68 3bbe ac18 3fbe 1c83 c33d 917a 633d
000001d0: f981 013d c331 1fbc 952f 353d 650e a33d
000001e0: 4a9c 4abe 16a6 353d c17d c6bb 365a ddbd
000001f0: d393 083e cb52 80bb 59cb f1bd c39f 423e
00000200: 715e 1d3e fbd8 903d ad03 f7bd 696e bf3e
00000210: 21df 3b3f f445 ddbd d91b 7dbe 0fda 8bbe
00000220: 3e2d 88bb 50f1 093e d83b 323e 509b d0bc
00000230: ec25 4fbd 90e4 783e eaaa ca3d a7eb 96bd
00000240: d62f 72be b7fe 97bd 73cb 883e ecc3 783e
00000250: 46e9 3dbd 17ff 0fbd 42bf 183e 7124 013e
00000260: 4d4d c03d 28fa 843c b05d 653f 8ec1 29be
00000270: da7a cbbc 423e 33be 501d eebd a44a e93c
00000280: 05c0 923e 0775 6bbe b399 c6be c848 c0bd
00000290: 17e5 9cbe db2a 353e 35af a0bd 1686 e8b9
000002a0: a46c ecbc f54d 0b3f 4e19 e0be 66fe 8f3e
000002b0: bf46 93be fc5f 4cbe bfd0 7c3d 5c37 d4bd
000002c0: 713b 893f 354d aabd 6bd2 4fbd e472 d3be
000002d0: 58ea 963c c414 cb3d 03d4 713e b794 a8be
000002e0: 5565 a3bd 809c 153e c4eb cb3e 01c1 d5bc
000002f0: b296 aeba c4d0 54bc 153e 63be 05cc 17bd
00000300: fcb3 d6bd 53d3 7f3e 3f19 bcbd 2f6c 50ba
00000310: cc05 f33d e9b4 203e b63c 3f3f 770c 733d
00000320: fa9b 29be 6313 2cbe 3305 92bd bd9c 173e
00000330: 7066 7d3d 9ae9 debd 6537 593e e08d 1f39
00000340: f830 83bc 8b62 fcbd 273d 143d 9c8d 823d
00000350: 553a c3be 60a0 17be 3043 10be 3903 e9bd
00000360: 581d acbe c37d 8abd 1d35 8ebd bb8c 793d
00000370: 032c b53f 654a 7cbd ce64 803e ea91 a3be
00000380: ab0e 2b3d 40cf 6b3e a0eb c7be 9213 6cbe
00000390: da42 c1be 508a a6bd 84f9 34be 7c5b aebd
000003a0: 808f b93b f65e 6c3d 3ba2 e7bc ac0c 0f3e
000003b0: 1514 b5bb 51dc e13d 5c7d c53d 0239 de3d
000003c0: 0413 293e 0340 8dbd 5bf0 7b3f 0dbc cc3d
000003d0: 8bde 463d 819f b5bc 5763 0ebe 376f c53b
000003e0: 9abb debc e271 363d f2bb 25bd 3804 563d
000003f0: 26ff 333e 2ece b03e 667e 7d3d e207 ddbc
1.1581138 -0.09990713 0.16705741 -0.21336989 0.23255447 -0.2730809 -0.17543417 -0.23516496
-0.02774267 -0.009438704 0.08833046 -0.25325388 -0.3055741 -0.05083708 -0.014163237 -0.033260267
0.1397829 -0.06265541 -0.17229876 -0.24909617 -0.026812077 -0.096731365 0.80143887 0.30919158
-0.20083396 0.21181887 0.33331114 0.019544581 0.0340701 0.15797399 -0.22638671 0.14770037
0.27270743 0.18539625 -0.111047775 0.12579077 0.048849095 -0.1920991 -0.12816763 -0.1533167
-0.31305054 0.23940581 0.19198616 -0.076224916 0.96957284 -0.016373035 -0.26532656 -0.57440746
0.1452416 -0.07704656 0.18407114 -0.3114833 0.0151996855 -0.174066 -0.27404055 0.026567362
0.22468251 -0.013569293 0.1931893 -0.058964845 0.08355055 -0.45842308 0.15581495 0.15007333
-0.011240448 0.13980408 0.8527809 -0.44018427 0.07624109 -0.07569517 -0.6339793 -0.17381977
0.30186453 -0.09718571 0.06787429 0.10570456 0.23832218 -0.15515107 -0.030650092 0.12329523
0.0031644735 0.014088851 0.13676462 -0.13620256 -0.2782364 -0.23226261 0.20961136 0.17581372
1.1237777 0.33623663 -0.045162003 0.019186458 0.37467268 -0.20573927 -0.113647446 -0.012992793
0.12051861 0.2848929 0.01251385 0.27559328 -0.26660937 0.2971765 0.13425864 -0.031475995
-0.2764824 0.013231805 0.022616806 0.1411245 0.03306556 -0.41425335 0.79542226 -0.050898783
-0.18301673 -0.18661755 0.095464915 0.05553681 0.031618092 -0.009716454 0.04423483 0.0796173
-0.19786182 0.044347845 -0.0060574715 -0.10808222 0.1333764 -0.0039161197 -0.118063636 0.19006257
0.15368058 0.07072636 -0.12061248 0.37388924 0.7338734 -0.10804358 -0.24717654 -0.27314803
-0.004155784 0.1347096 0.17405641 -0.025464684 -0.050573274 0.2430594 0.098958805 -0.07369166
-0.2365106 -0.0742163 0.2671772 0.24293488 -0.046365045 -0.035155382 0.14916709 0.12611558
0.09389744 0.016232565 0.8959608 -0.16577742 -0.024838854 -0.17504218 -0.11626685 0.028477974
0.28662124 -0.22993861 -0.38789138 -0.09388882 -0.30643532 0.1769213 -0.07845918 -0.0004435039
-0.028860398 0.5441583 -0.43769306 0.28123778 -0.28764912 -0.1995849 0.061722513 -0.103621215
1.0721265 -0.08315507 -0.05073778 -0.41298592 0.01842229 0.0991607 0.23616032 -0.3292596
-0.07978312 0.14610481 0.39828312 -0.026093008 -0.0013320057 -0.012989227 -0.22191651 -0.037059803
-0.10483548 0.24982958 -0.09184503 -0.0007950691 0.1186634 0.15694012 0.7470201 0.05933806
-0.16563407 -0.1680427 -0.07129898 0.14805885 0.06186527 -0.108844 0.21212538 0.00015216274
-0.016014561 -0.12323483 0.036191132 0.06374666 -0.3813044 -0.14807272 -0.1408813 -0.11377568
-0.33616138 -0.067622684 -0.06943724 0.060925227 1.4154056 -0.061594386 0.25076908 -0.3194726
0.041762035 0.23028278 -0.39046955 -0.2305434 -0.37746316 -0.0813185 -0.17673308 -0.08513543
0.0056628585 0.05770775 -0.0282756 0.13969678 -0.0055260756 0.1102835 0.09643051 0.10850717
0.1651116 -0.06896975 0.9841363 0.09996805 0.048552077 -0.022170784 -0.13905083 0.0060252207
-0.027189065 0.0445422 -0.04046244 0.052250117 0.175778 0.34532303 0.06188812 -0.026981298

virtual_embedding f4 [42]
00000000: ffda aebc 4910 adbd 0bf6 883c 4e4f e73c
00000010: 7b53 ddbb 5e79 84bc 06a2 53bd 1dd2 10bd
00000020: f9f7 3d3d 321b d63a 9826 3a3c 5390 40bd
00000030: 5dcd 85bb a9af d53c eeee 98bc 04c4 31bd
00000040: 0709 a2bb e4f2 a83c 4a71 91bc 3f59 b9bb
00000050: eefb 793f b71a 3f3d 5a89 483c ba92 2bbb
00000060: 97ca 6d3e b6d6 df3d ed73 b63b 9462 e43d
00000070: 2952 233d 74da 8fbe c3e9 2e3d b4b4 a73d
00000080: 9f5b 373d dd59 ac3d bb38 2a3e 0e49 673e
00000090: 8acc 48bc 0a57 453e 6482 cc3c 9105 483d
000000a0: f122 693d f2e2 95bd
-0.02134466 -0.08450372 0.016718885 0.028236058 -0.0067543364 -0.016171154 -0.05166819 -0.03535663
0.046379063 0.0016335009 0.0113617405 -0.04701264 -0.004083319 0.026084738 -0.018668618 -0.043399826
-0.004944924 0.020623632 -0.017754216 -0.005656391 0.9765004 0.046656337 0.012239778 -0.0026179985
0.23221813 0.10929625 0.0055680186 0.11151615 0.039873276 -0.28096354 0.0427034 0.08188763
0.04476511 0.084155776 0.16623203 0.22586462 -0.012255797 0.19271484 0.024964519 0.048833434
0.05691809 -0.07318677

embed_transform.0.weight f4 [64, 42]
00000000: a253 d43e 49eb 4f3d 4585 a03d 1e5a 9e3d
00000010: 0f14 2bbe 9463 183e 132b 1e3e abc6 923e
00000020: 58fa ed3d aed2 dd3d e385 433e e2fe f73d
00000030: b6c9 5d3e 9c83 f53b c65d f93d 18a9 6c3e
00000040: fb8d 583e 7982 713e dcb5 2c3e 54e5 5d3e
00000050: bfa5 70bc a46a 1e3e feb1 2c3e ef4b 54bd
00000060: ddd2 d33d 8da2 303e d54c 86bd 05b9 c33d
00000070: 8636 32bd 8344 983c 911e 90be 54ee ac3d
00000080: 6540 7e3e d107 7f3e 3829 563d e861 40be
00000090: cbbd 083e 1ca4 473e 1bbd f73c d954 2e3d
000000a0: 008b 683e ebe1 8a3e b6f8 903d b328 083f
000000b0: 5b98 ad3d ce18 7cbc 262c 573d 082a 80bd
000000c0: 9356 8e3d f827 b13d 0665 53be bfaa 223e
000000d0: 24d1 073e 3387 fb3b a569 06be 4f49 333e
000000e0: e3b5 1cbd 555b f63d e745 cc3d e817 6b3e
000000f0: 63d4 d23d 22b9 413d ca2b 8abd d158 8f3e
00000100: ebb6 e6bc 2b11 133e bfc8 ce3c 0547 54bd
00000110: f35c 8abe 8985 9e3e 66d6 45be a1cc cc3c
00000120: 288f 6abe e974 82bd 9c70 823e 0b05 273e
00000130: c24b 673e 9093 38bd 577b bd3e cfc5 1bbe
00000140: 25fb 42be 51d3 953e 792b da3e d9dc 58be
00000150: 7597 743c 613a 67bc 678e d83e 96df 8b3d
00000160: 409a 14bd 4066 1a3d fb3d 93bd 484b 173e
00000170: a387 e13d 57b1 203c ceeb cb3d 7eb5 f73c
00000180: ecb2 863d 40c1 aebc 5820 883d 653b 8d3d
00000190: ddea 213d f6c3 673c cade 5c3d bcc2 003e
000001a0: 6aaf cd3c aa19 203e ffdb 1dbe eedd 133e
000001b0: 2f92 213e 4fff 0b3e f4d6 b03d 6531 ab3d
000001c0: 16e1 0e3e 6560 87bd 7c7c bcbd 76b7 023e
000001d0: 0eb4 f03d d55c b6bc c781 f4bd 73ec 2ebe
000001e0: 57f4 d4bd 7d01 683e 8908 0dbe c4aa e7bd
000001f0: 52c0 edbd 8699 0e3e 6866 d13d a41d 7fbd
00000200: f827 093e 38a1 7a3e 7ac2 3c3e 8b8b 863d
00000210: 57f4 9b3d 2e0e 123e 6227 333d ff56 3cbd
00000220: e7fd 743e c051 b63a f613 943c b711 c83d
00000230: 8f64 113d e4d7 af3d 2450 973d 0baf c63d
00000240: 2018 323e cb7e d33d 8de8 913d f7dd c13d
00000250: 53ac 603d a2c2 103e 9bb6 c23d 2f53 85bd
00000260: 4c89 d8bd c4ec 44bb 2795 07be db38 e8bc
00000270: 14e5 82be 52c8 023e 2bc5 533e 076a f23d
00000280: 07be 833e 2ba2 b13b 256d 003e 98bd 033e
00000290: 20bd 073e c285 113e ede8 cf3d 5124 483e
000002a0: 41ee 4ebd 5534 8c3d 177d acbc d90f 9a3d
000002b0: c337 a33e e296 26bd 78ff 053e 3cd5 04be
000002c0: b3f8 25be ff77 8a3c a285 013e 5b4f 68bd
000002d0: dc8f e3bd fc37 0b3e 420b ab3d 3122 05bd
000002e0: 816b 34bc a99b 0dbe e6a8 fc3d eec5 a73b
000002f0: c5ed aabb ea8f 843e 5cab a9bc 97f4 39be
00000300: e13a 1bbe f4f0 0fbe cac4 e9bd 74a7 563e
00000310: 144d d8bd e0d4 2a3e b144 173e 42e5 f3bc
00000320: 9653 1cbe f4df 14be c6cd 0b3c 63ac 063e
00000330: afb0 923e fea3 02be 1f0b 9abd 7392 3abc
00000340: 4fb1 313e c257 84be d485 1f3e cf2e 763c
00000350: 009e 013d 13e2 7c3d fef2 db3d 96e7 993e
00000360: ada2 143e 3d27 db3c 84be 233e ca3d ab3d
00000370: c9d1 373e 175f 3e3d 4502 72bd 423b 683d
00000380: 2536 803c 07f4 5a3d 4834 d53d 21fb dbbd
00000390: 5d69 353e b4b5 e93d f4d5 65bc c6c4 d8ba
000003a0: d882 c8be faa0 303e 36fe 843e b362 7f3e
000003b0: 3c0b 90be 70aa 18bc 74ae de3e 3d77 07be
000003c0: b163 49be 8d3b 4b3e 14c9 95be 74e1 4fbc
000003d0: cc9a 55be 4502 8c3e af76 c33e 24c6 883c
000003e0: 5c4d 9bbe 356b afbe 54c4 713e e7af ef3d
000003f0: 9edd b83d b7f1 74bd ffa7 0fbd 3efd ac3d
0.41470057 0.050761495 0.07837919 0.07732032 -0.1670687 0.14881736 0.15446119 0.28667197
0.11620015 0.108311996 0.19094042 0.12109162 0.21658978 0.0074924957 0.12176089 0.23111379
0.21147911 0.23584928 0.16866249 0.21669513 -0.014687954 0.15470368 0.16864774 -0.05183023
0.10342953 0.17249508 -0.06557623 0.09556774 -0.04350903 0.018587356 -0.2814832 0.08443895
0.24829252 0.24905325 0.052285403 -0.18787348 0.1335365 0.19496197 0.03024154 0.042561386
0.22709274 0.27125487 0.07078688 0.531871 0.08476325 -0.015386773 0.052532338 -0.06258017
0.069501065 0.086502016 -0.20644006 0.15885447 0.13263375 0.007676029 -0.13126238 0.17508434
-0.0382594 0.12029139 0.0997427 0.22958338 0.10294416 0.047295697 -0.06746633 0.2799745
-0.028163394 0.14362018 0.025242208 -0.051825542 -0.2702404 0.30961254 -0.19320068 0.024999918
-0.22906172 -0.06369955 0.2547654 0.16310517 0.22587493 -0.0450626 0.37008163 -0.15212177
-0.19041117 0.29262784 0.42611292 -0.21177997 0.014928688 -0.01411304 0.42296144 0.06829755
-0.036279917 0.03769517 -0.07189556 0.14774811 0.11012199 0.009807906 0.099570855 0.03023791
0.065770954 -0.021332383 0.06646794 0.06896094 0.039530624 0.014145842 0.053923406 0.12574285
0.025108058 0.1563479 -0.15415953 0.14440128 0.15778421 0.13671611 0.08634749 0.08359031
0.13953051 -0.06610183 -0.09203431 0.12765297 0.11753093 -0.022261063 -0.119388156 -0.17082386
-0.103981666 0.22656818 -0.13772787 -0.11311868 -0.11608948 0.13925752 0.102246106 -0.062284127
0.13394153 0.24475563 0.18433562 0.065695845 0.076149635 0.14263222 0.04373873 -0.045981403
0.23924981 0.0013909861 0.018075924 0.09769004 0.03549629 0.085861 0.073883325 0.097013555
0.17392015 0.10326918 0.07124434 0.094661646 0.05485184 0.14136747 0.095074855 -0.06510007
-0.10573062 -0.003004835 -0.13240491 -0.028347423 -0.25565398 0.12771729 0.20680682 0.11836629
0.25730917 0.0054209433 0.12541635 0.12865293 0.13255739 0.14211181 0.10151849 0.19545104
-0.050520185 0.06845919 -0.021055741 0.07522554 0.3187848 -0.040671237 0.13085735 -0.12971967
-0.16208152 0.016902922 0.12648633 -0.056716304 -0.111114234 0.13595575 0.08351757 -0.03250331
-0.011011959 -0.13828911 0.12336902 0.0051200306 -0.0052163326 0.25891048 -0.020711593 -0.1815971
-0.1515918 -0.1405676 -0.11414488 0.20962316 -0.105615765 0.16682768 0.14772297 -0.029772405
-0.1526626 -0.14538556 0.008532947 0.13151698 0.28650424 -0.1275787 -0.075216524 -0.011387455
0.17352794 -0.25848204 0.15578395 0.0150258085 0.03164482 0.06173904 0.107397065 0.300595
0.14515181 0.026752109 0.15990645 0.08361395 0.1795112 0.046477403 -0.059084196 0.056697138
0.015650818 0.05345538 0.104103625 -0.107412584 0.17715974 0.1141161 -0.014028061 -0.0016538135
-0.39162326 0.17248908 0.25975198 0.24939995 -0.2813357 -0.009317979 0.43492472 -0.1322908
-0.19666936 0.19846936 -0.29254973 -0.01268803 -0.20859832 0.27345482 0.38176486 0.016696043
-0.30332458 -0.3426148 0.2361005 0.117034726 0.09026645 -0.05980083 -0.035072323 0.084467396

embed_transform.0.bias f4 [64]
00000000: e592 97bc eac8 a4bb 2400 67bc 6194 253c
00000010: 2887 26bd b5a2 aebb bdb3 333d 330c 3dbd
00000020: 4286 04bd f6ab 8c39 4f38 48bc 008c 0fbd
00000030: 6131 0d3d 5884 cc3b 6b6b 783c 6ed5 efbc
00000040: 450c 6ebd db2b 1c3d 05de 2a3c b788 21bd
00000050: 5e32 bd3c 2b11 163d 102b 263d d5bb 6ebd
00000060: 64d5 b63d f23b d53c 4f47 ecbc d839 043d
00000070: 5e7e a93d bf80 963d d8a6 563d 64db 2c3d
00000080: f28b 823d 2acf 8e3d 76bd 2b3d ce69 b53d
00000090: 022e 463d ee9c 36ba a69a 733d 6d9d b73d
000000a0: 6c15 863d ff1d c63d 3a92 a33c 373a c93b
000000b0: f265 133d e309 d9bc 0d4b bd3c 924a 123d
000000c0: d14e 1cbb dedb be3d 833b 693d 4e11 093d
000000d0: e146 ebbb ac00 ac3d 6e2b a83d bcfe 2cbb
000000e0: 4fb3 bd3d cf9a 2e3d 0fbe 333d dc5d ef3d
000000f0: 6b4d 773d 0e0f 843c edff 5f3d b373 e2bb
-0.018502662 -0.0050288336 -0.014099155 0.010106177 -0.04065624 -0.005329455 0.043872584 -0.046154212
-0.0323546 0.00026831002 -0.012220456 -0.035045624 0.03447092 0.0062413625 0.015162329 -0.029276576
-0.05811717 0.03812776 0.01042891 -0.039437022 0.023095306 0.036637466 0.04056841 -0.0582846
0.0892742 0.02602956 -0.028842596 0.032281727 0.08276056 0.07348775 0.05240521 0.042201415
0.06374349 0.06973107 0.04192873 0.08858071 0.04838372 -0.00069661334 0.059473656 0.089655735
0.06547055 0.0967369 0.019967187 0.006140973 0.035985895 -0.026493972 0.023107076 0.035715647
-0.002385069 0.0931928 0.05694152 0.03346377 -0.0071800803 0.08398566 0.082114086 -0.002639695
0.09262716 0.042628106 0.043882426 0.11687824 0.060376566 0.01612046 0.05468743 -0.006910765

conv.0.att_src f4 [1, 1, 21]
00000000: 6323 3fbe 49dc b93e aee5 c13e a7e4 3dbe
00000010: cd43 da3e cc92 e83e 7b14 253e be98 58be
00000020: a863 b7be d24f debc 9f69 033e 040f e6be
00000030: 09f7 c43e f319 ae3e fa13 bebd 87ff dabe
00000040: d039 b7be 5eef 733e be32 e7bc 3bf4 07be
00000050: 710e a7be
-0.18665843 0.36300877 0.37870544 -0.18544255 0.42629853 0.45424497 0.16121094 -0.21152017
-0.3581822 -0.02713767 0.1283326 -0.4493333 0.38469723 0.34004173 -0.09281154 -0.42773077
-0.35786295 0.2382178 -0.028222438 -0.1327676 -0.32628205

conv.0.att_dst f4 [1, 1, 21]
00000000: d521 21bf 14d8 cd3e 5cac 8b3e 50e2 c4be
00000010: bb26 653f 9a1c c5be a07b d4be e125 e43e
00000020: dad4 9abe 4f57 d23e 97a1 a53e f43e 43be
00000030: 90a7 90bf f8c5 0c3f b952 31be c49e 7fbd
00000040: 4481 0f3f 2f42 c43e 5c12 4f3e 2296 403d
00000050: abb6 ebbe
-0.6294225 0.40203917 0.27279937 -0.38453913 0.89512223 -0.38498384 -0.41500568 0.4456015
-0.30240518 0.41082236 0.32349846 -0.19066983 -1.1301136 0.54989576 -0.17316712 -0.06240727
0.5605662 0.38331744 0.20221847 0.047018178 -0.46037802

conv.0.bias f4 [21]
00000000: 3865 93bc e5fa e93b 7a42 53bd a79e 213d
00000010: 36fb 243d 9d62 bebd 5f45 a83d f3c7 a9bd
00000020: a5e4 843d 0280 fb3c d99a b7bc c67b 003d
00000030: 0372 7a3c 4008 97bc 6324 5cbd 66ac 553b
00000040: e0cf 213b e537 79bd 23b1 303d c5c5 fb3b
00000050: 50dc c0bc
-0.0179926 0.0071405047 -0.05157707 0.039457943 0.040278636 -0.09296153 0.082163565 -0.082900904
0.06488923 0.030700687 -0.022412704 0.03136804 0.015285972 -0.018436551 -0.05374564 0.0032603978
0.0024690554 -0.06084432 0.04313768 0.007683488 -0.023542553

conv.0.lin_src.weight f4 [21, 21]
00000000: a7db 7c3d c383 fa3e bbd5 8ebe 727b bc3c
00000010: 122b abbe f859 58be 938a 9abe 53ae cfbe
00000020: d05b e03e 4f52 febe 76bc 313f de18 2e3e
00000030: 9815 e83e 0e3e 97be eb4e 963d c69d 81be
00000040: b23d 22bf 22d8 073f 3b28 243f dd33 f5bd
00000050: 7072 80be 1ba5 acbe 6607 2fbe fd46 a63e
00000060: 8217 d0be 9cca 7bbd 1178 9e3e 4574 3a3e
00000070: 14c6 91be fe2b a0be b02f 3b3d e6c5 183e
00000080: ea4b e13e 9932 103e edcb a53d c2d6 f13d
00000090: 0dc4 d03e 024b cbbe f38a 4f3e de24 a63e
000000a0: 27fb d53d 71a4 09bf 1719 abbe 4eba dfbe
000000b0: 31ed 0bbe 8d0d 773d 7af6 003e 2d7c d63e
000000c0: e527 bbbe ef2e 783e 546e a63c d85d 83be
000000d0: 8c60 a13e bf30 f8bd ab73 64be f3e0 1b3e
000000e0: 6738 943e 838f bd3d a561 9f3d c580 163f
000000f0: 1554 5bbd a40e 283d eabd 5cbe 1e5a 923d
00000100: 4c73 263e 3098 ec3e a966 343f 9f91 ccbe
00000110: aef1 de3e 1e01 4fbe 527f 22bf cd29 6ebe
00000120: a53c ffbe 43ec bdbe 630c 923d 5b8d 8cba
00000130: ddaa b83d dc33 423e c430 ca3c c8c6 0c3f
00000140: 7748 b93e 3de0 acbe 307c 073d 9f88 2c3e
00000150: 2d64 c83e 0a02 8d3e 0faa 8ebe 2031 a6bc
00000160: 708c 0b3e 2781 a9be d216 7abe a2db 6dbe
00000170: a760 903e f1ef 8b3e 8b67 aa3e 1f20 82be
00000180: 9653 803e a899 ab3e 8db3 913e 2b53 6fbf
00000190: 8e68 993c b1c1 53be 30db a2be 37d3 643e
000001a0: b9fb 99be 851b 68be b6d6 003c a1d8 b7be
000001b0: 3cde 7b3e 8107 62be 052a 40be a713 a9bc
000001c0: 560e 11bc ccca ebbe 313d a73e 0cf5 1fbf
000001d0: fabb e33e ebbb a4bd f363 a8be e4a0 82be
000001e0: 8ff9 c8be ef85 b93e 81fa 093f ce53 9d3e
000001f0: 4a64 013f f8e0 b03e e6bd 82bd 5431 623f
00000200: abd8 653e 3c06 a2bd e7e1 c4bd d4c8 c13e
00000210: 93a1 273d 0d6c c63d 9672 903e e033 ea3b
00000220: 53a4 453e bfd0 043f a833 b43d 5899 0cbf
00000230: bcf8 e63e 20df 393e d0b6 94be a9ad ddbe
00000240: 1e4d c0be 6a2a aebe e5b4 433f 6d79 c93e
00000250: b2dc 3cbe d33c 69be 9d5c 0fbe fc80 813f
00000260: 56d6 35be 5d2f b8be ada7 bf3e df1d b73e
00000270: 847b 64bd d4ac 8b3e aa8e 80be 789f b1be
00000280: 243f b4be 65ee 8f3e 2803 363e fb35 c9be
00000290: 02c8 ac3e f160 64be 2438 70be 0472 9bbe
000002a0: 60b7 a5be 2a07 873e 4838 a5be 96c0 89be
000002b0: ad4f a1be 3d52 f9be 80c8 cabe a62f ffbe
000002c0: aa3b 01be eb75 e73d 6812 fc3e 384f c7be
000002d0: 6969 783c 5ed7 aebe 24e7 bf3e b78c 203e
000002e0: d802 5b3e 434d 183d 260d 0dbe 40ba 41bd
000002f0: 0b49 9e3e dbc4 c53e 31e1 4c3d eef4 313f
00000300: 28d4 90be 3e9e 4c3e 135f 20bf 3630 b63d
00000310: 5312 08be 3ee5 ab3e 0988 f7be 16ed 66bd
00000320: 2132 d33e 6ecc 19be b781 653e 24e0 a1bd
00000330: b294 293e f604 f13e 39c0 9cbe 3a90 14bd
00000340: bfd5 a6be 3728 d73e 8e37 7fbe 4a0f 0cbe
00000350: a86f d63c 9c6d dd3e 198b 5f3e 8297 d73e
00000360: ee5e a2be d36a 163d 2ad2 07be bfb9 383e
00000370: fc38 cc3e 3967 a53e 43e1 1a3f 1273 eebd
00000380: 5463 c33a deed 923e 9089 f1be eec1 a9be
00000390: 57bf f1be dde4 463c 62ba 98be f549 173f
000003a0: e99b 5bbe 0a5f 8c3e cb88 46be 4ca7 8bbd
000003b0: d679 00be 3b58 dfbe b157 63be e86c 0fbf
000003c0: 8e0c 173e cc8a 513f fc30 b83c 3bae 9c3e
000003d0: 493a dcbe 6d8d eebe d914 cd3d d01b ed3c
000003e0: a736 febe dbcc 99be 3534 1abf 0e61 993d
000003f0: 5daf 043e 79f5 063f 03fe a13d d49f a9bd
0.061732914 0.4892865 -0.27897438 0.023008082 -0.33431298 -0.2112807 -0.3018385 -0.40562686
0.43820047 -0.4967217 0.69428194 0.17001674 0.45328975 -0.2953953 0.07339271 -0.25315684
-0.6337539 0.5306417 0.64123887 -0.11972783 -0.2508731 -0.33719715 -0.17092666 0.32476035
-0.40642935 -0.06147252 0.30950978 0.18208416 -0.28471434 -0.31283563 0.045699775 0.14919242
0.4400323 0.14081801 0.080955364 0.1180854 0.40774575 -0.39705664 0.20267849 0.32450002
0.10448294 -0.5376654 -0.3341758 -0.43696827 -0.136647 0.060315657 0.12594023 0.41891614
-0.36553875 0.24236654 0.02031628 -0.25657535 0.31518972 -0.121186726 -0.22309749 0.1522253
0.28949282 0.09255888 0.07782296 0.58790237 -0.053546984 0.041029587 -0.21556821 0.07146095
0.1625492 0.4620986 0.70469147 -0.3995485 0.43543762 -0.2021527 -0.63475525 -0.23258133
-0.49850956 -0.37094316 0.07131269 -0.001072328 0.090169646 0.18965095 0.024681456 0.54990816
0.361881 -0.3376483 0.03307742 0.16848992 0.39138928 0.27540618 -0.2786412 -0.020287097
0.13627791 -0.33106348 -0.24422768 -0.23228315 0.2819874 0.27331498 0.33282122 -0.2541513
0.2506377 0.33515668 0.284573 -0.9348628 0.018726613 -0.20679356 -0.31807852 0.22346197
-0.30074862 -0.22666748 0.007863691 -0.35907462 0.24596494 -0.22073175 -0.18766029 -0.020639254
-0.008853516 -0.4605316 0.32663873 -0.62483287 0.44479352 -0.08043655 -0.32888755 -0.25513375
-0.39252898 0.36234996 0.53897864 0.30728 0.50543654 0.34546638 -0.063838765 0.8835652
0.22445934 -0.07911345 -0.096134 0.37848532 0.040925574 0.09688578 0.28212422 0.0071472973
0.19300966 0.5188102 0.08798915 -0.54921484 0.45111644 0.18151522 -0.29045725 -0.43296555
-0.37558836 -0.34016734 0.764479 0.39350453 -0.18443564 -0.22777109 -0.14000173 1.0117488
-0.17757544 -0.35973635 0.37432614 0.35764977 -0.055781856 0.27280295 -0.25108844 -0.34691978
-0.35204422 0.28111568 0.17774642 -0.39298996 0.33746344 -0.22302605 -0.23458916 -0.30360425
-0.32366467 0.26372653 -0.32269502 -0.26904744 -0.315061 -0.48695555 -0.39606094 -0.4984104
-0.12620416 0.11301788 0.49232793 -0.38927627 0.0151618505 -0.34148687 0.37481034 0.15678678
0.21387804 0.037183058 -0.13774547 -0.047296762 0.30915102 0.3862675 0.050019447 0.6951436
-0.28286862 0.1998224 -0.6264507 0.08895914 -0.1328824 0.33573335 -0.48345974 -0.056378447
0.41249183 -0.1501939 0.22412764 -0.079040796 0.16560629 0.47074097 -0.30615404 -0.036270358
-0.3258495 0.4202287 -0.24923536 -0.13677707 0.026176289 0.43247688 0.21830405 0.4210778
-0.3171305 0.03672297 -0.13263765 0.18039607 0.39887226 0.32305315 0.6049997 -0.11643042
0.0014906921 0.28697103 -0.47175264 -0.3315577 -0.47216293 0.012139526 -0.298297 0.59097224
-0.21446194 0.2741626 -0.1938812 -0.06819019 -0.12546477 -0.43622002 -0.2220142 -0.5602555
0.14750883 0.8185241 0.022484295 0.30601677 -0.43013218 -0.46592274 0.10013742 0.028943926
-0.4965107 -0.30039105 -0.6023591 0.07489215 0.12957521 0.5271831 0.07909777 -0.08282438

conv.0.lin_dst.weight f4 [21, 21]
00000000: a7db 7c3d c383 fa3e bbd5 8ebe 727b bc3c
00000010: 122b abbe f859 58be 938a 9abe 53ae cfbe
00000020: d05b e03e 4f52 febe 76bc 313f de18 2e3e
00000030: 9815 e83e 0e3e 97be eb4e 963d c69d 81be
00000040: b23d 22bf 22d8 073f 3b28 243f dd33 f5bd
00000050: 7072 80be 1ba5 acbe 6607 2fbe fd46 a63e
00000060: 8217 d0be 9cca 7bbd 1178 9e3e 4574 3a3e
00000070: 14c6 91be fe2b a0be b02f 3b3d e6c5 183e
00000080: ea4b e13e 9932 103e edcb a53d c2d6 f13d
00000090: 0dc4 d03e 024b cbbe f38a 4f3e de24 a63e
000000a0: 27fb d53d 71a4 09bf 1719 abbe 4eba dfbe
000000b0: 31ed 0bbe 8d0d 773d 7af6 003e 2d7c d63e
000000c0: e527 bbbe ef2e 783e 546e a63c d85d 83be
000000d0: 8c60 a13e bf30 f8bd ab73 64be f3e0 1b3e
000000e0: 6738 943e 838f bd3d a561 9f3d c580 163f
000000f0: 1554 5bbd a40e 283d eabd 5cbe 1e5a 923d
00000100: 4c73 263e 3098 ec3e a966 343f 9f91 ccbe
00000110: aef1 de3e 1e01 4fbe 527f 22bf cd29 6ebe
00000120: a53c ffbe 43ec bdbe 630c 923d 5b8d 8cba
00000130: ddaa b83d dc33 423e c430 ca3c c8c6 0c3f
00000140: 7748 b93e 3de0 acbe 307c 073d 9f88 2c3e
00000150: 2d64 c83e 0a02 8d3e 0faa 8ebe 2031 a6bc
00000160: 708c 0b3e 2781 a9be d216 7abe a2db 6dbe
00000170: a760 903e f1ef 8b3e 8b67 aa3e 1f20 82be
00000180: 9653 803e a899 ab3e 8db3 913e 2b53 6fbf
00000190: 8e68 993c b1c1 53be 30db a2be 37d3 643e
000001a0: b9fb 99be 851b 68be b6d6 003c a1d8 b7be
000001b0: 3cde 7b3e 8107 62be 052a 40be a713 a9bc
000001c0: 560e 11bc ccca ebbe 313d a73e 0cf5 1fbf
000001d0: fabb e33e ebbb a4bd f363 a8be e4a0 82be
000001e0: 8ff9 c8be ef85 b93e 81fa 093f ce53 9d3e
000001f0: 4a64 013f f8e0 b03e e6bd 82bd 5431 623f
00000200: abd8 653e 3c06 a2bd e7e1 c4bd d4c8 c13e
00000210: 93a1 273d 0d6c c63d 9672 903e e033 ea3b
00000220: 53a4 453e bfd0 043f a833 b43d 5899 0cbf
00000230: bcf8 e63e 20df 393e d0b6 94be a9ad ddbe
00000240: 1e4d c0be 6a2a aebe e5b4 433f 6d79 c93e
00000250: b2dc 3cbe d33c 69be 9d5c 0fbe fc80 813f
00000260: 56d6 35be 5d2f b8be ada7 bf3e df1d b73e
00000270: 847b 64bd d4ac 8b3e aa8e 80be 789f b1be
00000280: 243f b4be 65ee 8f3e 2803 363e fb35 c9be
00000290: 02c8 ac3e f160 64be 2438 70be 0472 9bbe
000002a0: 60b7 a5be 2a07 873e 4838 a5be 96c0 89be
000002b0: ad4f a1be 3d52 f9be 80c8 cabe a62f ffbe
000002c0: aa3b 01be eb75 e73d 6812 fc3e 384f c7be
000002d0: 6969 783c 5ed7 aebe 24e7 bf3e b78c 203e
000002e0: d802 5b3e 434d 183d 260d 0dbe 40ba 41bd
000002f0: 0b49 9e3e dbc4 c53e 31e1 4c3d eef4 313f
00000300: 28d4 90be 3e9e 4c3e 135f 20bf 3630 b63d
00000310: 5312 08be 3ee5 ab3e 0988 f7be 16ed 66bd
00000320: 2132 d33e 6ecc 19be b781 653e 24e0 a1bd
00000330: b294 293e f604 f13e 39c0 9cbe 3a90 14bd
00000340: bfd5 a6be 3728 d73e 8e37 7fbe 4a0f 0cbe
00000350: a86f d63c 9c6d dd3e 198b 5f3e 8297 d73e
00000360: ee5e a2be d36a 163d 2ad2 07be bfb9 383e
00000370: fc38 cc3e 3967 a53e 43e1 1a3f 1273 eebd
00000380: 5463 c33a deed 923e 9089 f1be eec1 a9be
00000390: 57bf f1be dde4 463c 62ba 98be f549 173f
000003a0: e99b 5bbe 0a5f 8c3e cb88 46be 4ca7 8bbd
000003b0: d679 00be 3b58 dfbe b157 63be e86c 0fbf
000003c0: 8e0c 173e cc8a 513f fc30 b83c 3bae 9c3e
000003d0: 493a dcbe 6d8d eebe d914 cd3d d01b ed3c
000003e0: a736 febe dbcc 99be 3534 1abf 0e61 993d
000003f0: 5daf 043e 79f5 063f 03fe a13d d49f a9bd
0.061732914 0.4892865 -0.27897438 0.023008082 -0.33431298 -0.2112807 -0.3018385 -0.40562686
0.43820047 -0.4967217 0.69428194 0.17001674 0.45328975 -0.2953953 0.07339271 -0.25315684
-0.6337539 0.5306417 0.64123887 -0.11972783 -0.2508731 -0.33719715 -0.17092666 0.32476035
-0.40642935 -0.06147252 0.30950978 0.18208416 -0.28471434 -0.31283563 0.045699775 0.14919242
0.4400323 0.14081801 0.080955364 0.1180854 0.40774575 -0.39705664 0.20267849 0.32450002
0.10448294 -0.5376654 -0.3341758 -0.43696827 -0.136647 0.060315657 0.12594023 0.41891614
-0.36553875 0.24236654 0.02031628 -0.25657535 0.31518972 -0.121186726 -0.22309749 0.1522253
0.28949282 0.09255888 0.07782296 0.58790237 -0.053546984 0.041029587 -0.21556821 0.07146095
0.1625492 0.4620986 0.70469147 -0.3995485 0.43543762 -0.2021527 -0.63475525 -0.23258133
-0.49850956 -0.37094316 0.07131269 -0.001072328 0.090169646 0.18965095 0.024681456 0.54990816
0.361881 -0.3376483 0.03307742 0.16848992 0.39138928 0.27540618 -0.2786412 -0.020287097
0.13627791 -0.33106348 -0.24422768 -0.23228315 0.2819874 0.27331498 0.33282122 -0.2541513
0.2506377 0.33515668 0.284573 -0.9348628 0.018726613 -0.20679356 -0.31807852 0.22346197
-0.30074862 -0.22666748 0.007863691 -0.35907462 0.24596494 -0.22073175 -0.18766029 -0.020639254
-0.008853516 -0.4605316 0.32663873 -0.62483287 0.44479352 -0.08043655 -0.32888755 -0.25513375
-0.39252898 0.36234996 0.53897864 0.30728 0.50543654 0.34546638 -0.063838765 0.8835652
0.22445934 -0.07911345 -0.096134 0.37848532 0.040925574 0.09688578 0.28212422 0.0071472973
0.19300966 0.5188102 0.08798915 -0.54921484 0.45111644 0.18151522 -0.29045725 -0.43296555
-0.37558836 -0.34016734 0.764479 0.39350453 -0.18443564 -0.22777109 -0.14000173 1.0117488
-0.17757544 -0.35973635 0.37432614 0.35764977 -0.055781856 0.27280295 -0.25108844 -0.34691978
-0.35204422 0.28111568 0.17774642 -0.39298996 0.33746344 -0.22302605 -0.23458916 -0.30360425
-0.32366467 0.26372653 -0.32269502 -0.26904744 -0.315061 -0.48695555 -0.39606094 -0.4984104
-0.12620416 0.11301788 0.49232793 -0.38927627 0.0151618505 -0.34148687 0.37481034 0.15678678
0.21387804 0.037183058 -0.13774547 -0.047296762 0.30915102 0.3862675 0.050019447 0.6951436
-0.28286862 0.1998224 -0.6264507 0.08895914 -0.1328824 0.33573335 -0.48345974 -0.056378447
0.41249183 -0.1501939 0.22412764 -0.079040796 0.16560629 0.47074097 -0.30615404 -0.036270358
-0.3258495 0.4202287 -0.24923536 -0.13677707 0.026176289 0.43247688 0.21830405 0.4210778
-0.3171305 0.03672297 -0.13263765 0.18039607 0.39887226 0.32305315 0.6049997 -0.11643042
0.0014906921 0.28697103 -0.47175264 -0.3315577 -0.47216293 0.012139526 -0.298297 0.59097224
-0.21446194 0.2741626 -0.1938812 -0.06819019 -0.12546477 -0.43622002 -0.2220142 -0.5602555
0.14750883 0.8185241 0.022484295 0.30601677 -0.43013218 -0.46592274 0.10013742 0.028943926
-0.4965107 -0.30039105 -0.6023591 0.07489215 0.12957521 0.5271831 0.07909777 -0.08282438

conv.1.att_src f4 [1, 1, 21]
00000000: 7baf 94be b57d 50be 2f93 0c3f fb05 f93e
00000010: eca2 b6be d840 813e 716d 5dbf 4d13 8e3e
00000020: 67f1 b7be e7f0 31bd a382 c1be 0142 f53e
00000030: 64b9 12be 58be 39bf 4fe4 86bf 8896 99bd
00000040: 5eae f93d 95cb 80be b65e 71bd 6170 a0be
00000050: 4d58 2dbe
-0.2904013 -0.20360453 0.54912084 0.48637375 -0.35671175 0.25244784 -0.8649512 0.277491
-0.35926363 -0.043442633 -0.3779498 0.4790192 -0.14328533 -0.72556067 -1.0538424 -0.07499415
0.12191461 -0.2515532 -0.058928214 -0.31335738 -0.16928215

conv.1.att_dst f4 [1, 1, 21]
00000000: 9a3a 123f b9a1 01be c810 b53e a087 8ebe
00000010: bc85 293f debb 24be cb8b 3dbf 96a5 e93e
00000020: cf35 003e 3137 853f f363 f4bd 7b97 f2bd
00000030: 6dd0 de3e 42cf babd adb5 813e b583 32bf
00000040: 6ba2 cdbe 040a 47bf 2e8b 403f 8a25 aebe
00000050: 3937 0c3e
0.5712067 -0.12659349 0.35364366 -0.2783785 0.6621969 -0.1608729 -0.7404143 0.45634145
0.12520526 1.0407468 -0.11933126 -0.11845299 0.4351839 -0.091215625 0.2533392 -0.6973222
-0.40162978 -0.7774966 0.7521237 -0.34013015 0.13692941

conv.1.bias f4 [21]
00000000: ae77 313c 8eac 53bd 3621 92bc df72 23bd
00000010: 8cc5 2f3d 0fb4 f03b 0bdb 873d ce19 a3bd
00000020: 9f79 b23d 1ef3 adbd 8262 02bc ec71 f4bc
00000030: 5d23 483c 81c4 073d 7753 213d 7ace 5b3d
00000040: d76f 75bc 02ca 763d ae0b 1bbd 8997 d7bc
00000050: 4873 04bd
0.0108317565 -0.051678233 -0.017838102 -0.03990447 0.042913005 0.0073456834 0.06633576 -0.07963906
0.08714604 -0.084936365 -0.007958056 -0.029839478 0.0122154625 0.033146385 0.03938624 0.05366371
-0.014980278 0.060251243 -0.037852935 -0.026317375 -0.032336503

conv.1.lin_src.weight f4 [21, 21]
00000000: 1634 fc3e da06 a53e 464b 123d eb3e aabe
00000010: f1fe 00bf 8506 1fbf 88a8 96bc d267 84be
00000020: be58 b73e d3b4 183f e073 b0be aeb2 173f
00000030: 988c b5bd bd85 c53d f9eb eebe 541a 23bf
00000040: 3fc3 babe ddd8 df3e 0f28 1b3f 8871 4c3d
00000050: 596b 8d3d cf6e fd3c d384 733e a801 b4be
00000060: e13d ac3e 5320 623e b461 5a3c b911 153e
00000070: 4c24 8dbe 1ef3 e1be ffb1 f13e 60ea ea3e
00000080: 152f c93e 1d6e 043f f2d5 79bd e2ac 4ebe
00000090: 5800 55bd d372 7b3e bb3b d63c c968 be3e
000000a0: d492 8b3c 4f29 02bf e2b7 2a3f d19f 673e
000000b0: 3e4b db3e ed03 0a3e fadb 8abe 9db1 d93d
000000c0: d90a 003e e254 06be 2416 00bd 8691 013e
000000d0: 02ea 10bf 160a 52be ca2c 863e d38e 353e
000000e0: 0f37 30bf b748 be3e efce 11bf 7a69 b23e
000000f0: 1554 d6bd b845 d93d fb1b 32be 1c0d 9bbe
00000100: ae1a 4fbe 3e5f 63be 0e2d 5cbc 6692 8b3e
00000110: 6637 2b3f 5b3f 8fbe 6f39 2ebe 876a 9ebd
00000120: f8cd a93e 9dc2 cebe 31d2 d03e 71c1 663e
00000130: 48b5 d6bd 23da cf3e 437f ecbe 2953 d9be
00000140: 0dbc 323f 8f5a 023e 2e51 c7be 35e1 0dbf
00000150: 7de4 063e f0b6 143f 4350 c63e 9be3 223e
00000160: 4945 09bd a6cc 283e d388 4abd 7f3e 0ebf
00000170: eb9c 54bd 5354 673e d7f4 81be 08e6 b2be
00000180: c5d9 c2bd 6ef7 3c3d e874 08bc d3cc 52be
00000190: 4a57 cd3e c4a1 5bbf 0545 3f3f a007 b0be
000001a0: 63e8 e43b 29f4 ae3e 7b41 15be 8681 b2be
000001b0: e069 eabd f171 57be f84d 503f c9ab ffbe
000001c0: 3fb2 cfbe d294 c8bb 438e 4dbd aa4b fdbe
000001d0: cdf7 44bd a9c6 38be c2e1 cd3e 9886 f73e
000001e0: 18b1 ac3e 8418 e0be 2cc6 d83e f76f 1bbe
000001f0: b336 3d3d 89cb 8c3b f46f f4bd 2ffa 5abe
00000200: 8d15 093e 356b 1a3f c395 c2be 1766 c3bd
00000210: 499b 2c3f e06d 11bc 0e99 303e 188f e33e
00000220: e48c de3e e134 d53e d07e 633e 726f a9be
00000230: 1fab ccbe 37bd 0dbf f893 7f3e a031 16bf
00000240: 42f1 333b e689 b23e 7e11 8b3e 1f51 453e
00000250: 3b5c e6bc b2c5 183e 85e9 57bf 125f 183f
00000260: 5044 a63d 17c2 84be 50ac 98bd bda4 863d
00000270: 4cfa 95be f8ef 013f faa1 f23e 39e1 eb3e
00000280: b724 9d3e bc6f c83e a1af 0ebe 9b8f cd3e
00000290: a486 973e 6247 993e b505 f63e c899 9abe
000002a0: 5d89 adbe de70 bc3d 41d2 bbbe 60e0 04bf
000002b0: 4fd3 6b3e 95cc 8fbc 4608 323f fada 97be
000002c0: e600 803e 07f7 90bd adfe eb3c 1de1 e13e
000002d0: 6bd1 9ebe 698a e43e 713f 873e d4ac 7a3e
000002e0: 121f 863c 0c12 52bf 73dc dc3c f5d2 07be
000002f0: 1e2b c6be 1529 d13e 6e12 90bd 5f9f 06bf
00000300: 8168 fbbd e00b 213f d124 ccbe 34b7 c83b
00000310: abb9 03be 503d 553e ae20 c73e 6745 a5be
00000320: 9b4e 33be 61b2 fcbe 8f75 10bf 43c2 d9be
00000330: b68e 67be 302a f03e 3ccd b13e c731 11bf
00000340: d6da a1be 337a 4ebd eab1 323f 28d9 d93d
00000350: 9fc4 593e ce7c a4be b9fe 7b3e 3995 a1be
00000360: 7f0c 873e bbd8 4dbb a11b 1a3f 1685 4dbe
00000370: 05dd eb3e 4eb8 ed3e 252a 3bbe a2fa 553e
00000380: e3e0 c03e 3d46 8b3e 7087 c93e 037c d8be
00000390: 96cb f3bd 406d 093f eab0 85be 0b70 fe3e
000003a0: 92d7 d93e 7603 fa3e 8be5 7f3e 1603 7fbe
000003b0: 2116 e83e fa4b 07bf 9d4e e93e 3a7a 353e
000003c0: 7c81 fabe aa33 323e f2c6 a33d f7d7 4abe
000003d0: 0938 c83e 8416 2abe 3b75 aebe c177 053f
000003e0: af7a 033e df95 6d3e fc4e a7be 2813 aa3e
000003f0: 39df 363e 58ce 98be e6ac 1cbf c126 a1be
0.49258488 0.3223179 0.035716318 -0.33251128 -0.5038901 -0.62119323 -0.018390909 -0.2586046
0.35809892 0.59650916 -0.34463406 0.5925702 -0.08864707 0.09644649 -0.46664408 -0.6371205
-0.36477086 0.4372014 0.60608 0.04991296 0.069052406 0.030936627 0.23781137 -0.35157514
0.3364096 0.22082643 0.013328958 0.14557542 -0.27566755 -0.44130796 0.47206113 0.4588194
0.39293733 0.5173052 -0.06099505 -0.20183137 -0.05200228 0.2455552 0.026151529 0.3718932
0.017037787 -0.5084428 0.6668683 0.22619559 0.42830843 0.1347806 -0.27120954 0.1062958
0.12504138 -0.13118318 -0.031271115 0.12653169 -0.5660707 -0.2051166 0.26206046 0.17730264
-0.6883401 0.37164852 -0.5695638 0.34846097 -0.10465256 0.10609001 -0.17393486 -0.3028344
-0.20225021 -0.22204301 -0.013438476 0.2726013 0.66881406 -0.27978024 -0.17014097 -0.07735162
0.33164954 -0.40382853 0.40785363 0.2253473 -0.104837954 0.40596113 -0.46190843 -0.4244626
0.6981819 0.12729858 -0.38929123 -0.55421764 0.13173099 0.5809164 0.3873311 0.15907137
-0.03351334 0.16484317 -0.049446892 -0.5556411 -0.05190746 0.22590761 -0.2538211 -0.34941125
-0.095141925 0.046134405 -0.008328654 -0.20585947 0.4010566 -0.8579371 0.7471469 -0.34380817
0.0069857105 0.34170654 -0.1457576 -0.34864444 -0.11445975 -0.21039559 0.8136897 -0.4993575
-0.40565678 -0.0061212564 -0.0501845 -0.4947179 -0.048087884 -0.18044533 0.40211302 0.48344874
0.33728862 -0.43768704 0.42338693 -0.1517943 0.046194743 0.004296724 -0.11935416 -0.213845
0.13387127 0.60319835 -0.38004884 -0.095409565 0.67424446 -0.008876294 0.17245886 0.4444511
0.43466866 0.41641906 0.22216344 -0.3309284 -0.39974305 -0.55366844 0.2495879 -0.5866947
0.0027457033 0.34870833 0.27161783 0.19269226 -0.02812015 0.14919165 -0.843407 0.59520066
0.08118498 -0.2592933 -0.07454741 0.0657439 -0.29292524 0.5075679 0.47389203 0.4607027
0.30692074 0.39147747 -0.13934185 0.40148625 0.2959491 0.29937273 0.4805123 -0.3019545
-0.33893862 0.09201215 -0.36683849 -0.5190487 0.23029827 -0.017553607 0.69543874 -0.29659253
0.25000685 -0.07078367 0.028807962 0.4411706 -0.31019148 0.4463685 0.2641559 0.24479991
0.016372237 -0.8205879 0.026960587 -0.13264067 -0.3870477 0.40851656 -0.07034765 -0.5258693
-0.12275792 0.62908745 -0.3987184 0.006125355 -0.12863795 0.2082417 0.3889212 -0.32279512
-0.17510454 -0.49354842 -0.5642938 -0.42531022 -0.22613034 0.46907187 0.34726894 -0.5671658
-0.3161227 -0.050409507 0.69802725 0.106371224 0.21266411 -0.32126468 0.24608888 -0.3155916
0.2637672 -0.00314097 0.6019841 -0.200703 0.46067062 0.46429676 -0.18277796 0.2089639
0.37671575 0.27202025 0.39361143 -0.42282113 -0.11904065 0.5368233 -0.26111537 0.49694857
0.4254728 0.48830765 0.24989907 -0.24903521 0.45329383 -0.52850306 0.4556779 0.17722407
-0.48926914 0.17402521 0.0799693 -0.19808947 0.3910525 -0.16610152 -0.34073815 0.52135855
0.12839769 0.23201703 -0.32677448 0.3321774 0.1785859 -0.29844928 -0.6120132 -0.3147488

conv.1.lin_dst.weight f4 [21, 21]
00000000: 1634 fc3e da06 a53e 464b 123d eb3e aabe
00000010: f1fe 00bf 8506 1fbf 88a8 96bc d267 84be
00000020: be58 b73e d3b4 183f e073 b0be aeb2 173f
00000030: 988c b5bd bd85 c53d f9eb eebe 541a 23bf
00000040: 3fc3 babe ddd8 df3e 0f28 1b3f 8871 4c3d
00000050: 596b 8d3d cf6e fd3c d384 733e a801 b4be
00000060: e13d ac3e 5320 623e b461 5a3c b911 153e
00000070: 4c24 8dbe 1ef3 e1be ffb1 f13e 60ea ea3e
00000080: 152f c93e 1d6e 043f f2d5 79bd e2ac 4ebe
00000090: 5800 55bd d372 7b3e bb3b d63c c968 be3e
000000a0: d492 8b3c 4f29 02bf e2b7 2a3f d19f 673e
000000b0: 3e4b db3e ed03 0a3e fadb 8abe 9db1 d93d
000000c0: d90a 003e e254 06be 2416 00bd 8691 013e
000000d0: 02ea 10bf 160a 52be ca2c 863e d38e 353e
000000e0: 0f37 30bf b748 be3e efce 11bf 7a69 b23e
000000f0: 1554 d6bd b845 d93d fb1b 32be 1c0d 9bbe
00000100: ae1a 4fbe 3e5f 63be 0e2d 5cbc 6692 8b3e
00000110: 6637 2b3f 5b3f 8fbe 6f39 2ebe 876a 9ebd
00000120: f8cd a93e 9dc2 cebe 31d2 d03e 71c1 663e
00000130: 48b5 d6bd 23da cf3e 437f ecbe 2953 d9be
00000140: 0dbc 323f 8f5a 023e 2e51 c7be 35e1 0dbf
00000150: 7de4 063e f0b6 143f 4350 c63e 9be3 223e
00000160: 4945 09bd a6cc 283e d388 4abd 7f3e 0ebf
00000170: eb9c 54bd 5354 673e d7f4 81be 08e6 b2be
00000180: c5d9 c2bd 6ef7 3c3d e874 08bc d3cc 52be
00000190: 4a57 cd3e c4a1 5bbf 0545 3f3f a007 b0be
000001a0: 63e8 e43b 29f4 ae3e 7b41 15be 8681 b2be
000001b0: e069 eabd f171 57be f84d 503f c9ab ffbe
000001c0: 3fb2 cfbe d294 c8bb 438e 4dbd aa4b fdbe
000001d0: cdf7 44bd a9c6 38be c2e1 cd3e 9886 f73e
000001e0: 18b1 ac3e 8418 e0be 2cc6 d83e f76f 1bbe
000001f0: b336 3d3d 89cb 8c3b f46f f4bd 2ffa 5abe
00000200: 8d15 093e 356b 1a3f c395 c2be 1766 c3bd
00000210: 499b 2c3f e06d 11bc 0e99 303e 188f e33e
00000220: e48c de3e e134 d53e d07e 633e 726f a9be
00000230: 1fab ccbe 37bd 0dbf f893 7f3e a031 16bf
00000240: 42f1 333b e689 b23e 7e11 8b3e 1f51 453e
00000250: 3b5c e6bc b2c5 183e 85e9 57bf 125f 183f
00000260: 5044 a63d 17c2 84be 50ac 98bd bda4 863d
00000270: 4cfa 95be f8ef 013f faa1 f23e 39e1 eb3e
00000280: b724 9d3e bc6f c83e a1af 0ebe 9b8f cd3e
00000290: a486 973e 6247 993e b505 f63e c899 9abe
000002a0: 5d89 adbe de70 bc3d 41d2 bbbe 60e0 04bf
000002b0: 4fd3 6b3e 95cc 8fbc 4608 323f fada 97be
000002c0: e600 803e 07f7 90bd adfe eb3c 1de1 e13e
000002d0: 6bd1 9ebe 698a e43e 713f 873e d4ac 7a3e
000002e0: 121f 863c 0c12 52bf 73dc dc3c f5d2 07be
000002f0: 1e2b c6be 1529 d13e 6e12 90bd 5f9f 06bf
00000300: 8168 fbbd e00b 213f d124 ccbe 34b7 c83b
00000310: abb9 03be 503d 553e ae20 c73e 6745 a5be
00000320: 9b4e 33be 61b2 fcbe 8f75 10bf 43c2 d9be
00000330: b68e 67be 302a f03e 3ccd b13e c731 11bf
00000340: d6da a1be 337a 4ebd eab1 323f 28d9 d93d
00000350: 9fc4 593e ce7c a4be b9fe 7b3e 3995 a1be
00000360: 7f0c 873e bbd8 4dbb a11b 1a3f 1685 4dbe
00000370: 05dd eb3e 4eb8 ed3e 252a 3bbe a2fa 553e
00000380: e3e0 c03e 3d46 8b3e 7087 c93e 037c d8be
00000390: 96cb f3bd 406d 093f eab0 85be 0b70 fe3e
000003a0: 92d7 d93e 7603 fa3e 8be5 7f3e 1603 7fbe
000003b0: 2116 e83e fa4b 07bf 9d4e e93e 3a7a 353e
000003c0: 7c81 fabe aa33 323e f2c6 a33d f7d7 4abe
000003d0: 0938 c83e 8416 2abe 3b75 aebe c177 053f
000003e0: af7a 033e df95 6d3e fc4e a7be 2813 aa3e
000003f0: 39df 363e 58ce 98be e6ac 1cbf c126 a1be
0.49258488 0.3223179 0.035716318 -0.33251128 -0.5038901 -0.62119323 -0.018390909 -0.2586046
0.35809892 0.59650916 -0.34463406 0.5925702 -0.08864707 0.09644649 -0.46664408 -0.6371205
-0.36477086 0.4372014 0.60608 0.04991296 0.069052406 0.030936627 0.23781137 -0.35157514
0.3364096 0.22082643 0.013328958 0.14557542 -0.27566755 -0.44130796 0.47206113 0.4588194
0.39293733 0.5173052 -0.06099505 -0.20183137 -0.05200228 0.2455552 0.026151529 0.3718932
0.017037787 -0.5084428 0.6668683 0.22619559 0.42830843 0.1347806 -0.27120954 0.1062958
0.12504138 -0.13118318 -0.031271115 0.12653169 -0.5660707 -0.2051166 0.26206046 0.17730264
-0.6883401 0.37164852 -0.5695638 0.34846097 -0.10465256 0.10609001 -0.17393486 -0.3028344
-0.20225021 -0.22204301 -0.013438476 0.2726013 0.66881406 -0.27978024 -0.17014097 -0.07735162
0.33164954 -0.40382853 0.40785363 0.2253473 -0.104837954 0.40596113 -0.46190843 -0.4244626
0.6981819 0.12729858 -0.38929123 -0.55421764 0.13173099 0.5809164 0.3873311 0.15907137
-0.03351334 0.16484317 -0.049446892 -0.5556411 -0.05190746 0.22590761 -0.2538211 -0.34941125
-0.095141925 0.046134405 -0.008328654 -0.20585947 0.4010566 -0.8579371 0.7471469 -0.34380817
0.0069857105 0.34170654 -0.1457576 -0.34864444 -0.11445975 -0.21039559 0.8136897 -0.4993575
-0.40565678 -0.0061212564 -0.0501845 -0.4947179 -0.048087884 -0.18044533 0.40211302 0.48344874
0.33728862 -0.43768704 0.42338693 -0.1517943 0.046194743 0.004296724 -0.11935416 -0.213845
0.13387127 0.60319835 -0.38004884 -0.095409565 0.67424446 -0.008876294 0.17245886 0.4444511
0.43466866 0.41641906 0.22216344 -0.3309284 -0.39974305 -0.55366844 0.2495879 -0.5866947
0.0027457033 0.34870833 0.27161783 0.19269226 -0.02812015 0.14919165 -0.843407 0.59520066
0.08118498 -0.2592933 -0.07454741 0.0657439 -0.29292524 0.5075679 0.47389203 0.4607027
0.30692074 0.39147747 -0.13934185 0.40148625 0.2959491 0.29937273 0.4805123 -0.3019545
-0.33893862 0.09201215 -0.36683849 -0.5190487 0.23029827 -0.017553607 0.69543874 -0.29659253
0.25000685 -0.07078367 0.028807962 0.4411706 -0.31019148 0.4463685 0.2641559 0.24479991
0.016372237 -0.8205879 0.026960587 -0.13264067 -0.3870477 0.40851656 -0.07034765 -0.5258693
-0.12275792 0.62908745 -0.3987184 0.006125355 -0.12863795 0.2082417 0.3889212 -0.32279512
-0.17510454 -0.49354842 -0.5642938 -0.42531022 -0.22613034 0.46907187 0.34726894 -0.5671658
-0.3161227 -0.050409507 0.69802725 0.106371224 0.21266411 -0.32126468 0.24608888 -0.3155916
0.2637672 -0.00314097 0.6019841 -0.200703 0.46067062 0.46429676 -0.18277796 0.2089639
0.37671575 0.27202025 0.39361143 -0.42282113 -0.11904065 0.5368233 -0.26111537 0.49694857
0.4254728 0.48830765 0.24989907 -0.24903521 0.45329383 -0.52850306 0.4556779 0.17722407
-0.48926914 0.17402521 0.0799693 -0.19808947 0.3910525 -0.16610152 -0.34073815 0.52135855
0.12839769 0.23201703 -0.32677448 0.3321774 0.1785859 -0.29844928 -0.6120132 -0.3147488

conv.2.att_src f4 [1, 1, 21]
00000000: d6ea 9fbe a632 953e 0854 4abd e1f1 583f
00000010: 3bad d03e 4c56 18bd c9d3 95be d714 703e
00000020: 3896 ee3e e978 01be 1b63 b7be 3e20 73be
00000030: b8ff 5c3f 285d 26bd fc02 38be 97b0 f13e
00000040: bec9 3b3f 6eb1 b9be 53e5 663f 4475 25be
00000050: dad5 2a3e
-0.31233853 0.29140204 -0.049396545 0.8474408 0.40757164 -0.037191674 -0.29263142 0.2344545
0.46598983 -0.1264378 -0.358178 -0.23742768 0.86327696 -0.040616184 -0.17969888 0.4720504
0.7335471 -0.3626818 0.9019367 -0.16158015 0.1668314

conv.2.att_dst f4 [1, 1, 21]
00000000: beaa b93e 00c3 b8be 7d22 fc3e f074 89bf
00000010: 0eef b4be 85ee 84bd 186d 963f b676 4bbf
00000020: 662a 9abe 4186 5ebd 6006 a4be 1f08 86be
00000030: 311f 72bf 9e86 f9bc 0893 8ebe 9bd1 12be
00000040: 2a82 83be 738f b53d b78e bfbe 76b2 4d3e
00000050: dfce 47bf
0.36263078 -0.36086273 0.49245062 -1.0738811 -0.35338634 -0.064908065 1.1752043 -0.79478014
-0.30110472 -0.054327253 -0.32036114 -0.2617807 -0.94578844 -0.030459698 -0.2784655 -0.1433777
-0.25685245 0.088652514 -0.3741357 0.20087609 -0.78050035

conv.2.bias f4 [21]
00000000: bb95 debc 8eb2 ce3b d24c 79bc 06d6 63bc
00000010: f8d5 1abd a9e9 013c f285 8ebd e815 cbbc
00000020: 067d 663c 7bd3 bebc 392f a23c 1cf5 9abc
00000030: 881d 11bd 049a bfbc 0d4c 27bd f1d4 dcbb
00000040: 5043 4dbd 4825 453c a63a 95bb f7c6 fe3b
00000050: b32d 43bb
-0.027171006 0.0063079065 -0.015216069 -0.013906008 -0.037801713 0.007929244 -0.06959142 -0.02479072
0.014067894 -0.023294201 0.019797908 -0.018915705 -0.035428554 -0.02338887 -0.040844012 -0.006739252
-0.050113022 0.012032814 -0.0045541106 0.0077751833 -0.0029781878
