checkpoints/nci/model_NCI1.pt_l2_emb64_hid64_netot0.1.pt (torch, 99004 bytes, 9 tensors)

virtual_embedding f4 [64]
00000000: 8f6c ea3e 6e10 983e 22a1 2b3f e548 09be
00000010: 830d 333f fee7 433f 55a5 e93e 7937 f03e
00000020: 4792 3a3f 6455 283f 542e 303f 5b23 903e
00000030: 73ed c83e 8710 78bd 8b67 ad3e 111d 4cbd
00000040: cb5b ca3e 45c0 c23e f1ed 3c3f 9e96 f13e
00000050: cf34 643f 8455 113f ed23 b63e 1dee b23e
00000060: aff8 273f 5d89 0a3f 43ad 973e 10e1 5f3f
00000070: 9a45 f63e 5964 4b3f 0c35 4c3f d1bb 373f
00000080: 079a 653e f909 7e3f ff92 193f 0558 803f
00000090: 25a9 783e b69b ba3e abe2 713d 4427 00be
000000a0: af45 8b3f 3582 673f 2883 3f3f 0f2d 503f
000000b0: 2d2b 8b3e a403 d83e a457 203d 790e c93e
000000c0: 1b84 363f 9bc8 eb3e 9f71 803f 62d9 0fbe
000000d0: eefc 733f 6bd9 dd3e e9bf 403f e4f7 763f
000000e0: b661 033f e017 ee3e a9a3 483f bd8b ea3e
000000f0: af83 083f ce79 2d3f 913b a53e 39c1 193f
0.4578595 0.29700035 0.67042744 -0.13406713 0.6994249 0.76525867 0.4563395 0.46917322
0.7287945 0.65755296 0.6882069 0.28151974 0.3924366 -0.060562637 0.3386806 -0.049832407
0.39523157 0.38037315 0.7380057 0.47185224 0.8914308 0.5677111 0.35574284 0.3494729
0.65613836 0.5411585 0.29624376 0.87452793 0.48099977 0.79449993 0.79768443 0.7177096
0.22422038 0.9923397 0.59989923 1.0026861 0.24283274 0.36446923 0.059054058 -0.12514979
1.0880641 0.90433055 0.74809504 0.81318754 0.27181378 0.42190278 0.03914608 0.39268854
0.71295327 0.46051487 1.0034674 -0.14047769 0.95307815 0.4332994 0.7529283 0.96472
0.5132097 0.4650259 0.78374726 0.45809737 0.53325933 0.67763984 0.32272008 0.6006046

embed_transform.0.weight f4 [64, 165]
00000000: 2f03 5439 0fdb 0d3a 187c 83bd 86b1 22bd
00000010: 6de2 9cbd 6933 40bc 3530 7c3c da83 6dbe
00000020: b44d cfbe 836b bdbd 7e87 36be 4dc7 8abe
00000030: cd50 85bc 385f 8abd 4921 25bd 97a8 02be
00000040: 7366 e83c 8e2e 39be 5e30 f7bd 8983 cfbe
00000050: 35df 90bd 3288 92bd 4b14 8fbc b090 90be
00000060: bd2d 94bd 4d3e 92bd 63e4 e1bd ee1f 1cbe
00000070: 08ef 66be 4693 f4bd eba3 5ebe dc95 56bb
00000080: b229 b3bb 18fc 90be ee87 fabc eb05 d5bc
00000090: b41b 00be 3b70 ea3d d50d be3d 7735 af3d
000000a0: 20fb 8b3d 06d6 71bc 0de5 73bc 6179 bebc
000000b0: 2f79 8cbc 1949 84bc 7f9d ec3c ed0d 883d
000000c0: 1f07 29be 1a80 04bd 9ff6 a4bd ceed 1d3e
000000d0: 337a 14bd 89e1 df3b 0203 803d 12a4 be3c
000000e0: 8e59 ecbb 32a5 373c f6e1 1bbd 7a07 b8bd
000000f0: 45a6 253c b797 473d b553 38bc e92f 653d
00000100: c42d 0a3c 1589 913a 58e6 7438 ab2c 493d
00000110: 9117 fabb 9d07 983c 075a 35bd 9b35 c3bb
00000120: 3e2c 49bd 9ef9 0fbd 709b 4f3d 4d50 df3c
00000130: 7ab6 293d 4a0b 82bd e75d 8bbd b32e 8e3d
00000140: 42f5 93bb cda1 213d b5c7 c63c 8e04 5fbd
00000150: 64e5 6b3c 9608 1fbd 8f44 d53a 6e0f a9bd
00000160: 32a8 523d 59f6 63bd d4d9 093d 81f5 16bd
00000170: b098 123d 2984 953c 2012 75be f5bc 13bd
00000180: 10ca 94b9 3876 6abd ee27 333c dbd9 98bb
00000190: 1c72 51bb 5675 a93d cae5 d4bd ce7a 98bd
000001a0: 031e a8bd 05b5 1c3d 7993 08be cb1a aabe
000001b0: fd9e da3e 2e5d f8ba ce98 89bd 6a4c 853e
000001c0: e6e6 d3bd 3b06 0b3e f15e 57bd b149 c2bd
000001d0: 789e 62bd d386 143d 890c debc 4e5c a83d
000001e0: 463c 60bd 760d a73d e7e6 423d ad20 8abd
000001f0: a926 a7bd 8c1d 3cbe 3132 6c3d 9ac5 91be
00000200: 0b47 aabd 2296 51bd 7a3e bcbc ec70 9cbd
00000210: 91e2 93ba c8c5 22be 38f6 273d 869c 583c
00000220: c090 da3d 42bb ed3c 54d5 2dbd 272e ebbc
00000230: 4bbf 9c3e e324 933b 35b2 683d ea38 35bd
00000240: 6ea3 043d 5ab6 613d 0e0e 6c3d 90e6 4f3d
00000250: f441 a23c c5f9 163d 7dd3 03be e22a 1dbe
00000260: 9460 5bbd d668 8f3d bee7 4f3e ee9c c9bd
00000270: 52c6 5f3e cca1 a8bd edf3 c13d e4a5 27bc
00000280: c225 61bb acb6 0ebe c7ba 4fbc ce64 f53c
00000290: a84c 863d 7151 d83c 0b59 293c e127 f33c
000002a0: 2f29 1c3d 064b 48bc 987b 37bb 1972 733d
000002b0: 390f e23d 660a 033e f662 893e 3f41 e13d
000002c0: 0459 ae3d fd78 9ebc eba6 b73c ea94 16be
000002d0: c506 1c3e a9f6 b63c f014 b4bd 5987 fd3b
000002e0: dfcc 613e a8af cbbc 6cb7 2b3c 5245 e03d
000002f0: f2ad db3b e58c 89be bd30 043c 8252 ccbb
00000300: 82db b03d 7506 f03b 930f 063e b540 d73d
00000310: 7afc 1a3e 53d5 0d3e ffce 1cbe d23b afbb
00000320: 3c86 2b3e fa3e a73d edb7 11bd 4602 a0bd
00000330: 5709 ddbb 6d70 8abc 3c93 9ebc 4868 ab3d
00000340: 132e b03b 9f43 483d c8d7 c9bd eb26 abbc
00000350: 6531 b63c 9c91 833c 6a35 253d 6ea4 03bd
00000360: e9a6 37bd c54e 9ebd 9766 713d 1d7a e4bc
00000370: 7ccc 363d 965d ab3d e561 da3c 6d9c 1d3d
00000380: d938 853d 1067 073c 6e3f dfbc 4d1f 853d
00000390: 2976 80bc 6177 b2bc e87d d23c 6cbf a83d
000003a0: 5d12 f63c f2c4 373d a6a5 db3d 8438 49bd
000003b0: ff83 863d cf76 68bc 4576 cc3d 10ae 383d
000003c0: 00dd 8b3c 8d5f 43bd 5a35 a6bc 3dfb 22bd
000003d0: f366 b53c fddb 1ebd cb5a c23d f8b8 29bd
000003e0: da8d f8bd 6cb9 2a3d deb1 30bd 230a f43c
000003f0: 16c3 b23d 12be 26be 8281 6cbd 8d8b b7bc
0.00020219081 0.00054113654 -0.064201534 -0.03972008 -0.07660375 -0.011731007 0.015392353 -0.23194829
-0.4048897 -0.09249022 -0.17825124 -0.2710518 -0.01627388 -0.06756443 -0.040314946 -0.12759624
0.028369164 -0.18084165 -0.12069772 -0.4053004 -0.07073823 -0.071548834 -0.017465731 -0.28235388
-0.072352864 -0.07140789 -0.110298894 -0.15246555 -0.2255212 -0.11942153 -0.21742217 -0.0032743132
-0.005467617 -0.28317332 -0.030582394 -0.026003798 -0.12510568 0.114471875 0.09279982 0.085551195
0.06835008 -0.0147605 -0.014886153 -0.023251237 -0.017147629 -0.016148137 0.028883694 0.06643281
-0.16506623 -0.03234873 -0.08054852 0.15422747 -0.03624935 0.006832306 0.06250574 0.023271594
-0.007212824 0.011208819 -0.03805729 -0.08985801 0.0101104425 0.04872867 -0.011250426 0.055953894
0.008433763 0.0011103476 5.8388658e-05 0.049114864 -0.007632204 0.018558318 -0.04427531 -0.005957318
-0.04911446 -0.035150163 0.050685346 0.02725997 0.04143379 -0.063498095 -0.0680502 0.06942501
-0.004515321 0.039460946 0.02426515 -0.054447703 0.014397953 -0.038826548 0.0016271042 -0.08254896
0.051429935 -0.055654857 0.033655003 -0.036855225 0.035790145 0.018251495 -0.23932695 -0.036068875
-0.00028379308 -0.05724165 0.010934813 -0.0046646423 -0.0031958884 0.08274333 -0.10395391 -0.07445298
-0.08208849 0.03825857 -0.13337506 -0.33223566 0.42699423 -0.0018948668 -0.06718598 0.26034862
-0.10346775 0.13576595 -0.052580778 -0.09486712 -0.05532691 0.03626139 -0.027105587 0.08220731
-0.05474498 0.08156864 0.047583487 -0.06744514 -0.08161671 -0.18370646 0.057665054 -0.2847107
-0.083143316 -0.05116857 -0.02297901 -0.07638726 -0.0011282732 -0.1589576 0.041006297 0.013220912
0.1067214 0.029019956 -0.042439774 -0.02870853 0.30614695 0.004490481 0.056810576 -0.04424373
0.03238242 0.055105545 0.05763059 0.05075699 0.01980684 0.036859293 -0.12873645 -0.1534839
-0.0535589 0.07002418 0.20303246 -0.09844385 0.21852997 -0.08233985 0.09470353 -0.0102324225
-0.003435478 -0.13936871 -0.0126788085 0.029955294 0.0655759 0.026406022 0.010336171 0.029682102
0.038125213 -0.012224918 -0.0027997252 0.059434984 0.1103806 0.12796935 0.26833314 0.10998773
0.08513072 -0.019344801 0.02241846 -0.14705244 0.15236957 0.022334414 -0.08793056 0.007737082
0.22050808 -0.024864033 0.010480743 0.10950722 0.0067040855 -0.26865306 0.008068261 -0.0062354216
0.08635618 0.0073249885 0.13091879 0.10510389 0.15135375 0.13850908 -0.15313338 -0.0053477073
0.16750425 0.08166309 -0.035575796 -0.078129336 -0.006745498 -0.016899312 -0.019357316 0.083694994
0.005376586 0.048892614 -0.0985561 -0.020892581 0.02224035 0.016060643 0.040334143 -0.032139234
-0.044836912 -0.07729868 0.058935728 -0.02789026 0.044628605 0.083674595 0.026658008 0.038479257
0.065049835 0.008264318 -0.027251925 0.06500111 -0.015681343 -0.02178544 0.025694802 0.08239636
0.030038053 0.044865556 0.10724954 -0.049126163 0.06568145 -0.014188482 0.099834956 0.045087874
0.017073154 -0.047698546 -0.020289112 -0.03979038 0.022143817 -0.038784016 0.09489974 -0.041436166
-0.12136431 0.04168074 -0.043138377 0.02978999 0.08728616 -0.16283444 -0.057740696 -0.02240541

embed_transform.0.bias f4 [64]
00000000: cff4 4f3d f964 5bbd 2e26 a0bc 2fee ac3c
00000010: 3a3b 5bbd 3398 323d bccc c1bc 1c1d 543c
00000020: bf46 09bd b15d a0bc fc32 e63c 4177 1dbc
00000030: 27d4 793c 1c7c cc3c f04b 563d 86f7 cdbc
00000040: aa9f bc3b 0fa0 d93c d0b8 32bc fc5d 12bd
00000050: a2bd 683d d616 d7bc b60b 80bd c86d 4cbd
00000060: 2c72 0bba 2644 a43a 0ca3 32bd 4eaa 5c3c
00000070: b81f ab3c 6b63 933b 317a 4ebd e1fc 84bd
00000080: 4b63 d5bc feda 30bd dea8 f2bc 78c5 133d
00000090: b539 b9bc fc07 28bd 585c 903c 2db0 ad3c
000000a0: ebd0 5e3c 85c4 60bd 987b e8bc 91ec 3bbd
000000b0: 0bca 04bd f53a 5c3d 24f8 a3bc 28ca e13c
000000c0: 62a4 483d 88ec 513d 35da 443d b7f6 9c3c
000000d0: 9187 5f3c efd5 a0bc 020b f7bc 0d54 37bd
000000e0: 875e 18bc d64a 25bd c6ec a83b ce6b ffbc
000000f0: 4825 143d b03b 9f3b 5a4e 8f3c 5c49 273c
0.050770577 -0.053563092 -0.019549455 0.021109669 -0.05352328 0.04360218 -0.023657195 0.012946393
-0.033514734 -0.019575926 0.028100483 -0.009610952 0.015248335 0.024961524 0.052318513 -0.025142442
0.005756338 0.02656558 -0.010908321 -0.03573416 0.056821473 -0.026256006 -0.06252234 -0.049909383
-0.0005319442 0.0012532517 -0.043612525 0.013468338 0.020889148 0.0044979355 -0.0504095 -0.06493545
-0.026048323 -0.043177597 -0.029621538 0.036076993 -0.022610525 -0.04102324 0.017622158 0.021202171
0.013599615 -0.054874916 -0.028379247 -0.045879904 -0.032419246 0.053767163 -0.020015784 0.027562216
0.048984893 0.051250964 0.04805966 0.019160612 0.013643161 -0.019633261 -0.030156616 -0.04475789
-0.009299881 -0.040354572 0.0051551787 -0.031179335 0.036168367 0.00485941 0.017493416 0.010210361

conv.0.lin_rel.weight f4 [64, 37]
00000000: df3b 88be 3f76 c63d 9ef1 32be bdca d4bc
00000010: 61d5 db3d e13b b33d f6ce d83d b5a4 e13b
00000020: b669 8b3e d853 e4bd ec53 9d3d cad8 edbd
00000030: 522a 18bd 0266 cd3d 756a ecbd 87dd c6bd
00000040: ec28 083f e9b4 583d 2efe be3d 4d70 3dbe
00000050: 457a 183e 16cc 25bd 1932 0f3c 0166 19be
00000060: 2cb1 86bc 688c b7be 0b1c ba3e 20ca 1fbd
00000070: 38ce 6f3c a158 96bd 223a 113e 1bb5 09be
00000080: ef56 22bd 0c2a 0fbe a5d8 9dbd b6ce 653d
00000090: 6f87 363d 8c65 813e 9e32 e33e b814 22be
000000a0: daa5 3fbf 13e8 0abf 82d6 3fbe 9668 d8bd
000000b0: 42d9 1cbd bf8e 1fbe c614 29bd e69b b43c
000000c0: 1ef5 4dbd b0f3 a6bd 39ad d63d cdf9 abbd
000000d0: 8da3 9bbd e637 40bf 9d03 80bd b803 a53e
000000e0: 94c0 acbd 102c 363b d230 0e3e d9d1 1ebe
000000f0: efb3 df3c d96a febc 0d8c b33d 7775 1cbe
00000100: 9646 293d 1f6f bb3d ea9a b03c 6063 063e
00000110: f8ba 0e3e 5c5c ac3b 06fc f13d 2a80 15bc
00000120: 3407 19be 746d 02bd a6fc fc3d a434 c63d
00000130: 622f ca3d 02f5 ea3d 6f9f 283c f61c e93d
00000140: e59a a7bd bd97 293d af1d fa3e 2725 5dbd
00000150: 740e 8f3d 5de7 22be 2904 f1bd 1a2b 48be
00000160: 8aae f23d a198 1cbd a20b b23b 768b 073e
00000170: 6e37 64bd e21c 623d ff94 103e f85a a73e
00000180: 38c6 033d eb54 88bc d8d3 193f 7f0c 87bd
00000190: b7e0 4c3c 70e9 233e 0a82 393c 056f bcbd
000001a0: 5063 2dbd fb24 163e eb5d 16be 5f3d 343d
000001b0: 9612 543d 2b61 ad3d 68a0 05be 602b 843e
000001c0: 9f1e ff3d 1715 a4bd 72db 31bf f3fb f63d
000001d0: 4c99 963e 2e5a bf3e 6e82 713d 89a5 babe
000001e0: 965a 92be 3469 1e3d 9196 1dbd 2944 b43d
000001f0: 273d 48bc ca5d f7bd dcc0 31bd 7fbb 5dbe
00000200: ab6c e2bd 7142 8e3e 1d9f 9f3d c141 8e3e
00000210: e84c a7bd d475 253e 2f31 b1bd 0fad 18be
00000220: 04e9 1dbe f98c dfbd 3fad fabd a757 f03d
00000230: 8608 983d 4dee 1abe 9e35 0f3e 3a05 27be
00000240: d1ec eb3c 2c66 9dbd 0199 d73d aa41 b2bd
00000250: 8208 03be e92f 85bd 8ee1 0abe 1f3e a33d
00000260: 01fb abbd 7ba1 1bbe d821 09be 2f0f 07be
00000270: 4a97 393d 176b 963f 6a5e c53d 1ec0 273e
00000280: b890 34bd c840 fd3d d97c d5bd 9c49 45bd
00000290: c6cb 26be d6ad 07be 1d67 bdbe c3fe 09be
000002a0: 54bd 22be fa43 09be a53a 873d 034c a1bc
000002b0: ccd3 e9bd f22a 523d dc74 22be fc5c 0f3e
000002c0: b94a f5bc a254 ec3d c9ae d2bc 488f 23be
000002d0: 6b00 1f3e ae4c b2bc 4771 8a3d 5432 f0bd
000002e0: 388a f1bd ffef 303e a43b b73c 520c 2bbe
000002f0: 533b 91bd d1d8 4c3d 44fd 923a 4eed b2bd
00000300: 25ce f6bb 4787 abbe ef3b 5dbe 3243 a9bd
00000310: c1d7 16be d972 1f3e 86ef 493e adb3 243d
00000320: 54ff 03bd b9aa fdbd 378d 3bbc 749f 88bd
00000330: e437 b5bc 632b 833e 63bf 48be 8a3e 3a3d
00000340: c219 dd3d a56e d4bc a6a6 afbe 8ec4 683e
00000350: 28ef 3dbd 77fd 7b3d 9f66 083e 0154 093d
00000360: c55a f1bd 442f 27be 8306 ab3d 8386 21be
00000370: d116 0c3e 0bab 01be a455 42bf 4411 553e
00000380: 39e3 d4bd 3441 4ebe f8e1 043e 74a6 6bbd
00000390: af44 203e 35a0 5bbd 1a8a 74bd 56a8 753d
000003a0: 0563 f23d 4632 c5bd 7996 103d bc24 d33d
000003b0: 8162 3c3d 559e 1abe 990e f4be 293b 433d
000003c0: 9a42 e9bd e7f7 fe3c fa4f 5bbe 708a 333e
000003d0: 1677 e93c 7eba 0abe c5bf ccbd a40a c0bd
000003e0: 62e0 39be 7a4e 293b 672d 62bc 6a3c 113d
000003f0: 2cf9 8c3d 4663 d43d 75c9 89bd be4f 273e
-0.26608178 0.096905224 -0.17474982 -0.02597558 0.10734058 0.08751655 0.1058635 0.0068860897
0.2722909 -0.111488044 0.076820225 -0.11613615 -0.037149735 0.10029222 -0.115437426 -0.09710222
0.5318744 0.052906904 0.09325825 -0.1849987 0.14890392 -0.040477835 0.008739972 -0.14980318
-0.016441904 -0.3584931 0.3634952 -0.03901112 0.014636569 -0.07341123 0.14182332 -0.13447993
-0.039633688 -0.13980883 -0.07707337 0.056105338 0.044562753 0.25272787 0.44374555 -0.15828216
-0.74862444 -0.5426037 -0.18734172 -0.10566823 -0.03829313 -0.15581797 -0.041279577 0.022046994
-0.05028259 -0.081519485 0.10482258 -0.08397255 -0.07599554 -0.75085294 -0.06250689 0.322294
-0.08435169 0.002779726 0.13885811 -0.15509738 0.027307479 -0.031056808 0.08766947 -0.15279184
0.04132708 0.09152054 0.021558244 0.13123846 0.1393851 0.0052600335 0.11815648 -0.009124795
-0.14944154 -0.031842664 0.12352876 0.09678009 0.09872319 0.11472513 0.010291918 0.11382477
-0.08183841 0.041404475 0.48850772 -0.05399051 0.069851786 -0.1590857 -0.117683716 -0.19547692
0.11849697 -0.038231496 0.0054335156 0.13236794 -0.055716924 0.055203326 0.14119337 0.3268659
0.032171458 -0.016642055 0.6008887 -0.0659418 0.012504748 0.16007018 0.011322508 -0.09200863
-0.04233104 0.14662544 -0.14684264 0.04400384 0.051775537 0.08465799 -0.13049471 0.25814342
0.124570124 -0.08011835 -0.6947547 0.12059774 0.2941383 0.3737349 0.058962278 -0.36454418
-0.28584737 0.03867455 -0.03847367 0.08802063 -0.012221611 -0.12078436 -0.043396816 -0.21653555
-0.11055883 0.27785066 0.0779402 0.2778454 -0.081689656 0.16158229 -0.08651959 -0.14909767
-0.1542092 -0.1091556 -0.12240075 0.11735468 0.07423501 -0.15129967 0.13985297 -0.16310588
0.028799446 -0.07685503 0.1052723 -0.08703931 -0.12796214 -0.06503279 -0.13562605 0.07970833
-0.083974846 -0.15198319 -0.13391817 -0.13189386 0.045310296 1.1751431 0.09637149 0.1638188
-0.044083327 0.12365872 -0.104242034 -0.048165902 -0.16288671 -0.13249907 -0.36992732 -0.1347609
-0.15892535 -0.13404837 0.066029824 -0.019689566 -0.1141735 0.051310487 -0.15864891 0.14000314
-0.029942857 0.1153958 -0.02571811 -0.15972626 0.15527503 -0.02176508 0.06759887 -0.11728349
-0.11793941 0.17279051 0.022367306 -0.16703919 -0.07091393 0.05001146 0.0011214395 -0.087366685
-0.0075318986 -0.33501646 -0.21604894 -0.082647696 -0.14730741 0.15571155 0.19720277 0.040210415
-0.03222592 -0.123860784 -0.011447242 -0.06671038 -0.022121377 0.2561904 -0.19604258 0.0454698
0.107959285 -0.025931666 -0.3430683 0.2273123 -0.046370655 0.06152102 0.13320397 0.033527378
-0.11784891 -0.16326624 0.083508514 -0.15773968 0.13680579 -0.12662904 -0.7591193 0.20807368
-0.10394902 -0.2014206 0.12976825 -0.05753179 0.156512 -0.053619582 -0.059702016 0.05997499
0.11835293 -0.096287295 0.035299752 0.10309741 0.04599238 -0.15099461 -0.47667387 0.04766384
-0.11389656 0.031124068 -0.21417227 0.17533278 0.028499167 -0.13547704 -0.09997515 -0.093770295
-0.18152002 0.002583413 -0.01380477 0.035458006 0.06883463 0.103704974 -0.06727878 0.16339013

conv.0.lin_rel.bias f4 [64]
00000000: 3732 7f3e f349 31be e140 7cbd 0de5 c0bc
00000010: e0ed 4e3e 5c0a ff3d dbe4 28bd 75b8 f3bd
00000020: d0a2 103d 0dc2 b4bc 030e 5bbd 7a88 8d3d
00000030: dd29 0cbe 2bf7 8f3c 4ed7 6e3e 4e7b 19bc
00000040: 2d7d 183e 15d5 fb3c 2cce 723d 884f 143d
00000050: 1bb0 703e f8b6 403d 6105 fbbc 9424 93bd
00000060: 0710 4abe cc43 48bd 5d49 593c 34ab eabd
00000070: 1a9c ba3d 903f a1bc 1135 eabd efd4 773d
00000080: 0637 0c3d 9b3a ae3d 4daa 44be fb46 15bb
00000090: cdcb 813e aeab e43d ab42 b1ba d8d6 3b3e
000000a0: a9cc e9bc 6fba 36be 2eed 0bbc 097a 56be
000000b0: a160 7a3e 2412 a53c 29c4 823e 09c1 0cbb
000000c0: 87c7 d13d 9f7e 1abe 3221 85be 4628 683d
000000d0: e280 debd 1f48 dbbd 12fb 04be 9047 22be
000000e0: 937e 19be 89d0 2f3b ff8e 723d 4e8c 783e
000000f0: e0f0 25bd 60ac 083e 26d6 2cbe 8f61 6bbe
0.24921499 -0.17313366 -0.06158531 -0.02354672 0.2020793 0.12453148 -0.04123388 -0.11900417
0.03531152 -0.022065187 -0.05348016 0.069107965 -0.13687845 0.017573914 0.2332432 -0.009367777
0.14891501 0.030741254 0.059278652 0.03620866 0.23504679 0.047049493 -0.030642213 -0.07184711
-0.19732676 -0.04889278 0.01326212 -0.11458436 0.09111805 -0.01968363 -0.11435903 0.060505804
0.034232162 0.08507272 -0.1920559 -0.0022777903 0.253508 0.11165558 -0.0013523897 0.18343675
-0.028539972 -0.17844556 -0.008540435 -0.2094499 0.24450924 0.020150252 0.25540283 -0.0021477363
0.10243135 -0.15087365 -0.2600189 0.056679033 -0.10864426 -0.107071154 -0.129864 -0.15847611
-0.1498969 0.0026827177 0.059218403 0.24272272 -0.04051292 0.13347006 -0.16878566 -0.22986434

conv.0.lin_root.weight f4 [64, 37]
00000000: 44b2 b8be 91d8 18bd c8cd c93d 1773 263e
00000010: 5e93 85be 61f1 093f 83bb 313e 1964 5ebe
00000020: 95bc c93d 3f39 913e 4b4b c4bb 9b22 59be
00000030: f903 e1bd 42a0 50be 74d5 46ba ba8f 8bbd
00000040: fef6 cf3e 07c0 87be d9e5 2c3e d845 193c
00000050: 93cf 83be 6ea0 86bd fc59 c93d ac62 2fbe
00000060: 2f6e 1e3f 6db3 2b3d 26f7 abbd 77e1 a03d
00000070: 8dee 81be 32c2 6bbd b1c9 72bd f3b2 1dbc
00000080: f6aa 2cbe 3113 35be 3e28 2fbe ae1f a0bb
00000090: f6bc 153f 9424 0ebe 9d39 f43c a7fb c03c
000000a0: a2e2 91be 71d8 2c3e 770a 2ebe 68d3 913d
000000b0: f893 7c3d d689 e6bc ac48 8ebd da5c ce3d
000000c0: 53a0 13be 0558 8d3d 947f d13d 25e1 61bd
000000d0: bbc1 853d cefc ae3e 6a98 b93c e1b0 90bd
000000e0: 29fe c3bc 6b54 c4be 4d84 ebbe 6eca 26be
000000f0: edbb 05bc 5b79 543d 3901 7a3e 6bb0 6dbe
00000100: 0d91 70bd ea71 c13d 442a 1d3d 89fa da3d
00000110: a3a6 71bd 11b4 ba3d c25d b8bc d096 d53c
00000120: 1b96 70bb 6547 97be 2b3a 9e3d 1cbf 0dbe
00000130: a657 18be 0b41 01be 797f 963d 77bf bb3e
00000140: 777d 5ebd 2dd8 eebc bf63 fb3e b7b2 d0b9
00000150: 96de f7bd 60c7 c73d 1cc2 1c3e 19d4 5fbd
00000160: 26b3 12be e77b 1bbe 21c5 8dbe c8e4 f1bc
00000170: 8bdb a93d aa1e 953e 8280 a4be 5611 b8be
00000180: 9aeb 41bd 9a07 2f3b 3f54 3f3f c0e4 97bd
00000190: cc00 bebc ba6b 89bd eda6 873e f8ce 0cbe
000001a0: 1ff8 14be 8bed c6bc 7324 5a3c cdbb 09be
000001b0: 4f74 1dbd 4a20 04be 5426 953e 133e ebbd
000001c0: 9032 383e 9695 21be d227 cf3d 667a c13e
000001d0: 9512 8e3e 16bf 683e 4e21 273e 8321 213d
000001e0: c2de 4f3d e585 5e3c 5cf7 61bd da4f 1abe
000001f0: 4481 443c 0079 813d 2a34 193c 46b1 773d
00000200: fb94 453c 3493 8e39 44f7 793d a1bc c33d
00000210: 599f b33e c9de 923e 6279 3c3c fce5 1dbe
00000220: 8184 be3e 063f 923e 3718 84bc af39 b23e
00000230: 366f 233b 594d cabd 6bc5 6b3e f9cc ac3e
00000240: 8580 ecbd 9d04 01be 4e51 6f3e de95 4e3e
00000250: 9f83 fdbd cfa0 5c3e 4aa6 5f3d 5a0c 71bd
00000260: 4e50 4d3e 374e fdbd 2cbb 903c bb55 5dbe
00000270: 9867 51be daba 9d3e 51e8 b43e bee6 c13d
00000280: e0b8 113d 3552 a5bd ba21 f63d e6b3 eb3d
00000290: fafb 123e bce5 923e 493f f63e bf35 27be
000002a0: a72d 603e 44ed cdbd 8e00 65be c30f 143e
000002b0: fd4c e3bd 5ce8 42bd 3bb0 113d cbc7 28bd
000002c0: 5913 51be a465 25be cb9f 5abe 009c 7abd
000002d0: f528 53be f86a 58be 18e4 53be 140e 68be
000002e0: 3d35 65bc 0a93 1fbe 4b56 4e3e 7d93 553e
000002f0: 32af f7be 09b5 293d 4b81 0f3d 9e6d 473e
00000300: c6d6 23be 75a7 0cbe 7571 e8be 15f9 1dbe
00000310: a5ce 0bbe f48c a8bc e7e0 02be ce2e 86bd
00000320: e0f2 04be a4e3 3cbe c6c7 253c 8bed ce3c
00000330: 8b78 c7bc 145e ad3e 7a2a 99be 82b0 02be
00000340: bcb3 0ebe cb93 c1bd 85b4 82bd 65d5 7fbe
00000350: 21c1 1bbe 2e6e 22bd cb53 19be 3d29 ec3c
00000360: 1455 16be fb25 08be d35b 23bd 025b 0f3e
00000370: 618e 143d 2ca1 67be 7cd6 3fbe 1d0c b4bd
00000380: 029b c23d 9b31 bebe 58e9 30be 2ed6 8c3f
00000390: a74b 22bd 1a3d 15be 384e 55be 29d7 30bf
000003a0: 690c 43bd 175e 473c 6090 fa3c e7a4 863d
000003b0: 5fdd b8bb bc03 193d b924 eabd b000 e2bd
000003c0: dcba ad3e bab3 dabd ca65 8a3b b736 20be
000003d0: 34f4 7ebd b28e afbc 7666 cb3d a32e d03d
000003e0: b8ea 673d 2bb1 22bd f7a4 25be bf49 2c3c
000003f0: da8c ab3c c7e8 c23c 9bc8 2fbc 118b 443e
-0.36073506 -0.03731591 0.09853703 0.16254841 -0.26088995 0.5388394 0.17356686 -0.21717872
0.09850422 0.28363988 -0.005990421 -0.21204607 -0.10987086 -0.20373634 -0.00075849076 -0.06814523
0.40618128 -0.26513693 0.16884555 0.009355031 -0.25744304 -0.06573568 0.09831616 -0.17127484
0.61886877 0.04191916 -0.08396749 0.07855504 -0.25377312 -0.057558246 -0.05927438 -0.009625184
-0.16862091 -0.17683102 -0.17105195 -0.004886589 0.58491457 -0.13881141 0.029812628 0.023557497
-0.2849322 0.16879441 -0.1699618 0.07120401 0.06166455 -0.028141897 -0.06947455 0.10076304
-0.14416628 0.06901554 0.10229412 -0.055146355 0.06531092 0.3417725 0.022655685 -0.07064987
-0.023924904 -0.38345656 -0.45999375 -0.16288158 -0.008162481 0.051873546 0.24414529 -0.2321183
-0.05873208 0.094455555 0.038370386 0.10692317 -0.058996808 0.09116376 -0.022505645 0.02607289
-0.0036710564 -0.29546657 0.077259384 -0.13842434 -0.14877185 -0.12622468 0.07348532 0.36669514
-0.05431887 -0.029155815 0.49099538 -0.00039806004 -0.12103002 0.09754825 0.15308422 -0.05464563
-0.14326152 -0.15183984 -0.2768946 -0.029528037 0.082938276 0.29124957 -0.32129294 -0.35950726
-0.047343828 0.0026707412 0.74737924 -0.074166775 -0.02319374 -0.0671 0.26494542 -0.13750827
-0.14547776 -0.024283191 0.013314354 -0.13450547 -0.038441 -0.12902942 0.29130805 -0.11486449
0.17988038 -0.15779719 0.10115017 0.37788695 0.27748552 0.22729144 0.16321298 0.0393386
0.050749548 0.013581728 -0.05516754 -0.15069523 0.01199371 0.06321907 0.009350816 0.060471795
0.0120594455 0.00027194025 0.061026827 0.095574625 0.3508251 0.28685597 0.011503549 -0.15419763
0.37210467 0.28563708 -0.016124828 0.34809634 0.0024938113 -0.09878034 0.23024528 0.33750132
-0.11547951 -0.12599416 0.23370859 0.20174357 -0.1237862 0.21545719 0.054601945 -0.05884967
0.20050165 -0.12368434 0.017667376 -0.21614735 -0.20449674 0.3080662 0.35333493 0.09467839
0.0355767 -0.0807232 0.120181516 0.11508922 0.14353934 0.28690898 0.48095158 -0.16329096
0.21892415 -0.100550205 -0.22363493 0.14459138 -0.11098669 -0.047584876 0.035568457 -0.041206162
-0.20417537 -0.16152054 -0.21350019 -0.06118393 -0.20621093 -0.21134555 -0.2069248 -0.2266162
-0.013989744 -0.15583435 0.20150106 0.20857044 -0.4837585 0.041432414 0.035035413 0.1947541
-0.15999898 -0.13735755 -0.4539906 -0.15427049 -0.13653047 -0.020575024 -0.12781106 -0.06551896
-0.12983274 -0.18446213 0.0101184305 0.025259754 -0.024349472 0.33860838 -0.2991522 -0.12762645
-0.1393575 -0.094520174 -0.063820876 -0.24983747 -0.15210392 -0.039655857 -0.1497337 0.028828258
-0.14680892 -0.13295738 -0.039882492 0.1399956 0.036268596 -0.22620076 -0.18734163 -0.08791373
0.09502222 -0.3714722 -0.17276514 1.1002862 -0.03962293 -0.1457409 -0.2083062 -0.6907831
-0.047619257 0.012168429 0.030586421 0.065744214 -0.005641624 0.037357077 -0.114327855 -0.110352874
0.33931625 -0.10678811 0.00422356 -0.15645872 -0.06224461 -0.021430347 0.09931652 0.10165145
0.05662033 -0.03971974 -0.1617621 0.010515629 0.020941187 0.023792638 -0.01072898 0.19193675

conv.1.lin_rel.weight f4 [64, 64]
00000000: 0091 9cbe 4546 9f3d 3d01 07be 1dac a1be
00000010: 9746 03bd 2c52 84be 89ef 343d 14f6 18bd
00000020: 5fc3 58bd 1a33 5b3d 2cd2 4c3d c18a 743e
00000030: a1cd 07bc 5512 6cbe e1f3 58bd e9bb 79bd
00000040: eaa1 1f3d ecfb 19be 7844 fe3d 3067 b03d
00000050: 7313 983d 9319 24bd a9e8 0a3f 86c9 87bc
00000060: e761 23be 58f8 9c3e 8639 993c a03b 5dbe
00000070: c5e1 6cbe 6137 2ebe d45f 2cbe 7ba6 ddbd
00000080: e4d0 11be e2a1 5ebe 55a8 34be c477 053f
00000090: 01ba dabd 9ff6 12bd 7416 9fbd 0b9c acbe
000000a0: 9352 c0bd 4f9d 733e c5df 9e3d 0ed9 e3bc
000000b0: 7f3d b4be 7608 7bbd f8ff 083e 2cb6 353e
000000c0: d043 0c3e 257e 05bd 4517 19be f934 bcbd
000000d0: a4c5 c8bd fe74 9fbd 5d44 e9bd f0ea fb3d
000000e0: 2e1c fd3d 7eca 063e 8927 33be f966 b83c
000000f0: e6b0 89bd 6f24 07bd e80c c5bd 5729 50be
00000100: 3c98 95be 6895 813d ca6d 76bc bb5b 9cbe
00000110: 0cea 84bd 0634 843d a67e e7bd da0a 46be
00000120: 9ecd 54bc 6400 1bbc 7597 9e3c 290e dd3e
00000130: 2dbf 833e 2ab6 1d3e 3614 5bbe 589c 7ebd
00000140: 331c af3d 0ac6 b33d 9036 ef3d 75f8 d43d
00000150: cce0 473c 23a1 16be 1e08 92bc a9cb c6bc
00000160: 9de5 cbbd f6ec e43c 57d5 0fbd da68 4e3e
00000170: a327 383e e52f 75bd 5e1f 533d ff3d d93d
00000180: da60 7c3e abee be3e 0c2d c2bc 6c01 2ebd
00000190: 2715 763e 2936 bdbc e0be e43a dd44 9d3d
000001a0: ff99 173e b372 193e cf36 f4be e1e0 66be
000001b0: 331a 4f3d a378 45be 33ed cbbe d4fd b8bc
000001c0: a2a1 2bbe a9c3 3bbe 1943 7d3d 3310 10be
000001d0: e729 013e 4e44 d7bd d675 88bc 7c8d 063e
000001e0: fd3e 72bd 9368 a1be d27c 70bd 72be e13d
000001f0: a1e1 703e 8207 e73d 999b bc3c aee9 983d
00000200: 542c 9bbd daa2 53bf dfef 3d3e 2158 c0be
00000210: b0f2 89be dd50 04bd 1a01 383e 9335 b83d
00000220: e3df b6be 9613 8dbd 6f7e b539 0b65 343e
00000230: 0d2f 433e 813c 8ab9 8214 423e 00d4 0a3e
00000240: 2d57 9d3d 8115 ef3d d167 6f3d ce58 f9bd
00000250: d761 a1bd 44b4 57bd 3c9b 42bf 724a ca3d
00000260: faeb 50bd 545c a4be 8757 bebd 673c ea3d
00000270: 724e ad3d 23df 9abe 9b71 c43d a8f8 fe3d
00000280: 77ec 2dbc d06c 1a3d b692 de3d f77a 36be
00000290: 01cf ce3d 72d1 66be 0851 e6bc 3b56 e33c
000002a0: c431 f33d c31d 91bb bb60 0c3e a010 93bd
000002b0: 6562 bbbd e24b a8bd b5d1 423e c2ca c53d
000002c0: 35aa da3d c0ea 20be b51b 823d 3433 09bf
000002d0: 040e 053e 1e4e 53bd 0841 183e 85de 9e3d
000002e0: 9502 d6bd 8bb7 a63e f761 903c 3d2b 4d3d
000002f0: ab99 573d 9f52 5c3e 7ecd e13d 5b11 12be
00000300: 4acd 10bc 3305 be3d aa79 bbbc 628f 50bf
00000310: 0d16 4fbe dc06 6fbe 15d1 133e da49 af3d
00000320: 4d64 293d d625 793b f8b9 a33d 2366 2fbf
00000330: a11f 6c3d 2d6a 973e af7c 643b 0191 363d
00000340: 7a55 ccbc 5b99 8cbc cc03 3d3e 1aa7 993e
00000350: 4bfd 513e 5f89 ee3d 92e2 0ebe 868b 2a3e
00000360: 1491 563e a6f9 ffbe 557d 93bd e2e4 14bf
00000370: 8b20 ee3d 5112 6cbe f442 2c3d b271 88be
00000380: fdf8 49bc 8c68 3bbe 36ec 7dbd 93cc e6be
00000390: 14c6 27bf ceeb f63c 3741 b03d 69ba 093e
000003a0: 986a b7bd b97d be3e 6586 b7bd 948a 733c
000003b0: 8aad 80be e70c d4bb 717c 993e 0c1a deba
000003c0: b301 83be 806d 7c3d ef9d 98bd ebdb 943e
000003d0: 8aef 2d3e 620b 3e3c d6d2 df3d 393d d6bd
000003e0: 64ef 463e 2b5e 823e f28c 74be 213d 9bbe
000003f0: 12d5 b33c 34cc 5abd 68f8 063e 218c d1bc
-0.30579376 0.07777075 -0.13184066 -0.31576625 -0.03204974 -0.25843942 0.04417375 -0.037344053
-0.052920695 0.05351553 0.050005123 0.23881055 -0.008288772 -0.23053868 -0.052966956 -0.06097022
0.038972773 -0.15037507 0.12415403 0.086134315 0.07425585 -0.040063452 0.5426126 -0.016575586
-0.15955316 0.3065822 0.018704187 -0.21604776 -0.23132999 -0.17013313 -0.1683343 -0.10822769
-0.14239842 -0.21741441 -0.17642339 0.5213587 -0.10680009 -0.035879727 -0.077679545 -0.337128
-0.0939075 0.23790477 0.077575244 -0.02781346 -0.35203168 -0.061287366 0.13378894 0.17745274
0.13697743 -0.032591004 -0.14950283 -0.09189791 -0.09803322 -0.07785986 -0.113899924 0.1230067
0.123588905 0.13163182 -0.1749555 0.022510039 -0.06723194 -0.03299373 -0.09621602 -0.2032827
-0.29217708 0.06327325 -0.015040824 -0.30538735 -0.064899534 0.06455235 -0.11303453 -0.19340077
-0.012988476 -0.009460542 0.01935933 0.43174866 0.25731793 0.15401521 -0.21394429 -0.06216082
0.085503004 0.08778007 0.11680329 0.10398952 0.012199592 -0.14709906 -0.017826136 -0.024267035
-0.09955905 0.027945023 -0.035115566 0.20157185 0.1798387 -0.05986013 0.051543586 0.10607528
0.24646321 0.37291464 -0.02370312 -0.042481825 0.24031506 -0.023097115 0.0017451905 0.0767915
0.14804839 0.1498516 -0.47698066 -0.22546722 0.050562095 -0.192843 -0.39829406 -0.022581972
-0.16760877 -0.18336357 0.061831567 -0.1406868 0.1261364 -0.10511075 -0.016657751 0.1313991
-0.0591421 -0.31525096 -0.058712788 0.11022653 0.2352357 0.11280729 0.023023413 0.07466446
-0.07576814 -0.82670367 0.18548535 -0.37567237 -0.26942968 -0.03230368 0.1796917 0.089945935
-0.35717687 -0.06888501 0.0003461721 0.1761667 0.19060917 -0.0002636649 0.18953136 0.13557434
0.07682643 0.116740234 0.058448616 -0.12175141 -0.078799896 -0.05266215 -0.7601812 0.098774806
-0.051006295 -0.3210169 -0.09294038 0.11437302 0.08462228 -0.30248365 0.09591981 0.12449771
-0.01061546 0.037701428 0.10867827 -0.17820345 0.100980766 -0.22540835 -0.02811481 0.027751079
0.118747264 -0.0044285967 0.13708775 -0.07180905 -0.09149627 -0.082175985 0.1902531 0.096578136
0.10676996 -0.1571455 0.06352941 -0.53593755 0.12993628 -0.05158817 0.14868557 0.07757286
-0.10449711 0.32561907 0.017624838 0.050090063 0.052636784 0.21515892 0.11025523 -0.14264433
-0.008838007 0.092783354 -0.022885162 -0.81468785 -0.20223255 -0.2334246 0.14435227 0.08559008
0.04135542 0.0038016937 0.07994455 -0.68515223 0.05764735 0.29573193 0.0034864356 0.04457188
-0.024943102 -0.01716297 0.1845848 0.300103 0.2050678 0.11647295 -0.13953617 0.16654786
0.2095378 -0.49995154 -0.072016396 -0.5816175 0.11627301 -0.23053862 0.04205604 -0.26649243
-0.01232743 -0.183016 -0.061992846 -0.45077953 -0.6553662 0.030141737 0.08606189 0.13450016
-0.08955878 0.37205294 -0.089611806 0.014864583 -0.251324 -0.0064712646 0.29977754 -0.0016945018
-0.25587234 0.061627865 -0.074519984 0.29074034 0.16985908 0.011599394 0.10928886 -0.10460896
0.19427258 0.2546247 -0.23881891 -0.30320075 0.021952186 -0.0534174 0.13180697 -0.025579514

conv.1.lin_rel.bias f4 [64]
00000000: 8da2 2a3e 5af0 06be 2262 b1bd 4774 48be
00000010: d413 fcbd 07d7 d53c dc4b d6bd cd50 163d
00000020: ba76 f9bb 89ef 6dbd d11d fd3c 2e02 ca3d
00000030: 9c6c abbd 056a 03be 2510 45bd 7a13 143e
00000040: ce7c 0f3d 7cc6 c03d 935f 7ebb 7e70 bd3d
00000050: 88a2 093d f53d 26be b987 9c3d ba46 4cbc
00000060: 180a 51bd 3d45 8a3d 119f d73d cfad d83d
00000070: ffe0 2f3e c1c6 82bd 53a0 553d c18d d93d
00000080: e272 c53d 391b b33d ca6d 173e f79a 21bd
00000090: 290b d03d 7175 1d3d 956e 1ebc 90b9 75bd
000000a0: ee14 f33c 6feb df3d e708 80bd 5478 fc3d
000000b0: 1451 983c 96bf 29bd 10d1 a63d 9927 243d
000000c0: bd11 0abe da14 8d3d 8663 8e3d df1e 5cbd
000000d0: 1d70 d73d 366e 023e 84d6 953d 49f8 c3bc
000000e0: 1495 02bc 17e1 203c 426b 073e c3b1 f93d
000000f0: c370 2f3d 9361 85bd bfd4 62bd 82c7 993d
0.1666357 -0.13177624 -0.086612955 -0.19575606 -0.123084694 0.02610351 -0.10463688 0.03669815
-0.0076130303 -0.058089767 0.030898007 0.09863697 -0.08370325 -0.12833412 -0.0481111 0.14460555
0.035031132 0.09412858 -0.003881429 0.09249972 0.033602268 -0.16234572 0.076430745 -0.012468034
-0.051035017 0.067514874 0.105283864 0.10580026 0.17175673 -0.063855655 0.05215485 0.106227405
0.09641053 0.08745427 0.14787975 -0.039454427 0.10158379 0.03844208 -0.0096699195 -0.05999142
0.029673066 0.10933577 -0.06251698 0.12327638 0.018593349 -0.041442476 0.08145344 0.040076826
-0.13483329 0.06888743 0.06952576 -0.05374038 0.10519431 0.12737355 0.07316306 -0.023922103
-0.007970113 0.009819291 0.1322451 0.121921085 0.042832147 -0.065127514 -0.05537867 0.07508756

conv.1.lin_root.weight f4 [64, 64]
00000000: 32da 08be 7ce0 9cbe 35f7 043e 7009 b63c
00000010: 7d95 e2bd 8582 643d cbf1 8dbe b2b2 bcbc
00000020: 1972 68be 465b e23d 1b58 ca3d 0e9b 063e
00000030: ea72 7bbe dd63 9f3e c1e0 e33d fa71 9fbc
00000040: b9b1 6dbd 8bdc 0bbd 5907 5b3e c2c2 cd3d
00000050: 6b8d 603d b71c 6a3d 8227 80be 3995 2fbd
00000060: 8b67 653e b65f f6bb 9b66 ce3c b214 2bbe
00000070: 9d2d 0abe 5e95 8bbe 955e 923c 2dfd f03d
00000080: b418 7a3d 736d 8bbe 1256 083e 9960 67bd
00000090: c807 22bd ee11 273e 2480 2abd 3c1b 733e
000000a0: 06e6 923c b7bc 333f 3d84 4d3c cb36 85bd
000000b0: 2774 21bd 17c7 cb3a bce7 cfbe f8cf 0a3e
000000c0: 03cd 263b 8a99 883d 7c8a aa3d f46e 82be
000000d0: 5012 163e 9a38 813d 4f00 d0bc e767 e83c
000000e0: ca68 c3be e527 38be 4964 b23e 1004 1b3e
000000f0: 5b01 d3bc fbca 843e f351 993d 3531 c83b
00000100: 67d0 9d3d ed7f 1bbf 83cf c73d 1970 e4bd
00000110: 0fad 16be 3060 87be dd52 d9be 8305 043e
00000120: cc13 ddbc 07cc 0fbd 0083 dd3d d4db 8cbe
00000130: 0954 273e 850c 42be 2663 04bf 4602 093c
00000140: 75d5 903d 7592 5fbe b660 1b3e d723 e5bd
00000150: 6bd2 823e 140d 8a3d f3dc e7be d597 d7be
00000160: 87bd 233e deff 6c3e 2729 f73b a8b1 253e
00000170: 7dce 39bc e20e e3bd 55e6 c03d 468f 04be
00000180: 2ece adbd 83b3 c2be 1084 093e 66d9 1a3d
00000190: 04ba 3cbe 4495 4c3c 1810 313e bc3e 0e3e
000001a0: 39f2 73bd 1fd2 e63e 5e3d 64bd bba6 6b3e
000001b0: aba9 a63c a979 fb3d 1dc1 a43c 581b f939
000001c0: 3185 4dbd d02f 2a3e 57b5 703d 92ed d43e
000001d0: 976f 49bd 6e25 2e3e cece 453e 2df7 c83d
000001e0: 88e6 7fbe 4cda 1dbe 917d d23c 92d7 0abf
000001f0: 95ac ccbe 8061 a3be 4957 fe3d d13e 293e
00000200: 5e72 a13d 130a b53d 4be6 c63d d652 98bc
00000210: 8bd5 263e 07aa f0bd 6d7a abbd 16e7 cd3d
00000220: a219 8e3c 2c40 763d dd67 a7bd 714d 1c3e
00000230: 06d7 fe3e e514 f1be 7455 233d f61b 8fbd
00000240: f416 94bc e1de 283e d7ef 323d c79e 8abd
00000250: 1313 b1bc b322 a5bd d3dc d939 0c7d 003e
00000260: 9789 493e 970d 933e 6657 06be 53f4 063e
00000270: 2aac 193e 83be f6b9 8949 66bb 5523 9d3d
00000280: e7df cf3d add2 3d3d ddae 1cbd 3a49 77be
00000290: 6af1 1e3d 38d3 e63d e952 eb3d 1b1d 0d3e
000002a0: 6acf 813c f689 92be 1681 683e e35c 7ebd
000002b0: 48f0 783e 23e3 603e 8d92 85be edf3 2ebe
000002c0: c49b 133d 9a91 ecbd 6c6a 223e 5fd2 c7bc
000002d0: b444 953d b7f2 1a3e 4856 1b3c f995 09be
000002e0: 1587 d63e 0d4d 683d 1239 1dbe 4be1 023e
000002f0: 4aa4 a73d daa9 523e 35d9 65bd 58eb 463d
00000300: 6042 623e e267 e0bc 57e6 fc3c 68ca 633d
00000310: b166 76bd c662 be3d 64d4 703c 4d66 cd3d
00000320: 2203 debc f40d 62be 9d37 16be 4dff a43c
00000330: d9d4 24bc 4575 613e 8f9f 403e 17c9 2cbc
00000340: cdef 97bc ad39 e03d 6873 91bd f3b3 1bbe
00000350: e352 1dbe ea34 4ebe e8f0 043c 6053 b4bc
00000360: 4597 1dbd ecd0 563d 9ef6 c83d e44d 143d
00000370: ef19 473e a81e 033e 6480 d83d c4c2 f03c
00000380: 2083 983e d4b0 9abd fea0 c6bb f242 20bd
00000390: 8ff3 28be e50f 1ebd 30bf 513e 3435 87bd
000003a0: d9a5 98bd 2eaa a03e b27f eb3e d76f 13bd
000003b0: 0cde 003e 92a5 713e 46f3 b63d fd2a 2ebe
000003c0: eb49 4b3e 5680 14bb a8d8 72bd 17f6 143f
000003d0: 6c2a 0d3e c0fa 2a3e 4883 3f3e 1a85 76bd
000003e0: 2f58 3a3c b0eb 70bd 89d5 b83d 9cb9 2ebe
000003f0: 19ab 15bd 8227 7a3e 8f13 253e fec3 cdbd
-0.13364485 -0.30640018 0.12984927 0.022221297 -0.11063669 0.055788536 -0.27723536 -0.023034427
-0.22699775 0.11052565 0.09880086 0.13145086 -0.24555555 0.31130877 0.11126853 -0.019463528
-0.058030818 -0.034145873 0.21389522 0.10046913 0.054822367 0.05715629 -0.25030142 -0.04286692
0.2240278 -0.007518734 0.02519541 -0.16707113 -0.13493963 -0.27262396 0.017867366 0.117670394
0.061058715 -0.2723194 0.13314083 -0.056488607 -0.039558202 0.16315433 -0.04162611 0.23740858
0.01793195 0.7020983 0.012543735 -0.065045916 -0.039417412 0.0015547004 -0.40606487 0.13555896
0.0025451786 0.0666991 0.08327195 -0.25475276 0.14655423 0.06309624 -0.025390772 0.028369857
-0.38165885 -0.17983969 0.34842137 0.15138268 -0.025757482 0.25936112 0.07486334 0.0061093816
0.07705765 -0.60742074 0.097563766 -0.111541934 -0.14714454 -0.26440573 -0.42446032 0.12892728
-0.026986979 -0.035106685 0.10816002 -0.27511466 0.1634065 -0.18950088 -0.5171379 0.008362358
0.07071964 -0.21833213 0.15173611 -0.111884765 0.2555116 0.06740776 -0.45285758 -0.42108026
0.15990268 0.2314448 0.0075427475 0.16181052 -0.011340735 -0.11086823 0.09418932 -0.1294528
-0.08486591 -0.38027582 0.13429284 0.037804984 -0.18430334 0.01248676 0.17291296 0.13891119
-0.059557173 0.45082185 -0.055722587 0.23012821 0.020344576 0.12279064 0.020111615 0.00047513354
-0.05017585 0.16619802 0.05876669 0.41587502 -0.049178686 0.17006466 0.19317171 0.0981277
-0.24990284 -0.15415305 0.02569464 -0.54235184 -0.3997542 -0.31910324 0.12418992 0.16527869
0.07883142 0.08839812 0.09711894 -0.018594187 0.16292398 -0.1175118 -0.0837296 0.10053842
0.017346207 0.060119793 -0.08174107 0.15263917 0.49773425 -0.47086254 0.039876416 -0.06987755
-0.018077351 0.16491272 0.04368576 -0.067685656 -0.02161554 -0.08063259 0.00041553992 0.12547702
0.19681393 0.28721306 -0.13119277 0.1317914 0.15007082 -0.0004706272 -0.0035139045 0.07672755
0.10150128 0.046343494 -0.0382527 -0.24149027 0.03880445 0.112707555 0.11490423 0.13780634
0.015845973 -0.2862088 0.22705492 -0.062100302 0.2431041 0.21961646 -0.26088372 -0.17085238
0.03603722 -0.11551209 0.15860909 -0.024392305 0.07288495 0.15131651 0.00948102 -0.13436116
0.41899934 0.056714106 -0.15353802 0.12781255 0.081856325 0.20572606 -0.056115348 0.048564285
0.22095633 -0.027393285 0.030871553 0.05561295 -0.060156528 0.09296183 0.014699075 0.10029278
-0.027101103 -0.22075635 -0.14669652 0.020141268 -0.010060512 0.22017391 0.18810867 -0.01054599
-0.018546963 0.10948501 -0.0710209 -0.15205364 -0.1536365 -0.20137373 0.008114077 -0.022012413
-0.03847434 0.052445337 0.098126635 0.036207095 0.19443487 0.12804663 0.105713636 0.029389746
0.2978754 -0.075532585 -0.0060616722 -0.039126344 -0.1649916 -0.038589377 0.20483088 -0.066019446
-0.07453508 0.31379837 0.4599586 -0.03599533 0.12584704 0.23598316 0.089331195 -0.17008586
0.19852416 -0.0022659502 -0.05928865 0.58188003 0.13785714 0.16697216 0.18702424 -0.06018553
0.011373564 -0.05881852 0.090251036 -0.17062992 -0.036540125 0.24429134 0.16120742 -0.10047148
