checkpoints/nci/model_NCI1.pt_l2_emb64_hid64_netot0.0.pt (torch, 98940 bytes, 9 tensors)

virtual_embedding f4 [64]
00000000: 23cf cc3e 2757 b33d c3ab 223f 546e 79bd
00000010: f1eb 273f 0c70 663f 4924 323f fd4b d43e
00000020: 9737 343f 96bb 213f ce61 233f 004e 143f
00000030: 0bf9 0f3f 2efb 0b3e 002a a73e c8e6 873e
00000040: 8044 f43e 12b1 933e 2369 6b3f 19a3 183f
00000050: c8ac 1b3f 64c3 ad3e e38c bc3e b3a9 073f
00000060: 1c83 063f 3994 193f e20e 753e bc76 453f
00000070: 7e58 a53e 23cd 503f 3bf0 3d3f f324 683f
00000080: c099 933d 95ac 573f bf6d 483f 7c15 8f3f
00000090: 5913 8b3d a28b b33e 8b39 1ebe 610b 7abe
000000a0: fb1c 8b3f 5c4a 583f 7236 373f 9820 3e3f
000000b0: 305e 8e3d 8a13 0a3f b2d3 373e 98bb 963e
000000c0: 6dde 163f c7a0 093f 73ae 803f 885d 2abe
000000d0: 702c 433f 46ad eb3e 90a7 5c3f 3a64 963f
000000e0: 280c be3e 8880 b63e 0602 5e3f d5c5 053f
000000f0: fe94 ab3e a829 623f 84da 0e3f a31d 013f
0.40001783 0.08756857 0.6354334 -0.060896233 0.65594393 0.9001472 0.69586617 0.41464224
0.70397323 0.6317686 0.63821113 0.5793152 0.56239384 0.13670036 0.3264923 0.2654326
0.4770851 0.2884603 0.919573 0.5962387 0.6081052 0.33938134 0.36826238 0.52993315
0.5254381 0.59991795 0.23931459 0.771343 0.32294077 0.81563014 0.7419469 0.9068138
0.0720706 0.84247714 0.7829246 1.1178432 0.067908 0.3506747 -0.15451638 -0.24418403
1.0868219 0.84488463 0.7156745 0.74268484 0.069515586 0.53936064 0.17951849 0.29439998
0.58933145 0.5376095 1.0053238 -0.16637242 0.7623968 0.46030635 0.8619318 1.1749337
0.3711865 0.35644937 0.8672184 0.5225499 0.3351211 0.8834481 0.5580218 0.5043585

embed_transform.0.weight f4 [64, 165]
00000000: d798 35bd 4860 10bc fc39 54bd 9c21 94bd
00000010: d910 903b a62d afbd b51c 5fbd 8f9d a6bd
00000020: 80aa 5bbf 08de 1cbf e3d0 6bbe 8657 10be
00000030: 0f18 acbd 09c0 21bd 12e6 823e 901f 01be
00000040: 8a9a 463c 6fb8 6dbe 0dcd 65bf 403f 1cbe
00000050: 5429 eebd 36fd 1bbe 44c1 a83d 07c6 45be
00000060: 0c4d f3bc 56e9 99be d3d1 48bd 2820 aebd
00000070: 248a 47be 3d89 47bd 5fc1 98bd 8ebc 733b
00000080: 9e0a 87be b007 3d3d 2516 83bb b840 143e
00000090: d045 39be 0c95 ab3c 780b 423e 64ca 3a3d
000000a0: 0170 05bd a9c1 69bd 07d2 36bd 7955 85bc
000000b0: 637f 49bd e749 b3bd b172 9e3d 88c6 713d
000000c0: 6aa7 82bb eaba 01bd 0d59 b83e ee74 2e3d
000000d0: 5a11 b93d d38e b33c b840 963d 750f 0ebe
000000e0: a5cf 8d3b ed5a b2bd 3b30 16bd a610 81bd
000000f0: 7aeb 65bc de2c 143d ea28 623e 1b4c 7ebd
00000100: ea2a 3b3b 2a28 983a 062b 8c3d c231 903c
00000110: e8f6 8b3c 1b54 43bc d6e1 4a3e 1495 953c
00000120: a00c 5b3e 940f 48bd fb6c 9fbc 30f8 26bd
00000130: aec9 fa3d d156 bbbd 80e5 24be 7685 b43d
00000140: d7c6 a7bc e537 2abd 7237 363d 5141 1bbe
00000150: f893 1e3d 96a3 5fbb a2c4 823c e986 a0bb
00000160: e9b8 aabe 4346 82bd 96bc 943b b782 5abd
00000170: 7799 3d3d 5bbf fdbd dade 1a3e 5f1b 4cbd
00000180: 9bb3 dd3c f708 9d3d ff6e b2bd 144e 863d
00000190: 5a7d 303d 3398 a63c c96a 723d 9334 2fbe
000001a0: 4752 4e3d bcb2 b83d 40ac bebc e5ad b7bb
000001b0: 2078 ec3c 2723 c6bd d79c f13c 42a1 083d
000001c0: e6a7 6abd 1ee0 0bbd a287 47bd b2ae eabd
000001d0: f300 16bd 74ce 9ebd 9395 dbbb 46a0 c9bc
000001e0: b406 e43c fff7 4dbc c59c d13d b9c4 c5bd
000001f0: dea2 2b3d ed8b 4fbe 9d01 ffbd 6966 9abd
00000200: b66a 76be 8b44 91be d70e 043e e689 ffbd
00000210: e95e ce3d c54f b8bd 42e5 ce3d c9e7 68bb
00000220: 70bc bf3c 408e a63d a256 41bc ec10 103c
00000230: 7e93 08be 76de 91bd ae1c a83e 5527 4b3d
00000240: 36a3 a93d f8d5 ed3d f31a d83e afd0 1b3e
00000250: 6475 123d e7ea c1bd 6bf2 fa3b 484e c9bd
00000260: 126d 92be 34a2 89bc cd8a 883d d973 dd3d
00000270: 6f59 d03d a4ce afbe 93d9 b4bd 07c9 8bbd
00000280: 60c8 403c 8cb9 083e 0181 a2bd d681 8cbd
00000290: 382e 0cbe 2e9a ee3c c6ae 123d c689 113d
000002a0: 1907 1cbc 57ed 07bc 7aad 023e cc04 8abd
000002b0: 1073 35be 3bc3 0dbe 9f7e 08be 0965 b8bd
000002c0: c161 063e f798 86be 383d 0a3e 58d5 933c
000002d0: 1ef0 20be 3ff8 7ebe ca94 0ebd 01b1 c7be
000002e0: 9d05 b53e ff9e 09bd 1b7a 573d a878 90bd
000002f0: db67 a4bd fdf4 86bd 8f29 20bd 5566 dabe
00000300: 61ca 3bbd 8870 30be 2e0e 00bd 6bbf b3bd
00000310: e08b 21bd 7786 2fbe df6e 93bd ee45 8abd
00000320: 455c 1ebd fd8c 7abe 24a0 cf3d 98e5 4dbd
00000330: 3da3 763d f8c4 e93d 0d02 3fbd 8541 933d
00000340: fc57 943d bb16 fbbc a18c 65be d91e 7b3c
00000350: e460 1abd dcce 2b3e 1e26 483d 05b8 183e
00000360: 9ebd dabc 0b97 8dbd 2074 8f3d 0cd2 11bd
00000370: 177d 44bd 6dcb 26be 0d98 b93d 18e6 f73c
00000380: 97c1 d4bb 0d2b dabd ecdc 6fbd 1ec9 a4bd
00000390: 903c 0d3c 8897 86bc 42ee a43d b866 1f3e
000003a0: af50 6cbc feb6 853d baab 45bd d2b2 2e3c
000003b0: e578 e0bc 3038 cc39 6535 d53c 2b76 d13d
000003c0: 1290 04be e05e 583d 76cc 5cbc f3b8 373d
000003d0: d420 373d 69d5 42bd 1f8a 8bbb 2a38 da3c
000003e0: b260 863d 2772 f93d 842f dbbd c59e d13c
000003f0: 6ca2 363e b8ac d8bd ee5a b6bd 0c3b 75bd
-0.044335213 -0.008812018 -0.05181311 -0.07232973 0.0043965396 -0.085536286 -0.054470737 -0.08135521
-0.8580704 -0.6127629 -0.23028903 -0.14095888 -0.08403026 -0.03948978 0.25566155 -0.12609696
0.012121806 -0.23214887 -0.8976601 -0.15258503 -0.116289765 -0.15233311 0.082399875 -0.19313823
-0.029699825 -0.30060834 -0.04902823 -0.08502227 -0.1948629 -0.048714865 -0.074587576 0.0037191245
-0.26375288 0.04614991 -0.0040004426 0.14477813 -0.18093038 0.020945095 0.18949687 0.04560317
-0.03257752 -0.057069454 -0.04463389 -0.016276108 -0.04919375 -0.0875433 0.077367194 0.059027225
-0.0039872425 -0.031672396 0.3600544 0.04259198 0.09036513 0.02191869 0.07336563 -0.13873084
0.0043277317 -0.08708749 -0.03666709 -0.063020036 -0.014033193 0.0361756 0.2208592 -0.0620843
0.0028559514 0.001160865 0.068441436 0.017601851 0.017085508 -0.011921908 0.19812712 0.018259563
0.21391535 -0.04884298 -0.019461146 -0.040764034 0.122454986 -0.09147418 -0.16103172 0.08814518
-0.020480556 -0.04155721 0.04448647 -0.15161635 0.038715333 -0.0034124604 0.015962902 -0.004898895
-0.333442 -0.063610576 0.0045390828 -0.053347316 0.046288934 -0.12390014 0.15124074 -0.04983079
0.027063182 0.076677255 -0.08712577 0.06557861 0.043088295 0.020336246 0.05918387 -0.17109899
0.050371435 0.09018466 -0.023275495 -0.0056054466 0.028865874 -0.096746735 0.029493732 0.033356912
-0.057289027 -0.03414928 -0.048713334 -0.11459102 -0.036622 -0.077542216 -0.0067011802 -0.024612557
0.027835228 -0.012571334 0.102349795 -0.096566625 0.04190337 -0.20268221 -0.124514796 -0.075390644
-0.24064144 -0.28372607 0.12896286 -0.12477474 0.100766964 -0.0899959 0.10102321 -0.0035538545
0.023405284 0.08132601 -0.01180044 0.008793097 -0.13337514 -0.07122509 0.3283438 0.049598057
0.08283083 0.11613077 0.4220806 0.15216325 0.035756484 -0.09468632 0.007658293 -0.09829384
-0.2859884 -0.016800977 0.06667099 0.10813112 0.10173308 -0.34337342 -0.088305615 -0.06825452
0.011766523 0.1335203 -0.07934762 -0.06860702 -0.13689506 0.029126253 0.03581121 0.03553178
-0.009523177 -0.008296332 0.12761489 -0.06739196 -0.17719674 -0.13844006 -0.13329552 -0.09003646
0.13123228 -0.26288578 0.13499916 0.018046066 -0.15716597 -0.24899386 -0.034809865 -0.3900223
0.35355845 -0.033598896 0.052606683 -0.07054263 -0.08027621 -0.065896966 -0.039102133 -0.42656198
-0.0458473 -0.17230427 -0.031263523 -0.087767445 -0.039440036 -0.17141138 -0.07198881 -0.06751619
-0.038662214 -0.24467845 0.10137966 -0.050267786 0.06021427 0.11414522 -0.046632815 0.07190231
0.07243344 -0.030650487 -0.22416927 0.015327179 -0.03769006 0.1677813 0.048864476 0.14913948
-0.026701745 -0.06913575 0.07004571 -0.035600707 -0.047970857 -0.16288538 0.090622045 0.030261084
-0.0064928043 -0.106527425 -0.058560297 -0.080461726 0.008620396 -0.016429678 0.080532566 0.15566528
-0.014423533 0.065290436 -0.048259474 0.010662751 -0.027401397 0.00038951775 0.026026437 0.10227617
-0.12945583 0.052824855 -0.013476482 0.044854116 0.04470904 -0.047566805 -0.0042584087 0.02663811
0.06561412 0.12179976 -0.10702422 0.025588403 0.17835397 -0.105798185 -0.08904062 -0.059870765

embed_transform.0.bias f4 [64]
00000000: 2916 723d 8243 42bd 6ba2 71bc e901 263c
00000010: e88e 57bd fd5d 493d 5bc6 9cbc cecb 8e3c
00000020: d5c2 fdbc 68a4 54bc 7ab4 fe3c cbe5 9ab9
00000030: 0125 c63c b31f 4d3c 0ce9 203d cc1a f0bc
00000040: 4a95 f03b fdca 333d 9e15 5d3b 7445 2bbd
00000050: 0313 883d 1438 43bc 6939 89bd 4e53 5dbd
00000060: 9c0b 203c e618 1fbb db6a f9bc 738d b23c
00000070: a8e5 003d c8e3 453c 82ef 2bbd 5547 66bd
00000080: 9ddf 94bc c48e 0abd 942c f3ba de78 153d
00000090: 5d7d fabc 315b a7bc 9f7b a93c 7f1e ae3b
000000a0: e2ac e73c 3816 4bbd f96e 9dbc 4dac 07bd
000000b0: 7011 f1bc c687 8e3d c929 a8ba 9702 2c3d
000000c0: 33b4 473d 236d 483d bf1d 6d3d 8784 b63c
000000d0: 67c8 903c f57f 86bc c1ca d4bc fc65 02bd
000000e0: 51f4 f03b e166 a7bc f9eb 503c 1d5b b0bc
000000f0: 7749 193d 6316 7cb9 adf6 0b3d 4157 5d3a
0.059103165 -0.04742766 -0.014748196 0.010132291 -0.05262652 0.0491619 -0.019137552 0.017431166
-0.030976692 -0.012978651 0.031091917 -0.00029544378 0.024187567 0.012519765 0.03928475 -0.029309653
0.0073420154 0.043894757 0.0033734809 -0.041814283 0.06644251 -0.011915226 -0.06700403 -0.054034524
0.009768393 -0.0024276315 -0.03044646 0.021795964 0.031469017 0.012078233 -0.04197646 -0.05622037
-0.018173033 -0.03382756 -0.0018552714 0.03649222 -0.030577356 -0.020429226 0.02068883 0.005313694
0.02828068 -0.049581736 -0.019217955 -0.033123303 -0.02942726 0.069594905 -0.0012829836 0.041994657
0.048755836 0.048932206 0.057889696 0.02227999 0.017673684 -0.016418437 -0.025975587 -0.03183554
0.0073533435 -0.020434799 0.012751573 -0.021527821 0.037423577 -0.00024040932 0.034170795 0.0008443483

conv.0.lin_rel.weight f4 [64, 37]
00000000: d638 32be b7c7 383e 47a4 34be 4068 893c
00000010: 73c4 b3be 8a8f 9abc f5a7 0e3e b5a4 e13b
00000020: 08d7 7cbe 5906 8ebd ec53 9d3d cad8 edbd
00000030: 522a 18bd 35bb b6be 756a ecbd 87dd c6bd
00000040: 462f c33d e9b4 583d f3f7 33be e57e 3dbe
00000050: 12d9 2dbe 3ba4 93be 1932 0f3c 0166 19be
00000060: a29c 94bc 3f02 b5be c510 c1ba 20ca 1fbd
00000070: 6c32 df3d a158 96bd 223a 113e 1bb5 09be
00000080: ef56 22bd 0c2a 0fbe a5d8 9dbd b6ce 653d
00000090: 9646 d3ba a20c 843e 3485 d83e 6914 6bbe
000000a0: e291 4bbf 2382 1dbe 0b78 cebc 35fe c1be
000000b0: 42d9 1cbd bf8e 1fbe c614 29bd e69b b43c
000000c0: 1ef5 4dbd b0f3 a6bd 99e1 ba3c cdf9 abbd
000000d0: 8da3 9bbd 17f9 4cbf 9d03 80bd 712e 3b3c
000000e0: 94c0 acbd 047c 973e f836 18be d9d1 1ebe
000000f0: efb3 df3c d96a febc b6c0 313d 0d11 1dbe
00000100: 9646 293d f0f2 b63c ea9a b03c 6063 063e
00000110: f8ba 0e3e 5c5c ac3b 06fc f13d 2a80 15bc
00000120: 3407 19be 746d 02bd d099 053e d808 073e
00000130: 38dd db3d c428 aa3e 902c 38be ce82 6e3e
00000140: 2d63 9dbe bd97 293d 3013 573f 7ba7 e7bc
00000150: 740e 8f3d 5de7 22be 2904 f1bd 4aea 8e3e
00000160: 8aae f23d a198 1cbd 04ab 993e 768b 073e
00000170: f099 f5bc e21c 623d bc61 6b3e a51e b33e
00000180: 38c6 033d eb54 88bc 882c 143e f661 383e
00000190: b9d3 cb3d 70e9 233e 9a0d 463c 056f bcbd
000001a0: 5063 2dbd fb24 163e eb5d 16be 5f3d 343d
000001b0: 9612 543d 2b61 ad3d 68a0 05be 6857 833e
000001c0: 4d5e 2d3e ce64 fdbd 8bbb 04bf 5fd1 81be
000001d0: 00ea 963e 61c7 8c3e 6e82 713d 654a e6be
000001e0: 312a 793e 3469 1e3d 9196 1dbd 2944 b43d
000001f0: 86ef 033c ca5d f7bd dcc0 31bd 9561 40be
00000200: ab6c e2bd 1060 ddbe 1d9f 9f3d d056 4ebe
00000210: e84c a7bd d475 253e 2f31 b1bd 0fad 18be
00000220: d432 3ebe f98c dfbd 3fad fabd e41d 4abe
00000230: 8608 983d 4dee 1abe 9e35 0f3e 3a05 27be
00000240: d1ec eb3c 2c66 9dbd 0199 d73d aa41 b2bd
00000250: c2f9 6bbe a0e2 6dbb 76f5 c5bd 5f99 36bd
00000260: de37 a3bd 0079 5dbe d224 953d 2f0f 07be
00000270: 37db 05be 7e02 c0be 6a5e c53d 1ec0 273e
00000280: b890 34bd 4c31 ce3d d97c d5bd 9c49 45bd
00000290: 82e8 3d3e d6ad 07be 7ca0 bc3e 3a1b 08be
000002a0: c706 cfbe 12cd 6dbe a53a 873d 034c a1bc
000002b0: ccd3 e9bd 95d6 8b3e a637 73bd fc5c 0f3e
000002c0: 051d 25be a254 ec3d c9ae d2bc 488f 23be
000002d0: 6b00 1f3e ae4c b2bc 4771 8a3d 5432 f0bd
000002e0: f32c 1fbe 710f b7bc 5e65 a3bd c8e8 7abe
000002f0: 4c83 07be ccb3 bdbb 70af 72be 090f 87be
00000300: 25ce f6bb a99a 84be fbdb 7dbe 3243 a9bd
00000310: c1d7 16be d972 1f3e 8d4b 033e adb3 243d
00000320: 54ff 03bd 1e8e ad3e 378d 3bbc 438c 813e
00000330: 2964 86be 52e2 963c bfec 70be 8a3e 3a3d
00000340: c219 dd3d 9825 623d 9b0b f6be df0d 923d
00000350: 28ef 3dbd 5851 303e 9f66 083e 0154 093d
00000360: c55a f1bd 442f 27be 8306 ab3d 8386 21be
00000370: d116 0c3e 0bab 01be 4a4b a2bb 452a b93e
00000380: cc5a 99be 0a3e 15be 7fc3 0a3f b916 2fbf
00000390: 5477 893d 35a0 5bbd ce7e f8bc b084 99bc
000003a0: 0563 f23d 4632 c5bd 7996 103d 0c3e 313f
000003b0: 8162 3c3d 559e 1abe 28d3 54bb 293b 433d
000003c0: 9a42 e9bd 152a 093e 9ff9 8f3e f5ab 9dbe
000003d0: 1677 e93c 7eba 0abe c5bf ccbd a40a c0bd
000003e0: fb82 84bd 7a4e 293b 672d 62bc 6a3c 113d
000003f0: 2cf9 8c3d 4663 d43d 75c9 89bd be4f 273e
-0.17404494 0.18044935 -0.17640792 0.016773343 -0.35110816 -0.018867273 0.13931258 0.0068860897
-0.24691403 -0.069348045 0.076820225 -0.11613615 -0.037149735 -0.35689703 -0.115437426 -0.09710222
0.09530501 0.052906904 -0.17575054 -0.18505438 -0.16977337 -0.28836235 0.008739972 -0.14980318
-0.018141095 -0.35353276 -0.0014729729 -0.03901112 0.10898289 -0.07341123 0.14182332 -0.13447993
-0.039633688 -0.13980883 -0.07707337 0.056105338 -0.0016119059 0.25790888 0.42289126 -0.22957005
-0.79519475 -0.15381674 -0.025203725 -0.37889257 -0.03829313 -0.15581797 -0.041279577 0.022046994
-0.05028259 -0.081519485 0.022812651 -0.08397255 -0.07599554 -0.8006758 -0.06250689 0.011424647
-0.08435169 0.29586804 -0.14864719 -0.15509738 0.027307479 -0.031056808 0.043396674 -0.15338536
0.04132708 0.022332639 0.021558244 0.13123846 0.1393851 0.0052600335 0.11815648 -0.009124795
-0.14944154 -0.031842664 0.13046956 0.13186967 0.107355535 0.33234227 -0.17985749 0.23292086
-0.30739728 0.041404475 0.8401365 -0.028278103 0.069851786 -0.1590857 -0.117683716 0.27913123
0.11849697 -0.038231496 0.30013287 0.13236794 -0.02998063 0.055203326 0.22986501 0.34984317
0.032171458 -0.016642055 0.14470112 0.18006119 0.09952492 0.16007018 0.012088204 -0.09200863
-0.04233104 0.14662544 -0.14684264 0.04400384 0.051775537 0.08465799 -0.13049471 0.25652623
0.16930504 -0.123727426 -0.5184867 -0.2535505 0.29475403 0.27495864 0.058962278 -0.44978634
0.24332501 0.03867455 -0.03847367 0.08802063 0.008052712 -0.12078436 -0.043396816 -0.18787225
-0.11055883 -0.43237352 0.0779402 -0.20150304 -0.081689656 0.16158229 -0.08651959 -0.14909767
-0.18574077 -0.1091556 -0.12240075 -0.19737965 0.07423501 -0.15129967 0.13985297 -0.16310588
0.028799446 -0.07685503 0.1052723 -0.08703931 -0.23044494 -0.003629841 -0.096659586 -0.04457986
-0.0796964 -0.21628189 0.072824135 -0.13189386 -0.13071905 -0.375019 0.09637149 0.1638188
-0.044083327 0.100679964 -0.104242034 -0.048165902 0.18545726 -0.13249907 0.3684119 -0.13291636
-0.40434858 -0.2322276 0.066029824 -0.019689566 -0.1141735 0.2731215 -0.059379242 0.14000314
-0.16124351 0.1153958 -0.02571811 -0.15972626 0.15527503 -0.02176508 0.06759887 -0.11728349
-0.1554449 -0.02234623 -0.07978319 -0.24502861 -0.1323368 -0.0057892557 -0.23699737 -0.26378658
-0.0075318986 -0.25899246 -0.24790947 -0.082647696 -0.14730741 0.15571155 0.12821789 0.040210415
-0.03222592 0.3389749 -0.011447242 0.25302324 -0.2624829 0.018418465 -0.23527811 0.0454698
0.107959285 0.055211633 -0.4805573 0.07131552 -0.046370655 0.1721853 0.13320397 0.033527378
-0.11784891 -0.16326624 0.083508514 -0.15773968 0.13680579 -0.12662904 -0.004952823 0.36165062
-0.29952085 -0.14574447 0.54204553 -0.6839405 0.06712213 -0.053619582 -0.030333903 -0.018740028
0.11835293 -0.096287295 0.035299752 0.692353 0.04599238 -0.15099461 -0.0032474492 0.04766384
-0.11389656 0.1339496 0.28120133 -0.30795255 0.028499167 -0.13547704 -0.09997515 -0.093770295
-0.06470295 0.002583413 -0.01380477 0.035458006 0.06883463 0.103704974 -0.06727878 0.16339013

conv.0.lin_rel.bias f4 [64]
00000000: 8b9d 713e 4ea7 c6bd f695 a2bd 28ba 40bc
00000010: 8090 323e 89d7 413e c7dc 04be ff59 1dbe
00000020: 4702 943d 50bf aabd 4932 04be a61d fb3d
00000030: f23e a0be fa30 9c3d 8911 a83e 1926 2ebc
00000040: 219e fe3d 5771 40bd 0742 463c 58cc 92bd
00000050: 91d3 883e 2521 303d 9a9e 48be c958 0fbd
00000060: bfbb 5bbe 76c5 b03b 9ad5 243d 4874 5abe
00000070: a947 aa3d cdf5 423d 2831 05be 4448 893d
00000080: d339 243c d268 413e e0ee 61be b4f2 edbd
00000090: e7f3 5b3e f1e9 1c3e b64a c43d a35d 393e
000000a0: 05d5 7fbd 4524 90be 1456 843d 9d1e 55be
000000b0: 232b aa3e 6fdd 193d 50a3 803e ae8b 9a3d
000000c0: cbc7 eb3b 0f09 46be f869 91be 17da f53c
000000d0: 4708 4dbd 6052 d5bd 8779 d1bd 542b 2bbe
000000e0: 748d c3bd 0e46 b03c c3f3 cb3d 337c 913e
000000f0: 1d98 533c 5a17 2c3e 06f7 85be f012 59be
0.23595254 -0.096998796 -0.07938759 -0.011763133 0.17437935 0.18929876 -0.12974845 -0.15366362
0.07226997 -0.08337271 -0.12909807 0.12261514 -0.31298023 0.07626529 0.32825878 -0.0106292
0.124325044 -0.04698309 0.012100703 -0.07167882 0.26723912 0.04300036 -0.19591752 -0.03499678
-0.21458338 0.005394633 0.04024277 -0.2133342 0.08314449 0.047597695 -0.13007033 0.06703237
0.010023552 0.18887642 -0.2206378 -0.116185576 0.2147976 0.15323617 0.095845625 0.18102126
-0.06245901 -0.2815267 0.064617306 -0.2081246 0.33236036 0.03756469 0.25124598 0.07546173
0.007195448 -0.19339393 -0.2840116 0.03001122 -0.050056722 -0.104161024 -0.102282576 -0.16715747
-0.095484644 0.02151778 0.09958603 0.2841507 0.012914685 0.16805783 -0.26165026 -0.2119863

conv.0.lin_root.weight f4 [64, 37]
00000000: f32d dabe 2319 03be 303c e13d 4131 df3d
00000010: 8a5e 76be af87 463f f430 803b 5f09 74be
00000020: 5cc0 84be cabd 24bd 6809 80be 0de9 7abe
00000030: 9d8d 7bbe ed44 86be 5b56 7bbd 87c7 79be
00000040: 3729 fc3d dfbb 85be d5b8 a73f d845 193c
00000050: 4ac8 85be 6ea0 86bd 9862 9f3e 45c5 76be
00000060: 055b 93bd 836a 953e 26f7 abbd 0bd0 763e
00000070: e762 343d 2a20 82be aafe 273e a7c8 433e
00000080: f347 80be a752 79be d27f 8f3d 3651 e63e
00000090: 0d9f e43e 1a18 46bf efd9 043e e35c 213d
000000a0: 586e 453d c91a b9bd c562 b53e d66e 863d
000000b0: f893 7c3d d689 e6bc ac48 8ebd 91c0 843d
000000c0: 53a0 13be 0558 8d3d 0243 983d 25e1 61bd
000000d0: bbc1 853d b61e bebe 6a98 b93c e1b0 90bd
000000e0: 29fe c3bc 5a6d bebe efde 2e3f 6eca 26be
000000f0: edbb 05bc 5b79 543d d0dc 4bbd 463a 6cbe
00000100: 0d91 70bd e066 883d 442a 1d3d 7edd ad3d
00000110: a3a6 71bd 11b4 ba3d c25d b8bc d096 d53c
00000120: 1b96 70bb dcb5 debe f522 343c e877 eebd
00000130: 9ac1 2bbe c1fe a8bb 08db 87be 905e d1bd
00000140: 8d88 22bd 2dd8 eebc c05c b83e 71b8 16bd
00000150: 96de f7bd 58fb 713d 5dbf 893d 4de8 03bd
00000160: 26b3 12be e77b 1bbe ee8e 03bd c8e4 f1bc
00000170: c91f 273e 888f b73e 3597 12be 5c6b 42be
00000180: 9aeb 41bd 9a07 2f3b 0f09 3cbd 5706 06be
00000190: 95fa 09be ba6b 89bd e50c 003d f8ce 0cbe
000001a0: 1ff8 14be 8bed c6bc 7e8d 263c cdbb 09be
000001b0: 4f74 1dbd 4a20 04be 6764 27be 8f60 37be
000001c0: 4a3e f6bd 99c1 24be a3be 983e 3d63 d83e
000001d0: f34e 483e eab9 533e 5a31 ce3e 1eae 35bc
000001e0: 59a7 56ba 9459 12bc 5cf7 61bd da4f 1abe
000001f0: 2b53 40bc 6f2b 283c 1057 cfba 672c 9e3e
00000200: 7733 223b 3493 8e39 5395 6a3d 2962 183e
00000210: b19f ff3e 0ba1 5c3e f529 6e3a fce5 1dbe
00000220: a88c e33e aaf2 013f a53c 973a e500 533e
00000230: 366f 233b 594d cabd 4cc4 993e 4b0d e23e
00000240: 8580 ecbd 9d04 01be 0e3a aa3e de09 fa3e
00000250: 81f8 b3bd 1c16 513e 20b9 303d 74a0 cbbd
00000260: fb96 f73d a7e2 90bd 9df2 8cbd 22fa 40be
00000270: 4a75 3cbe 8591 3dbe ccbd 4a3d ea34 a23d
00000280: 6e8e 5bbb 721d bdbd 5982 3bbe 0fad 39bd
00000290: 1645 ab3e e580 00bc 047b 883d bf35 27be
000002a0: fb24 75bd 44ed cdbd 3627 3abe b80d 38be
000002b0: fd4c e3bd f182 9dbc 2296 413d dc23 39be
000002c0: 812f c1be ccaf 41be 3a80 50be e91a 3bbe
000002d0: 75f3 3abe 97ba 43be eb89 3abe 1a53 3bbe
000002e0: 9a87 d93d eb00 88be b381 903e 0b41 8e3e
000002f0: d111 7abe 0b1f 2c3d 45b1 5a3e e007 313d
00000300: 6cf6 52be 510c 713e c4d8 043f 5efe 5ebe
00000310: 726d ffbd 4a41 903e 6479 46be 330e 42bc
00000320: 3c0d 473e af10 d1bd 95c2 3f3e 8bed ce3c
00000330: 8b78 c7bc dfc3 1d3e e2ab 1d3d 4b6a 5dbe
00000340: 3184 4dbe cb93 c1bd 7ce4 c2bd 6613 fabd
00000350: 5a56 65be 7e37 033d 65b3 b03d a007 923c
00000360: 8288 5abe 425d 1abe 5e2a 063d 5bb5 25bd
00000370: 8752 48be 7bb1 643f c5dc f0bd 843e 563d
00000380: a58b 643d f796 debe 0d71 b4bd c742 ba3e
00000390: a74b 22bd 1a3d 15be 35ed e3be f457 febf
000003a0: 690c 43bd d598 ac3d 6090 fa3c b76e b03e
000003b0: 5fdd b8bb bc03 193d b924 eabd b000 e2bd
000003c0: 728c 593d bab3 dabd 9ff9 d83e b736 20be
000003d0: 34f4 7ebd b28e afbc 7666 cb3d a32e d03d
000003e0: b8ea 673d 2bb1 22bd 7939 83bd abf0 2c3d
000003f0: 6aca 573d c7e8 c23c 9bc8 2fbc 3ad7 753e
-0.4261318 -0.12802558 0.10997808 0.10898066 -0.24059501 0.77550787 0.0039120857 -0.238317
-0.2592801 -0.04022006 -0.25007176 -0.24502964 -0.2456574 -0.2622446 -0.061361652 -0.2439252
0.123125486 -0.26119897 1.3103281 0.009355031 -0.2612937 -0.06573568 0.3112991 -0.2409869
-0.07195095 0.29182824 -0.08396749 0.241028 0.044039633 -0.25415164 0.1640574 0.19119512
-0.25054893 -0.24347936 0.07006802 0.44983834 0.44652596 -0.77380526 0.1297376 0.039395224
0.048200935 -0.09038312 0.35426918 0.06564109 0.06166455 -0.028141897 -0.06947455 0.064820416
-0.14416628 0.06901554 0.07434656 -0.055146355 0.06531092 -0.37132806 0.022655685 -0.07064987
-0.023924904 -0.37192804 0.6830892 -0.16288158 -0.008162481 0.051873546 -0.04977113 -0.23069105
-0.05873208 0.06660247 0.038370386 0.08489512 -0.058996808 0.09116376 -0.022505645 0.02607289
-0.0036710564 -0.43498123 0.0109946625 -0.11643964 -0.16773072 -0.005157322 -0.26534295 -0.102231145
-0.039681006 -0.029155815 0.36008263 -0.03679699 -0.12103002 0.05907759 0.06725953 -0.03220396
-0.14326152 -0.15183984 -0.03211873 -0.029528037 0.16320719 0.35851693 -0.14315493 -0.18986267
-0.047343828 0.0026707412 -0.045907076 -0.13088356 -0.13474496 -0.0671 0.031262297 -0.13750827
-0.14547776 -0.024283191 0.01016557 -0.13450547 -0.038441 -0.12902942 -0.16346894 -0.17907928
-0.120235994 -0.16089477 0.29832944 0.42263213 0.19561367 0.2067639 0.40272027 -0.011088876
-0.0008188389 -0.00893249 -0.05516754 -0.15069523 -0.011738579 0.010264262 -0.0015818793 0.3089325
0.0024749914 0.00027194025 0.057271313 0.14881195 0.49926522 0.21545808 0.00090852316 -0.15419763
0.4444325 0.507609 0.0011538459 0.2060581 0.0024938113 -0.09878034 0.30032575 0.44150767
-0.11547951 -0.12599416 0.33247417 0.48835653 -0.08787633 0.2041859 0.0431453 -0.099427134
0.12089344 -0.070744805 -0.06882212 -0.18845418 -0.18404117 -0.18512543 0.04949741 0.07920249
-0.0033501643 -0.09234132 -0.18311442 -0.045331057 0.33451146 -0.007843231 0.06664088 -0.16329096
-0.05984972 -0.100550205 -0.1817902 -0.17973983 -0.11098669 -0.019227477 0.04726232 -0.18080086
-0.37731555 -0.18914717 -0.20361415 -0.18271984 -0.18256934 -0.19114147 -0.18216674 -0.1829342
0.10621567 -0.265632 0.28223953 0.27784 -0.24420859 0.042021792 0.21356685 0.0432204
-0.20601815 0.23539855 0.5189326 -0.21776721 -0.12472047 0.28174812 -0.19382244 -0.011844206
0.19438642 -0.1020826 0.18726571 0.025259754 -0.024349472 0.1540675 0.038494 -0.21622579
-0.20069958 -0.094520174 -0.09516236 -0.12210731 -0.22396222 0.032035343 0.08627967 0.017825902
-0.21341136 -0.15074638 0.03275525 -0.040456157 -0.19562732 0.89333314 -0.117608584 0.052305713
0.055797238 -0.43474552 -0.08810625 0.36379072 -0.03962293 -0.1457409 -0.44516912 -1.9870591
-0.047619257 0.08427588 0.030586421 0.3445947 -0.005641624 0.037357077 -0.114327855 -0.110352874
0.053112455 -0.10678811 0.42377946 -0.15645872 -0.06224461 -0.021430347 0.09931652 0.10165145
0.05662033 -0.03971974 -0.064074464 0.042221706 0.05268327 0.023792638 -0.01072898 0.24007884

conv.1.lin_rel.weight f4 [64, 64]
00000000: e7c0 e2be b84f edbd f9ec 15be 917d 59be
00000010: b559 8b3c 2b3c 1ebe 177d 47be c213 833d
00000020: 24dc a6be 70ff 213d 16ea f43d 3d87 88bd
00000030: 52b4 6bbf 48d7 f0bd b947 5c3d 0fc4 b3bd
00000040: 3617 22bd a356 45be c20a d4be 4073 82be
00000050: c28a 493c d021 57bd 6c41 55bd fcff 88be
00000060: 89b9 f4bd 4c0a 9bbe 1ab9 f6bd f161 adbe
00000070: ddba 37be 896a d5be 6901 0bbe 4f10 e7be
00000080: b94c ebbe b57d 8dbe df00 2ebe 1068 923c
00000090: 24aa 143d 525e 04bc d9b2 8bbc 87ff 53bf
000000a0: ce3a 2dbe 45d5 063d 338d 17bc 4bcf b73d
000000b0: 1e15 0bbe 7cf2 94bd f7ea 81bd 32bb 803e
000000c0: 8d3b b9be d50a a33b a2fa 24be 7ac6 a3be
000000d0: f030 39be 0dab 893a a5e3 abbe 629a 0c3e
000000e0: 231a 1cbe b844 5f3d bc77 11be af19 58be
000000f0: e68c 53be de1d b0bd 2013 3abd b19e 3ebe
00000100: 1e7c 1e3c 9bbe a13e 0d2f 563c 6862 aabd
00000110: ccaf 773c 2bd5 c13b 1f4f 403d 7e90 22be
00000120: 8e7a 583e c3ae 19be 23e0 2fbd bdf7 ad3e
00000130: f550 943e 1dca e23e 3c04 d83e aada 65be
00000140: 7f92 8e3b e5cd f83d 174f 813e d7c9 7a3e
00000150: ac78 8c3d e72e cebe eba1 93bd ad26 b3bb
00000160: 3500 25be 4793 563e a8d0 dfbe c166 843d
00000170: f6bd 443e a025 cfbd 663e 393d 3fff c63d
00000180: c332 02bd 8917 ccbc ed6b ddbd 281e aa3e
00000190: b87d 293e a8c9 53be 0b38 47bf 3f43 ef3d
000001a0: e78f 3b3e 1bb4 00bf fb95 d8bc 6477 0fbe
000001b0: 43b4 d33e 2fe7 2e3d ad49 3a3d 2b94 8abe
000001c0: 2176 b6be 1cd9 90be 245a ec38 d9ea ebbd
000001d0: 5b12 193e 161f 55be 3166 08be 2adf f33c
000001e0: 8dc5 4fbd 5528 c7bd cb60 04bd 0a3f c83d
000001f0: 699f 913e e053 153e d636 fdbd 6037 75bd
00000200: 8bd1 c13e beb8 a5bf b044 5a3e da73 f6be
00000210: eef3 16be 14cb abbe 3ba1 8cbe a520 833d
00000220: 2d56 c8be f05b e6bb 1349 ba3b b641 4b3e
00000230: 8dda b1be 0b24 95be 5082 ce3e 5aad d83d
00000240: b99d 95bc 546d 343e c289 033e aa11 0dbe
00000250: 80e2 1abf c08c 25bb 77fe 1abf 006d 443e
00000260: bdf9 2d3c 9cb8 02bf 9357 54bd f1d5 1c3e
00000270: 0695 2a3e 7197 ffbe a6a5 123e 2c11 ba3d
00000280: 5ccc 6fbe 44ea 943d 4029 253e bc33 713f
00000290: 4ff3 98bc 6dda 2bbe 82da 0d3e 7f7b e03c
000002a0: e2bb fe3d c63f 94bf bc27 4b3e 3ccb a3bd
000002b0: 640e 283d 8def 0bbd 9216 023f 3b89 443c
000002c0: 2843 0c3e de68 d3bd d0cd fa3d fb87 a0bf
000002d0: 06df d23d 7725 003d 6809 563d 7f2b dd3d
000002e0: 869d 02be c60f 29bf d815 6abe 8231 7b3c
000002f0: 652e 27be 4c48 4f3e b07b 493d 33fb 1abe
00000300: dbe0 70be d97c fdbd 9d9a 75bb 388c afbe
00000310: ad44 b5be 4989 19be 580b 013d d68a 0f3e
00000320: fcb2 1b3e 0994 233d 6e55 093e 9548 aabe
00000330: 3829 1dbe c8bd 22bc cfaf ffbd 7531 0f3e
00000340: 151a 5bbe 7549 f2bd 145b 6ebd d0e1 4b3e
00000350: 3c1c 19be deb0 233e 5304 e93e ea33 50bb
00000360: 8165 6d3e c4e5 f73d 122e 333e e656 cbbe
00000370: de81 7eba 4b73 02be 884c 3eba 24f6 5abe
00000380: 3079 cc3e 6b0b 84bf 9a41 cd3c 8883 e03e
00000390: 4cc5 c5be 970c 8e3c 44a4 efbe 9dfa bfbd
000003a0: 048f f9bb 8568 14bf f9cc ec3d 1210 773d
000003b0: f8a2 e6be 80ea e8bb 6c71 b1be 0162 823d
000003c0: 145d 593f dc69 053e b4da 4fbd ed5c bbbe
000003d0: 8a87 323e 5e77 803d e57d d33d 4809 b3bc
000003e0: 38a6 a2be 8edb 09bf 653c b8be 48e3 07bf
000003f0: 1080 7cbc 75cb a1bf 03c0 273e 78dc 1c3d
-0.44287798 -0.11587471 -0.14641179 -0.21239306 0.01701055 -0.1545264 -0.19481312 0.06400253
-0.3258983 0.039550245 0.11958711 -0.0666642 -0.9207202 -0.11759812 0.053779338 -0.087776296
-0.039572917 -0.1927133 -0.41414458 -0.25478554 0.012301149 -0.05252248 -0.052064344 -0.267578
-0.119494505 -0.30281293 -0.12047024 -0.33863786 -0.17942376 -0.41682842 -0.13574757 -0.4512963
-0.45956972 -0.2763497 -0.1699252 0.017871886 0.03629507 -0.008079128 -0.017053055 -0.8281178
-0.16916963 0.032918233 -0.009249973 0.08975085 -0.13582274 -0.07272813 -0.06343644 0.2514282
-0.36178246 0.0049756565 -0.16111234 -0.31987363 -0.18085074 0.0010503248 -0.33572116 0.13730767
-0.15244345 0.054508895 -0.14205831 -0.21103548 -0.20659217 -0.08599447 -0.045428395 -0.18615223
0.0096731465 0.31590733 0.013072741 -0.08319551 0.015117597 0.005915304 0.046950456 -0.15875432
0.21140501 -0.15008073 -0.042938363 0.33978072 0.28968015 0.44294825 0.4219073 -0.22446695
0.00435096 0.12148646 0.25255653 0.24491058 0.06858954 -0.4027016 -0.07208618 -0.005467257
-0.1611336 0.2095462 -0.4371388 0.06464911 0.1921309 -0.10114598 0.045225523 0.09716653
-0.03178669 -0.024913566 -0.10811601 0.33226132 0.16551864 -0.20682395 -0.7781989 0.11682748
0.18316613 -0.5027482 -0.026438704 -0.14010388 0.41348466 0.042700943 0.04548042 -0.27066168
-0.35637 -0.2829064 0.00011270147 -0.11519403 0.14948408 -0.2081264 -0.13320233 0.029769499
-0.05072551 -0.097244896 -0.03231887 0.09777649 0.28441933 0.14582777 -0.12363975 -0.059867263
0.3785518 -1.2947004 0.21315265 -0.48135263 -0.1474149 -0.33553374 -0.2746676 0.06402711
-0.39128247 -0.007030003 0.0056849807 0.19849285 -0.34737054 -0.2912906 0.40333796 0.10579939
-0.018263685 0.1761983 0.12845519 -0.1377627 -0.6050186 -0.0025260895 -0.6054453 0.19182205
0.010618624 -0.5106294 -0.05184133 0.15315987 0.1665841 -0.49920228 0.14321002 0.090853065
-0.234178 0.07271245 0.16129017 0.94219565 -0.018670706 -0.16782542 0.13852885 0.027402638
0.124381796 -1.1581962 0.19839376 -0.07997748 0.04102935 -0.034164 0.5081569 0.011995609
0.13697493 -0.10322736 0.12246287 -1.2541498 0.102964446 0.03128573 0.052255064 0.10799312
-0.12755403 -0.66039693 -0.22859895 0.015331628 -0.16326292 0.20242423 0.049190223 -0.15134887
-0.23523276 -0.123773284 -0.003747619 -0.34286666 -0.35403958 -0.14993776 0.03150496 0.14017805
0.15204996 0.0399361 0.13411495 -0.332585 -0.15347755 -0.009932943 -0.12484705 0.1398371
-0.21396668 -0.11830417 -0.058192328 0.1991036 -0.14952177 0.15985438 0.45511112 -0.0031769224
0.23183252 0.12104371 0.17498043 -0.39714736 -0.0009708683 -0.12739293 -0.0007259329 -0.21382958
0.3993621 -1.0315984 0.025055695 0.4385035 -0.38627088 0.017339988 -0.46805012 -0.093739726
-0.0076159257 -0.57971984 0.11562533 0.06031806 -0.4504621 -0.0071080327 -0.34656847 0.06366349
0.8490765 0.13028663 -0.05074568 -0.36594334 0.17434517 0.062727675 0.10326747 -0.021855012
-0.3176744 -0.5385064 -0.35983577 -0.5308118 -0.015411392 -1.2640215 0.1638184 0.038296193

conv.1.lin_rel.bias f4 [64]
00000000: 828a 573e 457c ebbd 2e73 d8bd 0e2d 09be
00000010: 1998 65bd f3fd 743d c56f 0abe 1207 0ebc
00000020: 2a01 013d 47db 83be 515b 8c3d 3af7 c33d
00000030: b1e0 f7bd bd37 f8bd f5c0 59bd 5577 a23d
00000040: 9361 523b d349 7c3d 2cc2 5ebd 62e1 1e3e
00000050: a59b dfbd 1036 afbe bbf3 143d f73a e6bc
00000060: 7123 80bd 249f aebc 5b02 0e3e d69e d23d
00000070: 8ba8 973d 4a80 87bd c810 503c 1da3 f53d
00000080: 1f09 0b3e 8519 073e b44f 3d3c 6a96 babc
00000090: 972f 043e 43de be3d 7a11 47bd af2f 13bd
000000a0: d227 88bd 2ac7 e63d a6aa 8cbd 987e 013e
000000b0: 833f ce3d 235e d0bc fba7 963d 7c03 683d
000000c0: e6e4 bdbd a35a d03c c6fd fc3d 9a6b 77be
000000d0: b0ee 9c3d 3e3f 983d 656e 443d 423a e4bd
000000e0: a60d 8abd e472 0b3d 3e91 d83d 00fe 4d3e
000000f0: ba0c 933d 7eb2 43bd 3a19 fcbc 0ea4 c83c
0.2104893 -0.11498312 -0.10568844 -0.13396093 -0.056053255 0.059812497 -0.13519199 -0.008668678
0.03149525 -0.25753233 0.06853355 0.09568639 -0.12103403 -0.12120006 -0.053162534 0.07932917
0.0032101616 0.06159384 -0.054384395 0.15515664 -0.10918359 -0.34220934 0.036365252 -0.028104289
-0.0625676 -0.021316119 0.13868086 0.10284202 0.07405194 -0.06616266 0.012699313 0.11994002
0.13577698 0.13193329 0.011554647 -0.022776801 0.12908779 0.09319737 -0.04860065 -0.035934146
-0.0664822 0.11268456 -0.06868486 0.12645948 0.10070708 -0.025435513 0.073562585 0.056643948
-0.092721745 0.025433844 0.12353091 -0.2416214 0.076627135 0.074339375 0.047956843 -0.11143924
-0.067408845 0.034045115 0.10574578 0.20116425 0.07180162 -0.047777645 -0.030773748 0.02449229

conv.1.lin_root.weight f4 [64, 64]
00000000: b95c 5dbe d380 4a3e 61ed 42be 3720 29be
00000010: fa91 f3bb f896 a9bd dc38 0cbd 054c ac3d
00000020: 34ea 79bd 2e2c c93d 01d2 193e 87ba 963e
00000030: f58c 00bf 74ca 05be adde e5be 2714 4c3d
00000040: f914 d2bc 6736 18be 0d09 523d 8a4a eabc
00000050: 211f 2e3e 1f5e b13d eeb8 4fbd 8009 063c
00000060: 3186 7cbf 97a1 96be 61d7 a63c a828 90be
00000070: 2b06 2ebd 079b 85bd 20ae 0bbe cc4b a5bb
00000080: 1b4b 763e 5945 1dbf 0a0f 343d 2914 97bd
00000090: c5d8 3d3e 4227 b83d a820 5f3e 72f4 3abd
000000a0: 49a3 b5bd 5285 2bbe 958c 853e cb69 f63c
000000b0: 141e 1cbe ebf7 95be 03f6 e7be d255 cc3d
000000c0: c753 07be d2f1 143e 9d7c 39be b13d 54be
000000d0: 4fa6 20bf e561 053e d98d afbe 4d71 dc3d
000000e0: c15e e9bd 6351 48bd 0b0c 6b3e d30c b8bd
000000f0: 3a6f 4a3e 31dd 9ebb 8d09 2abf 1b05 51bf
00000100: c738 183d bc32 573d ebdd e73b c4ac ad3d
00000110: e7a9 89bd ede8 2f3e bff0 b23d b4c7 a03d
00000120: 41af da3d 3c0d 943d 00c1 8cbd 2561 9b3e
00000130: 7ee2 883e faf1 29bd 2822 863d 8322 353e
00000140: 9a08 163e 14af 55be aa8e 93ba 6bb7 acbe
00000150: 01c4 a13c d0bb 623d dacc 753d 490c cdbd
00000160: 7807 1cbc 684e 0dbe 73e1 abbd fd23 023e
00000170: f3ce a43d 4345 a33d 9a86 cb3b 624c dd3d
00000180: 49e7 413e a5c9 a6be 91c3 443d 3bc0 293f
00000190: 791d 5a3d 83e9 1a3c 19df b8be 692c 673d
000001a0: 3a26 cdbc 857c ac3c b11f 483e ddfa 2e3d
000001b0: b038 303e 4378 cd3c 737e 903e 0e06 c93c
000001c0: 2eaa 403e fde5 c03d 5993 acbd b0cf 7c3d
000001d0: 254f 57be 82e2 75bd 62ac 4d3d 1879 553e
000001e0: eb3e b4be 690e 01be 6ffa 8a3e 5bd8 01be
000001f0: b34f c23c 4ae4 c4be 655d d0bd 2674 c7bd
00000200: e147 62bd 9ef6 d03b 3fd0 1a3e b672 b5be
00000210: 20f6 973e 53ac e2be 07b3 10be f397 953d
00000220: cc18 23be 75da 103e 533f 45bc 7329 b03e
00000230: 71dd 573f f246 313e 853b 043f c99e 0dbd
00000240: 4610 90bd cef0 ab3e 1802 99bd 83a8 6fbe
00000250: a90b e43d 0331 0abd dc1e a83c 5181 e43d
00000260: d271 a83d 1416 743d 6b00 d6bc 5ca0 fa3d
00000270: 1cb6 dc3d 9e29 a43c 0bdd c03d 3e7e 88bd
00000280: 34ef 563e aaf0 743e 643a d3bc 0b97 9b3e
00000290: 5d18 5f3e aaea e63d 6797 af3c c0d2 85be
000002a0: 833b 89bd 032c 5abe a953 243e 0949 3fbd
000002b0: 0ed6 523d df2e 023e 18cd 863d 6843 80be
000002c0: 83ea 7dbe a5b5 06be 7951 7c3e 4489 80bf
000002d0: bf8a bb3d 8c88 923d f0b0 603e 826d a1bd
000002e0: 7de0 253e a323 8d3c 30a5 5bbe bdd0 a03d
000002f0: e7a1 b83d 96d3 b23e ae07 663e 364f 6d3d
00000300: 433e 953d 732a d43d 3453 c73c 6000 4b3e
00000310: 55fc 413d 6a2a 453c 6ab1 77be fa23 cb3d
00000320: 0deb 1cbd af4a 04be cfd2 9639 024d 0b3e
00000330: 9443 2c3e 7938 823e f607 c73d a70e 89be
00000340: a78b 8b3c edb1 4b3e 3627 1fbe fbdd 4fbf
00000350: 2500 b9bc 0def 82bd c32f 9f3e aa13 30bf
00000360: 923a 97bb 665c 103f 6acb c13d d976 17bc
00000370: 6dd6 5a3c bb0e 163e fbca a53d 3afd 8c3d
00000380: 90ad f8be f5a4 f13d 3296 ae3d af6a d23e
00000390: 166d f53d 78eb 2f3d 19c3 08c0 4953 c1bd
000003a0: 3d9d 94bc b202 54bf 3057 853c cfa1 c93c
000003b0: 21c0 bf3e 40c8 163e 9424 59bd f76f abbc
000003c0: 42f6 833d 99fc 953d d60f a03c 4c42 b93f
000003d0: 30d7 ee3d c30f 5c3d 2ff3 acbe 414e 203d
000003e0: c82e d73e b9f7 19bf 5ed1 873d 42a1 b6bd
000003f0: 2331 1dbe 0548 703e 99e2 1dbc d4aa 6c3d
-0.21617402 0.19775705 -0.19035865 -0.16516195 -0.0074331732 -0.08280748 -0.034233913 0.08412937
-0.06101437 0.0982288 0.15021516 0.29439184 -0.50215083 -0.13065511 -0.4489645 0.049823906
-0.025644766 -0.14864503 0.051278163 -0.028599996 0.17004062 0.0866053 -0.050713472 0.008180976
-0.9864226 -0.29420158 0.020366373 -0.28156018 -0.04248635 -0.0652371 -0.13640642 -0.005044436
0.24052088 -0.6143394 0.043959655 -0.07376892 0.18539722 0.08991863 0.21789801 -0.045643277
-0.08869035 -0.16750076 0.26083818 0.030079743 -0.15245849 -0.2929071 -0.4530488 0.099773064
-0.13215552 0.14545372 -0.18113942 -0.20726658 -0.62753767 0.13025625 -0.3428791 0.10763798
-0.11395026 -0.04890574 0.22953813 -0.08986821 0.19768992 -0.0048481454 -0.66420823 -0.81648415
0.037163522 0.05253862 0.007076015 0.08480218 -0.067218594 0.17178698 0.08737325 0.0785059
0.10677958 0.07229087 -0.06872749 0.30347553 0.267353 -0.041490532 0.065494835 0.17688946
0.14651719 -0.20867568 -0.0011257727 -0.33733687 0.019746782 0.055354893 0.060009815 -0.10012109
-0.009523265 -0.13799441 -0.083926104 0.12709041 0.08047285 0.07972195 0.006211114 0.108055845
0.18935885 -0.32575718 0.04803807 0.66308945 0.053250764 0.009455088 -0.3610771 0.056438837
-0.025042642 0.02105547 0.1954334 0.04271971 0.17209125 0.02508176 0.28221473 0.02453902
0.18814918 0.09418867 -0.08426542 0.061721504 -0.21026285 -0.060030468 0.050213225 0.20846975
-0.35204253 -0.12603153 0.2714419 -0.1268019 0.023719644 -0.3845542 -0.101740636 -0.097389504
-0.05524433 0.0063770553 0.15118502 -0.3543908 0.29679966 -0.44272098 -0.14130794 0.07304373
-0.15927428 0.14145835 -0.012039023 0.34406623 0.8432227 0.1731222 0.5165332 -0.034575257
-0.07034354 0.33582157 -0.074711025 -0.23404126 0.111350365 -0.033738147 0.020522527 0.11157478
0.082248345 0.059591368 -0.026123246 0.122376174 0.10776922 0.020039376 0.094171606 -0.06664704
0.20989686 0.23919931 -0.025784679 0.30388674 0.21786638 0.11275227 0.021434499 -0.26137352
-0.06700804 -0.21305852 0.16047539 -0.04670051 0.05147367 0.12713192 0.06582087 -0.25051427
-0.2479649 -0.1315523 0.24640454 -1.004189 0.09157323 0.071549505 0.21942496 -0.07882215
0.16198917 0.017228907 -0.21449733 0.07852314 0.090152554 0.34927052 0.22463867 0.05793687
0.07287266 0.10359659 0.024331667 0.19824362 0.047359783 0.012034038 -0.24188772 0.09918971
-0.0383101 -0.12919115 0.00028767294 0.13603595 0.16822654 0.2543371 0.09718315 -0.2676899
0.017034365 0.19892092 -0.15542302 -0.8119809 -0.022583077 -0.063932516 0.31091127 -0.68780005
-0.0046151364 0.5639099 0.09462626 -0.009244644 0.013356787 0.14654057 0.08095356 0.06884237
-0.48569918 0.11799041 0.08524741 0.41097018 0.11983697 0.04294917 -2.1369078 -0.094397135
-0.018141383 -0.8281661 0.016276926 0.02461329 0.3745127 0.14724827 -0.0530134 -0.020927412
0.06443454 0.0732357 0.019538801 1.4473357 0.116621375 0.05372597 -0.33779284 0.03913713
0.4202788 -0.6014362 0.066317305 -0.08917476 -0.15350775 0.23464973 -0.009636545 0.057780102
