checkpoints/nci/model_NCI1.pt_l2_emb64_hid64_netdist.pt (torch, 98993 bytes, 9 tensors)

virtual_embedding f4 [64]
00000000: d599 273f 5428 eb3e 9644 3b3f a02b 523e
00000010: 2004 5a3f c927 633f 68ad 103f b849 e63e
00000020: 3bae 1f3f 2fad 703f 6d33 1e3f 70ba 7c3e
00000030: 1435 c93e 40c5 0c3c 9625 f93e 90d7 343d
00000040: 93d9 1c3f 4f5f 103f 8930 773f 3090 b33e
00000050: 6292 f23e 6416 ff3e 68f3 a13e a617 a53e
00000060: 1c3a 963e c8f2 933e 1fb1 0e3f c647 313f
00000070: 6585 193f 1d53 663f c8b1 df3e a553 253f
00000080: e053 b03d ad48 503f dcff 693f 5000 313f
00000090: e868 363e 0a7a f63e 9092 a93d 10eb 393d
000000a0: d1c0 603f a184 3b3f dac1 603f d793 523f
000000b0: d458 d73e 3241 3b3f f25b 863e 8080 be3d
000000c0: aadc d73e b494 513e ac51 773f a844 bf3d
000000d0: af79 773f 34b6 d43e 2e2c 173f 7275 6f3f
000000e0: d68b 893e b425 a13e 04f5 343f 4c24 bf3e
000000f0: 4d35 103f 49a6 503f 4629 063f 2321 573f
0.65469104 0.45929205 0.7315153 0.20524454 0.85162544 0.8873258 0.56514597 0.44978118
0.6237523 0.9401426 0.6179722 0.24680495 0.39298308 0.00859195 0.48661488 0.04415089
0.6126949 0.5639543 0.96558434 0.35070944 0.47377306 0.4982177 0.31631017 0.32244605
0.2934121 0.28896165 0.55739015 0.6925014 0.5996917 0.8997057 0.43690324 0.64580756
0.08609748 0.81360894 0.91406035 0.691411 0.17813456 0.48139983 0.08279908 0.04539019
0.87794214 0.7324925 0.87795794 0.82256836 0.42059958 0.73146355 0.26242024 0.09301853
0.4216054 0.20466882 0.96608996 0.09339267 0.9667005 0.4154526 0.5905179 0.9353858
0.268645 0.31474078 0.70686364 0.3733238 0.5633133 0.8150373 0.5240673 0.8403494

embed_transform.0.weight f4 [64, 165]
00000000: 7bfe 26bc 2e83 84bb 741e 3abd 1edf a5bd
00000010: af5a a7bc c753 e53d ed9f 37bd 800d 3cbd
00000020: 2b99 9b3d 5f39 45be e85f b8bb 7776 2abc
00000030: 2f35 c93d ea3b 943c 7119 113d 42e1 24bc
00000040: 348c d0bc 48d3 1bbc fd1e 0ebe 083a 013e
00000050: ceeb 8d3d 2f48 663d a2e3 853e 48b5 03bd
00000060: 8a04 a6bd 90ba 463d 6460 b3be 1dde 833c
00000070: e724 083d bf67 89be 2424 88bd 339f 143e
00000080: 2a83 753e 105d 90bc d82d 86bd 1ea3 0f3e
00000090: 230b c63d 8e66 cd3d 851d cd3d 7975 953c
000000a0: 6f4e 393d 7884 0fbd 076f 333b d1fb e1bd
000000b0: e7c4 38bd 342e b2bd 60eb 4d3d 07f6 533d
000000c0: 9902 95bc 8913 973d 1706 88bc dd08 583d
000000d0: 5ec9 f13c a298 6e3b ba39 3f3c 8e1f 6bbd
000000e0: cda2 ac3d 5532 00bd 8824 e5bc 3f21 b4bd
000000f0: 4334 2d3d 1152 643c 82ef 1dbe 0b44 9e3c
00000100: 6754 0d3d 2f8c 7fbc 8ebc 0c3d f7fe c33c
00000110: 6e51 ebbb d76e ba3c 02a2 c2bd d4ae ecbc
00000120: d8b7 82bd 87d8 803d 4e67 ac3d 7a1f 98bd
00000130: 030b 123d 51ef 83bd 9df2 eabb b5b6 dfbc
00000140: fb11 2ebd cf95 973d f567 713d 614c 70bd
00000150: 0e9c 443d 6678 c2bc e30d 973c f590 3cbd
00000160: 8765 e33d 9214 52bd 78ec 053b 9ef0 13bd
00000170: eb90 9c3d 6575 b63c cb19 e13e 6202 04be
00000180: 169b 803d d6b4 fe3b 080d b7bc ecb4 3bbd
00000190: 003b 843d 3de5 a93d 5601 0c3d 131f 203b
000001a0: 8e3c 13be aeb7 94bd e996 753c 5d26 48bc
000001b0: c33a 03bd 7a89 833d 8ae0 efbb 9dc4 513d
000001c0: 51f9 08bb 70af dc3c 4e07 573d fae1 cabd
000001d0: e0f4 723d a22c 313d 5672 123d 3ddf bf3c
000001e0: 14f4 8c3d 2b03 94bc 85ac b43d ea02 afba
000001f0: 6a01 bbbd e04a 7fbd 7a45 86bd 9092 153d
00000200: fa58 03bd 2444 b4bd 398b 9abc 56e0 6d3c
00000210: 184e e8bc d67d ffbb 64d4 8fbd 0e0c 4bba
00000220: dac3 a43c 484e 0e3d 8954 8d3d 391c 85bc
00000230: af61 7f3d 54da d1bc d552 b23c 0109 31bd
00000240: e012 8dbc f6bc 79bd 2bac 083e 8737 bdbc
00000250: 1257 dcbc ba26 bcbd 33a1 d9bc 78c1 1ebd
00000260: 37a5 efbc 4509 8a3d b360 e5bb 5da1 edbc
00000270: bb80 303c 936f b0bd 3636 973c 46ad 91bd
00000280: 3e26 393c 41f5 813d 6566 cdbd 45b5 2dbc
00000290: 4b7c 393b 7583 7c3c 4cf7 3e3c 7bd8 923c
000002a0: 621c 46bd 0ff1 ecbb 08ec ad3c 4fa7 2ebd
000002b0: 7b45 a03d c7bd cbbd 2942 43be 3161 a73d
000002c0: c8e3 c13d 8f86 ed3b 3bb7 933c c7a8 52bd
000002d0: 524e 333b 1093 193d 50d9 823e a565 5bbe
000002e0: 65f4 b0bd f43f 973d fabc c4bd 9446 113e
000002f0: e6f9 8f3e 34cb 69be 6941 a23d e01e c4bc
00000300: 6ff3 b73d b9bc 3abe 3b74 833e b4bd cfbc
00000310: 8ad6 d0be c997 873c ccba 93bb d0e4 3c3e
00000320: be80 32be 8485 6abd 40f4 bfbd c35f a1bd
00000330: 9226 1cbd 5d7e 353d b27a 95bc 9def b33d
00000340: f377 5d3d 28c6 053c 6dc8 963c a172 56bc
00000350: 2064 2e3c 6645 053c 9687 cb3d fcb1 8dbd
00000360: ed68 1abd dfd8 a0bc 3046 3d3d f745 9dbd
00000370: 56a9 383b 6f46 313e ae01 af3c f872 7c3a
00000380: c731 84bd c348 c93c e403 5ebd 73ac 53bd
00000390: 84c8 90bc d01d bbbc b2d9 933c 6f67 c43c
000003a0: 5ff4 8abb e64f 7c3d 45fc c8bb 28c5 57be
000003b0: b75c ac3c 58be 0cbb da4c bd3c ef08 7b3a
000003c0: 9713 b4bd 79a8 5e3d 9efb e1bc e102 96bd
000003d0: b41d 453d 246a 9fbd 3427 2a3d 327a 75bd
000003e0: 40fd 723b 55fd f0bc a7f1 0b3c bb58 823c
000003f0: 7fb1 933d 7ca1 4cbe 1ae4 11bd e0f3 a7bc
-0.010192509 -0.004043958 -0.0454392 -0.08099197 -0.020428983 0.1119762 -0.04483025 -0.045911312
0.07597574 -0.19260167 -0.0056266673 -0.010404221 0.09824597 0.018094976 0.035424653 -0.010063471
-0.025457479 -0.009510823 -0.13879009 0.12619793 0.06929742 0.056221183 0.26150233 -0.032155305
-0.081063345 0.048517764 -0.35034478 0.016097123 0.033238318 -0.26836964 -0.06647518 0.14513855
0.23975816 -0.0176225 -0.06551713 0.14027068 0.09670093 0.100293264 0.10015396 0.018244492
0.045240816 -0.03503844 0.002737941 -0.11034358 -0.045109656 -0.08700219 0.0502733 0.0517483
-0.018189715 0.07376773 -0.016604466 0.052742828 0.029514965 0.0036406894 0.011671478 -0.05740314
0.08429489 -0.031298 -0.027971521 -0.08795404 0.04228617 0.013935582 -0.15423396 0.019319555
0.03450432 -0.015597387 0.034359507 0.023925288 -0.007181338 0.02275793 -0.09503557 -0.028891958
-0.06382722 0.06291299 0.08418141 -0.07427879 0.035655033 -0.0644213 -0.007170035 -0.027308801
-0.042497616 0.074016206 0.05893703 -0.05866659 0.048000388 -0.023739051 0.018439239 -0.04603668
0.11103349 -0.05128915 0.0020435136 -0.036118142 0.076448284 0.022272775 0.4396499 -0.12891534
0.0627958 0.007773022 -0.022345081 -0.045826837 0.06456566 0.08295677 0.03418096 0.0024432584
-0.14378569 -0.072615966 0.014989593 -0.012216178 -0.03203846 0.06422706 -0.0073204683 0.051212896
-0.0020900557 0.026939124 0.0524972 -0.09906383 0.059315562 0.043255456 0.03575357 0.023421878
0.06882492 -0.018067917 0.08821968 -0.0013352309 -0.09131129 -0.062327266 -0.0655622 0.036516726
-0.032067277 -0.08802059 -0.018865215 0.014518818 -0.02835755 -0.0077969832 -0.07022932 -0.0007745632
0.02011292 0.034742624 0.069008894 -0.01624881 0.062349018 -0.025616802 0.021768013 -0.043221477
-0.017220914 -0.060971223 0.13346927 -0.023097767 -0.026896987 -0.09187074 -0.026566124 -0.038758725
-0.029253585 0.06740049 -0.007000053 -0.029007608 0.010772879 -0.08615031 0.018458467 -0.071131274
0.011300622 0.063456066 -0.10029296 -0.0106023 0.0028302844 0.015412201 0.01165564 0.017925492
-0.04836691 -0.007230885 0.021230713 -0.042640027 0.07825752 -0.099483065 -0.19068207 0.08172835
0.09467274 0.0072487066 0.018031707 -0.05143049 0.0027359915 0.037493765 0.2555642 -0.21425493
-0.086403646 0.07385245 -0.09606357 0.1418708 0.28120345 -0.22831422 0.07922632 -0.023940504
0.08981978 -0.18236054 0.25674614 -0.025359012 -0.4078868 0.016551869 -0.004508352 0.1844666
-0.17431924 -0.057256237 -0.09372759 -0.07879593 -0.03812272 0.044309963 -0.018246982 0.08785937
0.05406947 0.00816492 0.018406117 -0.013088853 0.010643989 0.008134222 0.0993797 -0.069187135
-0.03769772 -0.019634662 0.046209514 -0.0767936 0.0028177104 0.17312025 0.021363106 0.0009630169
-0.06454807 0.024570828 -0.05420293 -0.051678132 -0.017673738 -0.022841364 0.018048141 0.023975102
-0.004240557 0.061599635 -0.0061335885 -0.21071303 0.021040304 -0.0021475758 0.023107935 0.00095762213
-0.08792799 0.054359887 -0.0275858 -0.07324768 0.04812403 -0.077839166 0.041541293 -0.059930988
0.0037077218 -0.029417673 0.008541501 0.01591145 0.07211589 -0.19983476 -0.035617925 -0.02050203

embed_transform.0.bias f4 [64]
00000000: 9843 093d 64d2 53be fdee 563d 49a3 9fbd
00000010: 1d9b 1cbd 9fb6 9c3d 711d b63d af31 8b3e
00000020: fd9b 02be 7eaf 54bd b4d3 7bbb 00d1 1a3b
00000030: 48dc 1a3e 8966 3a3e eb53 fe3d bb06 863b
00000040: 8e84 e7bd 793f 49be 9008 aabc ea7a 7ebd
00000050: 52d8 383e 3a62 21be 0b0e aa3c 955b 1cbe
00000060: 9f32 1a3d 6e46 3a3e 25cc 54be c082 ee3c
00000070: 9778 d2bd 0818 6fbd 45bf 9ebc 39ae 86be
00000080: c427 acbd a62e 123e b5d2 393d b9d8 473e
00000090: 2a35 44bd 755a 42be d853 143e 79c3 60bd
000000a0: 30a3 09be 0425 d73d 886b ffbd 799c 44be
000000b0: c564 b3bd c044 c0bd 46b9 12be 3322 633e
000000c0: 6a86 113e a1c2 3f3e e1de 3b3e 08d8 b93c
000000d0: 392e aa3d 12eb 56bd 140a 5ebd ae36 a7bd
000000e0: 0660 b23c 6368 bcbd b4f7 513d 49a6 ae3d
000000f0: 9290 4e3d 6167 fcbb 1c86 fb3d 41b7 383d
0.033511728 -0.20685726 0.05247401 -0.07794816 -0.038233865 0.0765202 0.08892334 0.27186343
-0.12754817 -0.051925175 -0.0038425745 0.002362311 0.15123093 0.18203177 0.1241835 0.004090158
-0.1130458 -0.19653119 -0.020756036 -0.06212894 0.1805127 -0.15760127 0.02075865 -0.15269311
0.037645932 0.1819093 -0.20781 0.02911508 -0.10276907 -0.058372527 -0.019378314 -0.26304796
-0.08406022 0.14275607 0.04536696 0.19516267 -0.047902264 -0.18979819 0.14485109 -0.054873917
-0.13441157 0.10505107 -0.12471682 -0.19200315 -0.08759455 -0.09388113 -0.14328489 0.22181015
0.14211431 0.18726589 0.1834674 0.02268602 0.083095975 -0.052470274 -0.05420883 -0.08164726
0.021774303 -0.09199598 0.05126162 0.0852781 0.05043084 -0.0077027534 0.12281439 0.04509664

conv.0.lin_rel.weight f4 [64, 37]
00000000: ccdf c0be e080 0e3d 430e 1dbe a36e 0b3d
00000010: b9d8 dcbd df37 903e 25b3 97bd b5a4 e13b
00000020: 420b a13e 4a3e 153e ec53 9d3d cad8 edbd
00000030: 522a 18bd 050e 0d3d 756a ecbd 87dd c6bd
00000040: b185 fc3b e9b4 583d 3f58 df3d 4c22 02be
00000050: c460 edbd 8baf 1fbd 1932 0f3c 0166 19be
00000060: 2e12 a23e a4aa 103e a889 c43d 20ca 1fbd
00000070: 50b7 a2bc a158 96bd 223a 113e 1bb5 09be
00000080: ef56 22bd 0c2a 0fbe a5d8 9dbd b6ce 653d
00000090: 2c8b 843d 0f1f 4b3e 3c9d 683e 89f6 00be
000000a0: 5bf5 c4be fdec 053e 0907 c4be edd9 9dbd
000000b0: 42d9 1cbd bf8e 1fbe c614 29bd e69b b43c
000000c0: 1ef5 4dbd b0f3 a6bd ab5e b0bd cdf9 abbd
000000d0: 8da3 9bbd 5761 4abe 9d03 80bd 712e 3b3c
000000e0: 94c0 acbd 2dd0 4c3e 2fb6 20be d9d1 1ebe
000000f0: efb3 df3c d96a febc 4b45 1c3d 0bc0 b1bd
00000100: 9646 293d afab 973d ea9a b03c 6063 063e
00000110: f8ba 0e3e 5c5c ac3b 06fc f13d 2a80 15bc
00000120: 3407 19be 746d 02bd 3180 893b 5005 003e
00000130: dfdf f23d 7bb9 d83d 4639 42be 496e 4d3c
00000140: 1d9f 05be bd97 293d ba1d 1a3e 1dc5 883c
00000150: 740e 8f3d 5de7 22be 2904 f1bd 6fb0 ffbd
00000160: 8aae f23d a198 1cbd 32ed d73c 768b 073e
00000170: f099 f5bc e21c 623d e878 8e3d 88e2 613d
00000180: 38c6 033d eb54 88bc 661e 763d c3bf 203d
00000190: ab2b a13d 70e9 233e bd6e 1bbe 056f bcbd
000001a0: 5063 2dbd fb24 163e eb5d 16be 5f3d 343d
000001b0: 9612 543d 2b61 ad3d 68a0 05be f2fd 3c3e
000001c0: 6e84 263e d334 8fbd ad27 4ebe c379 72be
000001d0: f16c 193e 48c3 1b3e 6e82 713d 44fa 7bbc
000001e0: 1268 b2bd 3469 1e3d 9196 1dbd 2944 b43d
000001f0: 3d6d 043e ca5d f7bd dcc0 31bd cf2f 35be
00000200: ab6c e2bd 0cd2 4f3e 1d9f 9f3d 9a02 6dbe
00000210: e84c a7bd d475 253e 2f31 b1bd 0fad 18be
00000220: 04e9 1dbe f98c dfbd 3fad fabd 63d2 d43d
00000230: 8608 983d 4dee 1abe 9e35 0f3e 3a05 27be
00000240: d1ec eb3c 2c66 9dbd 0199 d73d aa41 b2bd
00000250: 2357 27be 9e88 013d df49 1fbe a97e 27be
00000260: a46f c93d fe33 503d b4bb 14be 2f0f 07be
00000270: 9e2c 093e 97e2 fe3c 6a5e c53d 1ec0 273e
00000280: b890 34bd beaa 093d d97c d5bd 9c49 45bd
00000290: 80da 04be d6ad 07be 25db 353c 250e 01be
000002a0: 5cc7 36be d79e e2bd a53a 873d 034c a1bc
000002b0: ccd3 e9bd 5f40 1b3d 8598 25be fc5c 0f3e
000002c0: c403 1abe a254 ec3d c9ae d2bc 488f 23be
000002d0: 6b00 1f3e ae4c b2bc 4771 8a3d 5432 f0bd
000002e0: 4df1 363e cc8b a93d 5bfb 9c3d 939a 67be
000002f0: 87b2 15be dec3 203e 03c8 733d 02f0 37bd
00000300: 25ce f6bb cf34 173c 41e2 bc3d 3243 a9bd
00000310: c1d7 16be d972 1f3e 5e3e 073e adb3 243d
00000320: 54ff 03bd e9c1 d5bd 378d 3bbc e37d c73d
00000330: 76da 0cbe 60be 27bd ca18 bdbe 8a3e 3a3d
00000340: c219 dd3d 973c c83b 1328 b83c 8783 813e
00000350: 28ef 3dbd 496a b13b 9f66 083e 0154 093d
00000360: c55a f1bd 442f 27be 8306 ab3d 8386 21be
00000370: d116 0c3e 0bab 01be b5fe dbbe e90b 593e
00000380: c247 3abd ec67 c9be 06e5 b33d 871b c4be
00000390: f8fe df3c 35a0 5bbd d56f 6fba 0809 0f3d
000003a0: 0563 f23d 4632 c5bd 7996 103d 42e8 193e
000003b0: 8162 3c3d 559e 1abe 4a17 3a3e 293b 433d
000003c0: 9a42 e9bd af3f c63d aadc b23d e684 2ebe
000003d0: 1677 e93c 7eba 0abe c5bf ccbd f533 06be
000003e0: feb1 03be 7a4e 293b 672d 62bc 6a3c 113d
000003f0: 2cf9 8c3d 4663 d43d 75c9 89bd be4f 273e
-0.37670743 0.034790874 -0.15337472 0.03404106 -0.10783524 0.28167626 -0.07407216 0.0068860897
0.31453902 0.14574543 0.076820225 -0.11613615 -0.037149735 0.0344372 -0.115437426 -0.09710222
0.007706367 0.052906904 0.109055035 -0.12708396 -0.11590722 -0.03898577 0.008739972 -0.14980318
0.31654495 0.14127594 0.09596568 -0.03901112 -0.0198628 -0.07341123 0.14182332 -0.13447993
-0.039633688 -0.13980883 -0.07707337 0.056105338 0.064718574 0.19836067 0.2271623 -0.12594046
-0.3846844 0.13078685 -0.38286617 -0.07707582 -0.03829313 -0.15581797 -0.041279577 0.022046994
-0.05028259 -0.081519485 -0.086118065 -0.08397255 -0.07599554 -0.19763695 -0.06250689 0.011424647
-0.08435169 0.20001288 -0.15694498 -0.15509738 0.027307479 -0.031056808 0.03815202 -0.086792074
0.04132708 0.07405793 0.021558244 0.13123846 0.1393851 0.0052600335 0.11815648 -0.009124795
-0.14944154 -0.031842664 0.00419619 0.12502027 0.11859106 0.105822526 -0.1896716 0.012538501
-0.13048978 0.041404475 0.15050402 0.016695553 0.069851786 -0.1590857 -0.117683716 -0.12484824
0.11849697 -0.038231496 0.02635822 0.13236794 -0.02998063 0.055203326 0.06956655 0.055147678
0.032171458 -0.016642055 0.060087584 0.03924538 0.07869657 0.16007018 -0.15178962 -0.09200863
-0.04233104 0.14662544 -0.14684264 0.04400384 0.051775537 0.08465799 -0.13049471 0.18456247
0.16261455 -0.06992497 -0.20132323 -0.23679261 0.14982964 0.15211213 0.058962278 -0.015379492
-0.08711256 0.03867455 -0.03847367 0.08802063 0.12932296 -0.12078436 -0.043396816 -0.17694019
-0.11055883 0.2029497 0.0779402 -0.23145524 -0.081689656 0.16158229 -0.08651959 -0.14909767
-0.1542092 -0.1091556 -0.12240075 0.103916906 0.07423501 -0.15129967 0.13985297 -0.16310588
0.028799446 -0.07685503 0.1052723 -0.08703931 -0.16341834 0.03162443 -0.15555523 -0.16356911
0.09835747 0.050830834 -0.14524728 -0.13189386 0.13395926 0.031113906 0.09637149 0.1638188
-0.044083327 0.033610098 -0.104242034 -0.048165902 -0.12973976 -0.13249907 0.011099611 -0.12603052
-0.17849487 -0.110654525 0.066029824 -0.019689566 -0.1141735 0.037903186 -0.16171463 0.14000314
-0.15040499 0.1153958 -0.02571811 -0.15972626 0.15527503 -0.02176508 0.06759887 -0.11728349
0.17865486 0.08278617 0.0766513 -0.22617559 -0.14618884 0.15699717 0.059516918 -0.044906624
-0.0075318986 0.009228899 0.09222842 -0.082647696 -0.14730741 0.15571155 0.13207385 0.040210415
-0.03222592 -0.10437376 -0.011447242 0.09740808 -0.13755211 -0.04095304 -0.36932975 0.0454698
0.107959285 0.0061107385 0.022480046 0.2529566 -0.046370655 0.0054142815 0.13320397 0.033527378
-0.11784891 -0.16326624 0.083508514 -0.15773968 0.13680579 -0.12662904 -0.42967764 0.2119595
-0.04547859 -0.393371 0.08783917 -0.38302252 0.027343258 -0.053619582 -0.0009133791 0.034920722
0.11835293 -0.096287295 0.035299752 0.15030006 0.04599238 -0.15099461 0.18172947 0.04766384
-0.11389656 0.096801154 0.087334946 -0.17042884 0.028499167 -0.13547704 -0.09997515 -0.13105758
-0.12860867 0.002583413 -0.01380477 0.035458006 0.06883463 0.103704974 -0.06727878 0.16339013

conv.0.lin_rel.bias f4 [64]
00000000: 0cf2 453e 0ce8 0bbe 4f0b aebd 9609 dbbb
00000010: 3804 303e e460 a23d 906f a3bd cc35 98bd
00000020: 7cf4 9dbb 5091 cfbc 027b 81bd 4055 853c
00000030: d42f 05be f79c adbc 5eb7 493e da7f f8bb
00000040: e566 3c3e 6875 653d e683 9a3d e613 c03c
00000050: 60d3 483e ca53 a93d d062 23bb 58e2 7bbd
00000060: f015 1fbe 3b5d e9bd 2464 9f3c 4f1c e7bd
00000070: 0b5a d23d 8e9b 893d c4f1 73bd bcbe 683d
00000080: 95f9 d93d b5c6 0b3e a4d1 65be 764f f0bd
00000090: d556 583e 010c c13d e286 c5bc f40f 2e3e
000000a0: 3d61 50bd 7646 47be e61c 643c 06af 42be
000000b0: 91e5 173e 1341 133d 6530 363e 1b93 69bc
000000c0: fcb7 9fbd bb31 1cbe 6597 4cbe b945 ecbd
000000d0: 5c15 6e3c fa22 46bd 6f5f 0bbe afba 21be
000000e0: 5503 22be 8650 a3bd 4403 cbbd b870 513e
000000f0: eb2a d0bc b8c3 a83d 19e3 4ebe 13e9 0abe
0.19330615 -0.13662738 -0.08498251 -0.0066844923 0.1718911 0.07928637 -0.07980263 -0.07432136
-0.0048204046 -0.025337845 -0.0632229 0.016276002 -0.13006526 -0.02119301 0.19698855 -0.0075836005
0.18398626 0.05602017 0.07544689 0.023446988 0.19611883 0.082679346 -0.0024930723 -0.061495155
-0.15535712 -0.113947354 0.01945693 -0.11284696 0.102710806 0.06719123 -0.059556738 0.056822523
0.10643307 0.1365002 -0.22443253 -0.11733906 0.21126874 0.09426118 -0.024112169 0.16998273
-0.050873984 -0.19460472 0.013922906 -0.19012079 0.14833666 0.03595073 0.17791899 -0.014256264
-0.07798764 -0.15253346 -0.19979627 -0.11536736 0.01453146 -0.0483732 -0.13610624 -0.1579387
-0.15821584 -0.07974343 -0.09912732 0.20453155 -0.02541109 0.082404554 -0.20203818 -0.13565473

conv.0.lin_root.weight f4 [64, 37]
00000000: 6deb 89be d5ec b3bd fdf7 903d 3a85 34bd
00000010: e68b 50be 2ed2 573e 4b3b c53d 9778 1cbe
00000020: a652 a43e c514 023e fca6 043f 9e9a 1cbe
00000030: d9ef 0dbd e1f3 e3bd 1f8e 37bb afa2 293e
00000040: a795 f83d a393 c03d 27c3 713e d845 193c
00000050: 952e 51bd 6ea0 86bd 8ec3 ab3e 61cd df3e
00000060: ca9e ee3d 905f 913e 26f7 abbd 9c0e 8e3d
00000070: 6c90 61be 26e3 a33e 4a2e 50be cdb5 54be
00000080: c2f2 db3d a036 4cbe f8c7 e53b f527 47be
00000090: 140b 213e 8a41 843d 5440 013d 0161 723d
000000a0: e401 20be 8444 c4be 8c04 67be 2f20 5c3d
000000b0: f893 7c3d d689 e6bc 6d59 30be 1c85 ce3d
000000c0: 53a0 13be 0558 8d3d 1efd cb3d 25e1 61bd
000000d0: bbc1 853d 7aa0 a2bd 6a98 b93c e1b0 90bd
000000e0: 29fe c3bc 885d 8b3e 1cac 95be 6eca 26be
000000f0: edbb 05bc 5b79 543d 1a28 d83d 1d74 b4bd
00000100: 0d91 70bd e020 bd3d 442a 1d3d 9872 013e
00000110: a3a6 71bd 2776 a73d c25d b8bc d096 d53c
00000120: 1b96 70bb 558f 8ebe 0c72 61bc b312 4ebd
00000130: c506 29be 0fad 8d3d 7964 bf38 daa0 853e
00000140: e5fc 7c3e 2dd8 eebc 97fc bd3d 71b8 16bd
00000150: 96de f7bd 3673 ee3d 91d2 553e cd32 043e
00000160: 26b3 12be e77b 1bbe 11c0 5cbd c8e4 f1bc
00000170: e13c abbd 6358 203d 6927 3fbe 43c4 1abe
00000180: 9aeb 41bd 9a07 2f3b a421 513d b5e3 86bd
00000190: 51fb 4fbc ba6b 89bd 0d2b d73b f8ce 0cbe
000001a0: 1ff8 14be 8bed c6bc 5219 2f3c cdbb 09be
000001b0: 4f74 1dbd 4a20 04be ffd6 603d 85d6 94bd
000001c0: 5bb0 b4bd 1cda f8bd cbc6 553e ad4e 993e
000001d0: 6edc 3e3e dbe9 8b3d 654b 083e 1eae 35bc
000001e0: cfa9 0fbc da10 9d39 5cf7 61bd da4f 1abe
000001f0: d57d 19bc 4e08 9a3d 88fc 523b f07e 843d
00000200: 525b 35bb 3493 8e39 8b4e 8e3d a48e 053e
00000210: 287a 913e 014b 913b 8e41 883b fce5 1dbe
00000220: d679 d03d 1751 bbbb 7d74 2d3b 9b46 703e
00000230: 366f 233b 594d cabd bfed f43e 3fe3 b0bb
00000240: 8580 ecbd 9d04 01be 3f5b 123f f114 513e
00000250: 1fd9 88bd a495 0b3e 9f2e ca3d de64 5cbe
00000260: 1b98 b3bc 90bd 083d 2d2d 5ebd e7f2 64bd
00000270: 5de6 8d3d f30f c1bc 5912 833e b11f 7f3d
00000280: 4bb2 c03b 22cf 7fbd bdbd ad3c 8e38 a43d
00000290: 20cf 9f3d e0d7 473e a1a8 a43e bf35 27be
000002a0: bab5 2d3e 44ed cdbd ba9b 3cbe 4987 873e
000002b0: fd4c e3bd 3b40 183e 4809 1b3e be91 e63d
000002c0: 6b2a 4fbe 03e5 41be 301b 393d 130e 3cbd
000002d0: 9d8d fd3a fab2 02be 07ec 3ebe 7fe0 78bd
000002e0: 8efb c03d 6cf6 dbbd 245a 963e 1f78 003e
000002f0: 5540 90bd 5486 93be b39e 8cbd 4450 343e
00000300: c6d6 23be 6e1b 4b3e b9c0 403d 15f9 1dbe
00000310: 7a72 a7bd 4435 443e ac4a d6bd fc16 63bd
00000320: 6180 123e 4e52 bdbd 1176 cc3d 8bed ce3c
00000330: 8b78 c7bc 6959 b8bd 245a 3fbe f5ef d6bd
00000340: ff8e c8bd cb93 c1bd de79 f6bd c259 a7bd
00000350: 5077 f6bd 7dc6 d93d 78f5 afbd 57a7 debd
00000360: 9e51 bdbd 1d53 cfbd a68d 8c3d 5e41 a03d
00000370: 7be2 1cbd 4d4e 2dbe b306 173e be20 43be
00000380: 9b6b 163d 35bd b0be 05d2 0abe ce13 023f
00000390: a74b 22bd 1a3d 15be e7ef 9bbd 2510 32ba
000003a0: 690c 43bd fa4f 993d 6090 fa3c 4130 593e
000003b0: 5fdd b8bb bc03 193d b924 eabd b000 e2bd
000003c0: 497a ac3e bab3 dabd ca65 8a3b b736 20be
000003d0: 34f4 7ebd b28e afbc cd18 9b3d a32e d03d
000003e0: b8ea 673d 2bb1 22bd f1ba 453e abf0 2c3d
000003f0: 6aca 573d c7e8 c23c 9bc8 2fbc 5ea0 f63d
-0.26937428 -0.087854065 0.0707855 -0.044072367 -0.20365867 0.21076271 0.0963045 -0.15280376
0.32094306 0.12703235 0.518173 -0.15293357 -0.034652565 -0.111305006 -0.0028008295 0.16565965
0.12137919 0.094031595 0.23609601 0.009355031 -0.051069815 -0.06573568 0.33547634 0.4371138
0.1165138 0.2839322 -0.08396749 0.0693638 -0.22027749 0.32009238 -0.20330158 -0.20772476
0.10739662 -0.19942713 0.0070123635 -0.19448836 0.15726882 0.06457813 0.03155549 0.05917454
-0.15625721 -0.38333523 -0.22560328 0.05374163 0.06166455 -0.028141897 -0.17221613 0.10083982
-0.14416628 0.06901554 0.09960388 -0.055146355 0.06531092 -0.07940765 0.022655685 -0.07064987
-0.023924904 0.27219796 -0.29232872 -0.16288158 -0.008162481 0.051873546 0.10554524 -0.08811209
-0.05873208 0.09234786 0.038370386 0.1264137 -0.058996808 0.08176833 -0.022505645 0.02607289
-0.0036710564 -0.2784373 -0.013760101 -0.0503108 -0.16506489 0.06917774 9.126304e-05 0.26099283
0.24705847 -0.029155815 0.09276693 -0.03679699 -0.12103002 0.116430685 0.20881106 0.12910004
-0.14326152 -0.15183984 -0.053894106 -0.029528037 -0.08361221 0.039146792 -0.18667378 -0.1511393
-0.047343828 0.0026707412 0.051057473 -0.065864004 -0.012694196 -0.0671 0.0065664113 -0.13750827
-0.14547776 -0.024283191 0.010687189 -0.13450547 -0.038441 -0.12902942 0.054892536 -0.07267479
-0.088227 -0.12150976 0.20876615 0.29942837 0.18638775 0.06831714 0.1331001 -0.011088876
-0.008768513 0.0002995793 -0.05516754 -0.15069523 -0.00936838 0.07521115 0.0032193977 0.06469524
-0.002767284 0.00027194025 0.06948575 0.13042694 0.2841351 0.00443399 0.0041582054 -0.15419763
0.10179488 -0.005716454 0.0026467138 0.23464434 0.0024938113 -0.09878034 0.47837636 -0.0053981836
-0.11547951 -0.12599416 0.5717048 0.20418145 -0.066820376 0.13631302 0.098721735 -0.21522853
-0.021923115 0.033383906 -0.0542423 -0.055895712 0.06928704 -0.023567175 0.25599936 0.062286083
0.005880629 -0.062453397 0.021208638 0.080185995 0.07803178 0.19515944 0.32159904 -0.16329096
0.16963854 -0.100550205 -0.1841878 0.26470402 -0.11098669 0.14868252 0.1514026 0.11258267
-0.20231025 -0.18935017 0.045191944 -0.04591186 0.0019344572 -0.12763587 -0.18644725 -0.06076097
0.0942298 -0.107403606 0.29365647 0.12545823 -0.0704352 -0.28813422 -0.06866207 0.17608744
-0.15999898 0.19834682 0.047058795 -0.15427049 -0.081761315 0.19160944 -0.10463461 -0.05544184
0.14306785 -0.09244214 0.09983457 0.025259754 -0.024349472 -0.09001429 -0.1868673 -0.10494987
-0.09792899 -0.094520174 -0.12034963 -0.08171417 -0.12034476 0.10633562 -0.08591741 -0.10871761
-0.09244083 -0.101232745 0.06862955 0.07824968 -0.038301926 -0.169244 0.1474865 -0.19055459
0.036723714 -0.34519354 -0.13556679 0.5081147 -0.03962293 -0.1457409 -0.07614117 -0.0006792567
-0.047619257 0.074859574 0.030586421 0.21209814 -0.005641624 0.037357077 -0.114327855 -0.110352874
0.33687046 -0.10678811 0.00422356 -0.15645872 -0.06224461 -0.021430347 0.0757309 0.10165145
0.05662033 -0.03971974 0.19309594 0.042221706 0.05268327 0.023792638 -0.01072898 0.12042306

conv.1.lin_rel.weight f4 [64, 64]
00000000: ae33 80be 634d 1ebc 2766 283d 7007 dcbc
00000010: 231c b5bd fecd 7dbe 6840 ddbd aabe e23c
00000020: b819 ac3d c067 533d d945 1a3d e8f8 513d
00000030: 45a2 6ebe 785d 553d 792d 583e 83c1 13bc
00000040: 40b6 8f3b 69e4 c33b bdc3 8ebc 1c27 2dbe
00000050: 8558 c0bd c701 d3bd ffa3 2e3e ee84 053d
00000060: d6b3 4b3d ebd4 ed3d da17 853d aff4 acbd
00000070: bbc7 423c cdf5 183e d101 8bbd cfde 30bd
00000080: 178b acbc 1122 83be b0ec e4bd 3e33 273e
00000090: 7c26 a63d 2855 e1bd 313b 8b3e 4572 49be
000000a0: 5e8d adbd 5d42 90be 3104 ff3d 58bb 4f3d
000000b0: c19d 11be 7e57 973c 6854 e33d 69fb ef3d
000000c0: 2e1a 1a3d 540b bcbc 04ba dcbc a6c6 803e
000000d0: ee5f babd fcd8 46bc 0610 debc cb4e db3d
000000e0: 7595 803d 440f a33e 766b 0bbe ec86 70be
000000f0: ff46 d0bc 1a0c 323e f0f6 8f3d 8734 96bd
00000100: 39e6 03be b9b6 2cbf 5a82 09bd 3b25 3b3c
00000110: 5cd2 fc3d cab4 30be f740 ccbd 340f 20be
00000120: c9ea 863b f6f8 a0bd 8628 70be 4d5a 4c3e
00000130: c06f 753e 75cd c63d c7e0 323d edaf dbbd
00000140: c50b babd efe7 acbc 27fa d03c 17df 3c3e
00000150: e538 9a3a 3361 cebe 7c9e 19be c853 7a3c
00000160: cf18 69bf 1ee8 b4bc 0670 0cbe 57fd 64be
00000170: 4718 ad3d eb9e 12bd 6dbd 5bbd 728f 80bd
00000180: 4c34 a93d e220 013f 2046 f8be e919 6a3d
00000190: ef4e 2d3d 4205 8ebd cdde b3be 5016 903d
000001a0: 1262 843d 947a 37bd 588e acbc 50fe d0be
000001b0: b76a 9a3d 0473 44bc 1cb7 ed3b 88a3 97bd
000001c0: 8546 8fba 527b d1be 6abd 24be 660e 83bd
000001d0: 9f60 203d 242a a8be 7969 bf3d 51f0 d2bc
000001e0: 3d3b a8be e6d9 8abe d65b 343e 1102 263e
000001f0: a13d 87be e873 8f3e b8b5 8b3d 5e16 22be
00000200: bf25 0d3e 5619 08bd f638 243e c1df d1bd
00000210: 1eae 48bd 204f 153d 90bf 293e 8d1e d83d
00000220: 7475 2dbe fd5e cdbd c8fb e93d 92c0 433d
00000230: dfa2 d23d e914 fcbd bc41 653e d964 893d
00000240: 90a4 2f3d c95f c73d c80a d3bc 3d5a c73d
00000250: 7d29 85be 0fb7 89bd 1809 dc3d 3c66 603d
00000260: e8fd bfbc d560 4a3d 4099 383d f592 ca3d
00000270: 7140 9f3d 37ab 37bc c6c2 8a3d 5a77 aa3d
00000280: 127b b33d 1c29 b83e fae1 2e3e 6ae2 b93d
00000290: 2a9e 99bd 4293 07be c853 40be be05 9c3a
000002a0: 59f0 c83d b146 293e 5d17 383e f3a1 e2bc
000002b0: dc0a 193d f6c8 9bba 09ff 393e 415f 10bd
000002c0: 67ef 9e3c 75f2 2dbe ef6f 563d a1e7 6d3d
000002d0: 41b3 c13d 3e41 953c 44d6 033e 5afc b93d
000002e0: 4dae 4dbe 9df4 bfbe f41f 82bd 7faf 143d
000002f0: 7878 ecbd 1d24 623e 9eb4 6c3d 418d 14be
00000300: a7eb bb3d 2628 333e 2447 13bd da35 1a3e
00000310: 240f 343b 40ed 17be 0553 5f3c e848 953d
00000320: 2536 39be 261e fdbb 48d6 803d bf96 163e
00000330: 3ebd 80be 3912 513b 767b 8bba 3e4e 543d
00000340: a48a 68bd 9e35 09be db1d 973d 8ed1 ce3d
00000350: 3ed8 943d 6177 083e fb0a 26be 9d6c ef3d
00000360: da7b 663e 4b99 0c3e f806 a7bd 7300 83bd
00000370: d908 a93d 1ed0 4bbd f9a7 a3bc 897d e13c
00000380: fa03 11be a6d7 5abd 5176 febd 63de 98be
00000390: 3eab 75be 2d57 333d 478a 9f3d 890e 2b3e
000003a0: 5acb 44bd 9ac7 56bd ad69 97bd d81d 5a3d
000003b0: 4d74 233d a19f 093d 1743 16bd ca60 1c3d
000003c0: c3f6 a63e 5f11 7d3c 410b 43be f1c6 c7bc
000003d0: 6a8f dc3d 8c51 e73d a670 f6bb ef7a e6bd
000003e0: 4af9 c4bd e9c6 a5be d003 94bd 70a1 143e
000003f0: bf82 293e 4349 dd3d 9859 613e 3086 c0bd
-0.25039428 -0.009662005 0.041113045 -0.026859015 -0.08843257 -0.24785611 -0.108033 0.027678806
0.08403343 0.051612616 0.03766427 0.051262766 -0.23304088 0.052091092 0.21111096 -0.009018305
0.0043857396 0.0059781563 -0.01742732 -0.1690945 -0.09391884 -0.103030734 0.17054747 0.032597475
0.04973205 0.116128765 0.0649869 -0.08445107 0.01188844 0.14937516 -0.06787456 -0.043181237
-0.021062417 -0.25611928 -0.11177957 0.16328141 0.08112809 -0.110025704 0.27193597 -0.19672497
-0.08474229 -0.2817563 0.12451971 0.050715774 -0.14220335 0.018474337 0.111000836 0.117178746
0.037622623 -0.02295462 -0.026944168 0.25151557 -0.091003284 -0.012136694 -0.02710725 0.10708388
0.06278507 0.31847584 -0.13615212 -0.23488969 -0.025424479 0.17387429 0.070295215 -0.073342375
-0.12880792 -0.6746631 -0.03357158 0.011422451 0.1234481 -0.17256466 -0.099733286 -0.156308
0.004117344 -0.078599855 -0.23452958 0.19956322 0.2396841 0.097071566 0.043671396 -0.107269146
-0.09084276 -0.021106688 0.025509907 0.18444477 0.0011766223 -0.40308532 -0.15001863 0.015278764
-0.9105348 -0.022083338 -0.13714609 -0.22362266 0.08451896 -0.035796087 -0.053647447 -0.0627736
0.08261928 0.504408 -0.48491 0.057153616 0.042311605 -0.069345966 -0.3513092 0.07035506
0.06464018 -0.044794634 -0.021063969 -0.40819025 0.075398855 -0.0119903125 0.0072544944 -0.07404238
-0.0010931051 -0.40914398 -0.1608788 -0.06399231 0.039154645 -0.3284465 0.09346289 -0.025749357
-0.32857695 -0.27119368 0.17613158 0.16211726 -0.26414207 0.28018117 0.068217695 -0.15828845
0.1378393 -0.033227287 0.16037354 -0.10247756 -0.048994176 0.036452413 0.16576982 0.10552702
-0.16939336 -0.10027883 0.114249766 0.04779107 0.102849714 -0.12308676 0.22388357 0.06708688
0.04288155 0.097350664 -0.025761977 0.097340085 -0.26008216 -0.06724369 0.10743922 0.054785
-0.023436502 0.049408752 0.045068026 0.09891311 0.07775963 -0.011210254 0.06775431 0.08323546
0.08763708 0.35968864 0.1707839 0.09076388 -0.075008705 -0.13239768 -0.1878196 0.0011903567
0.09811468 0.16530873 0.17977662 -0.027665114 0.037363872 -0.0011885453 0.18163694 -0.03524709
0.019401265 -0.16987021 0.052352842 0.058082227 0.09458018 0.018219586 0.12874705 0.09081335
-0.20086022 -0.37491313 -0.06353751 0.03630018 -0.11546415 0.22084089 0.057789437 -0.14507009
0.091758065 0.17495784 -0.035956517 0.15059605 0.0027474845 -0.14836597 0.013630633 0.072892964
-0.18087061 -0.0077245412 0.06290871 0.14705943 -0.2514438 0.003190173 -0.0010641653 0.05183243
-0.056772843 -0.1339936 0.07378741 0.10098563 0.072678074 0.1332679 -0.16215126 0.11690638
0.22508183 0.13730352 -0.08155626 -0.0639657 0.08253641 -0.049759023 -0.019977557 0.02752568
-0.14161673 -0.053428315 -0.12424911 -0.29857168 -0.23991105 0.04378431 0.07790046 0.16704763
-0.048045494 -0.05243645 -0.07393203 0.053251117 0.039905835 0.0335995 -0.036685076 0.038178243
0.3261014 0.015446036 -0.19047262 -0.024386855 0.107695416 0.11294851 -0.007520753 -0.112539165
-0.096178606 -0.3237832 -0.0722729 0.14514709 0.16553782 0.10804989 0.22006834 -0.09400594

conv.1.lin_rel.bias f4 [64]
00000000: a944 c23d 5c82 53be 3de6 27be 4d8f 4abe
00000010: 90b2 6dbd c67c 9f3c 9764 17be a626 9b3c
00000020: ee73 353d 0580 e4bd 9524 103b 3fc4 a23d
00000030: d417 21be bcdf 16be 7455 68bd 8786 793d
00000040: bbeb 8d3d 2f8d 553d 1fd6 cabd c1ae ac3d
00000050: 3077 09bd a30b bcbd 5cce 643d 67e8 9b3c
00000060: 1705 29bd 98af 2b3c 6004 613d fa4a 343d
00000070: 9f93 7b3d e88b 4dbb eebb cebc 770e 0d3e
00000080: 6a42 ac3d b4dc 5d3d 396d 833d fe18 1abd
00000090: 0ed5 a23d 8c60 4c3d b9af debc 9e22 6a3b
000000a0: 5590 bebc 2aed aa3d caec 08bd 25e6 a23d
000000b0: 2ac8 bebd 30ab 04be 4a18 af3d 2a98 113e
000000c0: 303a bbbd 7a16 3f3d c113 e23d 0dcc 79bd
000000d0: 8174 a23d 0bb6 b33d 016f 9a3d 94f7 66bc
000000e0: 5ee4 553d ac5e 923c b741 2e3d 7d4e 833d
000000f0: 6eef 223d c465 03bd 910e a2bc 62fb 3cbc
0.09485752 -0.20655197 -0.16396423 -0.19781227 -0.05803162 0.019468676 -0.14784466 0.018939327
0.044300012 -0.1115723 0.002199446 0.07947587 -0.15731746 -0.14733785 -0.05672212 0.06091931
0.06929728 0.052136596 -0.099041216 0.08431769 -0.03356093 -0.09181907 0.055860862 0.019031717
-0.04126462 0.0104788765 0.054935813 0.044016816 0.06142008 -0.0031363908 -0.025236096 0.13775049
0.08411105 0.054165557 0.06417317 -0.03762149 0.07950793 0.04989676 -0.0271834 0.00357262
-0.023262182 0.08346017 -0.033428945 0.07954053 -0.09315522 -0.12955928 0.08549555 0.14218202
-0.09141958 0.046652295 0.11038924 -0.060985614 0.079323776 0.08774956 0.075407036 -0.014097113
0.05221974 0.017867409 0.04254314 0.06411455 0.03977912 -0.032079473 -0.019782336 -0.011534544

conv.1.lin_root.weight f4 [64, 64]
00000000: 6ec6 bfbd 18ca ee3d 4685 2b3e 32aa 95bd
00000010: b504 42be feb1 d7bc ee03 1fbd c87f abbc
00000020: ad25 62bc c3d9 a73d d841 9a3b 3317 e3bc
00000030: 56c4 df3d f6da 283e 5b0b e73d 7598 06be
00000040: 9a9c 05be d58f 9a3d dfd5 f93d 24c2 063e
00000050: bb35 673d a0ef 7fbd f1ac 88bd dde5 9abd
00000060: ec20 0c3e 9039 f7bc 1615 803c 04b4 d6bd
00000070: e4a5 32bd 5961 45be b439 933c df17 863b
00000080: 4773 84bb e61e 523e 054c 423e fac1 003e
00000090: 265c 6d3c 2321 4e3c a238 3fbd b2dc 643c
000000a0: f71c efbc 38a2 933e e6b6 d63d f867 06be
000000b0: 4b12 a3bd de72 85bd 88df fe3d b8d2 8b3c
000000c0: 180d 99bd 7565 7ebc 2f2a fd3d 11ba 8b3d
000000d0: 845a 3e3d 49e4 823d dc0e adbc a4b5 1bbd
000000e0: ac15 d33b 4058 033e e20c 153e 5f86 acbd
000000f0: 85ee 333e e13d e13d 1d97 033d 3dcd 5bbd
00000100: 09c9 ba3d cb3c 3ebd c3f7 063d 5239 d93d
00000110: 452f 893e c07f 983d 7b43 9a3e 4998 f73d
00000120: 2115 61bd 1b16 02be 2a46 143e acd9 2d3d
00000130: 8121 39bf e001 9ebd 23b7 9ebd e3e6 de3d
00000140: 274f 193d 3c2e 56be 7bb8 bfbd 9e23 9a3d
00000150: 38d6 d6be 898d 08bf 56d8 30bc b24e 90bc
00000160: 0522 a2be 415e 383d 80ed 233d c38d 063e
00000170: f091 be3d 8a3e 78bd 3c1b bb3d 5b1e 5d3c
00000180: 77f2 9f3e 9794 66bf 931e 333d 5491 273e
00000190: b626 57be 83ca d3be 870e e4bd 161f 9dbd
000001a0: f0a3 43bd 1506 dd3e ec76 4e3e 4fa1 97bd
000001b0: 1e8b b13d 376b 4b3e 553d a9be 5653 9bbe
000001c0: 6088 3b3d c532 0fbf 9139 2f3d cda9 fbbd
000001d0: c719 1bbe 46da 4e3d 511a 0c3e 96e0 0e3e
000001e0: 3aa9 e6bd 60ba 06bd dc56 1b3e fde3 f5bd
000001f0: 0633 fabc cd4f 83be 4a0c 793e 8a01 3aba
00000200: fa47 aa3d 5214 e13c 65df cb3d 3ab5 5bbe
00000210: 7f1c f73d 012b 8fbe 8c14 e5bd 64b9 363d
00000220: 1f2e 39be c7ee bd3c 9242 e7bd 5902 a33e
00000230: c029 1e3e cd38 49bf f5bd e93d 59b1 963c
00000240: 99ef 26be 8eb9 0a3e c8b9 3abe 69dd ba3e
00000250: 1aa3 06be 7fc2 dfbd 3bab 58bb f989 633d
00000260: 1b95 f03d ce27 febc 5707 0b3d 8aa5 2a3e
00000270: fe78 bc3d b6a0 1d3d 95be 663c e97a 0b3c
00000280: 6f8e 023e 8c5b 483e 5047 6abd c97c 173e
00000290: 8fa4 ddbd d8a8 ab3d cfa1 f0be 2195 44bd
000002a0: f4b2 01bd b064 c33d 8854 033d fcb5 e0bd
000002b0: 7c62 04bd a73a 103d 874a 82be 0278 59be
000002c0: 293d 153e e0a7 93bd ecbb 123e f5e9 2f3d
000002d0: 22ea 9cbc 6a20 843d de86 4d3e 53eb 17be
000002e0: 6429 713d 1ab7 6dbe 1c87 7dbe 32d0 a0bd
000002f0: d598 853b eae2 143d 2528 e63d c33d a43c
00000300: 861b ebbc db61 ca3d 82ae 34bd 1fc1 4b3d
00000310: c779 5ebe 86dc 073e 7dd5 903c 89cf 7e3d
00000320: cee2 2d3d e8e5 33be 43d8 1bbd fe40 fd3d
00000330: 6921 86bd 6c4d 48be 21bf b5be 0d0f 013c
00000340: cede 663d 26d9 34bc d4ff 2fbd 45e7 6cbb
00000350: d7cc b2be 6a0c 1ebd 341b 923d 06d4 9ebd
00000360: f59e 0bbe acfe 503b 3fd2 ea3d 99dc 44bc
00000370: af00 653d 6234 193e af88 e33d 78de 073d
00000380: b9cf 913c 9b64 46bd b4ed 883d 107e a3be
00000390: 11ee 9c3c 36c1 b0bd cca7 833e 70fe 01be
000003a0: cd24 3ebd 5e0c 203e 5e5a 893c 473e c9bd
000003b0: f617 c23c 60c0 44bd 851e 153c 8e5c 8a3d
000003c0: 822b 2d3e 9784 783e 9df2 cfbd eab0 a83d
000003d0: a4a3 b53d 7204 3f3d 21ed 413e 63fc 5a3c
000003e0: b95f b63d 8da2 103e 0a41 6abc abcc 0abe
000003f0: 82e9 213b e547 c13e 6f88 523e fb16 afbd
-0.09364019 0.1165964 0.16750059 -0.07307853 -0.18947108 -0.02632999 -0.038822107 -0.020934954
-0.013802928 0.081958316 0.004707556 -0.027721023 0.1092612 0.16489777 0.11281463 -0.13144095
-0.1304802 0.07546965 0.12198996 0.13159996 0.056447726 -0.062484384 -0.06673611 -0.07563374
0.13684434 -0.030178815 0.015635055 -0.10483554 -0.043615237 -0.19275416 0.017971851 0.004092201
-0.0040420624 0.205196 0.18974312 0.12573996 0.014487302 0.012581143 -0.04668487 0.0139686335
-0.029188616 0.288347 0.10484104 -0.13125598 -0.079624735 -0.0651605 0.12444979 0.017068252
-0.074732006 -0.015527119 0.123615615 0.06822599 0.04647304 0.06391198 -0.02112525 -0.038015023
0.0064417925 0.12826633 0.14555696 -0.08424067 0.17571457 0.109981306 0.032126535 -0.053662527
0.09120376 -0.046444695 0.032951128 0.10606636 0.26793876 0.074462414 0.3012961 0.12089593
-0.05495179 -0.12703745 0.1447989 0.042443916 -0.7231675 -0.077152014 -0.07749774 0.10883882
0.037429 -0.20916075 -0.09361359 0.07526325 -0.4196031 -0.53340966 -0.010793766 -0.01761565
-0.3166658 0.045011763 0.04002142 0.13140015 0.09305179 -0.060606517 0.09136054 0.013496007
0.31239673 -0.9007048 0.04373033 0.16364032 -0.21010861 -0.41365442 -0.11135583 -0.07671945
-0.047763765 0.43168703 0.20162553 -0.07403814 0.086691126 0.19865118 -0.33054605 -0.30337018
0.045784354 -0.55936843 0.04277951 -0.12288246 -0.15146552 0.05050113 0.13681914 0.1395286
-0.11262746 -0.032892585 0.15169853 -0.12006376 -0.030541908 -0.2564682 0.24321094 -0.0007095566
0.0831451 0.02747551 0.099547185 -0.21455851 0.12065982 -0.27962497 -0.1118556 0.044610396
-0.18084 0.023185147 -0.11291994 0.3183773 0.15445614 -0.78602296 0.114131846 0.018395113
-0.16302337 0.13547346 -0.18234932 0.36497048 -0.13148156 -0.10925769 -0.0033061046 0.055551503
0.117471896 -0.03102484 0.033942547 0.1666471 0.09202765 0.038483344 0.014083524 0.008513191
0.12749647 0.19566172 -0.057196915 0.14793696 -0.10822403 0.08381814 -0.4699845 -0.047993783
-0.031664804 0.09540689 0.032063037 -0.10972211 -0.032320485 0.035212185 -0.25447485 -0.21237186
0.14574112 -0.07209754 0.14329499 0.04294773 -0.019154612 0.06451495 0.20070979 -0.14835863
0.058877364 -0.23214379 -0.24758571 -0.0785221 0.004077057 0.036349215 0.11238126 0.020048982
-0.028699648 0.09881946 -0.044111736 0.04974472 -0.21726142 0.13267717 0.017679924 0.06220964
0.042452626 -0.17568171 -0.03804804 0.12365912 -0.06549341 -0.19560784 -0.35497382 0.007877124
0.056364827 -0.0110381 -0.042968586 -0.003614859 -0.34921905 -0.038586058 0.07134095 -0.07755284
-0.13634856 0.0031890078 0.114658825 -0.012015485 0.055908855 0.14961389 0.11110055 0.033171147
0.017799245 -0.04843579 0.06685963 -0.31932116 0.019156488 -0.08630602 0.25713956 -0.12694716
-0.046421815 0.15629718 0.016766723 -0.098263316 0.023693066 -0.048035026 0.009101515 0.06755935
0.16911128 0.24269329 -0.10153697 0.08236869 0.088691026 0.0466351 0.18938114 0.013365838
0.089049764 0.14124508 -0.014297733 -0.13554637 0.0024705832 0.37750164 0.20559858 -0.08549305
