checkpoints/nci/model_NCI1.pt_l2_emb64_hid64_netot1.0.pt (torch, 98940 bytes, 9 tensors)

virtual_embedding f4 [64]
0.582113 0.17381087 0.71956 -0.11596083 0.85276145 0.89167595 0.6993092 0.5889236
0.66942185 0.74586654 0.54460424 0.46157706 0.49574453 -0.30420393 0.6856653 -0.20877263
0.4670183 0.28906402 0.8437588 0.5851486 0.35693136 0.507821 0.5682376 0.008085751
0.48095176 0.5469642 0.6363698 0.67011786 0.3855353 0.69853216 0.5959895 0.6796841
-0.037969477 0.75033057 0.74147046 0.94119626 -0.16762102 0.60232633 0.38090688 0.32996425
0.7291655 0.9213975 0.8111813 0.7098637 0.6529617 0.51420456 0.18163341 0.43092114
0.6023922 0.5233998 0.9511105 -0.10986783 0.8867378 0.0637133 0.7694219 0.9039838
0.5619557 0.57580376 0.6497041 0.55188584 0.73275775 0.6040728 0.73364735 0.8202115
00000000: 5c05 153f 7afb 313e 1635 383f df7c edbd
00000010: 934e 5a3f e044 643f ed05 333f b2c3 163f
00000020: 3b5f 2b3f 1cf1 3e3f 2f6b 0b3f d453 ec3e
00000030: 3ad2 fd3e 9ec0 9bbe c387 2f3f 7ec8 55be
00000040: 061d ef3e 3300 943e 9400 583f 4ccc 153f
00000050: b5bf b63e 8f00 023f 0578 113f 197a 043c
00000060: 4f3f f63e d905 0c3f 22e9 223f d88c 2b3f
00000070: e264 c53e 01d3 323f c592 183f c7ff 2d3f
00000080: e285 1bbd aa15 403f 02d1 3d3f 3df2 703f
00000090: d8a4 2bbe 0f32 1a3f 3a06 c33e 13f1 a83e
000000a0: 97aa 3a3f b5e0 6b3f 94a9 4f3f a1b9 353f
000000b0: 7f28 273f e9a2 033f 1cfe 393e b2a1 dc3e
000000c0: 6036 1a3f 87fd 053f fa7b 733f 6302 e1bd
000000d0: 4001 633f 1e7c 823d d5f8 443f 7b6b 673f
000000e0: 54dc 0f3f e067 133f 0253 263f 6448 0d3f
000000f0: 0396 3b3f 84a4 1a3f 50d0 3b3f 62f9 513f

embed_transform.0.weight f4 [64, 165]
-0.053624712 -0.056926258 -0.07018502 -0.08639591 -0.07362244 -0.18592805 0.056787178 0.0053242813
-0.16242534 -0.15601078 -0.13449016 -0.013273312 -0.15857787 -0.01482498 0.083221726 -0.07828301
0.022490848 -0.110519886 -0.07293493 -0.08544623 -0.070609406 -0.14526756 0.022039223 -0.11856272
-0.11869781 -0.08682869 0.2249751 0.01803703 0.031990092 -0.12880091 -0.1091675 0.106757745
0.14113498 -0.15767218 -0.032150608 0.07177271 0.09433241 0.005160745 0.013285776 0.035305757
0.063869275 0.017272096 0.007714019 -0.0096272295 -0.009834468 0.013393247 0.032642346 0.03666172
0.021971853 -0.02532115 0.030280083 0.030751405 -0.00933496 0.01689081 0.014461591 -0.014029962
0.0036445137 -0.0015488362 -0.010429725 -0.0026932938 0.014664953 0.006021828 -0.02258081 0.009562958
0.020924034 0.0040449584 0.016854912 0.019591209 0.041272216 0.0270986 0.0006200879 -0.020491516
-0.012313294 -0.00069114164 0.0027888182 0.0031034362 0.038348246 -0.023523435 -0.0027868557 -0.0061508724
0.0036304041 -0.030274462 0.018940905 0.04297436 0.0008943751 0.02964701 0.0026322792 0.02047444
0.010014606 0.0352572 0.07882477 0.0065998994 0.0265067 -0.03750091 -0.051228497 0.0089282775
-0.031416953 0.0066231526 -0.05735126 0.008076617 0.032667287 0.035371047 -0.054721296 -0.31263936
0.32019752 -0.04492387 -0.32507968 -0.46564415 0.26428548 -0.08519256 -0.21469364 -0.28531298
0.08061098 0.16670255 -0.092591226 -0.23596586 0.2981966 -0.114891194 0.23492742 0.22095215
-0.016216319 0.11596279 -0.051080745 0.13708554 -0.09360046 0.062507674 0.48367798 -0.009003872
-0.289868 0.50557625 0.1596417 -0.006559583 -0.1732557 -0.24785517 -0.089630246 -0.25261238
-0.23884504 -0.15174498 -0.043143664 -0.09604861 -0.28494608 -0.07327116 -0.08165125 0.40339074
0.07733204 0.23891859 -0.19136544 0.043926656 0.116548546 -0.09183146 -0.15133092 -0.013478849
0.6724484 -0.28413513 0.21066709 0.16209415 0.23020658 -0.2207112 -0.40612927 0.24423076
-0.058231864 -0.38853824 0.23642631 0.049688097 0.105519556 0.04628395 0.045781713 0.03088963
0.016872175 0.08992849 0.06214765 0.06924399 0.07109149 -0.050801378 -0.019516464 0.01852632
0.034487925 0.013042931 0.06873883 0.068792455 0.0043829526 0.0029584027 -0.0024269777 -0.06239151
0.021106552 -0.006282136 0.039011676 0.21631342 0.021653237 0.11709513 -0.027748318 0.047017854
0.0813648 -0.053285953 -0.0076587116 -0.08359032 0.16581132 0.034840588 -0.113554545 -0.00012942663
0.18076453 0.19285718 -0.0060079675 -0.011908522 0.006044028 0.0064355535 -0.004856652 -0.018395241
-0.00805662 -0.008921363 0.014569553 0.002071643 0.0015223615 0.0077236756 0.046908803 -0.088160306
0.003907393 -0.029134028 -0.00033959944 0.031223401 0.0060112746 0.02086155 0.008193734 0.009754603
-0.030035706 0.012910505 0.0012339692 -0.022677427 0.018420639 -0.00486179 0.0043130736 0.015279977
-0.01803688 0.008587244 0.017876215 0.005899799 0.03640092 -0.013283269 -0.02065085 0.019389492
0.026562642 0.0130204735 0.023281926 0.03667592 -0.0053069894 -0.010316388 0.010604423 -0.020362144
0.017259303 0.008323122 -0.012245349 0.018384509 -0.005402278 0.03530911 -0.02775909 -0.009173892
00000000: 96a5 5bbd 822b 69bd 2abd 8fbd 57f0 b0bd
00000010: 5dc7 96bd ec63 3ebe ac99 683d 4f77 ae3b
00000020: d452 26be 4ac1 1fbe cab7 09be 4e78 59bc
00000030: 3d62 22be 79e4 72bc 2770 aa3d d852 a0bd
00000040: ba3e b83c 4058 e2bd e95e 95bd 6ffe aebd
00000050: aa9b 90bd 05c1 14be 9a8b b43c 03d1 f2bd
00000060: d617 f3bd 3dd3 b1bd df5f 663e 65c2 933c
00000070: 0b08 033d 63e4 03be 3693 dfbd cea3 da3d
00000080: b085 103e d174 21be 5bb0 03bd 92fd 923d
00000090: 5a31 c13d 771b a93b 95ac 593c c59c 103d
000000a0: e5cd 823d 367e 8d3c e2c5 fc3b 87bb 1dbc
000000b0: c020 21bc 596f 5b3c fbb3 053d 9a2a 163d
000000c0: 51fe b33c 4d6e cfbc f00d f83c 5fea fb3c
000000d0: a9f1 18bc 995e 8a3c 4ff0 6c3c eddd 65bc
000000e0: cbd8 6e3b 5202 cbba 70e1 2abc f981 30bb
000000f0: 4545 703c c152 c53b 64fb b8bc f4ad 1c3c
00000100: e168 ab3c 928b 843b 5013 8a3c be7d a03c
00000110: 0e0d 293d e2fd dd3c 658d 223a d3dd a7bc
00000120: b3bd 49bc bb2d 35ba 9bc4 363b 0563 4b3b
00000130: 0d13 1d3d 38b4 c0bc aea3 36bb 428d c9bb
00000140: 13ec 6d3b 2602 f8bc f529 9b3c e205 303d
00000150: 7f74 6a3a 49de f23c 5182 2c3b 03ba a73c
00000160: 4d14 243c db69 103d e26e a13d f843 d83b
00000170: 9424 d93c 8e9a 19bd f9d4 51bd e947 123c
00000180: 10af 00bd 0807 d93b 28e9 6abd c953 043c
00000190: 22ce 053d 3be1 103d 7023 60bd 4412 a0be
000001a0: eef0 a33e 1802 38bd d870 a6be e968 eebe
000001b0: 6d50 873e 7079 aebd a6d8 5bbe 8b14 92be
000001c0: 5f17 a53d 13b4 2a3e 78a0 bdbd 09a1 71be
000001d0: 3aad 983e 134c ebbd d090 703e 4841 623e
000001e0: 16d8 84bc e67d ed3d 0b3a 51bd 2760 0c3e
000001f0: 99b1 bfbd 0604 803d a4a4 f73e fa84 13bc
00000200: 9469 94be 726d 013f 1d79 233e c5f1 d6bb
00000210: f169 31be bfcd 7dbe 1090 b7bd 6956 81be
00000220: cb93 74be 0963 1bbe 69b7 30bd 22b5 c4bd
00000230: 74e4 91be 310f 96bd c538 a7bd 3b89 ce3e
00000240: 4360 9e3d 13a7 743e 4df5 43be 70ec 333d
00000250: 01b1 ee3d 2212 bcbd 7ef6 1abe 64d6 5cbc
00000260: 9425 2c3f 297a 91be 1db9 573e 02fc 253e
00000270: 46bb 6b3e 1e02 62be 2df0 cfbe a117 7a3e
00000280: 8984 6ebd 7cee c6be bd19 723e bf85 4b3d
00000290: a31a d83d 3d94 3d3d 9b85 3b3d 400c fd3c
000002a0: 8437 8a3c 6e2c b83d 898e 7e3d cbcf 8d3d
000002b0: 6a98 913d 1b15 50bd fee0 9fbc 82c4 973c
000002c0: 3643 0d3d 05b2 553c f2c6 8c3d 0fe3 8c3d
000002d0: df9e 8f3b c3e1 413b ee0d 1fbb 3d8e 7fbd
000002e0: a6e7 ac3c 60da cdbb b5ca 1f3d 4481 5d3e
000002f0: 2162 b13c 92cf ef3d 7150 e3bc cb95 403d
00000300: 97a2 a63d 5f42 5abd eef5 fabb 6731 abbd
00000310: 71ca 293e 01b5 0e3d 498f e8bd b2b6 07b9
00000320: 561a 393e 5a7c 453e 7cde c4bb f61b 43bc
00000330: fb0c c63b 56e1 d23b 8d24 9fbb 9eb1 96bc
00000340: eaff 03bc e92a 12bc 22b5 6e3c 67c4 073b
00000350: fa89 c73a e316 fd3b 7223 403d 648d b4bd
00000360: 9709 803b 7caa eebc 440c b2b9 38c8 ff3c
00000370: 3afa c43b d7e5 aa3c 033f 063c c5d1 1f3c
00000380: 710d f6bc 9586 533c 23bd a13a 03c6 b9bc
00000390: e1e6 963c a74f 9fbb af54 8d3b de58 7a3c
000003a0: 14c2 93bc 83b1 0c3c 2471 923c 1a53 c13b
000003b0: 2219 153d 11a2 59bc f92b a9bc b6d6 9e3c
000003c0: e699 d93c d353 553c bdb9 be3c 7d39 163d
000003d0: 41e6 adbb 1106 29bc 2cbe 2d3c 83ce a6bc
000003e0: 6263 8d3c b45d 083c b7a0 48bc 1c9b 963c
000003f0: 9805 b1bb 49a0 103d 0867 e3bc 184e 16bc

embed_transform.0.bias f4 [64]
0.05231135 -0.041921813 -0.02753096 0.019283889 -0.060278926 0.03906575 -0.023323042 -0.0036416238
-0.019537034 -0.009229048 0.033178892 -0.012508075 0.013579395 0.029145963 0.05002764 -0.012485628
0.007303577 0.03870376 0.0012584645 -0.03699966 0.05604672 -0.014569988 -0.060112637 -0.050847214
0.0018611972 -0.0005472561 -0.038133994 0.0046639144 0.025661204 -0.0009185216 -0.036748514 -0.041754752
-0.010177583 -0.043896075 -0.018945757 0.040965673 -0.02656138 -0.04846232 0.013859607 -0.004079257
0.031296816 -0.058812406 -0.023507211 -0.030175544 -0.038688 0.05945386 -0.015671376 0.014566663
0.035574824 0.03778234 0.044971593 0.018949134 0.010231952 -0.018576033 -0.032301813 -0.02732831
-0.017921716 -0.032161113 0.008052002 -0.024600646 0.02946337 -0.0050342493 0.0098136645 -0.0065442077
00000000: 6d44 563d 35b6 2bbd 9c88 e1bc 3ff9 9d3c
00000010: 09e7 76bd 6803 203d f70f bfbc 4fa8 6ebb
00000020: 210c a0bc 6f35 17bc 97e6 073d abee 4cbc
00000030: 1c7c 5e3c 84c3 ee3c c8e9 4c3d 8590 4cbc
00000040: d852 ef3b d587 1e3d 10f3 a43a f58c 17bd
00000050: 3f91 653d f5b6 6ebc ab38 76bd 2b45 50bd
00000060: 6af3 f33a bc75 0fba 6432 1cbd c0d3 983b
00000070: 7237 d23c f1c8 70ba 9c85 16bd 0807 2bbd
00000080: e1bf 26bc 5fcc 33bd 2234 9bbc 9fcb 273d
00000090: 4097 d9bc 6d80 46bd 6813 633c 4aab 85bb
000000a0: 1731 003d 47e5 70bd 3292 c0bc b432 f7bc
000000b0: 4f77 1ebd e485 733d 4261 80bc 03a9 6e3c
000000c0: e8b6 113d a8c1 1a3d 2234 383d 373b 9b3c
000000d0: eba3 273c c42c 98bc e84e 04bd 9fdf dfbc
000000e0: 90d0 92bc 5fbb 03bd 8bec 033c 4b87 c9bc
000000f0: 2a5d f13c 58f6 a4bb 7ec9 203c cb70 d6bb

conv.0.lin_rel.weight f4 [64, 37]
-0.28982627 0.051739555 -0.12979677 -0.08076302 -0.22480156 0.20515518 0.24835703 0.0068860897
0.14155214 0.09324525 0.076820225 -0.11613615 -0.037149735 -0.018602476 -0.115437426 -0.09710222
0.039005473 0.052906904 0.11080712 -0.15379155 -0.0024532855 0.3093606 0.008739972 -0.14980318
-0.01942225 0.13957368 0.18738933 -0.03901112 -0.20504357 -0.07341123 0.14182332 -0.13447993
-0.039633688 -0.13980883 -0.07707337 0.056105338 0.018988658 0.1735003 0.05540937 -0.11733976
-0.16190197 0.12314412 0.2856127 -0.4188393 -0.03829313 -0.15581797 -0.041279577 0.022046994
-0.05028259 -0.081519485 -0.1857343 -0.08397255 -0.07599554 -0.25663215 -0.06250689 -0.020333743
-0.08435169 0.047367074 -0.058451258 -0.15509738 0.027307479 -0.031056808 -0.10665761 -0.072914645
0.04132708 0.038175836 0.021558244 0.13123846 0.1393851 0.0052600335 0.11815648 -0.009124795
-0.14944154 -0.031842664 0.1844961 0.12564386 0.12083317 0.22656439 -0.11082051 0.09961549
-0.07010022 0.041404475 0.36715913 -0.028278103 0.069851786 -0.1590857 -0.117683716 -0.2795868
0.11849697 -0.038231496 0.07528058 0.13236794 -0.02998063 0.055203326 -0.14859393 0.120213665
0.032171458 -0.016642055 -0.007526301 -0.027032627 0.017442074 0.16007018 -0.08599899 -0.09200863
-0.04233104 0.14662544 -0.14684264 0.04400384 0.051775537 0.08465799 -0.13049471 0.2635268
0.20921403 -0.082130186 -0.5568026 -0.19277196 0.28832364 0.27384323 0.058962278 -0.064096145
-0.06544889 0.03867455 -0.03847367 0.08802063 -0.056596383 -0.12078436 -0.043396816 -0.25942078
-0.11055883 -0.06263874 0.0779402 -0.2578873 -0.081689656 0.16158229 -0.08651959 -0.14909767
-0.26037684 -0.1091556 -0.12240075 0.3323554 0.07423501 -0.15129967 0.13985297 -0.16310588
0.028799446 -0.07685503 0.1052723 -0.08703931 -0.056147847 -0.14926954 -0.0954829 -0.20336904
0.019390315 -0.2296457 -0.16226281 -0.13189386 0.09750207 -0.29768717 0.09637149 0.1638188
-0.044083327 -0.16221403 -0.104242034 -0.048165902 0.2222488 -0.13249907 -0.072699256 -0.13245817
-0.047637552 -0.062765725 0.066029824 -0.019689566 -0.1141735 0.33217213 -0.20078105 0.14000314
-0.12124761 0.1153958 -0.02571811 -0.15972626 0.15527503 -0.02176508 0.06759887 -0.11728349
-0.1860131 -0.030267598 0.008131215 -0.32682392 -0.3224368 -0.49806926 -0.2634197 -0.29793647
-0.0075318986 -0.6586088 0.065596215 -0.082647696 -0.14730741 0.15571155 -0.3310053 0.040210415
-0.03222592 0.19938338 -0.011447242 -0.09791229 -0.044349086 0.008272293 -0.45181602 0.0454698
0.107959285 -0.041042227 -0.59319943 -0.0058175432 -0.046370655 -0.072002836 0.13320397 0.033527378
-0.11784891 -0.16326624 0.083508514 -0.15773968 0.13680579 -0.12662904 -0.5328151 0.35731113
-0.013348341 0.14701512 -0.0124064395 -0.25673798 -0.03817974 -0.053619582 -0.06058778 -0.01462245
0.11835293 -0.096287295 0.035299752 -0.06646811 0.04599238 -0.15099461 0.34843203 0.04766384
-0.11389656 0.09901375 0.18571925 -0.13897145 0.028499167 -0.13547704 -0.09997515 -0.093770295
-0.025594756 0.002583413 -0.01380477 0.035458006 0.06883463 0.103704974 -0.06727878 0.16339013
00000000: 1c64 94be dbec 533d 72e9 04be 1567 a5bd
00000010: 6132 66be 3314 523e 4e51 7e3e b5a4 e13b
00000020: 0bf3 103e 5ef7 be3d ec53 9d3d cad8 edbd
00000030: 522a 18bd 3864 98bc 756a ecbd 87dd c6bd
00000040: 34c4 1f3d e9b4 583d d8ee e23d 887b 1dbe
00000050: 4dc7 20bb 8364 9e3e 1932 0f3c 0166 19be
00000060: 691b 9fbc 67ec 0e3e fde2 3f3e 20ca 1fbd
00000070: f1f6 51be a158 96bd 223a 113e 1bb5 09be
00000080: ef56 22bd 0c2a 0fbe a5d8 9dbd b6ce 653d
00000090: 1a8e 9b3c 10aa 313e f0f4 623d d44f f0bd
000000a0: a1c9 25be fc32 fc3d d43b 923e 1b72 d6be
000000b0: 42d9 1cbd bf8e 1fbe c614 29bd e69b b43c
000000c0: 1ef5 4dbd b0f3 a6bd 2231 3ebe cdf9 abbd
000000d0: 8da3 9bbd 4a65 83be 9d03 80bd f392 a6bc
000000e0: 94c0 acbd fa03 423d 966a 6fbd d9d1 1ebe
000000f0: efb3 df3c d96a febc 4e6f dabd 4654 95bd
00000100: 9646 293d 445e 1c3d ea9a b03c 6063 063e
00000110: f8ba 0e3e 5c5c ac3b 06fc f13d 2a80 15bc
00000120: 3407 19be 746d 02bd 8cec 3c3e c9a8 003e
00000130: 6277 f73d 7f00 683e ddf5 e2bd 3503 cc3d
00000140: b490 8fbd bd97 293d 48fc bb3e 7ba7 e7bc
00000150: 740e 8f3d 5de7 22be 2904 f1bd 0026 8fbe
00000160: 8aae f23d a198 1cbd b42c 9a3d 768b 073e
00000170: f099 f5bc e21c 623d 0229 18be 9532 f63d
00000180: 38c6 033d eb54 88bc 309f f6bb 8773 ddbc
00000190: aee2 8e3c 70e9 233e 3d20 b0bd 056f bcbd
000001a0: 5063 2dbd fb24 163e eb5d 16be 5f3d 343d
000001b0: 9612 543d 2b61 ad3d 68a0 05be fcec 863e
000001c0: 343c 563e df33 a8bd 9d8a 0ebf 0366 45be
000001d0: 289f 933e 2e35 8c3e 6e82 713d d744 83bd
000001e0: 110a 86bd 3469 1e3d 9196 1dbd 2944 b43d
000001f0: 9cd1 67bd ca5d f7bd dcc0 31bd cdd2 84be
00000200: ab6c e2bd bd48 80bd 1d9f 9f3d ce09 84be
00000210: e84c a7bd d475 253e 2f31 b1bd 0fad 18be
00000220: 1d50 85be f98c dfbd 3fad fabd 7d2a aa3e
00000230: 8608 983d 4dee 1abe 9e35 0f3e 3a05 27be
00000240: d1ec eb3c 2c66 9dbd 0199 d73d aa41 b2bd
00000250: 49fb 65bd 1dda 18be 8a8c c3bd f93f 50be
00000260: 70d8 9e3c 3e28 6bbe 3928 26be 2f0f 07be
00000270: 2aaf c73d 746a 98be 6a5e c53d 1ec0 273e
00000280: b890 34bd 6f1b 26be d97c d5bd 9c49 45bd
00000290: 3095 633e d6ad 07be 59e3 94bd 1da3 07be
000002a0: 981f 43bd 518b 80bd a53a 873d 034c a1bc
000002b0: ccd3 e9bd 7712 aa3e 8c99 4dbe fc5c 0f3e
000002c0: ab50 f8bd a254 ec3d c9ae d2bc 488f 23be
000002d0: 6b00 1f3e ae4c b2bc 4771 8a3d 5432 f0bd
000002e0: 387a 3ebe c1f3 f7bc ca38 053c 7755 a7be
000002f0: 7016 a5be ef02 ffbe f2de 86be 218b 98be
00000300: 25ce f6bb 969a 28bf 4f57 863d 3243 a9bd
00000310: c1d7 16be d972 1f3e 8779 a9be adb3 243d
00000320: 54ff 03bd 282b 4c3e 378d 3bbc 3d86 c8bd
00000330: 63a7 35bd 8388 073c 6e54 e7be 8a3e 3a3d
00000340: c219 dd3d e51b 28bd ebdb 17bf 17a1 bebb
00000350: 28ef 3dbd 3976 93bd 9f66 083e 0154 093d
00000360: c55a f1bd 442f 27be 8306 ab3d 8386 21be
00000370: d116 0c3e 0bab 01be 9266 08bf 7cf1 b63e
00000380: 00b3 5abc 228b 163e 6144 4bbc 2973 83be
00000390: 5c62 1cbd 35a0 5bbd e42a 78bd 0093 6fbc
000003a0: 0563 f23d 4632 c5bd 7996 103d 6f20 88bd
000003b0: 8162 3c3d 559e 1abe af65 b23e 293b 433d
000003c0: 9a42 e9bd b9c7 ca3d 302d 3e3e 884e 0ebe
000003d0: 1677 e93c 7eba 0abe c5bf ccbd a40a c0bd
000003e0: 18ac d1bc 7a4e 293b 672d 62bc 6a3c 113d
000003f0: 2cf9 8c3d 4663 d43d 75c9 89bd be4f 273e

conv.0.lin_rel.bias f4 [64]
0.21653152 -0.047036882 -0.1573677 -0.04205845 0.17947483 0.27471018 -0.24244799 -0.19692947
0.037234735 -0.04431938 -0.12047339 0.080512024 -0.043800984 -0.0075521306 0.1713166 -0.19878368
0.2434267 -0.08544936 0.11039661 0.08266192 0.3243692 -0.01857856 -0.011512146 -0.018931568
-0.24580757 -0.05399692 -0.07074879 -0.19299597 0.086211935 0.017892735 -0.23188652 0.03740332
0.023356486 0.17321296 -0.20594698 -0.0035098165 0.19951114 0.13152564 0.12782513 0.21703404
-0.099184185 -0.13473967 0.057720143 -0.28016147 0.2326555 0.026289804 0.17963181 0.032403786
0.049873225 -0.19659068 -0.28108528 0.22090895 -0.03564078 -0.29171324 -0.08675169 -0.17352639
-0.26226988 0.14332628 0.06730914 0.2996043 0.03727901 0.2091598 -0.24766757 -0.2103211
00000000: 70ba 5d3e bfa9 40bd 0025 21be 7b45 2cbd
00000010: 40c8 373e d0a6 8c3e 4944 78be e1a7 49be
00000020: 7383 183d 3d88 35bd c1ba f6bd 7de3 a43d
00000030: a968 33bd dd77 f7bb 9e6d 2f3e f38d 4bbe
00000040: d944 793e 1300 afbd 9e17 e23d a74a a93d
00000050: b813 a63e 1032 98bc 719d 3cbc 6016 9bbc
00000060: fbb4 7bbe e02b 5dbd bee4 90bd bca0 45be
00000070: e28f b03d c993 923c a973 6dbe 3934 193d
00000080: 1a56 bf3c bd5e 313e c4e3 52be f304 66bb
00000090: a64c 4c3e a8ae 063e 97e4 023e 2c3e 5e3e
000000a0: 1421 cbbd 32f9 09be f56b 6c3d 5371 8fbe
000000b0: 3e3d 6e3e b75d d73c 67f1 373e d5b9 043d
000000c0: de47 4c3d 114f 49be 69ea 8fbe f535 623e
000000d0: 11fc 11bd 705b 95be dfaa b1bd e7b0 31be
000000e0: 3d48 86be 20c4 123e 60d9 893d bc65 993e
000000f0: e0b1 183d fd2d 563e 919c 7dbe 6a5e 57be

conv.0.lin_root.weight f4 [64, 37]
-0.27511972 0.1584463 0.030097684 0.11332272 -0.2177057 0.25739428 0.16882332 -0.24684906
0.59559065 -0.23181957 -0.048478846 -0.13393092 -0.2206163 -0.22881217 0.18557715 -0.17411181
0.597087 -0.23085146 0.7000717 0.009355031 -0.24763122 -0.06573568 0.5758797 -0.087182984
0.09073892 0.8236695 -0.08396749 -0.15793605 -0.285597 -0.23226851 -0.23237541 -0.22465563
-0.221868 -0.22465073 -0.22075024 0.23261888 0.1182074 -0.16338906 0.14892498 0.126759
0.09950181 -0.66550666 -0.0016813464 -0.0060894866 0.03133874 -0.057241425 -0.4789952 0.029431378
-0.14416628 0.037261687 0.14242604 -0.055146355 0.029506082 -0.27417573 0.022655685 -0.07064987
-0.023924904 0.31953058 0.43555045 -0.16288158 -0.008162481 0.051873546 0.04249052 -0.27875376
-0.05873208 0.22876742 0.00785846 0.012473555 -0.058996808 0.031857483 -0.022505645 0.02607289
-0.0036710564 0.10840054 0.013966226 -0.2296901 -0.2177532 -0.1619351 -0.08822793 -0.33891198
0.07550051 -0.029155815 0.2611143 -0.047211476 -0.12103002 0.016236586 0.030817673 0.20476043
-0.14326152 -0.15183984 -0.086054355 -0.029528037 0.6411601 0.1542737 -0.33017918 -0.5354714
-0.047343828 0.0026707412 -0.062326644 -0.17579684 0.4974997 -0.0671 0.0058154585 -0.13750827
-0.14547776 -0.024283191 0.0065527335 -0.13450547 -0.038441 -0.12902942 0.038431764 -0.17094004
-0.005649615 -0.14358884 0.33871222 0.0284242 0.16737008 0.07949265 0.405843 -0.011088876
-0.0008188389 0.013967871 -0.05516754 -0.15069523 0.021119662 0.020742135 0.01143137 0.27295336
0.0023555655 0.00027194025 0.053518612 0.068926804 0.09119176 0.4062149 0.014138396 -0.15419763
0.50535434 -0.26253146 0.01676356 0.3751338 0.0024938113 -0.09878034 0.2829183 0.45773122
-0.11547951 -0.12599416 0.27584946 0.13697302 -0.014345459 0.20832041 0.051642746 -0.41030654
0.08090112 -0.124227524 -0.109317824 -0.18832728 0.65316975 0.7173198 0.5566922 0.22506355
-0.21188524 -0.03243652 -0.030418865 0.16251707 0.23392555 0.32147965 0.15521973 -0.16329096
0.11675141 -0.10149621 -0.18724717 0.5234515 -0.11098669 0.07321358 -0.17226866 -0.19160257
-0.20456962 -0.20514259 -0.19778064 0.07946024 -0.20274068 -0.18909 -0.2136366 -0.1519564
0.14207844 -0.39452285 0.36632305 0.36675873 -0.30652127 -0.241949 -0.20973092 0.08182778
-0.21627134 -0.28069252 -0.08895183 -0.30192825 -0.27789977 -0.07186103 0.03151564 -0.16640148
-0.07519561 -0.11364909 -0.10315938 0.025259754 -0.024349472 0.16514534 0.71671224 -0.27832568
-0.28014794 -0.094520174 -0.11413214 -0.1169902 -0.29850864 -0.22013634 -0.113021724 -0.0328067
-0.0033039902 -0.30505157 -0.044279758 0.018429749 -0.17015572 0.4330638 -0.013114858 -0.21875617
-0.109716974 0.23335665 0.23675233 -0.30448472 -0.03962293 -0.1457409 -0.11490166 0.005645433
-0.047619257 0.083439134 0.030586421 0.42634755 -0.005641624 0.037357077 -0.114327855 -0.110352874
0.122661225 -0.10678811 0.00422356 -0.15645872 -0.06224461 -0.021430347 0.09931652 0.33819264
0.05662033 -0.03971974 0.07603135 0.042221706 0.05268327 0.023792638 -0.01072898 0.13225321
00000000: 7edc 8cbe bf3f 223e 6b8f f63c be15 e83d
00000010: 3eee 5ebe 2fc9 833e 05e0 2c3e 00c6 7cbe
00000020: a178 183f 1c62 6dbe c191 46bd 3025 09be
00000030: 3de9 61be bd4d 6abe f007 3e3e 5e4a 32be
00000040: b2da 183f 5364 6cbe e637 333f d845 193c
00000050: 0a93 7dbe 6ea0 86bd da6c 133f fe8c b2bd
00000060: 54d5 b93d 01dc 523f 26f7 abbd fdb9 21be
00000070: c539 92be ccd7 6dbe d2f3 6dbe 200c 66be
00000080: 5d31 63be d70a 66be 5a0c 62be a533 6e3e
00000090: b916 f23d 764f 27be ca7f 183e 1ccd 013e
000000a0: 9bc7 cb3d a55e 2abf a060 dcba 518a c7bb
000000b0: 0d5d 003d fc75 6abd dc3e f5be 131a f13c
000000c0: 53a0 13be b69f 183d 22d8 113e 25e1 61bd
000000d0: bdb6 f13c c360 8cbe 6a98 b93c e1b0 90bd
000000e0: 29fe c3bc 8399 a33e 7800 df3e 6eca 26be
000000f0: edbb 05bc 5b79 543d 8a0a 2e3d d0b8 8ebe
00000100: 0d91 70bd 0242 6a3e c5c0 003c e25d 4c3c
00000110: a3a6 71bd fe7c 023d c25d b8bc d096 d53c
00000120: 1b96 70bb 1a01 de3d 99d2 643c e233 6bbe
00000130: b2fa 5ebe 51d2 25be d8b0 b4bd df85 adbe
00000140: 03a0 9a3d 2dd8 eebc c6b0 853e d260 41bd
00000150: 96de f7bd 9702 853c 5875 fc3c b8ac 513e
00000160: 26b3 12be e77b 1bbe 443d b0bd c8e4 f1bc
00000170: 1123 243f edf9 1d3e 3f0d a9be a714 09bf
00000180: 9aeb 41bd 9a07 2f3b 394a 7fbd 1604 34be
00000190: 48b8 fe3e ba6b 89bd 9a8f be3b f8ce 0cbe
000001a0: 1ff8 14be 8bed c6bc 50b8 d63b cdbb 09be
000001b0: 4f74 1dbd 4a20 04be a06a 1d3d e80a 2fbe
000001c0: 6820 b9bb f408 13be b06b ad3e ded9 e83c
000001d0: 1063 2b3e 0bcd a23d a7ca cf3e 1eae 35bc
000001e0: 59a7 56ba 7fd9 643c 5cf7 61bd da4f 1abe
000001f0: 2403 ad3c 69eb a93c a44a 3b3c 8bc0 8b3e
00000200: d55f 1a3b 3493 8e39 5536 5b3d 7f29 8d3d
00000210: bfc2 ba3d 66fb cf3e bba4 673c fce5 1dbe
00000220: e75e 013f 866a 86be bc53 893c 8a11 c03e
00000230: 366f 233b 594d cabd abda 903e bf5b ea3e
00000240: 8580 ecbd 9d04 01be 243c 8d3e a842 0c3e
00000250: 3709 6bbc f251 553e 5887 533d b313 d2be
00000260: 7daf a53d 006b febd 06e2 dfbd ded8 40be
00000270: 2236 273f 45a2 373f 6183 0e3f 0f77 663e
00000280: 72f8 58be 28dc 04bd fc30 f9bc e06a 263e
00000290: 2e8a 6f3e fb98 a43e ecf1 1e3e bf35 27be
000002a0: 5d1b ef3d 3fdd cfbd b9bd 3fbe eb00 063f
000002b0: fd4c e3bd 00f1 953d 3267 30be 7733 44be
000002c0: b37a 51be e610 52be 0287 4abe 0dbc a23d
000002d0: 419b 4fbe cfa0 41be 8ec3 5abe 759a 1bbe
000002e0: 037d 113e e6fe c9be b28e bb3e cdc7 bb3e
000002f0: 5bf0 9cbe 7bc1 77be b4c3 56be 5395 a73d
00000300: 3c76 5dbe eeb6 8fbe 612c b6bd 5796 9abe
00000310: e148 8ebe e02b 93bd 8b16 013d 2665 2abe
00000320: 2800 9abd dbc0 e8bd 3a45 d3bd 8bed ce3c
00000330: 8b78 c7bc dc1b 293e 747a 373f b480 8ebe
00000340: 8d6f 8fbe cb93 c1bd 1dbe e9bd 8f98 efbd
00000350: 20d6 98be 6c6b 61be ef77 e7bd 5160 06bd
00000360: c287 58bb b82f 9cbe b15e 35bd fcf9 963c
00000370: 4d3d 2ebe 8aba dd3e b4df 56bc 9e01 60be
00000380: 4bb3 e0bd 0cf5 6e3e 346f 723e 6ce5 9bbe
00000390: a74b 22bd 1a3d 15be 9051 ebbd 53fd b83b
000003a0: 690c 43bd 23e2 aa3d 6090 fa3c 3a4a da3e
000003b0: 5fdd b8bb bc03 193d b924 eabd b000 e2bd
000003c0: cf35 fb3d bab3 dabd ca65 8a3b b736 20be
000003d0: 34f4 7ebd b28e afbc 7666 cb3d 9627 ad3e
000003e0: b8ea 673d 2bb1 22bd 53b6 9b3d abf0 2c3d
000003f0: 6aca 573d c7e8 c23c 9bc8 2fbc 636d 073e

conv.1.lin_rel.weight f4 [64, 64]
-0.28056583 0.13480932 -0.054510638 0.2093599 -3.9613828e-05 -0.43587735 -0.3612436 0.028881883
-0.15534897 -0.017733566 0.06829931 -0.23540731 0.008615292 0.41598424 -0.6614645 0.0020562855
0.13889849 0.084718935 -0.50890636 0.4014277 0.18901588 -0.073202655 0.26116848 -0.88410807
-0.056166835 0.009006703 -0.08907007 -0.08430581 -0.015333806 -0.055786166 -0.12299095 0.0065793884
-0.32826442 -0.34385672 -0.061710123 -0.06446119 -0.33104923 -0.010397033 -0.03587983 -0.25853774
0.002146067 0.28294593 0.024792572 0.03946391 -0.15367438 0.026032604 0.35229948 0.14095259
0.57220006 0.0008224478 -0.25966865 -0.2005606 -0.15334176 0.17835099 -0.37898937 0.035271846
0.7430644 -0.40070507 -0.112199455 -0.7522685 -0.042741526 0.21208833 -0.19089755 -0.20079239
-0.002111035 -0.06206355 0.024857633 -0.6639146 0.13554116 -0.51739484 0.604293 -0.15205191
-0.08747189 0.0075789206 0.13879009 0.16436423 -0.0059110094 -0.11532992 -0.15854928 -0.087191194
0.023866413 -0.0036564183 0.072807424 0.15443355 0.016212497 -0.018106876 -0.4892596 0.011172063
0.0060270964 0.044084355 -0.11091767 0.13294315 0.2605981 -0.4526422 -0.090027496 0.11138271
0.11421039 0.39343286 0.0392043 0.33041322 0.24732804 -0.1327874 0.13205488 0.14788076
-0.087849155 0.123463064 0.1272214 -0.1723428 -0.19709529 0.08697702 -0.3127814 -0.09092039
-0.14901027 -0.14787191 -0.18427342 -0.029245205 0.06282608 0.122787274 0.039509077 0.09407635
-0.32359505 -0.29552796 -0.10057752 0.39476302 -0.11469257 0.018016325 -0.118201666 -0.01291312
0.121874034 -0.1933175 0.2125931 -0.22111951 -0.13604008 -0.15681759 -0.12525295 0.1728333
0.028710788 -0.05349309 0.009868148 -0.054103967 0.5183722 0.31232408 0.5084616 0.06203434
0.03219431 0.21826282 -0.08065318 -0.12369678 -0.12885092 0.0011378202 -0.27047372 -0.011259519
-0.057752136 0.304017 -0.14993997 0.1918775 0.09108836 -0.64855224 0.21642853 0.106527306
-0.061536297 0.33639735 0.2917239 -0.12763596 -0.16745982 -0.08414266 -0.004404817 0.13880134
0.102059536 -0.5018261 -0.26581177 -0.108631484 -0.10759758 0.039562386 0.19903348 0.016373614
0.0474239 -0.17801793 -0.14942847 -0.22518261 -0.074447796 -0.247473 -0.29566905 0.017566964
-0.2271882 -0.5900785 -0.009734199 0.14815895 -0.14551194 0.30527145 -0.05711669 -0.1812523
0.15944266 0.014187414 0.11046757 0.4017116 -0.19988735 -0.052592345 0.28836113 0.10227233
-0.28959534 -0.05387131 0.05934788 0.11822474 -0.14171249 -0.021296287 -0.14976326 0.15397474
-0.060771734 0.043588307 -0.03488082 0.3651985 -0.037913263 0.057766482 0.1631178 -0.5593292
0.3317857 0.10921097 -0.011587331 0.17191668 0.10784091 0.29088467 0.2063326 -0.037665177
-0.50045115 0.055226352 0.08275303 -0.12749934 -0.13501199 -0.03927613 0.34165442 0.30619547
-0.13840097 0.21670566 -0.5158534 0.11361944 -0.18521555 0.051248908 0.29361975 -0.11187637
0.22367536 0.07145055 0.02940886 0.16737263 0.20103572 0.62098587 -0.16682415 -0.07728674
0.040392157 -0.421915 0.05710616 0.021525923 -0.35077548 0.18031432 0.12600207 0.045049228
00000000: 53a6 8fbe 740b 0a3e 8c46 5fbd 7162 563e
00000010: 0627 26b8 512b dfbe ecf4 b8be b399 ec3c
00000020: cd13 1fbe fc45 91bc 82e0 8b3d 9d0e 71be
00000030: 2727 0d3c e3fb d43e bd55 29bf bfc2 063b
00000040: 683b 0e3e 1f81 ad3d b047 02bf ee87 cd3e
00000050: 618d 413e 46eb 95bd e0b7 853e e854 62bf
00000060: 320f 66bd da90 133c 5e6a b6bd 86a8 acbd
00000070: a53a 7bbc 0980 64bd aee2 fbbd e997 d73b
00000080: 4612 a8be fd0d b0be c1c3 7cbd 3a04 84bd
00000090: 497f a9be 5158 2abc bbf6 12bd 0f5f 84be
000000a0: 08a5 0c3b 4ade 903e cb19 cb3c e9a4 213d
000000b0: d15c 1dbe 5442 d53c 9960 b43e e055 103e
000000c0: b47b 123f 8a99 573a 4af3 84be c25f 4dbe
000000d0: 9f05 1dbe a4a1 363e e50a c2be 3679 103d
000000e0: 7839 3e3f 3729 cdbe d4c8 e5bd ab94 40bf
000000f0: bd11 2fbd af2d 593e a67a 43be 859c 4dbe
00000100: 4a59 0abb 5936 7ebd 3ca2 cb3c 4ff6 29bf
00000110: 4dcb 0a3e fd73 04bf f2b2 1a3f 7fb3 1bbe
00000120: 7624 b3bd 9858 f83b fd1e 0e3e 194f 283e
00000130: 24b1 c1bb 1832 ecbd be5a 22be 4c91 b2bd
00000140: 7f83 c33c 85a0 6fbb 0f1c 953d d423 1e3e
00000150: 12d0 843c df54 94bc 3c80 fabe 070b 373c
00000160: f37e c53b cc91 343d ce28 e3bd 4022 083e
00000170: 1d6d 853e b8c0 e7be 5660 b8bd 9e1c e43d
00000180: 23e7 e93d 0870 c93e b094 203d ec2b a93e
00000190: 9043 7d3e 6cf9 07be 6539 073e 0e6e 173e
000001a0: 42ea b3bd 34da fc3d 5446 023e a27a 30be
000001b0: 59d3 49be 0221 b23d e224 a0be 7834 babd
000001c0: 2696 18be bc6b 17be 2cb2 3cbe a493 efbc
000001d0: f6aa 803d e577 fb3d 45d4 213d 1aab c03d
000001e0: 40ae a5be 714f 97be 96fb cdbd 611e ca3e
000001f0: f0e3 eabd f996 933c b713 f2bd 8d91 53bc
00000200: 1899 f93d 06f5 45be 01b2 593e 276d 62be
00000210: 174e 0bbe ca94 20be 4f42 00be 36fb 303e
00000220: e332 eb3c 921b 5bbd 03ae 213c 1f9c 5dbd
00000230: 0ab4 043f f1e8 9f3e 8a2a 023f b817 7e3d
00000240: 2ede 033d 4a80 5f3e 7f2d a5bd bd54 fdbd
00000250: 7ff1 03be e922 953a 887b 8abe d879 38bc
00000260: 818d 6cbd 1ea8 9b3e dd89 19be 897b 443e
00000270: 898c ba3d 8507 26bf 719f 5d3e fd2a da3d
00000280: 7c0d 7cbd 463c ac3e d65c 953e 00b3 02be
00000290: 967a 2bbe fd52 acbd 4856 90bb f021 0e3e
000002a0: 9704 d13d ad77 00bf 7b18 88be 2f7a debd
000002b0: 1f5c dcbd 2b0c 223d 6fcf 4b3e f521 863c
000002c0: 903f 423d 554a 36be c703 19be 4596 66be
000002d0: 1678 98bd 9069 7dbe ef61 97be 98e8 8f3c
000002e0: 06a4 68be 620f 17bf 317c 1fbc fbb6 173e
000002f0: 1501 15be 8a4c 9c3e 31f3 69bd 349a 39be
00000300: f044 233e 5472 683c d23c e23d 25ad cd3e
00000310: 45af 4cbe 126b 57bd 12a4 933e 2874 d13d
00000320: d745 94be 2aa8 5cbd c316 733d d01f f23d
00000330: 141d 11be 8d75 aebc 8a5b 19be 8eab 1d3e
00000340: c8eb 78bd a789 323d 31df 0ebd 4cfb ba3e
00000350: f04a 1bbd 8c9c 6c3d 5a08 273e 3330 0fbf
00000360: d1df a93e 00aa df3d cad8 3dbc ed0a 303e
00000370: b2db dc3d d6ee 943e da48 533e cd46 1abd
00000380: 911d 00bf 0735 623d 6c7a a93d 308f 02be
00000390: 9540 0abe 02e0 20bd 54ed ae3e a7c5 9c3e
000003a0: fcb8 0dbe 17e8 5d3e f80e 04bf 4fb1 e83d
000003b0: 25a9 3dbe 60ea 513d 5455 963e 701f e5bd
000003c0: 270b 653e aa54 923d d9ea f03c bb63 2b3e
000003d0: 4fdc 4d3e eef8 1e3f f3d3 2abe 8348 9ebd
000003e0: 3f72 253d 3e05 d8be 26e8 693d 2257 b03c
000003f0: d898 b3be 51a4 383e b006 013e 8a85 383d

conv.1.lin_rel.bias f4 [64]
0.058776613 -0.107190706 -0.15782408 -0.3029793 -0.14024821 -0.03675072 -0.17893589 0.050465934
0.11041141 -0.102203 -0.09472329 0.111462206 -0.09821216 -0.11326516 -0.08700363 0.17549409
0.0454748 0.029714191 -0.17178032 0.122587584 -0.08692457 -0.18428293 0.03423289 0.034567975
-0.083261505 -0.13237303 0.062037196 0.12919717 0.010849726 -0.015324008 0.0009469668 0.19416034
0.15744671 0.09713634 0.055665877 -0.020288909 0.1520337 0.13742809 -0.029979449 -0.025263138
0.16188069 0.13680185 -0.022594903 0.031681255 0.042790014 -0.016348341 0.055969555 0.058929767
-0.053087197 0.05073746 0.11445878 -0.14629705 0.13030481 0.11553003 0.056025308 0.069769286
0.011082683 -0.09796567 0.045381363 0.25100797 0.13044538 -0.09712938 -0.0007629302 0.12253161
00000000: bfbf 703d cd86 dbbd a39c 21be 1a20 9bbe
00000010: 3a9d 0fbe ec87 16bd f83a 37be 5eb5 4e3d
00000020: 611f e23d ce4f d1bd 49fe c1bd 4c46 e43d
00000030: 7523 c9bd 90f7 e7bd f62e b2bd b9b4 333e
00000040: c943 3a3d 2d6b f33c 2ee7 2fbe 330f fb3d
00000050: 8205 b2bd aab4 3cbe c937 0c3d 2697 0d3d
00000060: 0285 aabd cc8c 07be b71a 7e3d 434c 043e
00000070: 0dc3 313c 8c11 7bbc de3d 783a f8d1 463e
00000080: b639 213e 6bef c63d e701 643d ed34 a6bc
00000090: b9ae 1b3e f3b9 0c3e 7697 f5bc a4f4 cebc
000000a0: 0dc4 253e c915 0c3e f218 b9bc 34c4 013d
000000b0: 9544 2f3d f5ec 85bc 5540 653d 5760 713d
000000c0: f671 59bd 15d2 4f3d 5d69 ea3d e5ce 15be
000000d0: a06e 053e 029b ec3d cb7a 653d 33e3 8e3d
000000e0: 2494 353c 3aa2 c8bd cfe1 393d 1e84 803e
000000f0: 7993 053e c5eb c6bd 61ff 47ba daf1 fa3d

conv.1.lin_root.weight f4 [64, 64]
-0.043566573 0.011312424 0.15940657 -0.23869567 -0.07728338 -0.6601657 -0.899337 -0.062215585
-0.37722373 0.026467996 0.010920062 -0.5613093 -0.18664901 0.5711049 0.17487282 0.07681927
-0.2493343 0.3245337 0.11942111 -0.16828701 0.008722574 0.010229605 -0.4713947 0.1429616
0.117304295 -0.26024538 -0.38631627 -0.010647555 -0.3714573 0.02063036 0.15353787 0.057537824
0.0218676 0.8984072 0.14735556 0.2189453 0.026106054 0.08045498 -0.03175927 -0.20483775
-0.0914526 0.51095235 0.05751094 -0.05629752 -0.005301924 -0.10022132 -0.088270746 0.000912092
-0.31243163 0.0034042033 0.24858946 0.5556818 0.12463126 0.53736645 -0.027169323 0.011338683
0.33842233 -0.054104973 -0.43126628 -0.23584075 0.017307512 -0.3086481 0.05652143 0.1063347
0.10000803 0.03704378 0.04926832 0.13666879 -0.041750558 -0.0058471165 -0.041604232 0.0860964
0.07964526 -0.19390938 -0.07056618 0.09197005 0.1850981 0.6546139 0.33732024 -0.032761984
0.10111098 0.060073595 0.07862871 -0.09331344 -0.20541175 -0.1821142 -0.1667704 0.044096746
0.01356458 -0.10400911 -0.066884406 0.23558927 0.148193 -0.08332486 0.0887723 0.104234226
0.061333064 0.19397758 0.16113156 0.8025422 -0.2290899 -0.22905912 -0.041236356 -0.07924408
-0.012980273 -0.186445 0.34077796 0.1789661 -0.052211553 0.118938506 0.27895316 -0.2530784
0.06236792 0.007533129 -0.0135990335 0.22135556 -0.2108092 0.5870988 0.2973873 0.010452488
-0.33646062 -0.6933274 0.15314187 -0.068686426 0.032627217 0.061235093 0.08219056 0.029861586
0.1346712 0.13270386 0.042443458 0.02539955 0.16734384 -0.34443095 0.0076653115 0.06849473
0.12665652 -0.08445085 -0.22920045 -0.08419528 0.43147245 0.3198136 0.2582859 -0.00460061
-0.14254627 0.23560724 0.06593416 0.040312897 -0.56788397 -0.12792204 0.1649885 0.19319181
0.14916018 -0.0979392 -0.20372611 0.15625592 0.063844875 0.108613655 0.11097677 0.18456118
0.07987314 0.65350485 -0.002234029 -0.102609456 -0.410828 -0.44660148 0.3725877 0.14279711
0.06089908 -0.28302452 0.3882493 0.29184106 0.16992985 0.24342863 -0.8659685 -0.38157958
0.124713704 -0.1273516 0.14785124 0.44411036 0.13932672 0.8550559 0.14889863 -0.19708885
0.112538666 0.1944728 -0.20459628 -0.17180791 -0.002485779 -0.18985856 0.1883213 0.15080228
0.083983995 -0.44193426 -0.05463838 -0.16381212 0.053702306 -0.049630143 -0.21502466 0.08355833
-0.4266198 -0.12864368 -0.104766354 -0.15215048 -0.1335838 -0.18093362 0.16566522 0.037135422
-0.1481213 -0.25995207 -0.37912783 -0.06908518 -0.0959366 -0.08524238 -0.44514966 -0.46985644
-0.113434985 0.27663553 0.18829936 -0.34954554 -0.21772328 -0.07095349 0.09594852 -0.040630635
-0.07203873 0.2970848 -0.16258474 0.38269296 0.05403269 -0.0787037 -0.39984146 0.004191447
0.06749183 -0.20155579 0.50850374 -0.0125829205 -0.38105235 -0.067086704 -0.17426859 -0.08317457
-0.03319385 0.08937753 -0.06501144 -0.12650059 0.09182823 0.6482128 0.03550044 -0.052453443
-0.33716756 0.10154625 -0.031068759 0.05751982 -0.12676254 0.21703325 0.035678823 -0.054743327
00000000: dd72 32bd bf57 393c 7a3b 233e a36c 74be
00000010: c046 9ebd 9f00 29bf f33a 66bf c5d5 7ebd
00000020: 7823 c1be 69d3 d83c 0fea 323c f7b1 0fbf
00000030: eb20 3fbe ee33 123f dc11 333e 6c53 9d3d
00000040: 7e51 7fbe 4829 a63e 0e93 f43d 6e53 2cbe
00000050: 21e9 0e3c 139a 273c a55a f1be 8764 123e
00000060: 3c3d f03d e23e 85be 3fcb c5be 1573 2ebc
00000070: a72f bebe 0001 a93c 0839 1d3e c8ac 6b3d
00000080: ae23 b33c 04fe 653f 60e4 163e 3233 603e
00000090: 5ddc d53c 95c5 a43d 0216 02bd fdc0 51be
000000a0: 804b bbbd c6cd 023f 9790 6b3d 3a98 66bd
000000b0: c3bb adbb d640 cdbd 4bc7 b4bd 7519 6f3a
000000c0: 0af7 9fbe 0e19 5f3b 3c8e 7e3e 2a41 0e3f
000000d0: ad3e ff3d d990 093f 3392 debc e2c5 393c
000000e0: b145 ad3e 2d9d 5dbd efce dcbe 3d80 71be
000000f0: 7cc8 8d3c 2007 9ebe 0483 673d 02c6 d93d
00000100: 03d1 cc3d 38bb 173d 94cd 493d e7f2 0b3e
00000110: a202 2bbd 2b99 bfbb 3369 2abd 4f53 b03d
00000120: 0e1d a33d 2e90 46be 0085 90bd cb5a bc3d
00000130: 5b8a 3d3e c794 273f 3db5 ac3e 6e31 06bd
00000140: 4613 cf3d bb0f 763d 1708 a13d 1e1b bfbd
00000150: 7557 52be 257c 3abe dcc5 2abe ca9e 343d
00000160: f93d 5e3c ba02 d5bd b1fa 88bd 503e 713e
00000170: e8bf 173e 39a6 aabd 40ce b53d c178 d53d
00000180: 6138 7b3d 0fa2 463e acff 243e 6873 4d3f
00000190: 8b96 6abe 798e 6abe 74e7 28bd b84a a2bd
000001a0: 36ab 54bc 70eb 3ebe 737a ae3e e442 373e
000001b0: c8db 55bd 0896 f33d f3d2 8e3e 7e93 81be
000001c0: 8175 7f3d 77d8 f63b 7bce 5ebc 08ab 623e
000001d0: 5ede 57be 1b4c 163f 2643 983e ea40 2b3c
000001e0: 9144 acbe e87d 31bf 39d1 1c3e 78ab 8cbd
000001f0: 1ea4 053d a6d1 7a3d 8653 a83d 49a0 f43c
00000200: 3fe7 093e 85e3 073e 31d9 2d3d b812 d03c
00000210: 2f5c 2b3e 4159 b0be 4b2d fb3b f746 8c3d
00000220: 3fb2 013e 91f4 acbd 86b3 6abe 936e acbd
00000230: f5e9 dc3e 9cbe a33e 0d3e 843e b7c0 96bb
00000240: a6f7 11be 0643 713e 7d08 873d 231f 253d
00000250: d860 11bf fffd 02be bff2 283e 13d4 453e
00000260: 72bd 183e 5994 c8bd 949d 50be 8d01 203e
00000270: 1ac1 823d d670 de3d ca47 e33d 9bfd 3c3e
00000280: 8794 a33d 184c 273f c968 12bb e824 d2bd
00000290: 0c58 d2be f3a8 e4be d1c3 be3e 6839 123e
000002a0: 5071 793d 97e8 90be 9dc8 c63e 316c 953e
000002b0: 1702 2e3e 5b45 793e 1db0 5dbf 665e c3be
000002c0: e669 ff3d 7568 02be 5166 173e 6f62 e33e
000002d0: aaab 0e3e f2e4 5a3f e278 183e a9d1 49be
000002e0: ac7a e63d e123 473e b081 51be 6aee 2fbe
000002f0: 74e8 22bb 486a 42be 4dd7 403e ea6b 1a3e
00000300: cdff ab3d 3545 e2be 7ecc 5fbd 5dbe 27be
00000310: f3f6 5b3d fa48 4bbd 6d2f 5cbe a120 ab3d
00000320: e96d dabe 2bbb 03be be8f d6bd 56cd 1bbe
00000330: 31ca 08be aa46 39be 25a4 293e 501b 183d
00000340: 1cad 17be 7018 85be 0b1d c2be 887c 8dbd
00000350: 687a c4bd 8f93 aebd a8ea e3be 0691 f0be
00000360: 9a50 e8bd 2ca3 8d3e 8cd1 403e a2f7 b2be
00000370: daf2 5ebe 1050 91bd a880 c43d 4f6c 26bd
00000380: 0b89 93bd 801b 983e 9d7c 26be 55f0 c33e
00000390: 6251 5d3d 682f a1bd 05b8 ccbe 6858 893b
000003a0: 2839 8a3d a464 4ebe 4d2d 023f 9828 4ebc
000003b0: 4b19 c3be c164 89bd 7773 32be 6e57 aabd
000003c0: 46f6 07bd 910b b73d b824 85bd 5f89 01be
000003d0: 7010 bc3d 46f1 253f e968 113d 6cd9 56bd
000003e0: 3aa1 acbe 7bf7 cf3d e983 febc e799 6b3d
000003f0: 0ace 01be f73d 5e3e f523 123d 8a3a 60bd
